Stage2_pickedmodel/Stage2_LSTMAgegen_BDMDD/model_epoch_187.pth (torch, 86647 bytes, 14 tensors)

module.LSTM_layer.weight_ih_l0 f4 [64, 256]
00000000: 529c a6bd 462f 44be b05b 723e 1af5 80bd
00000010: 004e 18be 85b2 19be 8c6a 573d 51ae 793e
00000020: e5e9 d5bd 4afc c93c 0711 213e e6b0 cd3d
00000030: 450b 553e 844a 55be 7b6a 93bd d44c 2e3e
00000040: 4dd4 19bd 3d6c a43d fffb 10be 009b 423e
00000050: a33c 1d3e 2869 29be 11d3 44be 9d8e b4ba
00000060: 1119 cdbc b0b6 e1bd 5ad0 c83d 011c bfbd
00000070: 5701 9bbc ae7a 7f3e e06b 543e 137a 62bd
00000080: 0840 55bd 9aef 3d3e 9274 08be 0205 4b3e
00000090: ccfe 7e3e 5487 12be f5e2 1c3e 4373 b8bd
000000a0: 1fa4 25be be15 67bd 200d 6e3e d201 c03c
000000b0: 7ae1 acbd 268f 073e 40e2 31bd 2455 6fbd
000000c0: 4599 3bbe 09b7 ebbd 6390 63be bacb 5ebb
000000d0: 300f 173e 7e50 a0bc 04bf 65be b4e9 dcbb
000000e0: ebc9 343e 20aa a23d c687 64be 3ce5 54be
000000f0: 8b19 e1bd 08f4 5abe fc5f 313e 871e 593c
00000100: d1d0 87bb 182a 31bd d0ad 813d 7bdb 173e
00000110: 72e5 d5bd 115c b53c 1f02 30be 0a59 1f3e
00000120: caab 443c 501f 663e 1b24 783e 7fd3 313e
00000130: b9ae 403d c3cb 923c 18dd 263e 3680 cebc
00000140: 18bd 173d 2bba 31be 4ed0 763e 055d b23d
00000150: f09d 3ebc 01a3 0f3e 58a8 6e3e 43fd 8a3d
00000160: e8b9 ef3c 203f 32bd bc7a a1bc 7004 a6bd
00000170: 87f2 9e3b a4eb 1f3e 2a18 6abe a85c f5bd
00000180: 4971 11bd 0b42 39be 09ec 753e e3a8 5abd
00000190: 4d63 00bd 850f 3abe 410e 0f3e 2dc3 babd
000001a0: a03e 723e a58a 35be 0ee6 933b 0793 45be
000001b0: b6d4 41bd 2623 f73d 9546 1cbe 46b4 613e
000001c0: 7229 803d ef78 063e 6e11 603e 37cf 1fbe
000001d0: 5211 533a 176f 4a3d 95c8 88be ed20 8cbd
000001e0: 771e 913d 7225 993c 0caa 843e b6fc 0a3e
000001f0: 5e5a 67be ef8f 2ebe 501c b53c 969e 78be
00000200: 4f21 e73d 2465 9cbd ff9c 75bd 10a8 03be
00000210: 5677 783d b66f 4cbe 31f7 c03d 4ef5 3b3d
00000220: 2e34 11bc e867 39be e7a1 4bbe 61f2 0dbe
00000230: 8d42 083e c571 22bd a502 6c3e 48da 493a
00000240: d031 e43d 8f6e f83d ad26 b3bd 5ff4 c63d
00000250: 6459 303e b9fb 21bc 7dea 5dbd d48f 703e
00000260: 6092 35be c04b 7f3e 263a 153e 4062 2b3e
00000270: eb95 95bd 10f9 32be 6c69 ad3d 6b75 59be
00000280: 5a72 1b3c 1ccc 593e 586b 863d 2273 28be
00000290: e786 2fbe 4329 1c3e 0bc8 8b3c 8bb4 0bbe
000002a0: 935f bd3d 6cb4 763e 9072 aebd bb58 d33d
000002b0: 24cd 2fbe 4de7 5cbd 7c84 7bbd c415 4bbd
000002c0: 2657 663e b270 2d3e d05c 50be e387 d6bd
000002d0: 76db 36be 22ba 443e a726 1fbe fa47 a0bd
000002e0: 6262 a3bd ffd3 923b 30e9 963c 2c47 783e
000002f0: 4855 91bc 167a 073e f0f4 003e f276 8a3d
00000300: 514d bc3d 77ef c43d e925 283e fee5 3b3d
00000310: 5d2e 2fbe dcac c23d 272f 5f3e 30c5 0c3e
00000320: cc47 0fbd f534 f4bd bf3f 363e 453d e1bd
00000330: ce52 783e 6cbb 85bd 3c36 1fbe fdd7 6f3e
00000340: b78b 303d 9b18 5f3e fad4 eebc 2266 723e
00000350: 05c8 7cbe 52d4 8c3d 6146 dcbc 769c 893d
00000360: 7933 67be ad71 6dbe 8b80 9e3c 5000 713d
00000370: d2a9 38be 6f4b debb afe0 513e ca60 5fbd
00000380: 4936 43bd e094 163e 8eef 703c 0a9f 27be
00000390: e4a9 483d 448f 233b 4e98 07be 0492 47bc
000003a0: bf25 c93d afe0 50be 288f 54be 2902 783e
000003b0: 6508 10be 70e2 74bd 34e8 6b3e 178d 82be
000003c0: 6e36 84bd 1760 bf3c 1ce8 65be c068 4c3e
000003d0: 9c5d 1f3e b994 1e3e eeff b83d c8c7 983d
000003e0: cabb 303e 69a8 43be 4451 6fbe 2683 e2bc
000003f0: 826b 9d3d 94c4 47be dcd6 813e b8b7 e1bd
-0.081352845 -0.19158658 0.23667789 -0.062967494 -0.14873505 -0.15009506 0.052591845 0.24382903
-0.104450025 0.024656434 0.15729152 0.10043506 0.2080508 -0.20829207 -0.07198044 0.17021495
-0.03755598 0.08028457 -0.14158629 0.1900444 0.15355162 -0.1654402 -0.1922114 -0.0013775412
-0.025036367 -0.11021173 0.09805365 -0.09331513 -0.018921537 0.24949142 0.20744276 -0.0552922
-0.052063018 0.18548432 -0.13325718 0.19826129 0.24901885 -0.14309436 0.15320952 -0.090063594
-0.16175888 -0.05641722 0.23247194 0.023438368 -0.08441444 0.132382 -0.04342866 -0.058430806
-0.18320186 -0.115095206 -0.22223048 -0.0033995942 0.14751887 -0.019569632 -0.22436148 -0.006741727
0.1765515 0.07942605 -0.22317418 -0.20790571 -0.109912 -0.21382153 0.17321771 0.013251907
-0.004144766 -0.043253034 0.0633198 0.14829819 -0.10444154 0.022138627 -0.17188309 0.1556131
0.012003848 0.22472882 0.24232523 0.17365836 0.04704163 0.017919427 0.16295278 -0.02520762
0.03704557 -0.17356174 0.241029 0.08709148 -0.011634335 0.14027025 0.23306406 0.06786587
0.029263452 -0.043517232 -0.019711845 -0.08106315 0.004850689 0.15617234 -0.2286078 -0.119805634
-0.035508428 -0.180916 0.24015822 -0.05338372 -0.0313447 -0.18169983 0.13970281 -0.09119258
0.23656702 -0.1772867 0.0045135086 -0.19294368 -0.047321998 0.12067251 -0.152613 0.22041425
0.06257905 0.1313207 0.21881649 -0.1560639 0.0008051592 0.04942235 -0.26715532 -0.068422176
0.07085889 0.018694613 0.25910985 0.13572964 -0.22593066 -0.17047094 0.022108227 -0.24279246
0.1128565 -0.076364785 -0.059964176 -0.1285708 0.060660683 -0.1996449 0.09422148 0.045888238
-0.008862538 -0.18106043 -0.1988598 -0.13861991 0.13306637 -0.03965928 0.23047884 0.0007700068
0.111423135 0.121304624 -0.08747611 0.09714579 0.172216 -0.0098866755 -0.054178704 0.23492366
-0.17731619 0.2493124 0.14572963 0.16736698 -0.07303985 -0.17477822 0.08467373 -0.21236198
0.009487713 0.21269268 0.06563443 -0.1645017 -0.17141305 0.15250115 0.017063161 -0.1364309
0.09246745 0.24092263 -0.08517945 0.10319658 -0.17168099 -0.053931523 -0.061405644 -0.049581304
0.22494182 0.16937521 -0.20347905 -0.10475137 -0.17857155 0.19211629 -0.15542088 -0.078262284
-0.079777494 0.0044808383 0.01842174 0.242459 -0.01774086 0.13230166 0.12593436 0.06760968
0.091944344 0.09615987 0.16420712 0.045873635 -0.1710753 0.095056266 0.21795331 0.13747096
-0.03498058 -0.11924163 0.17797755 -0.10998014 0.24250337 -0.065298885 -0.15548033 0.23422237
0.043101992 0.2178673 -0.02915429 0.23671773 -0.24685676 0.068764344 -0.026889028 0.06719296
-0.22578229 -0.23187895 0.019348403 0.05883819 -0.18033531 -0.0067838947 0.20495866 -0.054535665
-0.047659192 0.14705229 0.014705552 -0.16369262 0.048990145 0.002495722 -0.13241693 -0.012180809
0.098216526 -0.2039821 -0.20757735 0.24219574 -0.14065702 -0.05978626 0.23037797 -0.25498268
-0.06455694 0.023361249 -0.22451824 0.19961834 0.15563053 0.1548642 0.0903319 0.0745998
0.17259136 -0.19107212 -0.23370844 -0.027650427 0.07686521 -0.19508582 0.25359237 -0.1102137

module.LSTM_layer.weight_hh_l0 f4 [64, 16]
00000000: fd4e 993c 202f 3d3e 07c4 373c 5f7a c5bd
00000010: 6a3b ab3c 1042 1a3d f8dc c13d dc5a 543e
00000020: ba16 3cbd 1df4 283e fc49 ba3b 0df8 babd
00000030: 84ba 92bc f4bd 64bd c2ed 32bd 9aad b2bd
00000040: 97c7 073e 29a1 c5bd 9fc4 9dbd e324 49be
00000050: 227d 75bc 5bf5 75bb 2650 27be 08f2 28be
00000060: 7044 0fbd 438c 6cbd cfc5 3dbd f806 d93c
00000070: b69e 0d3d 1227 d83c 5a7e 67bd 163b 5d3e
00000080: 2847 13bd 5f9e 3bbb 2d97 7d3e 1547 8e3d
00000090: eb18 493e 7f5b 03be 54eb 55be e29f debd
000000a0: 71ad f23d 3185 50be c267 383e 90f0 27be
000000b0: 8d22 a3bd 2b56 003d cb49 6e3c 58be 29bd
000000c0: 8965 60be 152f f8bd e733 18bc 56ad 56be
000000d0: c385 59be 1466 11be 4683 70be d57a 7d3e
000000e0: a286 0b3e 5dbc 33be 85b3 d93c 311e 453e
000000f0: db7a 7d3e 0973 ad3d e9cf 4fbe 5bc8 273e
00000100: 8aef a33c 0ce5 21be 3623 57be 9813 0f3d
00000110: 774f bc3d d3de b43d 82c6 b1bc 3027 3f3e
00000120: 8924 21bd 584e 7d3e f2b1 ca3a 6e27 fb3d
00000130: 2afd 81bd 189b 20be 24d5 e13d e49e 18bb
00000140: dd55 40be d7d8 96bd 2c79 23be 0b33 85be
00000150: df5a 673e ff4b 533e ee69 09be 07a9 703d
00000160: 659d a43d e67e 443e 03be 8bbd 3504 c3bd
00000170: 8338 d5bc 16b5 99bd a426 853d 4b96 66be
00000180: 851d 06be 9832 8e3d f477 c2bd 5629 143e
00000190: d370 e53b 17fb 1dbe 264a 33be 6339 513d
000001a0: 76a4 62bd 3b55 8abd 21fb 203e 8eac 1fbe
000001b0: 1987 73be c983 773e f737 c73d 0f3c 873e
000001c0: 07e9 6abe e0d2 9e3d 38ed 833e 7919 88be
000001d0: a322 49be c4b9 403e da9c 16bc e521 c23d
000001e0: 9aad 143c a30b a5bc 2a57 59bd f79f 65be
000001f0: 98cb 8dbc 56a9 6f3e 94c4 c63d 0a32 84bd
00000200: e0aa 4abe 4008 5dbe b051 22bd 02ec 0abd
00000210: 263c c83d 9eec 133e 22c8 0e3e e4fc 81be
00000220: 3eb8 fb3c d1d3 36be 5450 3abd ebff dc3d
00000230: 9ed2 74bd 7bc8 563e 2138 383e 918b 003e
00000240: 2e7a 06be 5a58 5d3e 42f8 833c 4d9a 6a3e
00000250: 22ca cabd b25d 7e3e 20ef 1d3d 6a1e 603e
00000260: 7dfa 05be 414e 6abe f741 a0bd d45d 593e
00000270: a3d4 4dbe 02c4 22bd d0f9 aa3c f8e4 18be
00000280: 15c5 53be b917 1fbe 35e3 803e d1cc 5abe
00000290: b699 c53d e0b3 1c3e 5f0e 513e c2c4 2c3d
000002a0: e6a6 c33d 0a65 01be d2a6 ad3d 030b 10be
000002b0: 811c 92ba 5032 32bd 98e2 303e 78ce eebd
000002c0: 0d25 623e 59b1 5abd c072 663e ec85 b2bc
000002d0: b474 62be c80c 66be 406a b9b9 d41a 2fbe
000002e0: 36a2 243c 402c 71be ecb8 f93d 2d85 33be
000002f0: 637e 70bd d244 353d 8843 49be 5a4b acbd
00000300: 76e4 393e 18ee 91bd 71bf a03d eea6 01be
00000310: a657 4e3e 89e6 58be ca2a 1f3e d143 37be
00000320: 3468 d8bd ec26 d53d 3e1f 8ebd 0798 2b3d
00000330: 17f6 703e d8ca a3bd 872a 333d 8dfe 74be
00000340: fe12 6d3d 6161 70be b68c 3d3d 2a7b 17be
00000350: 480a 60be 18fd 373d be99 c03d 175f 293e
00000360: c128 c83d 246c 16bd 2ad8 053e 3337 afbd
00000370: b795 0e3e 9460 453d fd04 083e 73ce 393e
00000380: 2920 f0bd 29eb afbb 7672 75be ae3d 113e
00000390: 9176 52be 0987 82be 2c96 d6bc 5005 60be
000003a0: b390 28be c1c1 0c3e 6f63 e93c 4b97 f6bd
000003b0: 59cc 143e 2297 8a3d a3ba 83be b025 fa3d
000003c0: fa1d 003e e2c6 e13d 39c9 0bbe 2c71 b43d
000003d0: 3aae 443e b3ad bbbd 3f38 1a3d 1106 7cbe
000003e0: 9e36 04be 5aff d8bd ec42 073e ba92 4bbd
000003f0: 2b98 2abe 6229 1abe 9b43 efbc 7167 52bd
0.018714422 0.18475008 0.01121617 -0.09642481 0.020902354 0.03766066 0.094659746 0.20737785
-0.04592011 0.16499372 0.005685089 -0.09129343 -0.017911203 -0.055845216 -0.043683775 -0.08724518
0.13259731 -0.096498795 -0.07703518 -0.19642977 -0.014983447 -0.0037530276 -0.16339168 -0.16498578
-0.034977376 -0.05775095 -0.046331223 0.02649258 0.034575187 0.026385818 -0.056516983 0.21604571
-0.03595653 -0.0028628332 0.247647 0.069471516 0.19638412 -0.12827872 -0.20890552 -0.10870339
0.118494876 -0.20363308 0.1800833 -0.16400361 -0.079655744 0.031332176 0.014543961 -0.04144129
-0.21913733 -0.12118355 -0.009289718 -0.2096456 -0.21242432 -0.14199096 -0.23487577 0.24753888
0.13625577 -0.17552324 0.02657486 0.19249798 0.24753897 0.08469207 -0.20294155 0.16385023
0.020011682 -0.1581003 -0.21009526 0.034930795 0.09194844 0.08831563 -0.021701101 0.18667293
-0.039341483 0.24736917 0.0015464409 0.1226338 -0.06347115 -0.15684164 0.110269815 -0.0023288066
-0.18782754 -0.07365578 -0.15964192 -0.26015505 0.22593258 0.20634459 -0.13419315 0.058754947
0.08037833 0.19189033 -0.06823351 -0.09522287 -0.026027923 -0.075052425 0.06501511 -0.2251827
-0.13097198 0.06943244 -0.094955355 0.14468893 0.007001975 -0.15427814 -0.17508754 0.05108012
-0.055332623 -0.06754538 0.15720798 -0.15593168 -0.23782004 0.24171366 0.09727471 0.2641301
-0.22940455 0.07755065 0.2576692 -0.26581934 -0.19642119 0.18820864 -0.00919267 0.09479121
0.009074593 -0.02014715 -0.05306164 -0.22424303 -0.017308995 0.2340444 0.09705463 -0.06454857
-0.19791746 -0.21585178 -0.039628685 -0.03391648 0.097770974 0.14445731 0.13943532 -0.25388253
0.030727502 -0.17854239 -0.045486763 0.10791 -0.059771173 0.20974915 0.17990161 0.1255324
-0.13132545 0.21615735 0.01610959 0.22910424 -0.09901835 0.2484043 0.038558125 0.21886602
-0.13083835 -0.22881414 -0.07825082 0.21227199 -0.20100646 -0.03973771 0.020871073 -0.14931095
-0.2068065 -0.15536393 0.25173345 -0.21367194 0.09648459 0.15302992 0.20415638 0.04217983
0.09553318 -0.126362 0.08479084 -0.140667 -0.0011147411 -0.043505013 0.17273939 -0.116604745
0.22084446 -0.05339179 0.22504711 -0.021792375 -0.22114831 -0.22465813 -0.00035365112 -0.17100078
0.01004844 -0.23552036 0.12193474 -0.17531271 -0.05871428 0.044255085 -0.19654667 -0.0841281
0.18153557 -0.07125491 0.078490146 -0.12661335 0.20150623 -0.21181692 0.15543666 -0.17896964
-0.1056675 0.104078144 -0.06939553 0.04189303 0.23531376 -0.07997674 0.04374173 -0.23925228
0.05787944 -0.23474647 0.04627677 -0.14793077 -0.21878922 0.044919103 0.09404324 0.1654018
0.09773398 -0.036724225 0.13070741 -0.0855545 0.13924299 0.048187807 0.13283153 0.1814516
-0.11724884 -0.0053686094 -0.23969445 0.14183685 -0.20553042 -0.2549365 -0.026194654 -0.21877027
-0.16461448 0.13745786 0.028489796 -0.120405756 0.14531077 0.067671075 -0.2572833 0.122142196
0.12511435 0.11024262 -0.13650979 0.08810648 0.19207087 -0.0916399 0.037651297 -0.24611689
-0.1291146 -0.105955794 0.13209122 -0.049700476 -0.1665961 -0.15054849 -0.029207041 -0.05136818

module.LSTM_layer.bias_ih_l0 f4 [64]
00000000: 9316 953c a7d8 943d 397d 513e 0119 2f3e
00000010: f7ad 723e da69 533e 4246 11bc 644f 0f3e
00000020: fd3d 0a3e c3cb 393e 972d 6dbc 552d 6a3e
00000030: 464d be3c d2ed 2e3e 8ab2 93bd 5edc d6bd
00000040: 4c83 32be c4c3 303e 82c4 773e 1eec 39bd
00000050: a674 f7bd 9dc0 f7bd a253 fa3d 07ee 473e
00000060: 9077 e63d 674c febd 214c b53d 43d1 8c3d
00000070: 55d1 14be 2617 d4bd 7e4a ea3c e7d7 e4bd
00000080: fed0 6cbe b703 e4bd ddb4 25be 852f 383e
00000090: 81c7 583d fcc6 46be ecb0 713e fb2f 23bd
000000a0: afb4 20be 1029 c33d e76d eb3d 5401 513e
000000b0: 3384 7bbe 0348 0ebe b924 73bd 2499 663e
000000c0: a5e2 e4bd 1484 52bd fcf5 653e c2ec 59be
000000d0: 58bb 523e 5ae6 043e 1ae1 2e3e 74db 1e3e
000000e0: ff56 373d b7c7 0e3e a8e3 85bc fbd3 f33d
000000f0: 497e 67be bb85 eebd 65d5 6d3e 0711 33bc
0.01819924 0.07267886 0.20457925 0.17099382 0.23699175 0.20645848 -0.008866848 0.13995129
0.13500209 0.18144135 -0.0144762015 0.22868855 0.023230206 0.17082909 -0.07211788 -0.104912505
-0.17432898 0.17262179 0.24196056 -0.045391195 -0.12082796 -0.12097285 0.12222983 0.19524394
0.112532735 -0.12416916 0.08852411 0.06875851 -0.14532979 -0.10355978 0.028599974 -0.111739926
-0.23126599 -0.11133521 -0.16182275 0.17986877 0.052924637 -0.19411844 0.23602647 -0.03984068
-0.15693925 0.095293164 0.114955716 0.20410663 -0.24562149 -0.13894658 -0.059361193 0.22519356
-0.111760415 -0.05139549 0.22457117 -0.21281722 0.20579278 0.12978497 0.17078057 0.15513402
0.0447607 0.13943373 -0.016343907 0.119056664 -0.22606768 -0.11646601 0.23225935 -0.010929353

module.LSTM_layer.bias_hh_l0 f4 [64]
00000000: 5690 2fbd 65fd 65bc ef2b ed3c a098 223e
00000010: c5bd 153e 67c2 db3b 95df 27be af35 4d3e
00000020: 7bfc 233e 8932 41be f5fc e7bc 33f7 fdba
00000030: 47fa a73d ffb7 51be c176 6c3e 0a2c 9d3d
00000040: 0457 aabd 13af 163e 5a15 f63d 4d46 c3bd
00000050: d1e0 793c 14d8 24be 4b42 2cbd ab2c 2cbe
00000060: 88ad 02be 3acf a0bd feab 2bbe 31da 343d
00000070: 80eb b8bd 0fe7 c3bd 4229 4b3d 679a 873b
00000080: 36d4 6cbe 6268 093e fef6 79bd be47 793e
00000090: 015f 96bc 187d 01be f26a 35bd c836 a53d
000000a0: fdec c9bd eaa9 5fbe 0020 f6bc 9042 9ebc
000000b0: d386 21be f66e c6bd 806f 5c3e 0366 053e
000000c0: 366c 1a3d 5c6c 85bd 307b b9bc b0c1 f43d
000000d0: 850f 293d 03d0 b4bd 2640 383e ed4c 58be
000000e0: fb78 b73d ea74 b1bc 3256 553e aacc e3bc
000000f0: 9dcf 0e3d 1ce3 cebd 5599 023e cf43 2ebd
-0.04286226 -0.014037465 0.028951613 0.15878534 0.14623173 0.006706524 -0.16393884 0.2004001
0.16014282 -0.18866934 -0.028318861 -0.0019376039 0.082020335 -0.20480345 0.23092176 0.076744154
-0.08317378 0.14715223 0.12015791 -0.09534893 0.015251354 -0.16098052 -0.04205541 -0.16813914
-0.1276151 -0.07852025 -0.16764829 0.044153396 -0.09029293 -0.09565555 0.049599893 0.0041382792
-0.23127827 0.13418725 -0.061026566 0.24343774 -0.018355848 -0.12645376 -0.044291444 0.08067089
-0.09859655 -0.21842161 -0.030044556 -0.019318849 -0.15774088 -0.09689133 0.21526909 0.13027196
0.037700854 -0.065148085 -0.022641748 0.119510055 0.041274566 -0.088287376 0.1799322 -0.21123095
0.08958622 -0.021662194 0.20833662 -0.027807552 0.034865964 -0.101019114 0.12753804 -0.042545136

module.LSTM_layer.weight_ih_l1 f4 [64, 16]
00000000: 9776 743d ba51 e43d 6b5e dd3c b441 ad3c
00000010: 009d 243e d9ea 063c 842a b8bd 7eea 1e3e
00000020: bc18 96bc 9e2c f0bd 4e31 cf3d 0cf0 323e
00000030: 4981 21be 4181 f63d 1ab2 17be 7a3b 49be
00000040: 5a64 e5bd 45c8 1abe 55fb 09be a5c5 7a3e
00000050: 037e 09be 082b b9bd 1e9a 10bd 7d6b a13d
00000060: 02b8 4cbb ed97 38be 9f8f 833e 731a 47be
00000070: 9486 d4bd a831 b6bd 9f93 d3bc d6e5 34be
00000080: 939d ef3d e312 6dbd abf9 8a3e 9b14 3ebe
00000090: 3627 41be 34c9 1dbe 7a3c 213e 4d63 c4bd
000000a0: a6ce 64bd 4ace 81bd 75e8 31be 88af 1cbe
000000b0: 31a3 97bc c2fe 6fbe 4833 093e edc6 163e
000000c0: 19e4 4abe 8ff2 6c3e 1cab 97bd 96f8 6e3d
000000d0: a5d5 12bd 0ebf 013d cdbb b63d 3359 b13d
000000e0: f7fa 043e 6c6f 17be c095 82bb ce33 193e
000000f0: 75a9 39be 6272 173e 8076 893d ffa6 2e3e
00000100: 0e2b 183e 0371 993b 6222 7dbd 7e47 553e
00000110: a2be d4bd 06ee a4bc b222 413e 7a6c 5a3e
00000120: b564 a5bc 5fb1 69be 419a 573e 5bc3 583d
00000130: bd7d 39be f4c4 033e 85dd d33d 6319 463e
00000140: dd79 fabd a473 3d3e 22d7 a8bd 1e8f 54be
00000150: 752d 10bd aca8 5c3e 602a 9cbd 7648 40be
00000160: 7ace 083e c01d bf3d b834 5c3e b604 0dbd
00000170: 8d66 683d bed3 04be c642 513e 6d63 bebd
00000180: f42b 1ebe fbb3 bfbd d2be eebd a602 abbd
00000190: f54b 6bbe 1007 453e 7704 fb3d e621 c63d
000001a0: 9a5d 633e 7af6 ca3d 5eb7 08bd 4771 8d3d
000001b0: ee56 22be e183 d73d 2026 6abe f53b e43d
000001c0: 80b4 1fbd 44e1 64be d869 c03d f29b 72be
000001d0: 499d 593e 3c03 f8bd cbb0 293d 6649 1abe
000001e0: 6be1 5fbd c3d7 4c3e 7904 0b3e bf4c 2b3e
000001f0: 9ce1 453e b351 6e3e 3a54 ba3d 6097 1a3e
00000200: 82a5 13be 4f17 fb3d 5454 c8bd b895 cebc
00000210: fd14 74be ec94 5fbe a526 acbd bf3c 7fbe
00000220: a199 08be 477e a7bd a947 083e 582d 523e
00000230: c2b5 dbbc c979 13be 58ab f13d f7ab 523e
00000240: 5cde c33d 99c6 403e 5d63 303e a97e 01be
00000250: 769c 6c3e fec4 5e3e b9b3 62be 2f7d 11be
00000260: 9b19 7dbe b79d 05bd b487 723e 9224 2a3d
00000270: da2f 983d 65fa 31bb 3c3a 98bd 903e 53be
00000280: a682 0fbe 31a9 a6bd 7be7 b63c acb9 62be
00000290: dbc0 4fbe e399 54be 0047 813d d572 5a3e
000002a0: 3d65 6d3e d41f 093d 26e3 35be f105 80be
000002b0: a235 15be a8de 13be 8dcc 383e 3911 243e
000002c0: d264 ad3d af1a 3f3e e952 083e dc55 ac3d
000002d0: 5459 73be 1298 873e a2a8 44bd 5058 9fbd
000002e0: 4805 3dbe f3ef 673e bc14 e2bd d621 12bd
000002f0: 9902 06be b681 0b3e 024d 45be 985e 30bd
00000300: a9ce 2cbd 7b83 1639 b559 f7bd 61b5 38be
00000310: 60a8 283e 9dc3 5f3e 6ff5 d83d 2f6d 8e3c
00000320: 20b6 83bc b732 a1bd dfee a2bd 19a5 e33d
00000330: 417a 72be 5246 3b3d 4b8c a4bd bc1a 4b3e
00000340: 67e6 0f3e 2423 48be 7a27 763e d363 89bd
00000350: 7552 533e 9142 3fbe 2ff7 673e 0dd7 f7bd
00000360: dbb9 6cbe f5d3 033e 55fd 0bbd be24 953c
00000370: 0a1e 3b3e 4e31 25be a51a 8b3d e885 373e
00000380: 68f5 133d fef9 5b3e 3810 3abe 69b0 5f3e
00000390: d7d1 6c3e 99c8 6e3d 6de8 f33d 56be 133b
000003a0: 93f4 f9bd 88c3 1ebd fa8f a23d cae2 c73d
000003b0: 3a11 0bbe 7883 e5bd 4f4f 2cbb ef01 81bd
000003c0: d419 28be 3df8 2d3e fa70 853d b420 803e
000003d0: 25d0 ad3d 4088 4b3d 4ec1 50be 644c 24bd
000003e0: 06d3 d8bd cacd 11be 87e8 7e3c ba83 b03d
000003f0: 7b4a 563e 7c1e 8c3c 4e16 b73c 1444 43be
0.05968341 0.111484006 0.027022561 0.021149494 0.16075516 0.008234703 -0.08992484 0.15519139
-0.018322341 -0.1172726 0.10116826 0.17474383 -0.15771975 0.12036372 -0.14814034 -0.19651595
-0.11200781 -0.1511546 -0.13474782 0.24489458 -0.13426976 -0.09041411 -0.035303228 0.0788183
-0.0031237607 -0.18026705 0.25695512 -0.19443683 -0.10377231 -0.0889619 -0.025827227 -0.176658
0.11699977 -0.05787934 0.27143607 -0.18562548 -0.18862614 -0.15408784 0.15745726 -0.095892526
-0.055861138 -0.06338175 -0.17373832 -0.15301335 -0.018510433 -0.23437026 0.13398468 0.14724322
-0.19813575 0.23139404 -0.074056834 0.05834254 -0.03584828 0.031676345 0.08922539 0.086595915
0.1298636 -0.14788598 -0.0039851367 0.14961168 -0.18131049 0.14789727 0.06712055 0.17055891
0.14860174 0.0046826615 -0.061800368 0.20828053 -0.10387923 -0.02013303 0.18860891 0.21330443
-0.020189622 -0.22821568 0.21054937 0.05292068 -0.18114372 0.128681 0.10344986 0.19345622
-0.12230275 0.18501145 -0.08244158 -0.2075772 -0.0351996 0.21548718 -0.0762527 -0.18777642
0.13360015 0.09331846 0.21504486 -0.03442832 0.056738425 -0.12971398 0.20435628 -0.09296308
-0.15446454 -0.093605004 -0.1165749 -0.083501145 -0.22978194 0.19240975 0.12256711 0.09674434
0.22203675 0.09910293 -0.033377998 0.069063716 -0.15853474 0.10523201 -0.22866106 0.111442484
-0.038990498 -0.22351557 0.09395188 -0.23692301 0.21251406 -0.12109992 0.04142837 -0.15067062
-0.054658335 0.20004182 0.13575925 0.16728495 0.19324344 0.23273353 0.09098096 0.15096807
-0.14418605 0.12260305 -0.09781709 -0.025217876 -0.23836131 -0.21834153 -0.08405808 -0.24925517
-0.13339855 -0.08178382 0.13308586 0.2052511 -0.026820067 -0.14401926 0.11800259 0.20573412
0.09563896 0.18825759 0.17225404 -0.12645973 0.2310656 0.21754834 -0.22138871 -0.1420791
-0.24716799 -0.03262111 0.23684579 0.041538782 0.07431002 -0.0027157303 -0.07432982 -0.20629334
-0.14014682 -0.081377394 0.022327175 -0.2214114 -0.20288412 -0.20761828 0.0631237 0.21332867
0.2318315 0.03347762 -0.17762432 -0.25004533 -0.1457124 -0.14440405 0.1804678 0.16022195
0.084664956 0.18662523 0.13312878 0.08414814 -0.23764545 0.26483208 -0.048012383 -0.07780516
-0.18459046 0.22650127 -0.11039111 -0.0356768 -0.13086928 0.136237 -0.19267657 -0.04305896
-0.042189274 0.00014354095 -0.12077657 -0.1803794 0.1647048 0.21851964 0.10593688 0.017386047
-0.016078055 -0.07871001 -0.07955717 0.11115474 -0.23679449 0.04572136 -0.08034571 0.19834417
0.14052735 -0.19544655 0.24038497 -0.06708493 0.20636924 -0.18677737 0.22652887 -0.121015646
-0.23117773 0.12873824 -0.034177143 0.018205997 0.18273178 -0.1613209 0.067921914 0.17922175
0.03612271 0.21482083 -0.1817025 0.21844639 0.23126923 0.058296774 0.11909566 0.002254387
-0.12204852 -0.038760692 0.079376176 0.097600535 -0.1358079 -0.11206716 -0.0026292389 -0.06299197
-0.16416103 0.16989227 0.06515689 0.2502495 0.08486966 0.049690485 -0.2038624 -0.040111914
-0.105871245 -0.14238659 0.0155583685 0.08618875 0.2092685 0.01710438 0.022349503 -0.19068938

module.LSTM_layer.weight_hh_l1 f4 [64, 16]
00000000: bac7 003e 8b78 4bbe 76d9 c2bd cdbe f43d
00000010: d250 d23d 2c5f a83d e176 0ebe edff e6bd
00000020: d444 a7bd 5ef5 ba3d 0081 823e c4e3 dc36
00000030: 568c c7bd 66e7 0abe 54f3 723c d7a7 143e
00000040: c184 71be 3195 9abd bf7c 3bbe 0ba1 053e
00000050: 1fb9 06bd d74d e7bd 046d 033e c409 883e
00000060: e1c1 3c3e ea50 99bd b242 8c3e ed50 06bb
00000070: 91ef 05be 7ac8 1ebe 737c 6cbe a04b 043d
00000080: 3cae 373e 4fb5 35be 51d8 edbd d76d 343e
00000090: 60a2 42be 0f11 95bb ffc7 1bbd 3910 b53d
000000a0: d030 063e 40a4 34be 3423 233e ed34 433e
000000b0: caec 4f3e 5013 d6bd df2d 13be aade 09be
000000c0: a701 51bd c119 fbbd 4ce1 dc3d 2679 71be
000000d0: f07e 333e 1f09 c23d 54bb 723e 527e d1bd
000000e0: 9a95 25be 10b1 cc3d 7583 2b3e db29 6cbe
000000f0: 994d a23d c9c6 3ebe 3d44 5fbe aca2 35bd
00000100: 2124 173e 6da5 16be 2cf9 fd3b c4be 593e
00000110: 2bee 14bd cfcb 3e3e 6fa1 01be 8b11 ab3c
00000120: 0fff 9ebd 0417 7ebc 121b 483d 76d0 ed3d
00000130: ead2 22be 7441 373d fcd4 af3d 00cd 15be
00000140: 64ef f8bd fb74 0c3d ab9a 5c3e a0b4 7e3d
00000150: 3739 6dbe 2129 053e 1904 753e 547e d9bd
00000160: 6861 20be 4847 523c 2fa2 ac3d 8d5b 723d
00000170: 07e2 723e 7e55 133e f629 833d e2cd 563e
00000180: 2d42 cb3d a30c 69be 32d4 8cbd abf3 5c3d
00000190: 49b0 d03d a900 09be 1a6e 543e bc32 8f3d
000001a0: 0cd3 a9bd aaa7 efbd 3af8 7c3e 5516 6e3e
000001b0: f78b d83d 3c99 48be ae29 823e e984 073e
000001c0: cb5b 7e3c 3f49 6b3e 2b1b 2cbe 5e2b 523e
000001d0: 2cc2 bd3d 55d6 903c 11be fcbd 6333 26be
000001e0: 28f5 fdbc 77b7 c63d 2644 1cbe 9125 74be
000001f0: eb11 74be e6fb eaba 595f ea3d d97f 6d3e
00000200: 0515 0bbe d2bc e2bd b426 793e 06cb 983d
00000210: b7a1 d1bd 637c 2f3e a37c 39bd f8ae 7cbe
00000220: 730a a0bd 190b bebd 2e94 18be ee6c da3d
00000230: 6a43 4e3d ff0e 8ebb 7d83 65be 6553 df3d
00000240: 6459 3b3e c879 693e 062c 82bd 4ac6 1abe
00000250: e22d 0cbe b0d0 4fbd 6d87 bfbd e4d9 6e3e
00000260: 4f16 67be d9df 40be 64d9 783e 299f 85bd
00000270: 2f3a 863c 590b 7d3d 4451 db3c cf33 21be
00000280: a864 463e c982 21be de11 5cbe 9a74 863d
00000290: e522 353e c376 e73d 3737 21be 9cb1 2cbe
000002a0: 5f8d ee3d 5125 2dbd 0d59 abbd 4661 62be
000002b0: 6df1 cc3d 3f8f 4bbe b638 21be 0788 0cbe
000002c0: 16d5 1ebe a132 503e 319b 7c3e 0cd1 063e
000002d0: 8403 483e c881 a6bb 14b0 243e 2bdd bf3c
000002e0: c936 3fbd 4135 66be 8ed2 0bbe 5628 2a3e
000002f0: 34b3 02be f008 353e f308 07bd a61b 693e
00000300: caf9 383e 90f5 cdbb 4a03 bbbd 61b2 4bbd
00000310: a4a9 7e3c 4cb8 4dbe d283 df3c cffa b4bd
00000320: 1dbc 36be 9d1b 45be c8c3 123e 04bd 003d
00000330: 1a48 56bd eb8e 833e de39 103e 8229 17bd
00000340: b516 193e b48c 883d 556f 18be 86d7 8c3d
00000350: 2902 653d bfe6 adbd 3964 133e 8618 7fbe
00000360: c8d9 40be 5591 ccbb f7df e5bd 949b 08be
00000370: 81f4 80bb b347 29be 9ca7 9f3d f4ae fb3c
00000380: 46aa da3a 64c1 383e 69e7 71be 65f3 053d
00000390: 9648 64bd 55ec 19be 53a2 c9bd fb5b e43d
000003a0: 55af afbd 8cc8 ffbd 4e19 d2bc 150e 24be
000003b0: 92aa 18bd d00a 72bc 065e 983c ccaa cbbd
000003c0: fa41 69be 94dd 973d 5f1b 663e 007c 04be
000003d0: 5d8d 213e 906d 28be ca7c 41be af3f 2c3e
000003e0: 2979 9fbc 02d0 cc3d cb4b 69be 1ccd 10be
000003f0: d1a9 3bbd 28b1 e23d 4ec2 62bd a47b 65be
0.1257619 -0.19870202 -0.09514134 0.11950455 0.102693215 0.082212776 -0.13912536 -0.11279283
-0.08167425 0.09128831 0.25489044 6.5830263e-06 -0.09743564 -0.13564834 0.014828522 0.14517151
-0.23585798 -0.07547987 -0.18309306 0.13049714 -0.03289139 -0.11294144 0.12834555 0.2656995
0.18433334 -0.07486136 0.27394634 -0.0020495013 -0.13079669 -0.15506163 -0.23094349 0.032298684
0.17937559 -0.17744945 -0.11613525 0.17620026 -0.19007254 -0.0045491527 -0.038032528 0.08840985
0.13104558 -0.17640781 0.15931398 0.19063158 0.20305172 -0.10452902 -0.14372967 -0.13463846
-0.051026966 -0.122607715 0.107851595 -0.2358137 0.17528892 0.09474396 0.23704273 -0.10229172
-0.1617035 0.099947095 0.16749366 -0.23062842 0.07924957 -0.18630518 -0.21803375 -0.04434459
0.14759876 -0.14711542 0.007750651 0.21264178 -0.036359947 0.18632434 -0.12659238 0.020882389
-0.07763492 -0.015508417 0.04885394 0.116120264 -0.1590077 0.044740155 0.085855454 -0.14628983
-0.12155035 0.03429125 0.21543376 0.062183976 -0.23166357 0.1300397 0.23927344 -0.10619798
-0.15662158 0.012834378 0.084293716 0.05916934 0.23719035 0.14388081 0.06404488 0.20976976
0.099247314 -0.22758727 -0.068764105 0.053943317 0.10189874 -0.13379158 0.20745125 0.06992099
-0.08292207 -0.11701901 0.24704066 0.23250706 0.10573571 -0.19589704 0.25422424 0.13234295
0.015524815 0.2297716 -0.16807239 0.20524356 0.09265551 0.017680326 -0.1234094 -0.1623054
-0.031000689 0.09702962 -0.15260372 -0.23842455 -0.2383496 -0.0017927855 0.11443967 0.23193301
-0.13582237 -0.11071171 0.2433117 0.07460599 -0.10235923 0.17137294 -0.04528488 -0.2467612
-0.07814493 -0.092794605 -0.14900276 0.10665308 0.05035726 -0.004335284 -0.2241344 0.10904578
0.18295819 0.22800362 -0.06356053 -0.15114704 -0.13689378 -0.05073613 -0.09352002 0.23325306
-0.22567104 -0.18835391 0.24301678 -0.06524498 0.016385166 0.0617784 0.026772149 -0.1574242
0.19374335 -0.15772547 -0.21491191 0.06565209 0.17689092 0.11301949 -0.15743719 -0.16864628
0.11648058 -0.042271916 -0.083665945 -0.2210742 0.10006986 -0.19878863 -0.1574429 -0.13723765
-0.15510973 0.20331813 0.24668576 0.13165683 0.19532591 -0.005081389 0.16082793 0.02342089
-0.046683107 -0.22481252 -0.13654539 0.1661695 -0.12763673 0.1767919 -0.03296752 0.22764453
0.18064037 -0.006285377 -0.09131487 -0.049730662 0.015543375 -0.20089835 0.027284537 -0.088369004
-0.17845197 -0.19248815 0.14332497 0.03143026 -0.052314855 0.25694975 0.14084575 -0.03690482
0.14950068 0.06667462 -0.1488622 0.06877045 0.055910263 -0.08491277 0.143937 -0.24911699
-0.18833077 -0.006242911 -0.112243585 -0.13340598 -0.003935397 -0.16531257 0.07795641 0.030723073
0.0016682826 0.18042523 -0.23623432 0.032702822 -0.055733286 -0.1503156 -0.09845414 0.111503564
-0.08578364 -0.12489423 -0.025646832 -0.16020997 -0.037272044 -0.014773086 0.018599521 -0.09944686
-0.22779074 0.074153095 0.22471379 -0.12937927 0.15776582 -0.16448045 -0.1889526 0.16821168
-0.019466953 0.10000612 -0.22782819 -0.14140743 -0.045816246 0.11068946 -0.055361085 -0.22410446

module.LSTM_layer.bias_ih_l1 f4 [64]
00000000: 3550 ea3d b7ee 6c3e efd5 853d 9ce7 643e
00000010: 0101 61be fad6 18bd df8c 613e 3981 7f3e
00000020: ac02 00be 7967 41bd d67f 693e b8f7 94bd
00000030: 4c5c 44be 3ecd 10bd 33f0 d6bd 8533 713e
00000040: 476a 3e3e 3062 673e 267a 38bd 5e8c 783e
00000050: 1813 673d 0b2c 86bd f0ab 37be bca1 713e
00000060: 7696 4f3e 2632 5ebe 1dc4 cebd 7de0 05be
00000070: 3cba 17bd cd2c f73d e98a 7d3d 4f67 45be
00000080: 2ae8 873d a0f7 653e 9607 88bd b92c 313c
00000090: f2d5 bc3d c4e3 2ebe 8f97 e23d 6104 72bd
000000a0: 5e57 8fbd a6c3 7a3e c328 043c 65d4 69be
000000b0: 60ca d23d 42f7 293e b8ed 49be 8917 17be
000000c0: 049e c23d e1af 793d 7db0 d4bd e7f1 2dbe
000000d0: 8a10 a03c 763c abbd 16be bb3d 8eb5 f7bd
000000e0: 2a15 21be 0ea3 0a3c 2f91 dcbd 1413 41be
000000f0: 049c debc ebe6 97bd b961 9b3b 147b a0bc
0.114410795 0.23137937 0.06534945 0.22353977 -0.21973039 -0.037314393 0.22026394 0.24951638
-0.12501019 -0.04721782 0.22802672 -0.07273811 -0.19175833 -0.035351984 -0.10495033 0.2355481
0.18595229 0.2259605 -0.045038365 0.24272296 0.056414694 -0.06551369 -0.17936683 0.23596853
0.2027224 -0.21698818 -0.100959994 -0.13073917 -0.03704284 0.12069092 0.061900053 -0.1927769
0.06636079 0.22457743 -0.06642072 0.010813885 0.09220494 -0.17079073 0.11064064 -0.059086207
-0.06999086 0.24488696 0.008066359 -0.22834928 0.10292506 0.16598228 -0.19719589 -0.14755072
0.09502795 0.060958747 -0.10385225 -0.1698681 0.019539136 -0.083611414 0.091671154 -0.12095176
-0.1573073 0.008461727 -0.10769879 -0.18854934 -0.027174003 -0.07417091 0.004741874 -0.019589938

module.LSTM_layer.bias_hh_l1 f4 [64]
00000000: 2059 4f3e bde5 473e 8b2e 253c 8201 5e3d
00000010: 4bca 013d ca58 623e 280d eabd 9a89 a93d
00000020: cce6 ef3d 225f e3bd 77ae 45be 2e12 5bbe
00000030: eafb 0dbe a013 103c f472 bfbd a491 de3d
00000040: 4d3d 99bd 80e3 523e 30bf 333d 4e17 dd3d
00000050: 7c7f d03d 13b4 d9bd e05d 323e e562 6fbd
00000060: fe0f 24bd a300 2fbe 071d 003d 3956 ddbd
00000070: a3c2 dcbd e496 173e 213b e03d e6e8 cfbc
00000080: 5620 6cbe 0fa7 26be f08c 6c3e 0261 773e
00000090: 1166 643e 3129 7d3e 4943 513e e025 683e
000000a0: aca9 ad3c 4da8 99bd 25d3 b53d 2473 ee3b
000000b0: 44e0 463e 97b1 51bd f7c2 f1bd 9ec2 eabd
000000c0: 797d 783e 8a67 57be 63db 3f3e 8be3 1cbe
000000d0: 6045 2c3e 70bf dabd 76d9 463e 1c56 693d
000000e0: 4c6f 80bd 3136 22bd 2ed4 9e3d 472a 3bbe
000000f0: 9803 7bbe 0a70 d6bd 30c5 0bbd 765b 573e
0.20248842 0.19521232 0.0100818975 0.054200657 0.031687062 0.22104183 -0.114282906 0.082781985
0.11713943 -0.111021295 -0.19304834 -0.21393654 -0.13865629 0.008793741 -0.093480974 0.108676225
-0.07482395 0.20594597 0.043883502 0.10795461 0.10180566 -0.106300496 0.17418623 -0.058443923
-0.040054314 -0.17090087 0.031277683 -0.10807461 -0.107793115 0.14803654 0.10948778 -0.02537961
-0.2305921 -0.16274665 0.23100638 0.241581 0.2230456 0.24722745 0.20435824 0.22670698
0.02119907 -0.07502804 0.08878163 0.0072769094 0.19421488 -0.051194753 -0.11804765 -0.114629015
0.24266614 -0.21035591 0.18736033 -0.15321176 0.1682334 -0.10681045 0.19418892 0.056966886
-0.06271228 -0.039602462 0.07755314 -0.18277846 -0.2451309 -0.104705885 -0.0341236 0.21030983

module.BN_layer.weight f4 [160]
00000000: 8025 7b3f fe8d 7e3f 6d83 7e3f 920e 7d3f
00000010: 2c6b 7d3f 7045 823f 8cb1 803f 0d04 813f
00000020: 1cd5 823f bbbf 7f3f 70c6 813f 4459 7e3f
00000030: b625 813f 5ddc 803f 592f 7f3f fd5c 7f3f
00000040: e6be 7f3f 0590 833f 840a 813f 92fe 7d3f
00000050: ca48 7f3f 212c 813f 768c 7c3f 5fae 7c3f
00000060: 09f6 813f ee30 813f 4303 7b3f 7b1f 7f3f
00000070: c4cb 7d3f 3372 7d3f d6b6 7c3f 41ae 7e3f
00000080: 9398 813f 0466 833f ca8a 7e3f 65ce 7c3f
00000090: 09fa 7e3f 99ca 803f 45b1 7f3f 1a35 803f
000000a0: 3392 823f 4a7d 7e3f 9a7d 7b3f 3a1d 813f
000000b0: 3344 7e3f d241 7d3f 4cdd 803f 9d64 803f
000000c0: 5035 823f 07e3 823f cf95 7e3f b925 803f
000000d0: a986 7e3f 1c45 7f3f d96d 7e3f bc64 7e3f
000000e0: d746 823f 7da4 803f a2b2 803f 2c83 813f
000000f0: cfc5 813f fe97 813f d62d 803f c05e 813f
00000100: c8f9 823f 1427 833f dd28 7e3f d886 803f
00000110: ac22 803f 6a80 7d3f 7246 803f bdf5 7e3f
00000120: 3267 7b3f 18e1 803f 9a3d 813f 5974 803f
00000130: bab4 7f3f cb8d 7e3f fb99 7e3f 228b 7d3f
00000140: f2ff 833f 9319 823f 0f19 7e3f 6e3c 803f
00000150: 19e1 7d3f 541f 813f 080b 803f db4f 813f
00000160: 8256 833f a7ac 7d3f 12cb 7d3f 0e17 7e3f
00000170: ca56 803f b77c 803f dce7 803f bd33 7f3f
00000180: 3bfc 7a3f 19d7 823f c20b 7e3f 0bb5 7c3f
00000190: c26b 7f3f 227c 803f 1859 7f3f 57fb 7c3f
000001a0: abe1 813f 9e5e 7f3f e8d2 813f 45e8 803f
000001b0: 1c39 813f a229 813f 32b1 7f3f 1cf7 7f3f
000001c0: 1e0b 843f c3b6 823f be92 7f3f 9337 813f
000001d0: 7bde 803f c45a 803f b1f7 7f3f f99f 7e3f
000001e0: 09e2 813f 050b 813f 638d 7c3f 8528 823f
000001f0: a1ef 7b3f a7a8 813f f702 803f a259 7f3f
00000200: ada7 843f fe81 823f 4f47 7f3f 8abd 7c3f
00000210: 069d 823f 1026 7f3f b5c3 7f3f 1479 7e3f
00000220: ffb4 823f 6162 7c3f 75d1 813f 629f 7d3f
00000230: c78e 833f 9ef8 7c3f 7600 803f 21c6 7d3f
00000240: 6519 853f 20a6 803f 3456 803f ae49 7b3f
00000250: 4a31 7d3f cd63 7f3f 57ae 7e3f 7d0f 7e3f
00000260: b553 7e3f e683 803f 21b3 7b3f 87db 823f
00000270: 13bd 823f 6a6b 803f ede3 803f 3c6e 813f
0.98104095 0.9943541 0.9941929 0.9885036 0.98991656 1.0177441 1.0054183 1.0079361
1.0221286 0.9990193 1.0138683 0.9935496 1.0089633 1.006725 0.9968162 0.99751264
0.9990066 1.0278326 1.0081334 0.9921657 0.9972044 1.0091592 0.98651826 0.9870357
1.0153209 1.0093057 0.9805185 0.9965741 0.99139047 0.9900238 0.98716486 0.9948464
1.0124687 1.0265508 0.99430525 0.98752433 0.99600273 1.0061828 0.99879867 1.0016205
1.0200866 0.99409926 0.9823853 1.0087044 0.99322814 0.9892856 1.0067534 1.0030705
1.017252 1.0225533 0.9944734 1.0011512 0.99424225 0.9971483 0.99386364 0.9937246
1.0177869 1.0050198 1.0054514 1.0118155 1.0138491 1.0124509 1.0013988 1.010704
1.0232477 1.0246301 0.992811 1.0041151 1.0010581 0.9902407 1.0021498 0.99593717
0.9820434 1.0068693 1.0096924 1.0035506 0.9988514 0.9943511 0.99453706 0.99040425
1.0312483 1.0164055 0.99256986 1.0018442 0.99171597 1.0087686 1.0003366 1.0102495
1.0260775 0.9909157 0.99137986 0.9925393 1.0026486 1.003806 1.0070758 0.9968832
0.98041123 1.0221893 0.9923669 0.9871375 0.997738 1.0037882 0.9974532 0.98821014
1.0146993 0.9975375 1.0142488 1.0070883 1.0095553 1.009083 0.99879754 0.99986434
1.0315893 1.0212024 0.99833286 1.0095085 1.0067896 1.00277 0.9998732 0.9946285
1.0147105 1.0081488 0.9865324 1.0168616 0.9841252 1.0129594 1.0000905 0.99746144
1.036367 1.019592 0.99718183 0.98726714 1.020417 0.99667454 0.99908 0.994035
1.0211486 0.98587614 1.0142046 0.99071324 1.0277947 0.9881686 1.0000141 0.99130446
1.0398375 1.0050697 1.0026307 0.981593 0.98903334 0.9976166 0.9948477 0.99242383
0.99346477 1.0040252 0.98320204 1.0223244 1.0213951 1.003278 1.0069557 1.0111766

module.BN_layer.bias f4 [160]
00000000: c02d 90bc c155 17bc 3859 f7bb 5acc 20bc
00000010: 0eab 12bc cb7c 553c ddd1 563b 0afe 053a
00000020: 863f 983c ccc7 6ebb 304e 4a3c 2323 84ba
00000030: ae96 663b ec81 5a3b ed9f f5ba 3211 723b
00000040: c99a 3ab9 a9f6 3b3c b6cc cb3a 3562 06bb
00000050: 3019 8cbb f06c 073c 6bb8 05bc e303 1abc
00000060: 72be 653c 31a5 cf3b a126 4abc 7bc0 073c
00000070: 1175 8cb9 6def 65bb a7cd 12bc c1fc 54bc
00000080: 1fbd 613c cfd5 943c 8bea 17bc f0ba b4bb
00000090: 1214 b7bb 8292 0b3c bd93 cd3b c72a e93b
000000a0: d80d b13c a08a 393b 4bed 19bc d66e e4ba
000000b0: 9527 d5ba 15e1 73bb 286b 023c 2908 7a3c
000000c0: b3e0 a83c 29cc 8f3c ae86 c1bb 7da3 133b
000000d0: bfbe 763b b714 c9bb ba9d 523a 184c 303b
000000e0: 428d a73c 5149 473b c6a5 573a 365c 4439
000000f0: 7dc3 bb3b a7dd 263b a5c1 323b a5ac 563c
00000100: 1f00 8c3c 03f0 5b3c 38dd c2bb cbe6 d63b
00000110: 2ea2 1e3c 49dd 05bc b32b b0bb c8c2 c1bb
00000120: a7a0 4bbc c19c d13b 4407 e43b 7b9f a6bb
00000130: 6fcf 9639 b2b2 aaba 417e cbbb 5304 36bc
00000140: e36a 973c 4a35 d2bb 31c9 c5b9 6481 8abb
00000150: 9eee 8dbc 5ad7 2a3c 788a 373c c737 983b
00000160: 2401 b93c 74fa b5bb dd35 95bb a4d4 843b
00000170: e51b cc3a 7886 ae39 afaf b63b b271 013b
00000180: be8f 46bc 4455 323c de93 4cbb 8add 28bc
00000190: 54f3 243c 4406 013c 6191 ccbb d3a7 03bc
000001a0: e714 933c bad2 6fbb 4b24 073c ad39 58bb
000001b0: 5862 df3b 5de4 053a 267d 8bbb 6c3c cebb
000001c0: f242 a33c 0934 ff3b 0ec4 f0ba 4831 f33b
000001d0: f467 8abb 9d1c 1c3c 97da 99bb 5226 ccbb
000001e0: 9902 803c 9341 573b 25cf bbbb 7732 9b3b
000001f0: ee60 d1bb 49e8 733b 8a39 083b bbfa f9bb
00000200: 1d2c da3c e83f 133c cf33 2fbb 9462 36bc
00000210: 86b1 0fbb 3726 9fbb 97c5 afbb 896e a1b8
00000220: 046d 923c 9278 88ba 2774 fc3b 23a3 32b9
00000230: ae24 253c 61dd b2bb bff2 f73a 7547 f83a
00000240: e70f fc3c 33d3 9cbb 0ceb 893b 54f0 60bc
00000250: 98d9 4d3b 3384 d5bb 4426 3d3b 5aeb 91bb
00000260: 9dcf fcbb 6744 e3b9 0eeb acbb ff3e 0c3c
00000270: 6d0b e83b 20e5 26bb 5a8b ebba f070 67ba
-0.01759994 -0.009236754 -0.0075484775 -0.009814346 -0.008951915 0.013030241 0.0032778897 0.0005111402
0.018584978 -0.0036435006 0.012347743 -0.0010081272 0.0035185027 0.00333416 -0.0018739678 0.0036936519
-0.00017796004 0.011472383 0.001554868 -0.0020505313 -0.0042754635 0.008265719 -0.008161644 -0.009400341
0.0140224565 0.006336831 -0.012338311 0.008285637 -0.00026790102 -0.0035085336 -0.008960164 -0.012999714
0.013778 0.018168358 -0.009272228 -0.0055154487 -0.0055871094 0.008518817 0.0062737153 0.007115695
0.021613047 0.0028311387 -0.009394954 -0.0017428051 -0.0016262407 -0.0037213017 0.007960118 0.015260735
0.020614957 0.017553406 -0.0059059476 0.0022527867 0.0037650315 -0.0061365026 0.00080343673 0.0026900824
0.0204531 0.003040869 0.0008226301 0.00018726368 0.005730091 0.0025461705 0.0027276066 0.013102685
0.017089901 0.0134239225 -0.0059467815 0.0065582744 0.009682221 -0.008170434 -0.005376303 -0.0059131123
-0.012428439 0.0063968603 0.006958874 -0.0050849295 0.0002876478 -0.0013023226 -0.006210119 -0.011109429
0.018483585 -0.006415044 -0.00037724667 -0.0042268503 -0.017325696 0.01042732 0.011202447 0.004645321
0.022583552 -0.005553538 -0.00455354 0.004053669 0.0015572278 0.00033288053 0.0055751423 0.0019751606
-0.012119232 0.010884587 -0.0031216065 -0.010306725 0.01006778 0.007875029 -0.0062429165 -0.008035618
0.017954303 -0.0036594109 0.008248399 -0.0032993362 0.0068171434 0.0005107576 -0.004256862 -0.006293824
0.019929383 0.0077881855 -0.0018368976 0.0074216463 -0.004223818 0.009528306 -0.0046952474 -0.006230154
0.015626239 0.0032845482 -0.0057314807 0.0047362405 -0.0063897287 0.003721731 0.002078625 -0.0076287664
0.026632363 0.008987404 -0.0026733761 -0.011131901 -0.002192588 -0.0048568505 -0.0053641307 -7.697667e-05
0.017874248 -0.0010411909 0.007704276 -0.00017036176 0.010079546 -0.0054585193 0.0018916948 0.0018942194
0.030769302 -0.004785919 0.004208928 -0.013729174 0.0031410214 -0.0065160035 0.002886192 -0.004453105
-0.007715179 -0.00043347778 -0.005277044 0.008559941 0.00708144 -0.002546616 -0.0017970607 -0.00088287797

module.BN_layer.running_mean f4 [160]
00000000: 80e6 24bd c6c6 9d3a db1b 673d 0580 743d
00000010: 219d 983d 4853 583b 54f7 a43d 8aee 093d
00000020: 934a 64bc 73fe 083d aab6 e63b c8a1 4ebd
00000030: b378 623d 6ff8 f63c b108 7bbd 049c 5bbd
00000040: afdf 7bbd 2732 61bc b740 933d 20a0 c53d
00000050: 5f83 ea3d 4a3d a83b fe1b fc3d 37d6 4f3d
00000060: b0d9 fdbc 754c 193d 095e 21bb 9436 9bbd
00000070: 0b5c 943d 90c8 533d cdff b6bd bc6d 9cbd
00000080: 062e 8bbd 97e5 efbc 1ff9 883d 2017 e83d
00000090: 8d3c 0c3e 77b1 123c 3a1e 183e 8abf 6b3d
000000a0: 76c8 29bd 34d2 133d 1c63 4cbc 1753 abbd
000000b0: 1dcf a23d 29ae 853d 5087 d9bd 4ffb c2bd
000000c0: ef3f 99bd b878 22bd 2495 7b3d aa76 003e
000000d0: 7f85 163e 567a 123c 2d5d 263e 85ed 883d
000000e0: eb7a 4ebd 16b9 153d c2e7 98bc 889d aebd
000000f0: 095d a73d 3175 9b3d 7f09 e1bd 095a d4bd
00000100: a749 9fbd 1b2b 4cbd 9616 663d 3bad 073e
00000110: 3341 1b3e 5d90 493c 625a 313e 1619 8a3d
00000120: 9ce2 6fbd 4ca0 1a3d 4a56 85bc 5a5f abbd
00000130: 21ee ad3d a306 af3d 58dd debd 6c72 e8bd
00000140: b3bf a0bd efa9 4fbd 7b2b 583d 9bae 0d3e
00000150: a91e 1c3e 160f 2d3c e42e 363e 7395 903d
00000160: 5ece 81bd 3442 0b3d 679c 63bc 9b23 a8bd
00000170: d869 a83d 4e8a b63d 2cad e4bd 431c f2bd
00000180: 2a2b a0bd ae3f 4bbd f8b7 403d cae7 123e
00000190: 93fe 1e3e 9236 0e3c 7950 393e b352 933d
000001a0: cccf 7bbd 64d2 0c3d ae48 6bbc 2075 a7bd
000001b0: 1c2d a73d 6600 b53d 9c6f f0bd 05e0 ffbd
000001c0: b661 a1bd 619d 58bd 750d 243d 0c53 123e
000001d0: b3f5 223e 0df0 503c 2451 3c3e 7f12 943d
000001e0: 1218 7ebd b784 093d 7558 63bc b029 a9bd
000001f0: 618c a63d b410 bb3d c0d6 ecbd 62d6 05be
00000200: 115d a6bd c684 5abd 7dbb 153d f440 143e
00000210: df86 253e 5b53 333c cc6e 3c3e 1510 943d
00000220: 532b 7dbd a029 0d3d d49c 6fbc 529e a2bd
00000230: 867e a83d b489 b33d c8eb efbd 4b37 0abe
00000240: 2ac7 9fbd 0668 6dbd 2a93 083d 1369 0f3e
00000250: 307f 293e 190f 4f3c 8d08 3b3e 841c 943d
00000260: afce 78bd f8dc 1a3d 0ec9 a0bc e435 9fbd
00000270: 6da1 af3d 82fa b83d cfb4 edbd 0c0d 07be
-0.040258884 0.0012037389 0.05642305 0.0596924 0.07451845 0.0033008624 0.080549866 0.033674754
-0.0139337955 0.033445787 0.007040818 -0.050447255 0.05529089 0.03014776 -0.061287586 -0.053615585
-0.06149262 -0.013744867 0.07190078 0.09649682 0.11450838 0.0051342594 0.123100266 0.0507414
-0.03098759 0.03742643 -0.00246227 -0.07578769 0.07244118 0.051704943 -0.08935509 -0.07638118
-0.06795888 -0.029284282 0.06688141 0.11332536 0.13694973 0.008953444 0.1485528 0.057555713
-0.04145094 0.036089137 -0.012474801 -0.083654575 0.0794966 0.06527359 -0.10621512 -0.095205896
-0.074828975 -0.039665908 0.06142153 0.12545267 0.14699362 0.0089403 0.16246481 0.06685928
-0.050410192 0.036553465 -0.018665198 -0.085261405 0.08172042 0.07590712 -0.10988139 -0.10368735
-0.0777772 -0.049845796 0.056173883 0.13249676 0.1516159 0.012302485 0.17319635 0.06743066
-0.05856572 0.037750527 -0.016276497 -0.08367796 0.08492685 0.08546188 -0.10882062 -0.11349949
-0.07849064 -0.05069917 0.05277584 0.13836138 0.15246071 0.010562679 0.17791325 0.07059755
-0.063381895 0.033998683 -0.01389227 -0.08209916 0.08223313 0.08913098 -0.111658424 -0.11821797
-0.07820733 -0.049621277 0.047050446 0.14346233 0.155268 0.008680003 0.18097104 0.07193508
-0.061477467 0.03438033 -0.01436059 -0.08176637 0.08162901 0.088379666 -0.11740038 -0.124939
-0.07879965 -0.052884463 0.040051896 0.14289492 0.1591404 0.012752545 0.18390328 0.0723009
-0.062034674 0.033573832 -0.01387607 -0.082599044 0.08132244 0.09134045 -0.11564398 -0.13070062
-0.0812322 -0.05334928 0.036555756 0.14477903 0.1616473 0.010945166 0.1840164 0.0722963
-0.061808895 0.034463525 -0.014624793 -0.079403535 0.082272574 0.08766499 -0.117148936 -0.13497655
-0.078016594 -0.057960533 0.03334347 0.14004926 0.16552424 0.012637877 0.1826498 0.072320014
-0.060743984 0.03780839 -0.01962712 -0.07773951 0.085757114 0.090321556 -0.11606752 -0.1318857

module.BN_layer.running_var f4 [160]
00000000: 6135 693b ca0c 873a 47f6 a53a 88c4 8f3a
00000010: 0047 4e3a 01f6 273a 06ec 313a 7854 c83a
00000020: ecb3 273a ca7a 5b3a 5087 1c3a cdb0 fc39
00000030: 2dca 463a 88ef e13a f254 043b 45ce f13a
00000040: 4032 183c 8648 3e3b bc54 2e3b eb5e 2c3b
00000050: efb3 093b e8b9 c83a 0e88 d83a e97e 4e3b
00000060: d88f bb3a 2697 eb3a 9c62 e13a ddb9 9b3a
00000070: fadb 093b 40d6 a93b f49b a03b 158f 883b
00000080: 7af5 7a3c e683 ab3b feaf 643b 345d 503b
00000090: 012d 3a3b 4add 153b 69ba 3d3b d1ae 7d3b
000000a0: 169d 0a3b 99bf 213b 21bb 2d3b b256 0f3b
000000b0: ec4c 5d3b 6c29 103c 0392 fa3b d250 a13b
000000c0: 1e69 ae3c 00f3 e53b 9d78 843b a0bc 7d3b
000000d0: c89d 813b c410 383b aa59 923b fa99 a63b
000000e0: 26be 463b 74ed 533b 4ba7 703b 4a3d 413b
000000f0: 4ce1 8f3b 5523 453c d06e 233c a819 c03b
00000100: a67b c93c 0d84 103c 4d7c 9c3b d4e7 7e3b
00000110: 4979 903b bce3 593b c28f b43b 74c5 af3b
00000120: 825d 653b cdbf 6b3b 25cb 7c3b ff2c 6e3b
00000130: 313e a43b a481 683c 14d6 2c3c 3b5b bf3b
00000140: eace f03c d2bc 263c b33c ad3b ee49 8c3b
00000150: a8a5 a93b 84ce 6f3b 67f2 cb3b e734 d03b
00000160: effd 893b e10e 763b abfa 953b 3e27 8e3b
00000170: 62fe b63b fbd0 833c c5b9 363c 0463 bb3b
00000180: fcd8 fa3c 68a8 383c 19e2 b73b 1a1c 8e3b
00000190: b493 b53b 9745 843b 2091 003c 886c c03b
000001a0: b368 953b c5b8 7e3b 20d8 a93b 6738 983b
000001b0: 950d bf3b 7380 913c 2e4a 443c ea26 ba3b
000001c0: cded fe3c 5049 593c e334 ca3b 81e4 913b
000001d0: 1376 a03b 2001 933b 8598 073c 18e6 ce3b
000001e0: 1d5a a53b 6913 763b da34 b43b 526f 9f3b
000001f0: 6560 bf3b 38bf 9b3c 9f34 503c 49be b93b
00000200: 5ddd fe3c 8771 5a3c 403f fd3b 5547 9c3b
00000210: 4109 b83b 9344 8e3b 4dd4 163c bf75 c73b
00000220: 1cc4 a03b c6cf 5c3b b4c2 b93b f6d4 a93b
00000230: c8d1 c13b 21bb 993c 578e 473c c265 ad3b
00000240: 8163 fb3c 66a2 6c3c 0b36 023c 0772 943b
00000250: 63a9 d33b c36d 953b a270 2a3c eac1 bb3b
00000260: 16de 9d3b 99cb 833b 8fed b23b b6be b13b
00000270: 28fb c83b af91 a13c 672e 4b3c 6b67 b63b
0.0035584795 0.0010303494 0.0012661897 0.0010968605 0.0007868856 0.0006407202 0.00067871844 0.0015283963
0.0006397355 0.0008372484 0.0005971091 0.00048196912 0.0007583227 0.0017237524 0.0020192233 0.0018448314
0.009289324 0.0029034927 0.0026600799 0.0026301693 0.002101179 0.0015314193 0.001652004 0.003150875
0.0014309837 0.0017974123 0.0017195526 0.0011880953 0.0021035657 0.0051830113 0.0049014036 0.0041674473
0.015317315 0.0052342294 0.0034894939 0.0031793835 0.0028408172 0.0022867494 0.002895022 0.0038708935
0.002115076 0.0024680851 0.0026509243 0.0021871743 0.0033767773 0.008798938 0.0076468005 0.0049229646
0.021290358 0.0070174932 0.0040426985 0.0038717166 0.0039555766 0.0028086165 0.004466255 0.0050842734
0.003032574 0.0032337578 0.0036720808 0.0029485994 0.004390871 0.01203235 0.00997515 0.0058624335
0.024595093 0.008820546 0.00477556 0.0038895505 0.0044089896 0.0033247313 0.0055103013 0.0053641144
0.0034998362 0.0035972476 0.0038573232 0.0036342738 0.0050122966 0.014191065 0.010549087 0.005839733
0.02939554 0.010176854 0.005286777 0.004281274 0.0051772185 0.0036591599 0.006223965 0.0063539627
0.0042111794 0.003754549 0.004577001 0.004338174 0.005584524 0.01609086 0.011152689 0.0057185907
0.030621044 0.01127062 0.0056116697 0.004336846 0.005541289 0.004036616 0.0078471005 0.005872313
0.0045596003 0.0038867455 0.005183235 0.0046453956 0.0058304765 0.017761445 0.011980576 0.0056809084
0.031119252 0.013262108 0.0061708554 0.0044522886 0.004896888 0.004486218 0.00827611 0.0063140504
0.0050461427 0.003754819 0.0054994645 0.0048655653 0.0058403485 0.019012079 0.012707858 0.0056684357
0.031111414 0.013332731 0.0077284873 0.0047692456 0.0056163375 0.004341671 0.00920589 0.0060870345
0.0049061906 0.0033693179 0.0056689624 0.0051828576 0.0059149005 0.018765988 0.012179933 0.0052916715
0.030687096 0.014443016 0.007947455 0.0045301947 0.0064594015 0.0045602038 0.01040283 0.0057299035
0.0048177345 0.0040220735 0.005460448 0.005424346 0.006133456 0.019722788 0.0124012 0.0055665276
