Stage2_pickedmodel/Stage2_LSTMAgegen_MDDHC/model_epoch_76.pth (torch, 86647 bytes, 14 tensors)

module.LSTM_layer.weight_ih_l0 f4 [64, 256]
000000 d0 62 8b 3d 6a 82 1e be a5 b4 de 3b 35 39 69 be
       0.06805956 -0.15479437 0.006796437 -0.22775729
000010 ad 44 82 be e4 a6 21 3d 44 e2 80 3e cc f7 c4 3d
       -0.2544302 0.0394658 0.25172627 0.09617576
000020 7d e4 66 3d 71 06 78 bc 2c f2 73 be 27 f6 6c be
       0.056370247 -0.0151382545 -0.2382285 -0.23140775
000030 ae bf 53 3b b8 72 37 bc d7 90 80 3d 1f db e0 bd
       0.0032310295 -0.011196785 0.06277626 -0.10979294
000040 eb 54 34 be 09 a5 7c bd 27 90 b1 3b b4 56 20 3d
       -0.17610519 -0.061680827 0.0054187956 0.039145187
000050 fc 45 47 3c 35 cc 98 3c b2 a0 42 3e c7 fb 9e 3d
       0.012162682 0.018652061 0.19006613 0.077628665
000060 0d df 33 be 6c 32 fb 3d 5d d9 17 bd 0d 7e 60 3e
       -0.17565556 0.122654766 -0.03707253 0.21923085
000070 18 2b e7 3d ad 8f 69 be 53 bc 47 3e 16 2c eb 3d
       0.11287516 -0.22808714 0.19505434 0.11483018
000080 c0 0d 65 3e ed 84 6a 3e 09 2b 21 be 81 75 90 3d
       0.22368526 0.2290227 -0.15739073 0.07053662
000090 00 4f 2d 3e d3 a4 1d 3e c6 f1 ee 3d fc 24 82 3d
       0.16924667 0.15394907 0.116672084 0.063547105
0000a0 0f f3 95 bd 44 ff 9b bd 6d 97 d0 bc ed 6f 2d 3e
       -0.073217504 -0.076170474 -0.02546283 0.16937228
0000b0 e9 51 3b bc 9b a5 f3 3d 77 5e 65 3d aa e7 77 be
       -0.011433103 0.11896821 0.05599829 -0.24209467
0000c0 3e b0 e6 3d 41 4a 27 3e a3 8c 12 be c3 30 35 be
       0.11264084 0.1633692 -0.14311461 -0.17694382
0000d0 78 d7 6b bd 27 00 80 bd 98 2c 5b be ff 7c 9f 3d
       -0.057578534 -0.06250029 -0.2140373 0.07787513
0000e0 bf d9 f2 bd 29 82 e8 bd ac 6c 83 bd 76 db 4c be
       -0.11857938 -0.11352951 -0.06417212 -0.20005593
0000f0 07 86 1f be 1b 30 9e 3b 00 18 2a be a0 83 ca bd
       -0.15578471 0.004827512 -0.16610718 -0.09888387
000100 ba 2f ec 3d 5e 1d 82 be 4f 7d 54 3e 74 93 75 3e
       0.115325406 -0.2541303 0.20750926 0.2398203
000110 38 ac 0b be ee c4 0d 3e df b6 c6 bb 34 71 c8 bd
       -0.13639915 0.13844654 -0.0060642804 -0.09787217
000120 7e 32 08 be bb 43 4d be 7e 61 f7 3c 1d 38 a2 3d
       -0.13300511 -0.20045368 0.030197855 0.07920859
000130 50 a4 2d bd d9 e3 36 3d 19 5d 7b bd f5 02 dc bd
       -0.04239303 0.044650886 -0.06136808 -0.107427515
000140 2c 18 b2 3c ea 85 77 3e 19 ec 2b 3c 22 ab 02 bd
       0.021740042 0.24172178 0.010493302 -0.031901486
000150 59 8c 41 3d 2d 46 1a be 80 1e 57 bd 28 a2 13 be
       0.047252987 -0.15065832 -0.05251932 -0.14417326
000160 8b 88 41 bc bf 09 9d bd 35 a0 3f be c9 55 ea 3b
       -0.01181234 -0.076678745 -0.18713458 0.0071513397
000170 bf ed a5 bc 31 23 32 3e 9b c5 e7 3c 1d d1 06 3c
       -0.020254968 0.17396237 0.028292468 0.008228567
000180 e9 7c 10 3e 0a 05 83 3c 9a 2e 4b 3e 1c 85 17 3e
       0.1411015 0.015993614 0.19841996 0.14796871
000190 20 de a7 bc 1e 08 3e 3e 7c a0 16 be e6 9a b4 3c
       -0.02049166 0.18557784 -0.14709657 0.022046518
0001a0 f4 94 14 3e 79 67 55 3d f3 18 1d bd 89 b1 45 be
       0.14509946 0.052100632 -0.03835387 -0.19306006
0001b0 55 4d 91 bc 12 c9 25 3c 98 30 f4 bd 3f df 34 be
       -0.01773707 0.01011874 -0.11923331 -0.17663287
0001c0 c9 8d 89 bc a0 55 81 be 74 b8 2c bd 86 5d 93 bd
       -0.016791241 -0.2526064 -0.042168096 -0.071955726
0001d0 37 a9 0e bd 34 68 32 3e c9 58 29 bd b2 b8 36 3c
       -0.034829345 0.17422563 -0.041344438 0.011152433
0001e0 a5 3d 66 3b 95 cf 5f be ea 04 07 3e c5 2a e6 3d
       0.0035131958 -0.2185653 0.13185468 0.112386264
0001f0 80 95 97 3c 0f 26 8d ba a8 f0 55 3e 46 5d 01 be
       0.018503904 -0.0010768789 0.20892584 -0.12633237
000200 77 37 22 be 64 a5 3c be 0e f1 25 3e 6c 21 55 be
       -0.1584147 -0.18422467 0.16205236 -0.2081353
000210 b6 37 a0 bc 0a 28 0f be 6a 57 bd 3d ae d4 41 be
       -0.019557815 -0.13980117 0.092451885 -0.18928787
000220 1e e6 05 3e 9f ca 8a 3b 08 69 57 be e7 cb 28 bd
       0.13076064 0.00423558 -0.2103616 -0.04121008
000230 9b 6c 35 bd f8 85 2c 3e d3 6c 3f 3e 0b 01 c9 bc
       -0.044293027 0.1684798 0.18693857 -0.02453663
000240 7a 3e 5e be c2 ea db 3d 6e a5 66 3c e6 ae 6d 3e
       -0.2170352 0.10738136 0.014077527 0.2321125
000250 47 3a 13 be 9c 1d 79 be c6 c1 88 be 7d d7 dd bd
       -0.143777 -0.24327701 -0.26710337 -0.10832117
000260 59 b7 31 bc 14 1c 38 3e 8d 36 d3 bc 08 df 99 3d
       -0.010846936 0.17979461 -0.025782848 0.07513243
000270 eb e5 c6 3d 4d 37 2f be 1c 6c e0 ba ae 13 96 3d
       0.09711822 -0.1711094 -0.0017122063 0.07327972
000280 49 b1 17 bd 0d 87 4f 3e d0 5d 1f be 59 4e 12 be
       -0.037034307 0.20266362 -0.1556313 -0.142877
000290 0d 63 70 bd 8f d8 50 be be 1a 1d be 4d 22 99 3d
       -0.058688212 -0.2039511 -0.15342233 0.074772455
0002a0 3e 1e fd 3d 6d c8 99 3c 66 30 42 be 80 25 1a 3a
       0.12359284 0.018772328 -0.18963775 0.0005880222
0002b0 0d 8e 58 be 73 74 47 be b5 8c 2d be 80 3d 4e 3e
       -0.21147938 -0.19478016 -0.16948207 0.20140648
0002c0 36 04 06 be 44 9d 85 3d e1 2e 13 3e 66 23 9a 3d
       -0.13087544 0.06524137 0.14373352 0.07526283
0002d0 98 de 57 3e 85 76 b2 3d 1c fb 13 3e d7 b0 7b be
       0.21081007 0.08714012 0.1445126 -0.24579178
0002e0 df ee 3a 3d fe 6e 72 bd 6d 7f 13 3e 63 98 4a 3d
       0.04563796 -0.05918788 0.14404078 0.049461734
0002f0 a3 25 4a 3d 3b 05 3a be 49 f6 e8 bd bc 3a ff bd
       0.0493523 -0.18166058 -0.113751 -0.124623746
000300 df 08 80 39 7c 93 81 3e d5 ff 19 3d 39 3e 39 be
       0.00024420672 0.25307834 0.037597496 -0.18090142
000310 59 56 3f be 77 45 0c bd a9 9a 7c bd 5e 7d 13 3c
       -0.18685283 -0.034245934 -0.061670933 0.009002058
000320 35 94 0f 3e 94 a0 cb 3d 20 29 62 3e 79 fd 96 bd
       0.1402138 0.09942737 0.22086 -0.07372565
000330 bb 52 82 bb 74 25 17 be 35 76 04 3d 83 78 73 3e
       -0.0039771474 -0.14760381 0.032339294 0.2377644
000340 c0 1e 12 3e 41 03 75 3c f7 7b 7e bd 9e 86 4e 3d
       0.14269543 0.014954389 -0.06212994 0.05042135
000350 c6 f0 00 3d 73 72 86 3c 96 7b 55 be 22 25 a0 bd
       0.03147962 0.016411996 -0.20847926 -0.078195825
000360 3c 55 25 3e 88 ee 8e 3c bb ca 2e be f5 b3 52 3e
       0.16145796 0.017447725 -0.17069523 0.2057646
000370 4c 16 03 be 84 05 21 3d 47 52 ce bd 28 fc ea bd
       -0.12801474 0.0393119 -0.10074287 -0.11473876
000380 6a 0c 9a bb 64 b5 19 3d 03 83 3b be 96 05 14 3e
       -0.004701187 0.037526503 -0.18311696 0.14455256
000390 0f 7a 6a be b8 a9 94 bc 33 f6 37 3e 81 bf 3f 3e
       -0.22898124 -0.018147334 0.17965011 0.18725397
0003a0 bf 94 0d 3e 22 1c 32 bd 97 85 02 3e ae 7b 22 3d
       0.13826273 -0.04348386 0.12746273 0.03966873
0003b0 45 80 5f 3e 30 e4 20 bd 58 1d 48 be de 48 8f bd
       0.21826275 -0.039280117 -0.19542444 -0.0699632
0003c0 3e 04 63 3d e3 ae 15 bd 8c fd eb 3c 4e c2 2b 3e
       0.055423968 -0.036543738 0.028807424 0.1677334
0003d0 f1 b8 4a be 09 ed 22 bd d0 7d 09 be f2 b5 25 3d
       -0.19797112 -0.039776836 -0.134269 0.04045672
0003e0 a6 09 6c 3e e5 8c 38 be 4b b6 a5 bd f1 7a 20 3e
       0.23050556 -0.18022497 -0.0809141 0.15671898
0003f0 7c ed ab 3d f1 6b 37 be 5f 23 41 3e 7e 2e d3 3d
       0.08394906 -0.1791227 0.18861149 0.10311602

module.LSTM_layer.weight_hh_l0 f4 [64, 16]
000000 9c 0c a1 3d 9d 42 80 3e 95 3a 60 be 15 68 ab 3b
       0.07863733 0.25050822 -0.21897347 0.0052309134
000010 4f c7 b4 3d 34 0c 02 3e 79 cd e1 bd 6a c7 d4 bc
       0.088270776 0.12699968 -0.11025519 -0.025973994
000020 6a 1a 3f be 4d 4b 5b bb ea 01 2e 3e 22 c8 e0 3d
       -0.1866242 -0.003346163 0.16992918 0.10975672
000030 3d 63 cd 3d 97 c8 fa 3d 35 f8 b0 bd 47 a7 a7 3c
       0.10028694 0.12245291 -0.08641092 0.020465506
000040 8a b7 ce 3d f6 a2 4e bc 79 8d 41 be ca 1d 5a 3e
       0.10093601 -0.012612095 -0.18901624 0.21300426
000050 fe a0 4c be 94 bb bd bd e9 d2 26 be c0 22 09 3d
       -0.19983289 -0.09264293 -0.16291393 0.033480406
000060 bc 49 34 3e e7 15 ae bd 5b 80 94 3d ea 2c 6b 3e
       0.17606252 -0.08500271 0.07251044 0.22966352
000070 27 c4 35 3d 47 58 76 3e 62 9c be bd 69 8c 6d be
       0.04437652 0.24057113 -0.093071714 -0.23198093
000080 2b c8 b7 bd e0 97 39 bc a6 bd 5f be 45 b3 1b be
       -0.08973726 -0.011327714 -0.21849689 -0.15205105
000090 cd 9f 53 bd 66 f8 5e bb 83 51 a7 bd 60 e1 59 3b
       -0.05166607 -0.0034022569 -0.08169844 0.0033245906
0000a0 27 5a 51 bb 03 5b 5a 3e 80 1e 57 3e 58 e7 37 3d
       -0.0031944604 0.2132378 0.21007729 0.04489836
0000b0 0a cc e4 3c b8 f0 5e 3e 41 63 48 be e6 28 45 be
       0.027929325 0.21771514 -0.19569112 -0.19253883
0000c0 54 1d 2d 3c e4 9c 58 be 55 6c 65 bd 19 dd ef 3d
       0.010566074 -0.21153599 -0.056011517 0.11712093
0000d0 97 4e 9d bd 31 23 60 3e 67 d7 47 3e 50 8c c7 bd
       -0.076810054 0.21888424 0.19515763 -0.09743559
0000e0 fa d5 65 be f1 0f 93 bd 77 92 3e be 19 74 3c 3e
       -0.22444907 -0.07180775 -0.1861056 0.18403663
0000f0 b0 51 f5 3d 95 d0 8d b9 71 c4 7f bd 31 1a f2 bc
       0.11978471 -0.0002704902 -0.0624432 -0.029553505
000100 0d db 75 be fc c5 40 3e f2 de b7 3d b1 01 07 3d
       -0.24009342 0.18825525 0.0897807 0.032960597
000110 30 0c 67 3e bc 82 53 be 19 2b 01 3d e0 7b 40 bd
       0.22563243 -0.2065534 0.03153524 -0.046993136
000120 ce 2d be 3d e6 c4 f9 bc 1d 9a 03 be 3e 44 14 3e
       0.0928608 -0.030489396 -0.12851758 0.14479157
000130 18 d9 3a 3e 79 df 50 bd 97 3c f4 3d b5 52 77 3e
       0.18246877 -0.05099437 0.11925619 0.24152644
000140 73 0f 53 3d 47 3a 78 bc 3f ad e7 bd 77 e0 6a 3d
       0.051528405 -0.015150613 -0.11312341 0.057342973
000150 89 9e a0 bd dc 6e 9c 3d 18 c9 39 be 0d 21 b8 bc
       -0.07842738 0.07638332 -0.18143117 -0.022476697
000160 8a a5 fc 3d c6 47 28 be 39 08 c6 3c 78 f3 da bd
       0.123362616 -0.1643363 0.024173843 -0.10690969
000170 a5 df 07 be 43 47 e6 bd dd 82 12 be 47 cd 45 bd
       -0.13268907 -0.11244061 -0.14307733 -0.04829147
000180 a8 b9 0d 3b 95 e1 28 be f0 09 75 3e 88 05 92 bd
       0.0021625552 -0.16492303 0.23929572 -0.07129961
000190 12 79 ad bd 62 8c cf 3d c1 79 e1 3c 66 b9 2b be
       -0.08470358 0.10134198 0.027523877 -0.16769943
0001a0 66 ca 4f be 57 d7 9b 3c a5 a9 4c 3e f4 c6 22 3d
       -0.20292053 0.01902358 0.19986589 0.039740518
0001b0 5a e3 d4 bd 66 79 4e bd be e1 8e 39 84 7e 62 bb
       -0.10394926 -0.050408743 0.00027252542 -0.0034560272
0001c0 60 53 60 be 11 05 30 be 66 fc 2f 3e b1 3e 43 3e
       -0.21906805 -0.17189433 0.17186126 0.19066884
0001d0 4a b2 ee 3d 8e d9 32 be 1e 2f ef bd 55 d3 1a be
       0.116551 -0.17465803 -0.11678909 -0.1511968
0001e0 b5 47 5e be e2 17 70 bd e1 ce 12 bd f0 3e 15 be
       -0.21707042 -0.058616526 -0.035841826 -0.1457479
0001f0 05 3a 5a be 07 1c 24 3e f4 a5 b8 bc 24 f2 e1 bd
       -0.21311195 0.16026317 -0.02254007 -0.11032513
000200 0a db 33 be 37 5a 55 3e 6b 03 29 3e 2e 7e 85 be
       -0.17564026 0.20835195 0.1650521 -0.2607283
000210 19 c3 b6 bd 1a 8a 80 be f4 53 83 3e 02 3f 42 bd
       -0.08923931 -0.25105363 0.2564999 -0.04742337
000220 b6 d2 7b 3c 56 15 7b bd 93 ad 00 be 38 32 05 bd
       0.015370062 -0.061299644 -0.12566213 -0.032518595
000230 5c a9 0f bd e8 74 0a be 75 f7 bb 3d 78 b5 07 3d
       -0.035073623 -0.13521159 0.09178058 0.033132046
000240 2d 4d 5a bd dc 80 11 bd 65 8e 05 3e da e8 27 be
       -0.053296257 -0.03552328 0.130426 -0.1639742
000250 49 4b f0 bd 58 be 80 3e 95 51 17 bd 28 59 90 3d
       -0.117331095 0.2514522 -0.036943037 0.07048255
000260 4a be 90 bd 72 72 57 3e 83 34 2a 3e 35 6c b2 3d
       -0.07067545 0.21039751 0.16621594 0.08712045
000270 b9 31 0a 3d a8 76 4e 3e 5e f4 99 3d fa a6 14 3e
       0.033738825 0.20162451 0.075173125 0.14516822
000280 1d 3f 6e 3e ba 4d 47 bc 26 44 0c 3e b9 80 57 be
       0.23266263 -0.012164528 0.13697872 -0.21045198
000290 a3 f5 39 bd 42 f8 c2 bd 99 95 7a bc a4 be 27 3e
       -0.045400273 -0.09520008 -0.015294456 0.16381317
0002a0 fc b8 bc 3d a9 99 25 be 66 e3 bc 3d 5d 74 0d be
       0.092149705 -0.16171898 0.0922306 -0.1381392
0002b0 8a e1 34 3e 40 eb ae 3c 61 71 c8 3d 2e 78 b8 3d
       0.17664161 0.02135241 0.0978725 0.090072975
0002c0 49 91 c4 3d ae db 58 3d 55 b9 06 3e 01 08 86 3d
       0.095980234 0.052943878 0.13156636 0.065444954
0002d0 db fb 2d 3c 8a 03 27 3e 1f b3 b4 bd a3 c9 f4 3d
       0.010619129 0.16309944 -0.08823227 0.11952522
0002e0 00 f6 61 3e 50 a6 0d 3e f8 2d b5 3d 9f 83 a6 bd
       0.22066498 0.13832974 0.088466585 -0.081305735
0002f0 ad a2 49 be 4a f2 5e be 78 9f 81 3e cd 61 74 bd
       -0.19690962 -0.21772113 0.25316978 -0.059663583
000300 ed 45 6b bd 4a 43 42 be 44 64 25 3e 0f d3 e5 bd
       -0.057439733 -0.18970981 0.1615153 -0.11221897
000310 c0 7a 57 3e 34 32 75 be aa 50 61 3e aa f5 6d 3e
       0.21042919 -0.23944932 0.22003427 0.23238245
000320 e7 67 83 3e bd 47 19 3e ac ef 16 be b7 cd 10 3e
       0.2566521 0.14968772 -0.14739865 0.14140974
000330 38 83 d9 bd 84 c8 13 be 29 a9 67 3e df ef 52 3e
       -0.10620731 -0.1443196 0.22623123 0.20599316
000340 66 ac af 3d 5b fd 4f be 69 45 ba bd 88 3a e2 3c
       0.08577804 -0.20311491 -0.0909527 0.0276158
000350 a8 a3 72 be bf 00 2f 3e 40 8b 31 bd e1 31 00 be
       -0.23695242 0.17090128 -0.04334569 -0.12519027
000360 e9 6c 11 ba 24 57 97 bd eb b0 42 3e 4f bb 6e bd
       -0.000554754 -0.07389668 0.19012801 -0.0582841
000370 94 d2 68 bd d2 0a 74 be e8 0c e9 3d 43 aa e3 bd
       -0.056841448 -0.23832253 0.11379415 -0.11116459
000380 14 ce b7 3d db e8 f4 3d bf e9 3c 3e 30 00 df ba
       0.08974853 0.11958476 0.18448542 -0.0017013606
000390 4e b0 39 be 48 ce d3 bd 19 2f 67 3e 73 60 c2 bd
       -0.18133661 -0.103420794 0.2257656 -0.094910525
0003a0 5f 21 81 3e fe ca bd 3d 6c d5 45 3e 2c a6 76 3e
       0.25220773 0.09267233 0.19319695 0.24086827
0003b0 c6 e0 71 3e e6 08 c6 3d 14 fa 55 3e a9 26 73 bd
       0.236209 0.09669666 0.20896178 -0.05936304
0003c0 e1 63 a5 3d 3a 60 36 be f8 72 5f bd 04 cd 47 be
       0.08075691 -0.17810145 -0.054553002 -0.19511801
0003d0 0d a4 70 3e f3 c5 32 be 1c d5 45 be 87 fa 92 bb
       0.2350008 -0.17458324 -0.19319576 -0.0044854316
0003e0 59 2b 21 3b df 5b 46 be ab 97 8c 3e db e1 46 3e
       0.0024592488 -0.19370984 0.27459463 0.19422095
0003f0 2a f6 86 bd af 0d 37 bd 52 52 87 3d 03 46 69 be
       -0.06589921 -0.044690784 0.06607498 -0.22780614

module.LSTM_layer.bias_ih_l0 f4 [64]
000000 a5 5b d7 bd c3 b3 cb bd 63 fc 69 be dd 8e 2c 3c
       -0.10515527 -0.09946396 -0.22850184 0.010532108
000010 81 44 4f 3e c2 48 e6 3c e2 d0 2d 3c db 41 15 3e
       0.20240976 0.028110866 0.010608884 0.14575903
000020 5a 6e 3d 3e 58 a1 81 3c 6c 2e da 3c 39 b9 c0 3d
       0.18499127 0.015824005 0.026633464 0.094103284
000030 0a f0 49 3e 7b 65 ad bd fd 6d ca bd ec c7 09 be
       0.19720474 -0.084666215 -0.0988426 -0.1345517
000040 48 1c e4 3d da e5 89 3d b5 8d 15 be 4a 6a ab bd
       0.11138207 0.06733294 -0.14604838 -0.083698824
000050 62 ef fe bd b8 b2 16 3d 76 a1 bc 3d c2 79 b6 bd
       -0.124480024 0.036791533 0.09210484 -0.08909942
000060 db d8 ee 3d 6b 66 5b bd 4f c5 27 3e b2 ac 28 3d
       0.11662456 -0.05356447 0.16383861 0.04118032
000070 f9 fc 39 be 8a 9b 9c bc ec ea 9c 3d 2b 48 ca bd
       -0.18162908 -0.019117136 0.07661995 -0.09877046
000080 62 da e8 3c 06 08 53 be a8 2d cb bc 44 97 81 be
       0.028424446 -0.2060853 -0.024802044 -0.2531072
000090 0f 4a bc bc a3 6f d6 3d ed 73 1c 3d b4 a8 c2 3d
       -0.022984533 0.10470512 0.038196493 0.09504834
0000a0 ec 0e 87 bd 0d 1c 47 be 9f 59 d7 3d 30 ff 25 bd
       -0.06594643 -0.19444294 0.10515141 -0.04052657
0000b0 ea a0 38 3e 54 f4 59 be a6 22 85 be 87 b8 9c bd
       0.18030134 -0.2128461 -0.26002997 -0.07652383
0000c0 9e 70 f2 3d b4 73 65 be 5d 69 f5 3d 2d 24 03 be
       0.11837886 -0.22407418 0.11982987 -0.12806769
0000d0 93 64 b1 3d 71 7b fb 3d 52 f0 64 bc cd 83 6d 3e
       0.08661761 0.12279404 -0.013973312 0.2319481
0000e0 d1 0d 68 be 72 be 85 bd 83 02 6c 3d 92 69 36 3d
       -0.2266152 -0.06530465 0.057619583 0.044534273
0000f0 46 84 17 be 74 04 38 3e ff 4f 0f be 6b 72 ee bd
       -0.14796552 0.17970449 -0.1399536 -0.11642917

module.LSTM_layer.bias_hh_l0 f4 [64]
000000 ad 2a 8d bd 23 ca e2 bc c8 b0 0e 3e d1 50 ae 39
       -0.068929054 -0.027684277 0.13934624 0.0003324808
000010 70 7f 2c 3b b3 11 50 bb 39 5c 39 3e 07 20 54 3b
       0.0026321076 -0.003174883 0.18101586 0.0032367723
000020 dd 95 56 be 01 e8 40 be 6f 39 19 3e b5 6d ba 3d
       -0.20955606 -0.18838502 0.14963315 0.09102956
000030 56 48 82 be 62 81 1c bd a0 47 57 3e f4 86 56 3e
       -0.25445813 -0.038209327 0.21023417 0.20949918
000040 95 0d c8 bd 31 7d 4e 3e a1 d8 7e 3e 17 5d e0 3d
       -0.097682156 0.20164944 0.24887325 0.109552555
000050 d5 f3 44 3c fa 8b 97 bd d0 4e 0c be ec ed 72 3e
       0.012021025 -0.07399745 -0.1370194 0.23723572
000060 96 56 72 be 1a 0f f6 3d 13 83 b5 bd 33 20 28 3e
       -0.23665842 0.12014599 -0.08862891 0.16418533
000070 dd ee 5c bc 5f 89 f2 bd 0e 66 30 be fe f4 1f 3d
       -0.013484684 -0.11842608 -0.17226431 0.039052002
000080 80 62 13 3e 7e c7 09 3d b5 be 0d bd b2 50 48 bc
       0.14393044 0.033637516 -0.0346057 -0.0122262705
000090 92 67 3f 3e 31 cb 58 bd a9 66 9b 3d 38 fb 4e 3e
       0.18691853 -0.052928153 0.0758794 0.2021302
0000a0 a8 ce 43 3e 26 38 72 be 4d e7 08 be 3e d1 52 be
       0.19121802 -0.23654231 -0.13369484 -0.20587632
0000b0 15 32 57 3d cf fa e3 bd b3 8e 1d 3e fc d4 78 3d
       0.052537996 -0.11131822 0.15386467 0.060749993
0000c0 e0 7e 22 3e ed 50 55 be e5 17 bf 3d cb 49 4d be
       0.15868711 -0.20831652 0.093307294 -0.20047681
0000d0 87 5c 4b 3e 42 4a 45 bc 1c 9b 02 3e 18 08 01 bd
       0.19859515 -0.01204163 0.12754482 -0.03150186
0000e0 da 44 94 3d 52 d9 63 be d4 31 45 3e 52 86 37 3d
       0.07239695 -0.2225087 0.19257289 0.044805832
0000f0 77 46 33 3e b8 f5 36 be e1 f3 a5 bd e8 1d 00 3e
       0.17507349 -0.17867172 -0.08103157 0.12511408

module.LSTM_layer.weight_ih_l1 f4 [64, 16]
000000 da 5b 35 3e 44 7b 46 3e d3 e5 f1 3d 5e dc 61 3e
       0.1771082 0.1938296 0.118114136 0.2205672
000010 72 3c 4c be 11 00 3b be c3 7d 04 3e 6c 6c 73 3e
       -0.19944933 -0.18261744 0.129386 0.23771828
000020 01 0a 1c 3e 60 12 8e 3d 55 e8 5c be ab ef 36 3e
       0.15238191 0.069370985 -0.21573003 0.17864864
000030 25 e7 38 3e 76 5c d3 3d 48 72 58 bd c9 fe f6 bd
       0.18056925 0.1032037 -0.052843362 -0.12060315
000040 06 e3 05 3e b1 91 46 be c4 fa 95 bb 77 0c 41 be
       0.13074884 -0.19391514 -0.0045770127 -0.18852411
000050 32 7f 70 3e c2 52 71 bd 91 1b 3f be 56 10 79 3e
       0.23486021 -0.058916815 -0.1866286 0.24322638
000060 fc 13 21 bc f8 61 c2 3d f0 3d 23 bd 2b bf 73 3e
       -0.009831425 0.09491342 -0.03985399 0.23803394
000070 c8 e3 5d 3e b7 23 e1 3d 9f 58 09 3e 7f 0b f0 3d
       0.21668923 0.1099314 0.13412713 0.11720943
000080 8a a7 34 be 0c 4b 25 be d5 c4 80 be 38 9b c4 3d
       -0.17642036 -0.1614191 -0.2515017 0.09599918
000090 1a b5 0b be e4 a6 b0 3d 8e 13 1d be 98 2c 0e 3e
       -0.13643304 0.08625582 -0.15339491 0.13884199
0000a0 79 75 5d 3e ab da 12 3e c0 02 8b 3d 95 bd 49 be
       0.21626844 0.14341228 0.06787634 -0.19701226
0000b0 cd 87 ef bd c0 6a 53 be 01 20 59 3e 6b 5a fd 3d
       -0.11695824 -0.2064619 0.21203615 0.123707615
0000c0 e8 b0 d7 3d 96 69 15 be f1 89 b2 bc 23 52 2d be
       0.10531789 -0.14591059 -0.021794291 -0.16925864
0000d0 11 7f 2a 3d 70 72 f9 3d 51 33 83 3b 0e a0 17 bd
       0.041625086 0.1218003 0.00400392 -0.037017874
0000e0 f4 b2 0f 3e 37 4b 51 3e 39 ec 45 be 26 54 63 be
       0.14033109 0.20438848 -0.19328393 -0.22200069
0000f0 2c 33 3a 3e d9 c0 cd bc 77 07 34 3e 40 d2 dd bd
       0.18183583 -0.025116371 0.17580973 -0.10831118
000100 77 03 2d 3b 86 bf 86 3d 22 5a 7c 3e 2b dd ad 3d
       0.002639977 0.06579499 0.24643758 0.0848945
000110 9a c8 65 3e b9 2e 12 3e aa 05 0c 3d 90 ca 6f be
       0.22439805 0.14275636 0.03418509 -0.23417115
000120 22 31 24 be e8 7e d4 bd b5 9b 34 3e 36 31 2d be
       -0.16034368 -0.10375768 0.17637523 -0.16913304
000130 f0 a9 23 bd b9 5d c1 3d 81 ff 51 be 43 a3 f8 3d
       -0.039956987 0.09441704 -0.20507623 0.12140515
000140 23 37 db 3d cd 48 ef 3d 7a ed bb bd a9 65 1a 3e
       0.10703876 0.116838075 -0.091761544 0.15077843
000150 f5 0b 94 3c df 02 cd 3d b1 0a 42 be 9a d4 e1 3d
       0.018072108 0.10010313 -0.18949391 0.11026879
000160 97 9d 1e 3e 7c 2d 4d 3e 92 54 42 3e 64 18 65 bd
       0.15489803 0.20036882 0.18977574 -0.055931464
000170 91 2f 4b 3d 6c 7f 56 3e 63 04 70 bd 73 f6 18 3e
       0.04960591 0.20947045 -0.058597934 0.14937763
000180 b7 c0 60 3e cb bb 5d 3e dc 41 44 3e ad f9 d6 ba
       0.21948515 0.21653669 0.19165748 -0.0016401313
000190 bd 0e a9 3c da c7 26 3e e9 5f 8e 3d 74 94 9f bd
       0.02063691 0.16287175 0.06951887 -0.07791987
0001a0 a9 c3 e2 bd 3e f3 30 3e 10 17 23 3e 69 59 11 bc
       -0.110724755 0.1728029 0.15926766 -0.008871415
0001b0 94 5f 62 be ed ba eb 3d 72 4d 7f 3d ba 10 1a 3e
       -0.22106773 0.11510263 0.062329717 0.15045443
0001c0 53 ce 32 3e 60 3c 1c 3e b6 ce 05 be 4c 63 48 3e
       0.17461519 0.15257406 -0.13067135 0.19569129
0001d0 2e 96 5a 3e 4d 4c 1e bc 3a ef 93 bd 5e 4b ff 3d
       0.21346352 -0.009661746 -0.07223363 0.12465547
0001e0 f6 f9 a7 3d 02 ef e3 bd 3f 64 6a 3e 3d 20 3f 3e
       0.08201973 -0.111295715 0.22889803 0.18664642
0001f0 e1 d7 40 ba e8 98 3c be ea 70 60 3e 5a e5 b5 3d
       -0.0007356387 -0.18417704 0.21918073 0.08881636
000200 41 73 76 3e d5 cf 92 3d c3 c8 cf 3d 10 92 3c 3e
       0.24067403 0.07168547 0.10145714 0.18415093
000210 f3 2b 20 be 1f 2a 18 be ad a2 3e bd 7a d4 e4 bc
       -0.15641765 -0.14859818 -0.04654186 -0.027933348
000220 30 12 b7 3b 38 04 8e bd 97 45 f2 bc 82 b6 7c 3e
       0.005586885 -0.069343984 -0.029574199 0.24678996
000230 c9 b3 c8 bd d5 16 03 be 6f fd 28 be 63 a3 1d be
       -0.09799916 -0.12801678 -0.16502927 -0.15394358
000240 82 b9 c2 38 da 7c 06 be 55 29 6b 3e 98 37 5d bd
       9.2851944e-05 -0.13133565 0.22964986 -0.054008096
000250 cc e4 12 3e 88 14 52 3c f0 55 4e bd b2 91 5a 3e
       0.14345092 0.012822278 -0.050374925 0.21344641
000260 54 81 96 bd 7e d1 21 3d 0c 2c 56 be a0 37 40 3e
       -0.07348886 0.039506428 -0.2091524 0.18771219
000270 71 5a 4a be 31 be 32 be 25 88 53 3e 02 0d e7 3d
       -0.19761063 -0.17455365 0.20657404 0.11281778
000280 6e 1d 6d 3e 2c 37 96 bd a5 19 14 be 6b 7b 35 3d
       0.23155758 -0.07334742 -0.14462908 0.044307154
000290 63 67 79 3d f0 e8 ea 3d 0d a8 5b bc 14 43 b4 3d
       0.060889613 0.114702106 -0.013406766 0.08801857
0002a0 ed 3d a8 3d 23 5b 45 3e d2 7a 86 bd 68 8a 0c be
       0.082149364 0.19273047 -0.06566395 -0.13724673
0002b0 47 ad cd 3d e5 01 21 3e de 5b 18 bd bc 8d 6b 3e
       0.10042816 0.15723379 -0.037196986 0.23003286
0002c0 a5 d5 62 3d a2 ef 6a 3e fe 95 6e 3e 86 a9 1f be
       0.05537953 0.22942975 0.23299405 -0.15592012
0002d0 3e a4 62 be 5e 7f 03 3e 79 4a b3 3d 5a 5d 80 3e
       -0.22132966 0.12841555 0.08754439 0.25071222
0002e0 9e e7 53 3e 1d 3e 4b be de a6 5b 3d cf f5 55 3e
       0.20693824 -0.19847913 0.053625934 0.2089455
0002f0 6b dc 34 3e 70 10 7b be 2c 70 40 be 56 7b 8b 3d
       0.17662208 -0.24517989 -0.1879279 0.06810634
000300 e3 74 20 3e 7e 91 2a 3e 40 79 4b 3d 13 7d 90 3d
       0.15669589 0.16657063 0.04967618 0.07055106
000310 e3 d0 0d 3d fd a5 32 bd 0d 3f 1c be 1c c1 5b 3e
       0.034623038 -0.04361533 -0.15258427 0.21460384
000320 14 ce 8f 3d 2d 07 08 be 83 70 c5 bd ab 84 d9 3c
       0.07021728 -0.13283987 -0.096406005 0.026552519
000330 36 1d 2b be 9a a2 c8 bd f7 a4 71 3e cf 75 f6 bd
       -0.16710362 -0.09796639 0.23598085 -0.12034189
000340 65 b6 d6 bd 7e 3f 3c be db 17 45 be c4 f2 5f 3e
       -0.10484008 -0.18383595 -0.19247381 0.21869951
000350 f4 c6 8a 3d b6 53 c7 3d fa 32 d6 3c 8f 7c d7 bd
       0.067762285 0.097327635 0.026147354 -0.105218045
000360 61 dc e0 bd 50 4e 24 be f3 a1 23 3e 7c 6f 7f be
       -0.10979534 -0.16045499 0.15979747 -0.24944872
000370 b5 e3 5c bd ed 38 9b 3c c7 67 a6 3d 66 29 42 3e
       -0.053928096 0.018948043 0.08125263 0.18961105
000380 76 e0 28 be 2a b8 96 bd d5 28 41 be 0f a5 09 bb
       -0.16491875 -0.07359345 -0.18863232 -0.0021002924
000390 fa 4a e6 3d 5e 78 6c be 55 c7 ad bc b3 56 39 be
       0.112447694 -0.23092791 -0.021213213 -0.1809948
0003a0 94 bd 63 3e 43 6e a5 bc 38 19 b9 3c 63 5a 5d 3e
       0.22240287 -0.020194178 0.022595033 0.21616511
0003b0 92 de 19 bd d7 23 c4 bc 00 6f 35 3b eb d2 6b 3e
       -0.037565775 -0.023942871 0.002768457 0.23029678
0003c0 d2 4a 25 bd 22 a8 00 be e7 46 36 3e 99 7f ae bd
       -0.040354557 -0.12564138 0.17800485 -0.08520431
0003d0 aa 2d 58 3e fa f8 f0 3d 43 4c 23 be ee d4 ad bc
       0.2111117 0.117662385 -0.1594706 -0.021219697
0003e0 79 53 db 3d bb 05 71 be 5d 63 7e be c6 4e 89 bc
       0.107092805 -0.23537342 -0.24842592 -0.016761195
0003f0 dc 99 66 be a7 dc f3 bc d3 7e 0a 3e e5 6e f9 bb
       -0.2251963 -0.029768301 0.13524942 -0.0076120966

module.LSTM_layer.weight_hh_l1 f4 [64, 16]
000000 d3 a6 54 3e 42 7d a3 3d c3 bc 90 bc b1 8e 58 be
       0.20766763 0.079828754 -0.017668134 -0.21148182
000010 30 6c 74 be c4 58 11 be 7d 38 4b 3e 40 43 51 be
       -0.23869395 -0.14194018 0.19845767 -0.2043581
000020 ae b1 26 3e 37 87 a9 bd 3a 4d 18 3e e8 8c 4a 3e
       0.16278717 -0.08277743 0.1487321 0.19780314
000030 35 71 19 be b2 8e 0d 3e 97 14 17 bc d5 2f 2c be
       -0.14984591 0.13823965 -0.009221218 -0.16815121
000040 20 60 78 3d ad eb 73 3d 47 4b 20 bd 8b be c5 3d
       0.060638547 0.05955093 -0.03913429 0.09655484
000050 26 f6 1b be 36 9a 61 3d 50 f5 e8 3d ce c4 eb bd
       -0.15230617 0.055078708 0.11374915 -0.11512147
000060 db 6b 8b bd 82 53 1e be bf 62 79 be e2 db c6 3c
       -0.06807681 -0.15461543 -0.24354075 0.02427477
000070 3f b3 4e bd 30 42 c5 bd 8d 87 4e 3e 66 af 98 3d
       -0.05046391 -0.09631765 0.20168896 0.074553296
000080 d4 45 6c 3d e7 14 85 3d 8c a7 97 bd 63 c6 80 3b
       0.05768378 0.064981274 -0.07405004 0.0039298995
000090 18 3b 4b 3e 76 5b 33 3e 9b 06 30 be 98 5e 3d be
       0.19846761 0.17515358 -0.1719002 -0.18493116
0000a0 fd 03 17 bd 42 b6 a7 3d 64 3a 29 be f6 e7 2f 3e
       -0.036869038 0.0818906 -0.1652618 0.1717833
0000b0 6d d4 2e 3c c2 04 23 3e 36 db a7 3c 60 88 1b 3d
       0.010670763 0.15919784 0.02049027 0.037971854
0000c0 cb d8 d8 bd bd 8b cf 3d a4 79 76 be c9 43 10 be
       -0.10588225 0.10134075 -0.2406984 -0.14088358
0000d0 40 2d 15 3e 6a 64 45 be 6e e2 96 3d c6 e5 93 bd
       0.14568043 -0.19276586 0.07367407 -0.0722156
0000e0 bb 10 5c 3c 63 e6 29 3e a5 5f 4c be 78 88 f1 3d
       0.013431723 0.16591792 -0.1995836 0.117936075
0000f0 eb 5b 13 3c 60 cd a4 3d 33 fe 36 be 7c 84 3f 3e
       0.008994083 0.08046985 -0.17870407 0.18702883
000100 73 9f 4b be e2 2f 82 3d 1d 44 15 be d5 d1 32 bc
       -0.19885044 0.06356789 -0.14576764 -0.010914286
000110 36 f8 8b 3c a5 c2 05 bd 21 eb 3b be 37 ac 9a 3d
       0.01708613 -0.03265633 -0.18351413 0.075523786
000120 76 32 76 be 3e 0e 3f 3e 0c ed 89 bd 83 63 41 be
       -0.24042687 0.18657777 -0.06734666 -0.18885617
000130 d9 10 4c be 26 15 cc bd b3 5d 13 be b4 bc 71 3e
       -0.19928302 -0.09964971 -0.14391212 0.23607141
000140 93 62 be bd 69 2b 3a bd 4e da 1b be 5e 1e 84 be
       -0.09296145 -0.045451555 -0.15219995 -0.25804418
000150 a9 65 46 be 26 6b 5a 3e ec d1 c6 bd 36 29 7a 3e
       -0.19374718 0.21329936 -0.09708008 0.24429783
000160 a3 da 24 3e 6f bb c9 3c 6a bd 24 be e0 76 88 3d
       0.16099028 0.024625508 -0.1608788 0.066632986
000170 0f 28 26 bd b4 19 4b be 6a f6 3f 3e 91 a5 2b 3e
       -0.040565547 -0.19834024 0.18746343 0.16762377
000180 06 e8 6b 3e 1b da 7d be de 80 40 bd 0e 5e a4 bd
       0.23037729 -0.24790232 -0.046997897 -0.08025752
000190 8a 83 39 3d 84 0b a0 3d e6 d1 50 be 07 b0 54 3e
       0.04529146 0.078146964 -0.2039257 0.20770274
0001a0 04 10 20 3d 21 5b 1c 3e d2 5e 77 3d a1 22 aa 3d
       0.039077774 0.15269138 0.060393162 0.08307386
0001b0 13 25 6c 3e 90 a2 5a 3e 7e 01 93 bb 7f fe 5d 3e
       0.23061018 0.21351075 -0.004486262 0.21679114
0001c0 4a ea fd bd 9a 2a c7 3b cb 7d 13 be d0 e2 f7 3d
       -0.12398203 0.0060780765 -0.14403455 0.12103808
0001d0 b6 1c 59 3e fd d8 29 be 8f a2 3f 3e 5f 9b 81 3e
       0.21202359 -0.1658668 0.18714355 0.2531385
0001e0 33 89 c9 3c 2a 18 2f 3d 60 c6 67 3e 6e 11 0b be
       0.024601554 0.042747654 0.22634268 -0.13580868
0001f0 d2 13 64 be 69 e6 18 be 0f c1 3a 3c 5d e0 ac 3d
       -0.22273186 -0.14931644 0.011398568 0.084412314
000200 8d f5 0d 3e 36 fb 52 3c d6 79 0b 3e 50 34 1e bd
       0.13863201 0.012877276 0.13620695 -0.038624108
000210 36 3e 93 bd 3a 14 8a 3d 58 cf 26 be cb 73 67 bc
       -0.071896 0.06742139 -0.16290033 -0.014126728
000220 8d a0 20 3e 35 8d 21 be bb 2b 2a 3e 9f 89 49 bd
       0.15686245 -0.15776522 0.16618244 -0.04920351
000230 7f 66 f3 3d 9b d7 98 3d f1 2e e8 3d 75 ed e1 3d
       0.11884784 0.074629985 0.11337078 0.110316195
000240 6b 7d 47 bd 76 99 23 be d2 04 03 be f7 73 36 3e
       -0.048703592 -0.1597651 -0.12794808 0.17817675
000250 e1 f4 45 be 5f 8b 31 be 6f cf 23 be c6 41 7d 3e
       -0.19331695 -0.17338322 -0.15997098 0.24732122
000260 7d 27 0e be 7a 43 c2 3d 14 38 bb 3d 40 ef 22 be
       -0.13882251 0.094855264 0.091415554 -0.15911579
000270 3f 38 67 be 97 c1 27 bd 61 46 11 bd 5f 60 d0 bd
       -0.2258005 -0.040956106 -0.03546751 -0.10174631
000280 b9 76 06 be e2 2a 5e bd d2 eb f3 3d 4f 43 03 be
       -0.13131227 -0.054240115 0.119102135 -0.12818645
000290 aa 97 d7 3c 3d 00 51 be e3 12 a4 3d c7 c8 8a 3d
       0.026317436 -0.20410247 0.08011415 0.067765765
0002a0 a7 7d 53 be dc 26 77 be 3a aa 41 be 1f bd 2a 3d
       -0.20653401 -0.24135917 -0.18912593 0.041684266
0002b0 ca 2b 8d b9 20 dc 6f be c7 44 05 3c ed a6 80 3d
       -0.0002692624 -0.23423815 0.008134074 0.062818386
0002c0 65 42 69 3d bb cf 5d 3d 61 9c 56 3e 4a 25 4f 3e
       0.056948084 0.054153185 0.20958091 0.20229068
0002d0 54 f4 a5 bd bc a9 bf 3d c1 14 df 3d c3 f0 0b 3e
       -0.081032425 0.09358546 0.1089263 0.13666062
0002e0 cc a0 67 bd 91 21 d2 bd 0a 61 3b 3e 20 28 66 be
       -0.056549832 -0.102603085 0.18298736 -0.22476244
0002f0 51 07 3e 3e 76 7f 58 3e c3 21 ef 3d 55 ad 16 bd
       0.18557478 0.21142372 0.116763614 -0.036786396
000300 fe a8 6f 3e d5 7d 81 be d9 d9 1a be 35 18 01 be
       0.23404309 -0.25291315 -0.15122165 -0.1260689
000310 9a 53 33 3d 2d a9 48 be f4 38 34 be 50 0c 59 be
       0.0437809 -0.19595785 -0.17599851 -0.21196103
000320 e3 5b ae bd ae 2e cc bd bd f5 7f 3e 91 08 62 be
       -0.0851362 -0.09969841 0.24996085 -0.2207358
000330 70 23 45 3e 49 88 78 be e6 07 ef 3d fd bd e1 bd
       0.192518 -0.24270739 0.116714284 -0.110225655
000340 bf 10 5a bc aa 63 4c 3e bc 5a 6f be 41 c7 3c 3e
       -0.013309657 0.19959894 -0.23374456 0.18435384
000350 dd 1a 3e 3e e7 8f 21 3e a8 a2 db 3d 1c 93 18 be
       0.18564935 0.1577755 0.107243836 -0.14899868
000360 29 20 66 bd 68 4d 60 be e5 0b 83 bb 6c 38 cc bc
       -0.056183014 -0.21904528 -0.0039992207 -0.024929248
000370 b8 f1 90 bd 2e ec 1f 3e c6 a9 42 3e 69 b8 84 3d
       -0.07077354 0.15617439 0.19010076 0.06480486
000380 ad b1 c0 bd 8a 29 7b bd eb 2a d6 3b 4d d2 61 be
       -0.09408889 -0.06131891 0.006535878 -0.2205288
000390 70 7e f3 3d 8e 9e 58 be ac 97 e1 bd d5 e2 17 bd
       0.118893504 -0.21154234 -0.11015257 -0.03708156
0003a0 ac d8 45 3d 24 5b e0 3d 02 2b b3 bd 7c e2 d8 3d
       0.048302338 0.10954884 -0.087484375 0.105900735
0003b0 13 15 0f be 6c bd c5 39 bd 6a e9 3d 9e 16 16 be
       -0.13972883 0.00037715898 0.11397312 -0.14657065
0003c0 4b 5d 32 3e 07 28 05 be cd 4d 3a be f6 e3 61 be
       0.17418401 -0.1300355 -0.18193741 -0.22059616
0003d0 aa e8 00 3e 2a 51 57 bd 98 9b fb bb 2d cb f5 bd
       0.12588754 -0.05256764 -0.0076784603 -0.12001643
0003e0 c3 ce 88 bd 3a 82 eb bd 9e bc 3a 3e fe 71 5a 3d
       -0.06680062 -0.11499448 0.18236014 0.053331368
0003f0 ef 3a 87 3d c2 15 3e bd e7 31 86 be f5 24 aa bd
       0.066030376 -0.04640747 -0.26209947 -0.0830783

module.LSTM_layer.bias_ih_l1 f4 [64]
000000 f3 64 9e 3d d8 2b 04 be c7 dd 2d 3e ce ea 6f bd
       0.07734098 -0.1290735 0.16979133 -0.058573537
000010 00 ea 86 3d 9f b0 14 3d 33 e1 fb bd e2 8e d1 bd
       0.06587601 0.03630125 -0.12298813 -0.10232331
000020 67 35 48 be f6 76 86 bd 8e 9a 9a 3b d2 a6 18 be
       -0.19551621 -0.06565659 0.0047181314 -0.14907387
000030 85 b2 28 be ef 29 39 3e 16 86 cf bc 83 f5 18 be
       -0.1647435 0.18082403 -0.025332492 -0.14937405
000040 53 11 45 3e 7f a1 50 be 77 89 20 3e 68 b0 0a 3e
       0.1924489 -0.20374106 0.15677439 0.13543856
000050 55 25 2b 3e ca d1 25 be 9d ed 27 3e ed 29 6f be
       0.1671346 -0.1619331 0.16399236 -0.23355837
000060 bc 5e 4b bd 9e d7 6c 3c 25 94 3b 3e 28 9f 1e bd
       -0.049650893 0.014455704 0.18318231 -0.038726002
000070 93 2b 20 3e fb b6 54 be f3 93 f5 3d 13 b1 49 3d
       0.15641622 -0.20772927 0.1199111 0.049241137
000080 26 69 47 3e 3a d7 7e be 8d 71 49 be 57 ed 47 3d
       0.19473705 -0.2488679 -0.19672222 0.04881033
000090 02 b8 da bd c0 45 61 3d 9b 7e 26 be 52 b8 f3 3d
       -0.10679628 0.05499816 -0.16259234 0.11900391
0000a0 35 ce 0e 3e b7 8f 0b be d5 b5 c4 bd 58 e0 c6 3d
       0.13945849 -0.13629042 -0.09604994 0.09710759
0000b0 5c 2d d0 3d f2 b1 c1 3c 50 4c 94 bd 41 50 42 3e
       0.101649016 0.023644421 -0.07241118 0.18975927
0000c0 5d dc c9 3a 05 84 33 be f6 06 08 be 8d 48 c8 3c
       0.0015400756 -0.1753083 -0.13283905 0.024448657
0000d0 2e 92 86 3c 58 d8 1b be 8c fe 30 be 34 cb de bd
       0.016427126 -0.15219247 -0.17284602 -0.10878602
0000e0 d2 70 1b 3d 59 e9 5d be e9 ec 7a 3e eb 74 7a be
       0.03794939 -0.21671046 0.24504437 -0.24458663
0000f0 1b 81 65 be a5 b9 62 be d3 3d e6 bd ae 34 50 3d
       -0.22412531 -0.2214113 -0.11242261 0.05083149

module.LSTM_layer.bias_hh_l1 f4 [64]
000000 6a c0 a0 3b cd 1f 17 3e 28 dd 3d 3e bf 61 22 be
       0.00490575 0.14758225 0.18541396 -0.158576
000010 ab c4 16 be ef 03 a0 bd 10 8b 44 be a2 a1 b8 3d
       -0.1472346 -0.0781325 -0.19193673 0.09015204
000020 61 fe 73 3e 0e 8e d2 bd d3 88 3f be eb 87 e0 3d
       0.23827507 -0.10281001 -0.18704538 0.10963424
000030 ba c8 4f be 17 4a 5b 3e c6 44 73 be 3c c0 7c 3e
       -0.20291415 0.21414982 -0.23756704 0.24682707
000040 cb ec f8 3d 6b ca 68 bd 5f bd 9e 3d 32 b2 72 3e
       0.1215454 -0.056833666 0.077509634 0.23700789
000050 09 ab 22 3e 57 19 74 be e9 ed e3 bc ce 16 36 3d
       0.15885557 -0.23837791 -0.027823405 0.044455342
000060 94 c7 49 3e e1 1b 40 3e ec aa ed 3b 45 7a 74 be
       0.1970504 0.18760635 0.0072530415 -0.23874767
000070 e4 13 16 3e fd 5a 24 be ed 42 21 3e 83 3f d0 3d
       0.14656025 -0.16050334 0.15748186 0.10168364
000080 a5 ce ad 3d f8 72 4b 3e 1e d2 bd bd 33 3e c4 bd
       0.0848668 0.19868076 -0.09268592 -0.09582176
000090 98 91 35 bd 3d fb 4b be 99 00 dc bd 05 6b 88 3c
       -0.044328302 -0.19920059 -0.107423015 0.016652593
0000a0 c5 ae 39 be 5a fe 32 3e a7 c4 b3 bc a1 dc f2 3d
       -0.18133076 0.1747984 -0.021944357 0.11858488
0000b0 32 95 88 bd 6e 16 d2 3d b1 e0 52 be 51 f9 ac bd
       -0.06669082 0.102581844 -0.20593525 -0.08445991
0000c0 38 43 05 be eb ff 33 be 46 e9 6f be 25 c4 16 bd
       -0.13013923 -0.17578094 -0.2342883 -0.03680815
0000d0 ce 2c 3c 3e 2f d2 54 be 1e 7c 3a 3e 80 d8 f5 bd
       0.18376467 -0.20783304 0.1821141 -0.12004185
0000e0 43 f8 63 3e ca f4 68 be 6b 1d 2e 3e 42 31 16 be
       0.22262673 -0.2274963 0.1700341 -0.14667228
0000f0 59 23 03 3e 71 b9 ed 3c 9b 00 21 bd 06 82 8b 3e
       0.12806453 0.02901909 -0.039307218 0.27247638

module.BN_layer.weight f4 [160]
000000 1b 50 80 3f f0 11 80 3f 53 5e 7d 3f 40 56 7d 3f
       1.0024446 1.0005474 0.9897205 0.9895973
000010 a5 cf 81 3f bd 10 80 3f 52 b2 7f 3f 17 c6 7d 3f
       1.0141493 1.0005108 0.9988147 0.99130386
000020 6a 69 7f 3f 19 7a 7e 3f 3d f4 80 3f fe 43 7e 3f
       0.99770224 0.99405056 1.0074536 0.993225
000030 62 6d 80 3f fe bd 7e 3f 4e eb 7c 3f 52 d9 7e 3f
       1.0033381 0.99508655 0.98796546 0.99550354
000040 50 b5 7a 3f 97 45 81 3f 71 83 80 3f d7 7a 7f 3f
       0.9793291 1.0099362 1.0040113 0.99796814
000050 a9 f5 7e 3f ca 29 82 3f 7c f8 7c 3f c2 c5 7f 3f
       0.995936 1.0169003 0.9881666 0.9991113
000060 d2 d1 80 3f 64 78 7c 3f 8e a9 7d 3f a0 7c 7c 3f
       1.0064032 0.986212 0.99086845 0.9862766
000070 a8 36 7e 3f 2b b4 80 3f ef 79 7e 3f 2e db 7f 3f
       0.9930215 1.0054983 0.99404806 0.99943817
000080 15 c2 80 3f c5 bf 80 3f 0a 78 80 3f b5 81 80 3f
       1.0059229 1.0058523 1.0036633 1.0039583
000090 e2 a3 7d 3f c5 fc 7d 3f 91 65 7f 3f 35 d8 80 3f
       0.9907819 0.9921382 0.99764353 1.0065981
0000a0 38 25 7f 3f 84 5d 7f 3f b9 22 7d 3f 7d f8 7d 3f
       0.99666166 0.9975207 0.9888111 0.9920729
0000b0 b1 45 7f 3f 3f 8a 7e 3f e0 ff 7d 3f 0d 3e 80 3f
       0.99715716 0.99429697 0.9921856 1.0018936
0000c0 d3 a3 7d 3f 85 d6 80 3f a3 3a 80 3f 1a 8f 7e 3f
       0.990781 1.0065466 1.0017895 0.99437106
0000d0 08 a5 7e 3f 3e 7a 81 3f 4e cb 7d 3f 16 ac 7e 3f
       0.9947057 1.011543 0.99138343 0.9948133
0000e0 77 63 7f 3f 10 f3 7f 3f 39 44 7d 3f 25 63 80 3f
       0.99761146 0.9998026 0.98932225 1.0030257
0000f0 98 55 7b 3f d6 4c 7d 3f 58 a9 7c 3f fd 12 7d 3f
       0.9817748 0.9894537 0.986959 0.988571
000100 5d e0 7c 3f 10 96 81 3f 51 e4 80 3f cc 49 80 3f
       0.9877985 1.012392 1.0069677 1.0022521
000110 ed b3 80 3f 34 de 81 3f d3 04 80 3f 3b 85 7e 3f
       1.0054909 1.0145936 1.0001472 0.99422044
000120 67 31 80 3f 2b 0f 81 3f d5 e3 7f 3f 1f 37 7d 3f
       1.0015076 1.0082754 0.9995702 0.98912233
000130 2b 05 83 3f b0 88 80 3f 43 5e 80 3f 00 e7 7d 3f
       1.0235952 1.0041714 1.0028766 0.99180603
000140 f7 32 7f 3f e7 82 81 3f 87 4e 81 3f fe bc 81 3f
       0.9968714 1.0118073 1.010209 1.0135801
000150 59 9d 7d 3f 03 79 80 3f d6 41 80 3f 6e 75 7e 3f
       0.9906822 1.003693 1.0020092 0.99397933
000160 b6 4a 80 3f f8 f0 80 3f 85 1e 81 3f 30 ed 7e 3f
       1.00228 1.0073538 1.0087439 0.9958067
000170 88 12 82 3f 05 f0 7e 3f a0 60 80 3f 27 4c 80 3f
       1.0161905 0.9958499 1.0029488 1.002324
000180 32 34 80 3f 61 65 82 3f 98 46 7f 3f 82 88 7b 3f
       1.0015929 1.0187188 0.9971709 0.9825517
000190 59 13 80 3f ca e3 80 3f 94 18 7e 3f c6 e8 7d 3f
       1.0005904 1.0069516 0.99256253 0.9918331
0001a0 55 7c 81 3f b2 53 7c 3f a7 00 80 3f ef 3a 7c 3f
       1.0116068 0.9856521 1.0000199 0.98527426
0001b0 78 74 82 3f 96 4e 7e 3f 03 cc 7e 3f 82 d1 7d 3f
       1.0191793 0.9933866 0.9953005 0.9914781
0001c0 0a cd 80 3f bf 72 7e 3f 4a 18 7e 3f 86 61 7d 3f
       1.0062573 0.9939384 0.9925581 0.98976934
0001d0 68 70 7f 3f 6d c2 81 3f 77 fa 7f 3f 2a 13 7c 3f
       0.99780893 1.0137459 0.99991554 0.9846674
0001e0 6a ed 7b 3f 51 88 81 3f bf 9f 7f 3f 68 32 7b 3f
       0.9840914 1.0119725 0.9985313 0.9812379
0001f0 fe 02 82 3f fe df 7d 3f 6f cc 7e 3f 35 13 81 3f
       1.0157163 0.9916991 0.9953069 1.0083987
000200 bc 53 7a 3f b8 8a 85 3f 90 6c 82 3f 34 3f 81 3f
       0.9778402 1.0432959 1.0189381 1.0097413
000210 05 ce 7c 3f ec f6 83 3f d7 c1 83 3f 52 61 7d 3f
       0.9875186 1.030973 1.029353 0.98976624
000220 c5 48 7b 3f e5 4d 7a 3f 37 98 7c 3f 5f 6c 7b 3f
       0.9815791 0.9777511 0.9866976 0.98212236
000230 cb 42 83 3f 08 9e 7f 3f 26 e4 7e 3f 04 9e 80 3f
       1.0254759 0.9985051 0.99566877 1.0048223
000240 11 9b 81 3f 90 62 78 3f 38 ad 80 3f 2d 70 7f 3f
       1.0125448 0.97025394 1.0052862 0.9978054
000250 66 12 7e 3f a0 d3 81 3f f3 91 81 3f f8 d9 7e 3f
       0.99246824 1.0142708 1.0122665 0.99551344
000260 94 c6 81 3f d3 48 80 3f cf ca 7d 3f 22 0c 80 3f
       1.0138726 1.0022224 0.99137586 1.0003703
000270 ad 50 7a 3f 85 9e 80 3f 8e 7b 7d 3f c2 e6 7c 3f
       0.9777935 1.0048376 0.99016654 0.9878961

module.BN_layer.bias f4 [160]
000000 57 4c 02 ba 52 a1 b9 3b f2 ed 44 bb 91 c8 d0 bb
       -0.0004970482 0.005664983 -0.0030049053 -0.0063715656
000010 42 e8 2d 3c ba 4b 8f bb 56 06 8c bb 23 53 83 bb
       0.010614457 -0.004373041 -0.0042732162 -0.0040077134
000020 f5 7d e1 bb df e3 62 bb a4 c5 f9 3b 6f 5b 0d 3a
       -0.0068814703 -0.0034620685 0.0076224376 0.0005392348
000030 64 35 27 bb d3 8f 0f bb 02 ef d3 bb 81 ad 73 39
       -0.0025514 -0.0021905794 -0.006467701 0.00023238921
000040 18 8f 5b bc 51 e6 a7 ba 04 bb b4 bb b0 08 b2 3a
       -0.013400815 -0.0012809729 -0.005515458 0.0013582911
000050 14 49 8b ba de 17 2c 3c 07 db 18 bc 2c 7d 06 3b
       -0.0010626637 0.010503737 -0.009329564 0.0020521386
000060 38 ce f0 3a d8 21 81 bb 6e 78 9f bb d9 cd 06 bc
       0.0018372005 -0.003940802 -0.0048666513 -0.008227789
000070 f4 c8 8e bb 66 4c e3 3b 2e 80 ee 3a 67 2f 68 bb
       -0.0043574516 0.0069365976 0.001819616 -0.0035428645
000080 72 80 73 3b f4 c7 b4 bb 5b 22 de 3b ad de 89 3b
       0.0037155417 -0.0055170003 0.006778998 0.004207453
000090 d7 d1 bf bb af d6 07 bc cb 00 48 3b 6c b7 e6 3b
       -0.0058538723 -0.008290931 0.003051805 0.0070409086
0000a0 b5 8b 6e bb 7c 40 05 ba 5b 9f 9b bb cf 2a 61 bb
       -0.003639919 -0.0005083156 -0.0047492213 -0.0034357791
0000b0 00 e5 06 3b 59 a3 c9 bb 80 8f 8e bb 3f 4d a0 ba
       0.0020583272 -0.0061535058 -0.0043506026 -0.0012230052
0000c0 69 86 63 bc b8 3d 09 39 02 37 54 3a fd bc 09 bb
       -0.013887026 0.0001308833 0.0008095355 -0.0021017187
0000d0 35 a4 f5 ba 51 5b 98 3b ea 18 c1 bb 11 f7 a9 bb
       -0.0018740954 0.0046495576 -0.0058928626 -0.0051869233
0000e0 80 a3 8c 3b 0d 34 a0 3a fe 81 01 bb 78 63 01 3c
       0.0042919517 0.0012222544 -0.001976132 0.00789725
0000f0 78 c9 59 bc 03 d4 bd bb d5 d2 de bb 48 f0 e7 bb
       -0.013292663 -0.005793096 -0.0068000355 -0.0070782043
000100 f0 09 30 bc 84 fa 94 3b 6c 23 94 3a 03 aa 87 3b
       -0.010744557 0.0045464654 0.001130206 0.00414014
000110 03 b9 8f 3b dd 85 44 3c a5 6a af ba 9f 44 99 ba
       0.004386069 0.011994806 -0.0013383223 -0.0011693424
000120 36 58 8e 3b c6 ec e4 3b 22 40 8a 3b b4 b2 1a bc
       0.0043440117 0.0069862334 0.004219071 -0.00944202
000130 e9 5f a3 3c 93 6a e0 3b 46 15 7a ba e4 b7 9d bb
       0.019943194 0.006848642 -0.0009539913 -0.0048131812
000140 6d f6 53 3a f5 5a cf 3a 53 a6 c3 3b 59 e9 2a 3c
       0.00080857315 0.0015819954 0.005970755 0.010431611
000150 80 ff 9e bb 9a 4c 27 bb 38 70 83 3a b6 09 dd bb
       -0.0048522353 -0.0025527836 0.0010027951 -0.0067455424
000160 0b b6 b3 3b 26 0b b4 3a 09 eb aa 3b 44 c1 73 bb
       0.0054843477 0.0013736233 0.0052160067 -0.0037194053
000170 b9 44 6c 3c 9e 3b 5a 3a f6 a5 e4 3b fd b4 cc ba
       0.014420682 0.00083249237 0.006977792 -0.0015617904
000180 de b8 32 3b 45 7e 0c 3c 89 bc 84 3b 19 f3 11 bc
       0.0027270834 0.008575027 0.0040507955 -0.008908057
000190 53 a3 39 bb 08 cc 9e 3b 0f 2e 91 bb b0 24 d4 bb
       -0.0028326109 0.0048460998 -0.0044305394 -0.0064741
0001a0 09 04 3d 3c b6 57 4a bc cd c3 c0 bb 2f 7a 0e bc
       0.011536607 -0.0123500135 -0.0058827163 -0.008696123
0001b0 a4 21 82 3c 22 a9 d3 bb a3 92 c8 b9 ca 08 dd bb
       0.015885182 -0.006459371 -0.00038256226 -0.0067454325
0001c0 fb 03 f3 3b fb 33 d4 bb b4 7b b2 3b 8e 7e 6e bb
       0.007416246 -0.006475923 0.0054468755 -0.003639135
0001d0 ea 6f 73 bb c1 ea 22 3c fa 60 f3 3a 9e 9f 28 bc
       -0.0037145563 0.009943665 0.001856833 -0.010291962
0001e0 66 88 6d bc 0c 49 1d 3c fc e4 3e bb 04 ff 30 bc
       -0.014497852 0.009599935 -0.0029128185 -0.010802988
0001f0 30 68 37 3c 5b 11 0c bc 20 62 48 ba 0a 64 32 3c
       0.011194274 -0.00854906 -0.00076440163 0.010888109
000200 b3 48 91 bc b6 ec 5e 3c 89 42 0d bc 41 95 52 37
       -0.017734861 0.013606241 -0.00862182 1.2551726e-05
000210 92 22 88 ba 3d 5d a3 3c 7f 4a 89 3c cd d6 bd bb
       -0.0010386279 0.01994192 0.016759155 -0.0057934285
000220 25 d9 6e bc 77 23 78 bc 75 b5 b6 bb e3 18 35 bc
       -0.0145781385 -0.015145174 -0.0055758306 -0.011053297
000230 67 06 b2 3c 45 31 0f 3c b3 ca 83 bb 5c 02 6a 3c
       0.021731569 0.008739774 -0.0040219664 0.014282789
000240 2d bc 5c 3c f1 94 51 bc da c5 e4 3a 2c f9 da bb
       0.013472599 -0.012791858 0.0017453984 -0.0066825356
000250 38 36 58 3b 05 ad 39 3c 28 ce 04 3c 5a ee 8e bb
       0.0032991301 0.011332755 0.008105792 -0.00436191
000260 62 42 68 3c c6 fd 80 3b 6b be 9d bb 19 ce 68 b9
       0.014175983 0.003936502 -0.0048139594 -0.00022202022
000270 bf c8 69 bc d0 a7 c3 3b 96 3b 75 bb 53 67 3f bc
       -0.014269053 0.0059709325 -0.003741955 -0.011682349

module.BN_layer.running_mean f4 [160]
000000 14 7b 86 3d df 0c 26 bc b9 72 9a bd f1 41 12 bc
       0.06566444 -0.010134905 -0.07541413 -0.0089268545
000010 be 45 01 bd 6a 4c f4 bc 85 b7 72 bd 40 69 12 3d
       -0.031560652 -0.029821593 -0.05925705 0.035744905
000020 d2 2e 9c bb b3 25 93 3c 88 70 f4 bc 99 20 33 3d
       -0.0047663236 0.017962312 -0.029838815 0.04373226
000030 1c 61 5a 3c 28 f2 da 3c f8 e7 86 bd a6 70 c3 3c
       0.013328817 0.026726797 -0.06587213 0.023857426
000040 25 1f d8 3d 68 2d 59 bc 5f 8d f3 bd 8a 68 86 bc
       0.10552815 -0.013255455 -0.11892199 -0.01640727
000050 05 fe 48 bd df ed 24 bd 55 1a c2 bd e1 bb 61 3d
       -0.049070377 -0.040265914 -0.09477679 0.055110816
000060 17 0e 18 bb ab d6 28 3d 23 a1 23 bd 38 f7 8b 3d
       -0.0023201758 0.04122035 -0.039948594 0.068342626
000070 07 84 9e 3c 21 5c 0d 3d 3b 37 d9 bd 4f 7c 6e 3c
       0.019350065 0.03451169 -0.106062375 0.014556005
000080 bc 83 05 3e 1e a1 55 bc eb 1c 11 be 92 88 aa bc
       0.13038534 -0.013038902 -0.14171188 -0.020817075
000090 f7 46 65 bd b9 1d 30 bd 1c e8 e7 bd 57 06 7e 3d
       -0.05597588 -0.042997096 -0.11323568 0.062017765
0000a0 12 63 6b 3b 4b 72 72 3d 53 c5 2b bd 16 df a6 3d
       0.0035917205 0.05919103 -0.04193623 0.08148019
0000b0 2c 4f ad 3c 13 20 23 3d 15 d6 03 be 8b 38 10 3b
       0.021155916 0.03982551 -0.12874635 0.0022006358
0000c0 22 4c 15 3e a0 87 55 bc 84 e9 1d be 44 32 d8 bc
       0.14579824 -0.013032824 -0.1542111 -0.026391156
0000d0 b1 38 7b bd 3d d4 2e bd 81 eb f7 bd 15 78 81 3d
       -0.061333362 -0.042682875 -0.12105466 0.06321732
0000e0 f0 35 03 3c 94 f8 90 3d ed e8 2a bd 58 0f b5 3d
       0.008008465 0.070786625 -0.04172604 0.08840817
0000f0 89 44 af 3c 0d c7 28 3d da 8b 11 be bf 0e 18 bc
       0.021394985 0.041205455 -0.14213505 -0.0092808595
000100 85 80 21 3e ef 52 60 bc 7f 00 25 be e1 5d ec bc
       0.15771683 -0.013691648 -0.1611347 -0.028853359
000110 30 d4 6a bd 5d dc 2b bd df ca 02 be e1 2a 84 3d
       -0.057331264 -0.0419582 -0.12772702 0.06453491
000120 26 83 4b 3c 9a 1b a7 3d 70 e7 28 bd 33 39 c2 3d
       0.012421405 0.081595615 -0.04123634 0.09483566
000130 5f 79 a7 3c c3 97 31 3d e6 fc 1a be 8a bf c9 bc
       0.020443616 0.043357622 -0.15135536 -0.024627466
000140 7e 67 28 3e 39 6c 42 bc f2 08 29 be 67 55 f2 bc
       0.16445729 -0.011866623 -0.16507319 -0.029581739
000150 8c 58 64 bd 73 e9 25 bd f5 89 07 be 95 84 8e 3d
       -0.055748507 -0.040505838 -0.1323622 0.06958882
000160 20 6d 8a 3c b8 31 b6 3d af de 31 bd 4e 3b c9 3d
       0.016897738 0.08896202 -0.04342526 0.098257646
000170 d0 72 b3 3c 18 d5 40 3d f9 5d 23 be 91 c1 19 bd
       0.021905333 0.047078222 -0.15953816 -0.037538115
000180 73 8f 2a 3e d3 24 64 bc 06 db 27 be 5a f6 ef bc
       0.16656284 -0.013924795 -0.16392145 -0.029292274
000190 50 87 54 bd 4c 02 34 bd 42 70 09 be 1e 8b 87 3d
       -0.051886857 -0.043947503 -0.13421729 0.066183314
0001a0 3b 4d 95 3c 0c f5 bb 3d 69 03 30 bd 41 fe c5 3d
       0.018225303 0.09177598 -0.042972002 0.09667636
0001b0 0e 6d ba 3c 33 ca 5d 3d 8a 27 28 be 3a 8c 28 bd
       0.02275708 0.05414791 -0.16421333 -0.041149355
0001c0 5c 84 2d 3e b3 83 6f bc 63 71 28 be 51 d5 dc bc
       0.16945022 -0.014618802 -0.16449504 -0.026957186
0001d0 89 09 40 bd 43 dd 3a bd 43 5e 0a be ed c7 84 3d
       -0.046884093 -0.045621168 -0.1351252 0.06483445
0001e0 a9 13 88 3c a7 e7 c0 3d a9 1d 23 bd ad 21 c8 3d
       0.016610937 0.09419184 -0.039823208 0.09772048
0001f0 ef fd c1 3c 1c 66 68 3d ab eb 2c be fc 6d 36 bd
       0.023680655 0.056738004 -0.16886775 -0.044538483
000200 98 3a 2f 3e 78 98 5c bc 7c 09 28 be ff 3d d8 bc
       0.17112195 -0.013464086 -0.16409868 -0.02639675
000210 ca 45 3a bd 38 19 41 bd f6 5f 09 be 4e 95 7f 3d
       -0.045476712 -0.04714319 -0.13415512 0.062398247
000220 69 21 77 3c f5 c7 c5 3d 28 b0 2e bd 88 12 c7 3d
       0.015083649 0.096572794 -0.042648464 0.097203314
000230 10 8d b7 3c 31 1f 75 3d 8b 33 2b be 91 c2 3f bd
       0.022406131 0.0598442 -0.16718881 -0.046816412
000240 85 64 2e 3e a8 67 76 bc c7 2a 2a be 4c eb cc bc
       0.17030533 -0.015039362 -0.16617881 -0.025014542
000250 32 50 31 bd 05 1b 47 bd 80 06 07 be 50 42 73 3d
       -0.04328937 -0.048609752 -0.13186073 0.059389412
000260 a8 27 71 3c 1b e9 c2 3d 0c ae 29 bd 06 de c8 3d
       0.014718927 0.095171176 -0.04142575 0.098079726
000270 74 2b b0 3c a8 01 7f 3d 63 4b 29 be 06 4f 3b bd
       0.021505095 0.06225744 -0.16532664 -0.04572966
