Stage2_pickedmodel/Stage2_LSTMAgegen_HCOthers/model_epoch_183.pth (torch, 86647 bytes, 14 tensors)

module.LSTM_layer.weight_ih_l0 f4 [64, 256]
-0.013435066 -0.10210994 -0.21511665 0.09152002 0.015564865 -0.11613386 -0.24561073 0.04574822
-0.11213187 0.17908496 0.068909205 0.114588104 0.047157858 -0.18963434 0.12968205 0.03880155
-0.1924962 0.020369902 -0.21632312 0.19928998 -0.23802352 0.12064631 0.16635838 -0.19524461
-0.15870418 0.21033768 0.14489587 0.20540982 -0.059138723 -0.16701315 -0.027434828 -0.00154104
0.104133055 -0.06414124 -0.1661572 0.15130551 -0.10087104 0.21933112 -0.11204057 0.1796316
0.060538065 -0.08111462 0.24159805 0.0437319 -0.09481136 0.025546769 -0.024189401 -0.057932936
0.06298663 0.09513064 0.12863024 -0.078397565 -0.11031288 -0.18836913 -0.19832857 0.062321536
-0.047941707 -0.15508693 -0.0848275 -0.046098962 -0.1770653 0.20120093 0.2189965 0.08600201
0.096164644 0.06702597 0.12701541 -0.02783095 -0.12859747 -0.15984334 -0.02608694 -0.047756653
0.10395672 -0.16744925 -0.24551192 -0.0146719385 0.18076086 -0.119406566 -0.23171543 0.17877981
0.03191063 0.07699624 0.067800365 -0.014222132 0.010989857 0.17228521 -0.12602504 -0.07087155
-0.15158069 0.15785615 0.07696474 0.11846037 -0.20047049 -0.15738025 0.19041319 -0.15837948
-0.22430639 -0.11811015 0.14545965 0.078121305 0.04906554 -0.043175656 -0.16381775 0.25850257
0.25882977 -0.068412066 -0.18886839 0.078401975 -0.15246257 -0.18695775 0.09878036 -0.091237
0.031868678 -0.156988 0.059793085 0.18491177 0.12006784 0.0010499196 0.056377724 0.14462288
-0.01781795 -0.024602287 -0.19140497 -0.107540466 -0.19328263 0.1712576 -0.06142055 -0.1143463
0.22173022 -0.07402778 0.19794574 -0.2138113 -0.1822868 0.18413734 0.11511119 -0.22745554
-0.029254153 0.0031750055 -0.06706632 -0.2098383 0.114989065 0.14912571 0.19961146 0.24399996
0.15893109 0.093845695 0.055016212 0.112543285 0.15154381 -0.20519347 0.103692725 0.08864801
-0.046449844 -0.19923106 0.041612353 0.22907272 0.14892188 0.2644685 -0.02697775 0.16410977
0.070968926 -0.20335965 0.1886428 0.1941207 0.008811707 0.14069137 -0.10738192 -0.07544565
0.18543649 0.106975965 0.050190557 0.19324438 -0.19508995 -0.1145944 -0.14265542 0.079652995
0.14067645 -0.0106489435 0.2415528 -0.099485524 -0.17409 0.0069303825 0.010852662 0.1507713
-0.19151647 -0.08047186 0.012656651 0.1365991 -0.12171866 0.14561449 -0.023575062 -0.11777071
-0.20775576 -0.06504086 0.013113651 0.14398858 0.2546074 0.14799146 -0.061900984 -0.10176963
-0.16815856 0.24219863 -0.05646441 0.20552048 0.07044057 0.07337543 -0.18337607 -0.22633389
-0.060072213 -0.18469052 -0.15801498 0.091244705 -0.05815919 0.12450505 0.116103746 0.029111385
-0.15991722 0.0092166355 0.031865582 -0.15273486 0.045075078 0.15481445 -0.11132613 -0.018056037
-0.19718686 0.13373306 -0.03562358 0.1906488 -0.2364692 0.04863538 0.16896774 0.23753938
0.028271979 0.06760185 -0.112331405 0.001953602 0.036238905 0.04703232 0.19559114 -0.097759515
0.07419973 -0.06363124 -0.21611139 -0.107018724 0.09700429 0.1720804 0.12412771 0.016193114
-0.15926202 -0.06148262 -0.19715536 -0.12174359 0.23280066 0.1181856 0.20826943 0.15062866
00000000: c01e 5cbc 041f d1bd 8a47 5cbe d96e bb3d
00000010: c703 7f3c 97d7 edbd 6181 7bbe 7c62 3b3d
00000020: 65a5 e5bd 0c62 373e 4520 8d3d 2bad ea3d
00000030: 9928 413d 812f 42be 5fcb 043e 60ee 1e3d
00000040: b91d 45be c8de a63c cf83 5dbe ac12 4c3e
00000050: 70bc 73be 6a15 f73d da59 2a3e 34ee 47be
00000060: 5983 22be c362 573e 955f 143e f456 523e
00000070: 723b 72bd 7f05 2bbe 01bf e0bc b9fc c9ba
00000080: b643 d53d 7c5c 83bd 1d25 2abe d5ef 1a3e
00000090: 7a95 cebd 5698 603e 8775 e5bd 59f1 373e
000000a0: c3f6 773d 6c1f a6bd 7b65 773e 3920 333d
000000b0: 752c c2bd 7547 d13c da28 c6bc 164b 6dbd
000000c0: 22ff 803d dad3 c23d a5b7 033e e78e a0bd
000000d0: b8eb e1bd d6e3 40be a516 4bbe de44 7f3d
000000e0: 865e 44bd 1ccf 1ebe 0aba adbd 44d2 3cbd
000000f0: 9b50 35be 9e07 4e3e 9e40 603e d221 b03d
00000100: f8f1 c43d e944 893d 5410 023e bcfd e3bc
00000110: 0eaf 03be f9ad 23be 47b4 d5bc 7b9c 43bd
00000120: 43e7 d43d d177 2bbe 7a67 7bbe 9262 70bc
00000130: 6019 393e 6e8b f4bd cf46 6dbe 0e12 373e
00000140: b9b4 023d 34b0 9d3d ebda 8a3d f203 69bc
00000150: cd0e 343c 896b 303e b50c 01be 1a25 91bd
00000160: f837 1bbe 0ba5 213e b19f 9d3d 5a9b f23d
00000170: 2348 4dbe 4a28 21be adfb 423e 3b2e 22be
00000180: 93b0 65be bce3 f1bd 60f3 143e 10fe 9f3d
00000190: f3f8 483d f5d8 30bd d7bf 27be 735a 843e
000001a0: 5685 843e a01b 8cbd b766 41be 3791 a03d
000001b0: 261f 1cbe da71 3fbe 5b4d ca3d 77da babd
000001c0: bb88 023d 76c1 20be 98e9 743d 8359 3d3e
000001d0: 21e6 f53d 759d 893a 54ec 663d 0518 143e
000001e0: f3f6 91bc bc8a c9bc aaff 43be 2d3e dcbd
000001f0: e2eb 45be 275e 2f3e 1d94 7bbd 652e eabd
00000200: 3f0d 633e e09b 97bd 4ab2 4a3e 59f1 5abe
00000210: 64a9 3abe 808e 3c3e 6abf eb3d 1bea 68be
00000220: 68a6 efbc c113 503b 115a 89bd dadf 56be
00000230: 637f eb3d 69b4 183e f266 4c3e 20db 793e
00000240: d5be 223e 2c32 c03d ae58 613d 187d e63d
00000250: 4d2e 1b3e 3d1e 52be da5c d43d 168d b53d
00000260: 3142 3ebd 3a03 4cbe b771 2a3d 0a92 6a3e
00000270: fa7e 183e 6a68 873e 7100 ddbc 640c 283e
00000280: 2858 913d 833d 50be 942b 413e 94c7 463e
00000290: fa5e 103c 6611 103e 0deb dbbd 4083 9abd
000002a0: 10e3 3d3e 3716 db3d 9d94 4d3d dbe1 453e
000002b0: a9c5 47be 78b0 eabd 4314 12be 1c21 a33d
000002c0: 7d0d 103e e878 2ebc 9e59 773e 11bf cbbd
000002d0: a644 32be 4318 e33b 5dcf 313c cb63 1a3e
000002e0: e51c 44be 6ece a4bd d85d 4f3c a2e0 0b3e
000002f0: a247 f9bd f71b 153e 7d20 c1bc c531 f1bd
00000300: edbd 54be 2434 85bd a4da 563c be71 133e
00000310: e75b 823e 138b 173e e38b 7dbd 996c d0bd
00000320: c231 2cbe eb02 783e 3a47 67bd f673 523e
00000330: 2543 903d dc45 963d f0c6 3bbe 12c4 67be
00000340: 480e 76bd 831f 3dbe aece 21be 81de ba3d
00000350: 5538 6ebd 81fc fe3d cdc7 ed3d 007b ee3c
00000360: 57c1 23be 5f01 173c 7c85 023d 8766 1cbe
00000370: a5a0 383d ae87 1e3e f4fe e3bd 41ea 93bc
00000380: 5aeb 49be 52f1 083e 08ea 11bd 7039 433e
00000390: fb24 72be e435 473d e105 2d3e 863d 733e
000003a0: a39a e73c d772 8a3d 020e e6bd 0108 003b
000003b0: 3f6f 143d f6a4 403d 0b49 483e 2436 c8bd
000003c0: 07f6 973d 1851 82bd 4e4c 5dbe a22c dbbd
000003d0: 2faa c63d d835 303e ab36 fe3d 6ca7 843c
000003e0: 9515 23be 33d5 7bbd 18e3 49be b454 f9bd
000003f0: 4c63 6e3e 4b0b f23d 9544 553e 663e 1a3e

module.LSTM_layer.weight_hh_l0 f4 [64, 16]
-0.22173293 0.044839185 0.26966885 0.13286 0.042105176 0.20429091 -0.21198899 -0.14899783
0.32391128 -0.010380395 0.041279018 0.11131379 0.12085855 -0.11345249 -0.06870293 0.23251037
-0.077356055 -0.22701834 0.13220336 0.106669456 -0.22358236 0.0065183733 -0.18556471 -0.13490483
0.00012827486 0.19787067 0.11501963 -0.17624599 0.023491085 0.12977219 0.0025055336 -0.105998114
0.2632842 0.018736405 -0.057446 -0.116161905 0.0190998 -0.049238708 0.024003474 0.0040289173
-0.019391302 -0.032476142 0.20064884 0.050293848 -0.10478093 -0.07670272 0.228708 0.112215444
0.1476453 -0.21756954 0.056544892 -0.22060537 -0.045903347 0.2209524 -0.14313725 -0.18760982
0.16152126 0.11566585 -0.09337796 0.17866966 0.22413702 0.090097055 -0.26492628 0.23270579
-0.22880183 -0.2631928 0.23950209 -0.044424057 0.16345386 -0.049821556 0.23080452 -0.078111045
0.03944939 0.07470763 0.20271523 0.07161202 0.2466012 -0.10617984 -0.21650769 -0.19705757
-0.24155062 0.0012389726 -0.02957452 0.08077037 0.14291738 -0.1976216 -0.19513647 0.0066961762
0.043279205 0.22766478 -0.09185498 0.11685822 0.121827684 0.009650136 0.17966883 0.022278324
-0.063341625 -0.1378916 0.12182542 -0.25199923 0.26718637 0.19172491 -0.12935661 -0.078757055
-0.005912501 -0.11352124 0.03736586 -0.08786625 -0.06835528 -0.15297817 -0.15538538 -0.25304103
0.11271251 0.03754257 -0.036610484 -0.04105377 -0.14392197 0.005955157 0.16911347 -0.13570055
-0.0030659111 -0.10482217 -0.120645344 0.0028359527 0.026828589 0.15138777 -0.17169932 0.13607258
-0.07702363 0.09918513 -0.10313762 0.32064557 -0.14844519 -0.18784511 -0.04889105 -0.05641011
-0.05853145 -0.04438686 0.071771175 0.12972823 0.14601323 -0.046719577 0.257029 0.05999056
0.24901563 -0.16133493 -0.1813818 -0.0427588 0.01263349 0.009809352 -0.15918943 0.04455978
-0.061143186 -0.10068552 -0.10884028 -0.20957874 -0.2406341 -0.018161587 0.19099459 -0.01674745
0.2159174 -0.14132825 0.19687562 0.24132971 0.0081287855 -0.16061355 0.045965716 0.0005234127
-0.20327665 -0.06958946 0.10307758 -0.20501636 -0.1323165 -0.094397806 0.19068582 0.14252059
-0.094893545 -0.22764164 0.08074767 -0.022782573 0.051933907 0.024345955 -0.2225295 0.024814768
-0.28008455 -0.10354928 -0.16238867 0.19970894 0.11424186 -0.010752984 -0.23181239 -0.15804784
0.045369077 0.14355539 -0.042516585 0.2544226 -0.19166914 0.05205013 0.09295715 0.1979706
-0.20220494 0.16381766 0.19557154 0.20528406 -0.040481288 0.16323984 -0.09378543 -0.017184991
0.08506733 -0.2072714 0.03436562 0.048661336 0.1257783 -0.06522144 0.136029 0.21956371
-0.11881851 0.17733003 0.107655756 -0.22916871 0.10836533 0.047802005 -0.01640067 0.18525952
0.057618424 -0.081159234 0.10682322 0.023397246 -0.12109979 0.015811889 0.2056417 0.10634854
0.22972786 0.1580738 0.22544701 0.26356816 0.13040559 -0.1552517 0.24502562 0.15239766
0.22807664 -0.21108373 -0.047784712 -0.1877359 0.2134764 -0.016110739 0.062374488 0.13795656
0.11073766 0.18867119 0.051258557 0.119383164 -0.15348634 -0.056109466 0.0340236 0.025908647
00000000: f50d 63be 4ba9 373d 0912 8a3e 740c 083e
00000010: 7a76 2c3d a331 513e a413 59be e392 18be
00000020: b3d7 a53e 8812 2abc 3014 293d 7cf8 e33d
00000030: b084 f73d c759 e8bd 1fb4 8cbd 3317 6e3e
00000040: da6c 9ebd 7f77 68be 5160 073e 8475 da3d
00000050: c6f2 64be 1498 d53b ad04 3ebe 7e24 0abe
00000060: 8581 0639 9c9e 4a3e 698f eb3d d479 34be
00000070: 6070 c03c 00e3 043e e133 243b 8a15 d9bd
00000080: 30cd 863e 177d 993c 7f4c 6bbd 4be6 edbd
00000090: 2f77 9c3c 87ae 49bd efa2 c43c 0205 843b
000000a0: 82da 9ebc b405 05bd e476 4d3e ec00 4e3d
000000b0: 6297 d6bd 5116 9dbd 6e32 6a3e 36d1 e53d
000000c0: 5430 173e 8dca 5ebe 9e9b 673d 60e6 61be
000000d0: 2605 3cbd 5941 623e 9292 12be ca1c 40be
000000e0: d465 253e 38e2 ec3d f23c bfbd 2ef5 363e
000000f0: 2d84 653e ce84 b83d 6ba4 87be 6d4a 6e3e
00000100: 074b 6abe 35c1 86be 0940 753e 00f6 35bd
00000110: 7360 273e b011 4cbd 0558 6c3e aff8 9fbd
00000120: af95 213d 5000 993d 9594 4f3e 53a9 923d
00000130: 0685 7c3e d174 d9bd 31b4 5dbe 76c9 49be
00000140: 0c59 77be 0665 a23a 4446 f2bc f06a a53d
00000150: ef58 123e 515d 4abe dbd1 47be 996b db3b
00000160: 8945 313d f520 693e 771e bcbd 5d53 ef3d
00000170: cb80 f93d 9b1b 1e3c 1bfb 373e 0881 b63c
00000180: 41b9 81bd 7533 0dbe 9b7f f93d 0b06 81be
00000190: a7cc 883e 8953 443e 0f76 04be 614b a1bd
000001a0: a7bd c1bb d37d e8bd f20c 193d 38f3 b3bd
000001b0: dafd 8bbd 4fa6 1cbe 581d 1fbe 988e 81be
000001c0: d1d5 e63d 3dc6 193d e0f4 15bd ff27 28bd
000001d0: 4860 13be 7a23 c33b 152c 2d3e 16f5 0abe
000001e0: 74ed 48bb 02ad d6bd e814 f7bd 64db 393b
000001f0: a1c7 db3c 6505 1b3e f2d1 2fbe 9c56 0b3e
00000200: 91be 9dbd 9321 cb3d d139 d3bd a82b a43e
00000210: 0402 18be 785a 40be fb41 48bd 4a0e 67bd
00000220: acbe 6fbd ffce 35bd c4fc 923d 7ad7 043e
00000230: 7e84 153e 075d 3fbd 4e99 833e a9b8 753d
00000240: f4fd 7e3e fc34 25be 27bc 39be da23 2fbd
00000250: b3fc 4e3c 68b7 203c 8e02 23be 5184 363d
00000260: 4771 7abd 3634 cebd a7e7 debd cf9b 56be
00000270: c968 76be 9cc7 94bc 1694 433e f331 89bc
00000280: 7319 5d3e 5ab8 10be c399 493e 231f 773e
00000290: 992e 053c e177 24be 8c46 3c3d a235 093a
000002a0: c127 50be eb84 8ebd 571a d33d cfef 51be
000002b0: fa7d 07be a353 c1bd 2543 433e ebf0 113e
000002c0: 8c57 c2bd e41a 69be 095f a53d 85a2 babc
000002d0: a6b8 543d 2b71 c73c c6de 63be 5748 cb3c
000002e0: 3e67 8fbe a511 d4bd 3749 26be 8080 4c3e
000002f0: a3f7 e93d 492d 30bc 3a60 6dbe 4bd7 21be
00000300: edd4 393d 2f00 133e df25 2ebd ae43 823e
00000310: ea44 44be 8432 553d 5160 be3d ceb8 4a3e
00000320: d00e 4fbe d1bf 273e e843 483e fc35 523e
00000330: b5cf 25bd 5828 273e 9312 c0bd 8ac7 8cbc
00000340: c837 ae3d f43e 54be f7c2 0c3d 1c51 473d
00000350: 07cc 003e d192 85bd 304b 0b3e 4fd5 603e
00000360: 1e57 f3bd 0196 353e 9f7a dc3d 34ab 6abe
00000370: a4ee dd3d 09cc 433d b35a 86bc acb4 3d3e
00000380: 4c01 6c3d d036 a6bd 22c6 da3d 95ab bf3c
00000390: 2b03 f8bd ef87 813c bd93 523e 43cd d93d
000003a0: c83d 6b3e 19de 213e 95db 663e 68f2 863e
000003b0: 0b89 053e 4dfa 1ebe ffe7 7a3e 220e 1c3e
000003c0: ec8c 693e 5526 58be e7b9 43bd d73d 40be
000003d0: 8f99 5a3e abfa 83bc 647c 7f3d 7c44 0d3e
000003e0: 6dca e23d 0533 413e 7ef4 513d 297f f43d
000003f0: 862b 1dbe 0ad3 65bd 555c 0b3d 5f3e d43c

module.LSTM_layer.bias_ih_l0 f4 [64]
0.18595372 -0.12414214 -0.10925292 -0.08886146 -0.1938211 -0.22620381 0.18825097 0.2376463
0.20086326 0.11167908 -0.053291988 0.22983886 0.029878072 0.127756 0.13524592 -0.12445981
-0.18260112 0.13290301 0.13389541 -0.2078806 0.2335466 0.066562265 0.1537696 -0.14723288
0.22561054 -0.03059808 0.08479171 0.20521526 -0.21353324 -0.20854813 0.07200914 0.18860008
0.16104797 0.013114078 0.16598561 -0.21298914 -0.001136334 0.15117303 0.24533959 -0.17122072
0.08176853 -0.016257767 -0.18913397 0.029318321 0.23123825 0.23614249 0.17492281 -0.17263158
-0.19664131 -0.04936924 0.11303875 -0.04244586 -0.08834985 -0.1930934 0.17951006 -0.056172624
0.11823805 0.088328905 0.1880651 -0.09949472 -0.09662718 -0.010870986 0.13166606 0.048766073
00000000: a76a 3e3e 3c3e febd ffbf dfbd fffc b5bd
00000010: 0a79 46be f9a1 67be ddc4 403e 8d59 733e
00000020: 19af 4d3e 00b8 e43d b348 5abd e15a 6b3e
00000030: dcc2 f43c 78d2 023e e87d 0a3e c9e4 febd
00000040: cafb 3abe ba17 083e e11b 093e a7de 54be
00000050: d726 6f3e cc51 883d c775 1d3e 37c4 16be
00000060: 7306 673e d3a8 fabc 47a7 ad3d f323 523e
00000070: 75a8 5abe a48d 55be 8779 933d 6120 413e
00000080: c2e9 243e 6edc 563c 22f8 293e d319 5abe
00000090: 0bf1 94ba 1acd 1a3e 4d3a 7b3e 7c54 2fbe
000000a0: 4276 a73d 022f 85bc 56ac 41be fa2c f03c
000000b0: b8c9 6c3e 56cf 713e f71e 333e 55c6 30be
000000c0: 575c 49be 6637 4abd dc80 e73d b6db 2dbd
000000d0: c4f0 b4bd 47ba 45be 7cd1 373e 4415 66bd
000000e0: ca26 f23d c9e5 b43d 2394 403e e3c3 cbbd
000000f0: 79e4 c5bd 381c 32bc 78d3 063e efbe 473d

module.LSTM_layer.bias_hh_l0 f4 [64]
0.014112048 -0.18774427 0.10262625 -0.096097946 0.13631235 0.21826205 0.099391095 -0.118395574
-0.1854706 0.06360233 -0.18490036 0.2027246 0.03671623 -0.17559358 -0.25625885 -0.20495434
-0.21333952 -0.2043466 0.08611122 0.015752252 -0.033940293 -0.111042656 0.17902113 -0.14250429
0.08640224 0.08516695 0.10635216 -0.24492745 0.06612596 0.23289783 -0.034734737 0.08783812
0.025878968 0.041922018 0.020255903 0.06753026 0.13554467 0.13409494 -0.11846602 0.03946783
0.04524211 -0.102656536 -0.16435586 0.05010428 -0.1216171 -0.115563065 -0.095959894 -0.108744375
-0.16187805 0.18019304 -0.08391923 0.18379205 0.20351338 0.1698698 -0.052428503 0.13330686
0.023543809 0.16962656 -0.114729166 -0.23114817 -0.06761156 -0.042498253 0.18295588 -0.18755953
00000000: 3836 673c 0940 40be b62d d23d 00cf c4bd
00000010: 7795 0b3e 1680 5f3e 8f8d cb3d 6179 f2bd
00000020: 01ec 3dbe f041 823d 8556 3dbe 0a97 4f3e
00000030: c263 163d cece 33be 5c34 83be 8ddf 51be
00000040: ad75 5abe 3c40 51be 145b b03d de0a 813c
00000050: fa04 0bbd 556a e3bd 5151 373e a5ec 11be
00000060: a8f3 b03d 036c ae3d 29cf d93d 43ce 7abe
00000070: 0c6d 873d c57c 6e3e 0346 0ebd 79e4 b33d
00000080: 2100 d43c 6cb6 2b3d b5ef a53c 4e4d 8a3d
00000090: 39cc 0a3e 2f50 093e 509e f2bd 05a9 213d
000000a0: ca4f 393d 973d d2bd e74c 28be 253a 4d3d
000000b0: 6312 f9bd 54ac ecbd 9f86 c4bd 5fb5 debd
000000c0: 5cc3 25be 8684 383e d8dd abbd fc33 3c3e
000000d0: d065 503e 59f2 2d3e 45bf 56bd 9881 083e
000000e0: f2de c03c 96b2 2d3e 20f7 eabd 1bb2 6cbe
000000f0: ee77 8abd a612 2ebd c958 3b3e 9b0f 40be

module.LSTM_layer.weight_ih_l1 f4 [64, 16]
-0.15520501 -0.06571899 -0.14487915 0.07319157 0.1806333 0.14928359 0.018227676 -0.124088176
-0.21839982 0.092672594 0.14084858 -0.059185382 -0.22857775 -0.108812995 0.044127274 -0.14115365
0.17648709 -0.26114133 0.15605652 0.18059026 -0.12928113 -0.266328 -0.15771453 -0.23187892
-0.25113967 0.16911879 -0.21485247 0.099332325 -0.14894858 -0.005340552 -0.102619104 0.17170008
-0.2583582 0.07281855 0.11667913 -0.13367982 0.06350886 0.033148695 0.14318855 0.27644262
0.14314023 0.22021239 0.15770908 0.13545345 0.06405239 -0.18140002 0.24743105 0.057509232
-0.13802293 0.0437671 -0.11417447 -0.16078909 -0.2360354 0.04379727 -0.23194161 0.08979119
-0.15388265 0.12604816 -0.23702142 -0.15104054 0.10767459 0.15077853 -0.1409153 -0.01186833
-0.047866147 0.17225602 0.16862932 -0.24108183 -0.14082806 0.013655942 -0.10008873 0.086930156
0.032525487 -0.017313568 0.046440206 0.09431123 0.05791814 0.117737345 0.17287788 0.061240014
0.011828209 0.040343776 0.047113374 -0.068896286 0.25137392 -0.15175322 0.22039801 -0.14676435
-0.006587557 0.07189664 -0.19508977 0.09034366 -0.23756461 -0.056061067 -0.103092924 0.253138
0.11016938 0.18162325 -0.052391674 0.07584649 0.17636691 0.23363684 0.096247144 -0.1510452
0.060932245 0.007800478 0.15662389 -0.14067887 0.039050367 0.039828934 0.14777763 -0.050614156
0.11411394 -0.0402042 -0.09427267 -0.012203785 -0.04774676 0.1660128 0.2631429 0.1775926
-0.18680362 0.2709318 -0.065229155 -0.25211838 0.039389014 -0.051469352 0.12694193 0.13758361
-0.060604 -0.19805358 -0.029018179 0.06085032 0.22879711 -0.02464845 0.19775194 0.19008064
0.096686184 0.2182695 -0.012686151 0.0937541 -0.22171393 0.17944707 0.12260255 0.18454643
-0.21948168 -0.19643986 0.03324695 0.08835029 0.02179857 -0.21343346 -0.2233687 0.17448457
-0.04452761 -0.22921506 -0.16784972 -0.20101397 -0.23846136 0.14540811 0.07017888 -0.1151243
0.04370816 -0.16242424 -0.22704116 0.03862697 0.15457962 0.022891054 0.08069311 0.028954027
-0.14169632 0.082111165 0.17001662 -0.09570053 0.10891043 0.16717814 -0.17716241 0.21492495
0.2598916 0.2628491 0.018163713 0.03797537 -0.12042705 0.23256873 -0.07389644 0.1396667
-0.086478494 -0.088993736 -0.15208505 -0.2146695 0.17819224 0.0824251 -0.027385013 0.1946929
0.11443078 -0.18958165 0.19179937 -0.21097821 -0.21140465 0.23945776 0.16207212 0.05465455
0.1225777 -0.083603665 0.056102104 0.12252692 0.16550535 -0.14443421 0.12627201 0.021117277
0.09306772 -0.22979926 0.1315672 0.041445997 0.114885725 -0.045201298 -0.045811977 -0.18295693
0.14867535 -0.041029688 -0.16629687 -0.1677356 -0.1581706 -0.054259412 0.13338529 -0.17082419
-0.12598073 0.24366698 0.13379227 0.16746527 -0.1526376 -0.078126125 0.22301361 0.09624896
-0.06908652 -0.023770617 -0.12563099 0.13892367 0.15108751 0.021898312 -0.24921489 0.26780418
-0.18504857 -0.04445785 -0.07199892 -0.19546191 0.030162094 0.108096406 0.22746435 -0.060124584
0.27294987 -0.17376643 -0.039450083 0.18322882 -0.22203135 -0.034428094 0.2269723 0.011420066
00000000: 10ee 1ebe ae97 86bd 335b 14be 76e5 953d
00000010: f0f7 383e ccdd 183e 3552 953c f121 febd
00000020: 34a4 5fbe 21cb bd3d 9c3a 103e 5f6c 72bd
00000030: 4910 6abe 59d9 debd cdbe 343d 958a 10be
00000040: 08b9 343e 51b4 85be 48cd 1f3e a7ec 383e
00000050: 4662 04be 255c 88be eb7f 21be ab71 6dbe
00000060: 6195 80be 7a2d 2d3e 4902 5cbe bf6e cb3d
00000070: fa85 18be ccff aebb f729 d2bd 25d2 2f3e
00000080: 8747 84be e421 953d 78f5 ee3d 5de3 08be
00000090: ef10 823d edc6 073d 05a0 123e e389 8d3e
000000a0: 5a93 123e 5b7f 613e 7d7e 213e 4fb4 0a3e
000000b0: e62d 833d edc0 39be 915e 7d3e cd8e 6b3d
000000c0: e255 0dbe 2145 333d 4ed4 e9bd e5a5 24be
000000d0: 44b3 71be c464 333d 1a82 6dbe 72e4 b73d
000000e0: 6a93 1dbe c512 013e beb5 72be 5faa 1abe
000000f0: 7f84 dc3d b065 1a3e 1a4c 10be 6273 42bc
00000100: 4b0f 44bd e263 303e 2aad 2c3e 28de 76be
00000110: 3b35 10be 2cbd 5f3c 52fb ccbd 7008 b23d
00000120: 7239 053d 2fd5 8dbc 1638 3e3d 3f26 c13d
00000130: 923b 6d3d 4720 f13d e606 313e cfd6 7a3d
00000140: 1bcb 413c 843f 253d f4f9 403d 7f19 8dbd
00000150: 15b4 803e 3265 1bbe 04b0 613e 6549 16be
00000160: 6fdc d7bb 8c3e 933d 9dc5 47be 1906 b93d
00000170: 2344 73be 4aa0 65bd 6222 d3bd 4e9b 813e
00000180: 7ca0 e13d 72fb 393e a798 56bd 6855 9b3d
00000190: 8799 343e 7f3e 6f3e 391d c53d 98ab 1abe
000001a0: 1794 793d 279b ff3b 0362 203e 1f0e 10be
000001b0: 47f3 1f3d aa23 233d 0553 173e ca50 4fbd
000001c0: 92b4 e93d 29ad 24bd 0812 c1bd 62f2 47bc
000001d0: 1b92 43bd 42ff 293e abba 863e d6da 353e
000001e0: 7349 3fbe 93b7 8a3e dd96 85bd a915 81be
000001f0: 6056 213d 87d1 52bd 11fd 013e b8e2 0c3e
00000200: e63b 78bd 8fce 4abe 88b7 edbc 2f3e 793d
00000210: ca49 6a3e 8ceb c9bc 7c7f 4a3e 80a4 423e
00000220: 6803 c63d 0a82 5f3e 93d9 4fbc 2602 c03d
00000230: fa08 63be f9c0 373e 0c17 fb3d bdf9 3c3e
00000240: cebf 60be 8827 49be f42d 083d fff0 b43d
00000250: ea92 b23c 4d8e 5abe c4ba 64be 15ac 323e
00000260: 9562 36bd 5ab7 6abe cce0 2bbe 9bd6 4dbe
00000270: 372f 74be dde5 143e f2b9 8f3d 4ac6 ebbd
00000280: 5407 333d 8a52 26be 7a7d 68be 5037 1e3d
00000290: 1f4a 1e3e 0586 bb3c 6e42 a53d ff30 ed3c
000002a0: d718 11be e629 a83d d618 2e3e a4fe c3bd
000002b0: 6e0c df3d bf30 2b3e 106a 35be 4915 5c3e
000002c0: 8310 853e 2894 863e 11cc 943c 108c 1b3d
000002d0: 75a2 f6bd 7f26 6e3e 0457 97bd ca04 0f3e
000002e0: a31b b1bd 5942 b6bd 2fbc 1bbe 52d2 5bbe
000002f0: 0778 363e 7ece a83d 8956 e0bc 935d 473e
00000300: af5a ea3d b121 42be 0e67 443e ac0a 58be
00000310: 767a 58be 6a34 753e 3cf6 253e 73dd 5f3d
00000320: 040a fb3d 6638 abbd 52cb 653d 65ef fa3d
00000330: 3c7a 293e 90e6 13be 734d 013e 24fe ac3c
00000340: 4a9a be3d 7f50 6bbe 8db9 063e 47c3 293d
00000350: 3549 eb3d ff24 39bd 57a5 3bbd 1059 3bbe
00000360: 5a3e 183e bf0e 28bd ba49 2abe e2c2 2bbe
00000370: 79f7 21be 1e3f 5ebd 2796 083e 89ec 2ebe
00000380: 1801 01be d683 793e d700 093e 047c 2b3e
00000390: 084d 1cbe 9700 a0bd ae5d 643e 2d1e c53d
000003a0: 3c7d 8dbd 99ba c2bc 69a5 00be 0242 0e3e
000003b0: afb6 1a3e 1764 b33c 3032 7fbe a11d 893e
000003c0: 5f7d 3dbe 6f19 36bd 2b74 93bd 2b27 48be
000003d0: 7f16 f73c a661 dd3d 6aec 683e 3245 76bd
000003e0: 16c0 8b3e d4ef 31be 6996 21bd 56a0 3b3e
000003f0: 305c 63be 7904 0dbd 6d6b 683e 3a1b 3b3c

module.LSTM_layer.weight_hh_l1 f4 [64, 16]
0.21572293 -0.23426735 -0.09414806 0.23417516 0.079882525 0.031125044 0.10797683 -0.08789337
-0.037863437 0.271827 0.038862765 -0.101721175 0.09704163 -0.086814724 0.08976133 0.20521343
-0.008955548 -0.12182254 0.12428489 0.0041319253 0.11308511 -0.19836435 -0.03972294 0.19741346
0.06763592 0.008143691 0.1292556 0.124946445 0.2020065 0.011770291 0.16172303 -0.040550493
-0.14445099 0.064190686 0.13566695 -0.06390511 0.06840165 0.20134723 -0.012266381 -0.051464934
-0.18995965 -0.084302604 -0.18583758 0.03018942 -0.053901114 -0.18819831 -0.15057614 0.06023805
0.0827195 -0.027690563 -0.027161146 -0.100497164 0.08883344 -0.14510107 -0.12977046 0.23752351
0.1501735 0.06933032 -0.11366738 0.11523436 0.15114011 0.21302888 -0.11823267 0.08913984
-0.090468004 -0.09660772 0.18530306 0.16114838 0.23608138 0.11189727 0.21550435 0.12074317
-0.10906268 -0.12843221 -0.07540899 -0.19979693 0.11715139 0.20375015 0.21331382 -0.05277974
0.21513066 0.13251686 -0.075884014 0.20002814 -0.0078203445 -0.1583251 -0.009187722 -0.18840122
0.12521888 0.17257486 -0.20311953 -0.035620727 0.1063449 0.06492114 -0.10298116 0.089769445
-0.19740336 -0.152051 0.04772441 0.26610324 0.22331436 0.02998151 0.044884063 -0.21702686
0.049916457 0.25017634 0.17869939 -0.11279179 0.12135267 0.12830892 0.2095948 0.06540969
-0.058495317 0.10042737 0.14667225 -0.19061781 -0.22158991 0.17257969 0.10290532 -0.1246032
0.23780476 -0.14732814 -0.17933522 0.0048209797 -0.0826896 -0.17802314 -0.05836315 -0.04721033
0.03400673 -0.22787344 -0.24944572 -0.1350935 0.20143858 -0.03916101 0.048281465 0.032895476
-0.18268412 -0.20940503 -0.20856485 -0.09089318 0.15874875 0.18577449 0.22466953 -0.07725612
0.17765407 -0.22757088 -0.21426646 0.14048804 0.24528961 -0.12589864 0.1522531 0.024197897
-0.27400544 -0.053832818 0.015765479 0.1720631 -0.19475982 -0.08011714 0.053161822 -0.189623
0.12515226 0.0012287132 0.05292251 -0.22321445 5.05302e-05 -0.08449859 -0.12813511 -0.01247786
0.033377472 0.07722275 -0.22620925 -0.11089789 0.20521961 0.18288112 -0.06498166 -0.14894226
-0.021453634 -0.2287318 0.10394898 -0.06063677 0.20975545 0.1348529 0.1202438 -0.021793682
-0.19032538 -0.0062955567 -0.027828736 -0.13964534 -0.13670225 0.16619743 0.023428718 0.01999834
-0.03196274 -0.12306263 -0.21991509 0.13233085 -0.19362925 0.1956575 0.16215758 0.15123929
0.16960494 0.10764068 -0.11834867 0.0031845064 -0.15859738 0.16565894 0.08223274 -0.12814727
-0.20834413 -0.26611388 0.21353689 0.006463186 0.030593637 -0.06190923 0.035394963 0.11753915
0.0044236584 -0.027932622 0.011434109 0.017341306 0.16590224 -0.19515817 -0.01813335 -0.23440103
-0.13175835 -0.06826043 0.13513708 -0.12069793 -0.06717275 0.03903847 -0.14108975 0.23611435
-0.029865712 0.03084277 0.00030206805 0.01771882 -0.23917079 -0.03313298 -0.033753555 -0.2144988
0.12601416 -0.036586806 -0.19438848 -0.028707495 -0.13700399 0.16649053 0.15449582 -0.13217214
-0.012198117 -0.045574404 -0.089865655 -0.13937534 0.20164907 -0.119117185 -0.048560295 0.016699051
00000000: 79e6 5c3e c8e3 6fbe b3d0 c0bd 9dcb 6f3e
00000010: 7399 a33d f3f9 fe3c f522 dd3d 7001 b4bd
00000020: b116 1bbd e92c 8b3e 902e 1f3d 3153 d0bd
00000030: c3bd c63d ebcb b1bd cad4 b73d 7823 523e
00000040: 4aba 12bc 197e f9bd 1489 fe3d 1a65 873b
00000050: 2b99 e73d 0620 4bbe 86b4 22bd c126 4a3e
00000060: b484 8a3d 1e6d 053c 945b 043e ece3 ff3d
00000070: cbda 4e3e 2ed8 403c b99a 253e 4618 26bd
00000080: f6ea 13be 6876 833d 47ec 0a3e afe0 82bd
00000090: 2a16 8c3d f82d 4e3e eef8 48bc e5cc 52bd
000000a0: c884 42be d8a6 acbd 354c 3ebe cd4f f73c
000000b0: 6ac7 5cbd 0fb7 40be a230 1abe 2cbc 763d
000000c0: d768 a93d 52d7 e2bc 0d81 debc 75d1 cdbd
000000d0: 4eee b53d 6095 14be 8ce2 04be 5d39 733e
000000e0: 15c7 193e 0efd 8d3d 71ca e8bd feff eb3d
000000f0: 79c4 1a3e 3e24 5a3e f823 f2bd f38e b63d
00000100: 4a47 b9bd 45da c5bd 16c0 3d3e 1504 253e
00000110: 51bf 713e 652a e53d 2cad 5c3e 3248 f73d
00000120: 415c dfbd bc83 03be 0770 9abd 9197 4cbe
00000130: 11ed ef3d e1a3 503e f06e 5a3e 922f 58bd
00000140: 364b 5c3e 80b2 073e 1469 9bbd 2dd4 4c3e
00000150: e720 00bc fa1f 22be 1988 16bc 40ec 40be
00000160: 6139 003e 77b7 303e 91fe 4fbe 0ae7 11bd
00000170: 5bcb d93d 60f5 843d c9e7 d2bd 0bd9 b73d
00000180: 1b24 4abe 42b3 1bbe ac7a 433d af3e 883e
00000190: 85ac 643e c99b f53c 5ad8 373d 4a3c 5ebe
000001a0: 3375 4c3d 1d17 803e f9fc 363e 62ff e6bd
000001b0: c087 f83d 6a63 033e 05a0 563e 84f5 853d
000001c0: c998 6fbd ddac cd3d 4031 163e 5131 43be
000001d0: 77e8 62be bbb8 303e 06c0 d23d f62f ffbd
000001e0: 1783 733e 30dd 16be a7a3 37be 4ff9 9d3b
000001f0: 2a59 a9bd b34b 36be 330e 6fbd 9e5f 41bd
00000200: a44a 0b3d a857 69be b36e 7fbe f355 0abe
00000210: ea45 4e3e 4c67 20bd c9c2 453d 68bd 063d
00000220: 8c11 3bbe 466e 56be 0692 55be 3426 babd
00000230: 088f 223e ab3b 3e3e c50f 663e 7538 9ebd
00000240: f3ea 353e 5708 69be ab68 5bbe 19dc 0f3e
00000250: 332d 7b3e 93eb 00be 3de8 1b3e ab3a c63c
00000260: 714a 8cbe cd7f 5cbd 9b26 813c 4f31 303e
00000270: 1e6f 47be 7514 a4bd 36c0 593d 882c 42be
00000280: ea27 003e c60c a13a 46c5 583d 5492 64be
00000290: 64f0 5338 990d adbd da35 03be f06f 4cbc
000002a0: d1b6 083d f626 9e3d 66a3 67be 6f1e e3bd
000002b0: 1725 523e 3045 3b3e 1b15 85bd 5284 18be
000002c0: 88bf afbc ab38 6abe 34e3 d43d 435e 78bd
000002d0: 22ca 563e e116 0a3e 6242 f63d aa88 b2bc
000002e0: a8e4 42be f54a cebb 17f9 e3bc 30ff 0ebe
000002f0: adfb 0bbe a92f 2a3e 95ed bf3c 8fd3 a33c
00000300: 5deb 02bd 4308 fcbd 6c31 61be bd81 073e
00000310: bf46 46be 715a 483e a30c 263e 79de 1a3e
00000320: ebac 2d3e b872 dc3d ca60 f2bd 27b3 503b
00000330: 5a67 22be 7fa2 293e a469 a83d 0a39 03be
00000340: 2a58 55be 1440 88be 6aa9 5a3e 22c9 d33b
00000350: 829f fa3c 8894 7dbd 4ffa 103d 5eb8 f03d
00000360: 56f4 903b f4d2 e4bc 2156 3b3c 5b0f 8e3c
00000370: 47e2 293e 8bd7 47be 648c 94bc d306 70be
00000380: a9eb 06be 20cc 8bbd 6061 0a3e 7a30 f7bd
00000390: de91 89bd cde6 1f3d d579 10be f6c7 713e
000003a0: f0a8 f4bc faa9 fc3c e35e 9e39 0f27 913c
000003b0: 30e9 74be 73b6 07bd 2b41 0abd 93a5 5bbe
000003c0: db09 013e 0cdc 15bd c60d 47be fb2b ebbc
000003d0: c64a 0cbe 7e7c 2a3e 2734 1e3e 2258 07be
000003e0: 9cda 47bc 3aac 3abd 7c0b b8bd 69b8 0ebe
000003f0: 187d 4e3e b6f3 f3bd 29e7 46bd 73cc 883c

module.LSTM_layer.bias_ih_l1 f4 [64]
0.12919804 0.10757193 -0.17473279 -0.088321194 0.16098386 -0.17589419 0.08237906 -0.13829434
0.027541673 -0.07759195 0.12325649 0.12580284 -0.2222169 -0.06954374 -0.03913029 -0.14764923
0.05922211 -0.17485905 -0.17030026 0.13844976 0.09088288 0.058952563 0.08055865 0.16233523
-0.024358733 0.029625496 0.003841509 -0.08932939 -0.091303624 -0.12992774 0.121939614 0.030811636
0.02148355 -0.22985457 0.03187115 0.07870173 0.13686019 -0.14015727 -0.107961684 -0.14993481
0.017513841 -0.19889963 0.19638738 -0.23232478 0.16350593 -0.047155973 0.03089286 -0.21964866
-0.2017 -0.027312677 0.0959888 0.24061562 0.090091966 -0.0008976453 0.14193107 0.17245495
-0.098846376 -0.21419281 -0.08308869 -0.031315997 0.17279118 0.066665865 0.0857475 -0.016588174
00000000: 7e4c 043e ac4e dc3d 27ed 32be bee1 b4bd
00000010: f4d8 243e 9b1d 34be 5ab6 a83d 089d 0dbe
00000020: 139f e13c 87e8 9ebd e66d fc3d 76d2 003e
00000030: d48c 63be f36c 8ebd 1547 20bd 5c31 17be
00000040: e292 723d 400e 33be 3163 2ebe c6c5 0d3e
00000050: ce20 ba3d 3e78 713d effb a43d 353b 263e
00000060: f78b c7bc 2bb1 f23c d4c1 7b3b 54f2 b6bd
00000070: 65fd babd c70b 05be 7abb f93d af68 fc3c
00000080: 45fe af3c ff5e 6bbe 538b 023d 5f2e a13d
00000090: 1425 0c3e 6385 0fbe 041b ddbd 8388 19be
000000a0: 3079 8f3c 58ac 4bbe c619 493e 8ce6 6dbe
000000b0: 196e 273e 9f26 41bd 0613 fd3c 94eb 60be
000000c0: 728a 4ebe d6be dfbc c795 c43d f163 763e
000000d0: 2382 b83d f54f 6bba 6156 113e 0898 303e
000000e0: f86f cabd 5c55 5bbe 672a aabd 3445 00bd
000000f0: 2cf0 303e 1d88 883d 639c af3d ece3 87bc

module.LSTM_layer.bias_hh_l1 f4 [64]
0.1421389 -0.019684164 -0.2776553 0.17240736 -0.22738807 -0.1559163 -0.23476493 -0.14598265
0.09165162 0.22847554 0.19234289 0.24979569 -0.09737265 0.038190246 -0.17831229 0.13342358
0.06084675 0.09516773 0.2581969 0.13974424 -0.2585634 0.15100853 0.15632592 0.16430457
0.02026404 0.2480122 -0.04813283 0.22662504 0.22736807 0.206267 -0.10880127 -0.13095199
0.09781482 -0.032524616 -0.22740692 -0.1601061 -0.085829005 -0.101444446 0.0040823636 -0.2596849
0.04844679 0.10120727 0.040302195 0.0077689234 -0.14498496 0.024589974 -0.16901296 -0.14383142
0.025444875 0.014023554 -0.25455594 0.16322382 0.13490313 -0.016754167 -0.1742873 0.10879071
-0.14308634 0.009167006 0.221139 -0.0033028014 0.12806581 0.23101242 -0.25024897 0.23722866
00000000: dc8c 113e af40 a1bc d628 8ebe 8e8b 303e
00000010: 6bd8 68be 86a8 1fbe 3866 70be 7a7c 15be
00000020: d8b3 bb3d 7ef5 693e 89f5 443e 71ca 7f3e
00000030: 506b c7bd 606d 1c3d 7f97 36be 31a0 083e
00000040: 713a 793d 4ce7 c23d 6232 843e 1d19 0f3e
00000050: 6c62 84be fba1 1a3e e713 203e 753f 283e
00000060: c600 a63c e9f6 7d3e ee26 45bd 6510 683e
00000070: 2dd3 683e a837 533e 33d3 debd 4718 06be
00000080: 2353 c83d 8838 05bd 5cdd 68be daf2 23be
00000090: 1ec7 afbd 1bc2 cfbd 59c5 853b 6bf5 84be
000000a0: 2470 463d c245 cf3d ea13 253d 7492 fe3b
000000b0: f076 14be ea70 c93c bc11 2dbe 8b48 13be
000000c0: c571 d03c 0cc3 653c 2855 82be 2524 273e
000000d0: 0c24 0a3e 0940 89bc 5f78 32be aacd de3d
000000e0: 3a85 12be 3631 163c 4372 623e d073 58bb
000000f0: af23 033e 858e 6c3e a220 80be 12ec 723e

module.BN_layer.weight f4 [160]
0.99313414 0.9780119 1.0022211 0.98558867 0.96788555 0.98509765 1.0101465 0.98592204
0.9805774 0.9949016 0.98298234 0.9906174 0.9720812 0.9846436 1.015593 1.0236546
0.9847848 1.0120468 0.9936942 0.9836733 0.9899883 0.9895245 0.9889044 0.9839812
0.999147 0.9904336 0.9835374 0.987466 1.0192158 0.9993873 0.9951543 1.0025959
0.9994743 0.9942924 0.97530127 1.0094032 1.0114603 0.9815278 1.0001003 0.99973917
0.9936769 0.9973335 1.0071772 1.0069456 0.9747332 0.983784 0.97112983 0.9801167
0.99427056 1.0029407 0.98156244 1.0080734 0.9940864 1.0140901 0.97333807 0.9917116
0.98278534 1.0073094 0.9694597 1.0224417 1.0437016 1.0096182 0.977868 0.99667525
0.9887884 0.978558 1.0073947 0.9944981 1.0043468 1.0238502 0.9722005 1.0042795
0.9842701 0.98183 1.0136446 1.0296441 1.0381929 0.99419606 1.0221201 0.9947571
1.0159404 0.9922881 1.0062493 1.00792 0.99538875 0.98167884 1.0109733 0.99119383
1.0390977 0.9814445 0.9860491 1.0095183 0.97292197 0.99723494 0.9934427 0.99084336
0.9970959 0.994748 0.9813635 0.9943778 1.0168171 0.9768174 1.0018817 1.0274742
1.0186887 1.0062622 0.993862 1.0001801 1.0215722 1.0028284 0.99701273 0.97740597
1.0103325 0.9948776 0.9908216 0.99886507 1.0014564 1.0169486 1.0084043 1.0149082
1.0204335 0.9877123 0.9893047 1.0094087 1.0274078 0.99467325 1.0007291 1.0204037
1.0128306 0.98944557 0.9987038 0.9944317 0.9863539 1.0230551 1.018587 0.98916423
0.9880568 0.9734515 0.99440694 1.0396577 0.97735685 1.0021615 1.0106684 0.9936384
1.0186113 0.98745096 0.9826817 1.0324925 1.0113107 1.0270587 1.0203322 0.99988467
1.0125878 1.0208704 0.9879086 0.9838731 1.0087196 1.0130333 1.0065187 0.99191177
00000000: 0a3e 7e3f fd5e 7a3f c848 803f 8a4f 7c3f
00000010: 59c7 773f 5c2f 7c3f 7b4c 813f 6365 7c3f
00000020: 1f07 7b3f dfb1 7e3f bba4 7b3f 1a99 7d3f
00000030: 50da 783f 9a11 7c3f f4fe 813f 1d07 833f
00000040: db1a 7c3f c08a 813f be62 7e3f 03d2 7b3f
00000050: e06f 7d3f 7a51 7d3f d728 7d3f 31e6 7b3f
00000060: 19c8 7f3f 0e8d 7d3f 1bc9 7b3f 92ca 7c3f
00000070: aa75 823f d9d7 7f3f 6fc2 7e3f 1055 803f
00000080: 8cdd 7f3f f289 7e3f 58ad 793f 2034 813f
00000090: 8877 813f 6845 7b3f 4903 803f e8ee 7f3f
000000a0: 9c61 7e3f 4051 7f3f 2feb 803f 98e3 803f
000000b0: 1d88 793f 45d9 7b3f f79b 783f eee8 7a3f
000000c0: 8488 7e3f 5c60 803f ad47 7b3f 8d08 813f
000000d0: 727c 7e3f b4cd 813f af2c 793f d0e0 7d3f
000000e0: d297 7b3f 84ef 803f 832e 783f 5fdf 823f
000000f0: 0498 853f 2b3b 813f 8f55 7a3f 1c26 7f3f
00000100: 3d21 7d3f c782 7a3f 4ff2 803f 6d97 7e3f
00000110: 708e 803f 860d 833f 22e2 783f 3b8c 803f
00000120: 20f9 7b3f 3659 7b3f 1bbf 813f 61cb 833f
00000130: 81e3 843f a283 7e3f d5d4 823f 67a8 7e3f
00000140: 560a 823f 9806 7e3f c7cc 803f 8603 813f
00000150: ccd1 7e3f 4e4f 7b3f 9367 813f e1be 7d3f
00000160: 2701 853f f23f 7b3f b76d 7c3f e537 813f
00000170: 6a11 793f ca4a 7f3f 4352 7e3f e9a7 7d3f
00000180: ad41 7f3f cea7 7e3f a33a 7b3f 8b8f 7e3f
00000190: 1027 823f b510 7a3f a93d 803f 4684 833f
000001a0: 6464 823f 33cd 803f bd6d 7e3f e705 803f
000001b0: e1c2 823f ae5c 803f 3a3c 7f3f 4737 7a3f
000001c0: 9352 813f 4cb0 7e3f 7ca6 7d3f 9fb5 7f3f
000001d0: b92f 803f 5f2b 823f 6413 813f 83e8 813f
000001e0: 919d 823f b7da 7c3f 1343 7d3f 4e34 813f
000001f0: 1982 833f e8a2 7e3f e417 803f 979c 823f
00000200: 6fa4 813f 4e4c 7d3f 0dab 7f3f 1393 7e3f
00000210: b081 7c3f 78f3 823f 0f61 823f de39 7d3f
00000220: 4af1 7c3f 1e34 793f 7491 7e3f 8113 853f
00000230: 0f34 7a3f d446 803f 955d 813f 165f 7e3f
00000240: db61 823f 96c9 7c3f 0791 7b3f b728 843f
00000250: a172 813f a976 833f 3f9a 823f 71f8 7f3f
00000260: 7a9c 813f e2ab 823f 94e7 7c3f 1cdf 7b3f
00000270: b91d 813f 13ab 813f 9bd5 803f eeed 7d3f

module.BN_layer.bias f4 [160]
0.0021768278 -0.011644385 -0.01088067 -0.007973564 -0.032546025 -0.007369848 0.028789593 -0.025627727
-0.016133832 0.0025201144 -0.016197369 0.0006555782 -0.013052277 -0.018254481 0.029126039 0.022342922
0.0020889728 0.009979205 -0.004516537 0.00078176794 -0.009209666 0.0026143675 -0.01550329 -0.002626769
-0.0027026895 -0.0084565375 -0.009499257 -0.0065049883 0.011778864 -0.0037291187 -0.004876579 0.0023177739
0.008362021 -0.01118791 -0.011190671 -0.009738189 0.0027471886 -0.009375644 -0.00047250307 -0.00802981
0.001179412 -0.013008173 0.014331463 0.0036614432 -0.00856864 -0.015660707 -0.014525631 -0.011786471
-0.009631667 -0.008074803 -0.011336449 0.019334288 -0.007134805 0.011053878 -0.0152462125 -0.0043199323
-0.00910348 -0.0007595862 -0.029585823 0.010390367 0.029297534 0.0029404925 -0.008966314 -0.0016735067
-0.011936003 -0.009518494 0.0052546817 -0.014176003 -0.0146760335 0.008993786 -0.015244517 0.009302813
-0.0071830708 -0.0070661274 0.012448465 0.015432324 0.024681453 -0.014953671 0.013724926 -0.0030517657
0.01614396 -0.004859557 0.009598867 0.019291075 0.012910226 -0.0121695325 0.0021396945 -0.012679084
0.016327448 -0.013421785 -0.0141860815 -0.0007894784 -0.010464768 0.00391385 -0.0024996689 -0.0018131876
0.0012038064 -0.0061924034 -0.013175656 -0.020374773 -0.0006245382 -0.0194324 -0.0025959676 0.018988345
0.010498178 0.005749369 0.00784821 0.00865047 0.0014637328 -0.00745895 -0.008734497 -0.013833746
0.02012105 -0.007088578 -0.0072997385 0.015818369 -0.011226914 0.013161621 0.011490591 0.012414962
0.014070431 -0.003044015 0.001106672 -0.0094016185 -0.0069208234 -0.005116199 -0.006623725 0.008273963
0.0135756135 0.00013790687 -0.003521613 -0.014598374 0.011237868 0.012183225 0.0139620425 -0.00977276
-0.0067530307 -0.009897144 -0.0015008588 0.016649034 -0.0070529003 -0.013290962 -0.00088036864 -0.0040347967
0.02318098 0.0021315378 -0.0012599711 0.022371322 -0.0076448466 0.013073877 0.012190641 0.009977015
0.017287599 0.008297749 -0.0055498 -0.012774452 -0.0039565023 -0.0026751836 0.0008295963 -0.0049032685
00000000: 1ca9 0e3b 17c8 3ebc d644 32bc 8da3 02bc
00000010: fb4e 05bd c47e f1bb 27d8 eb3c 3df1 d1bc
00000020: 192b 84bc 8128 253b 58b0 84bc 1cdb 2b3a
00000030: 38d9 55bc 6c8a 95bc bb99 ee3c 8108 b73c
00000040: 26e7 083b d27f 233c 75ff 93bb 8fef 4c3a
00000050: 24e4 16bc cf55 2b3b 8301 7ebc df25 2cbb
00000060: 9b1f 31bb 4a8d 0abc c6a2 1bbc cc27 d5bb
00000070: 23fc 403c 3b64 74bb b6cb 9fbb cbe5 173b
00000080: dc00 093c 7f4d 37bc 1359 37bc ed8c 1fbc
00000090: 2d0a 343b 4d9c 19bc 4aba f7b9 778f 03bc
000000a0: 8096 9a3a 3b20 55bc 83ce 6a3c d3f4 6f3b
000000b0: 7b63 0cbc e24a 80bc eafc 6dbc 0b1c 41bc
000000c0: 24ce 1dbc 2e4c 04bc 83bc 39bc f162 9e3c
000000d0: 15cb e9bb 531b 353c 40cb 79bc 388e 8dbb
000000e0: c326 15bc f81e 47ba f85d f2bc 5c3c 2a3c
000000f0: 6201 f03c 47b5 403b 72e7 12bc 9159 dbba
00000100: 3a8f 43bc 75f3 1bbc 772f ac3b 7742 68bc
00000110: bf73 70bc ac5a 133c 23c4 79bc d36a 183c
00000120: f75f ebbb f98a e7bb a6f4 4b3c dcd7 7c3c
00000130: c230 ca3c 3e00 75bc 83de 603c 2200 48bb
00000140: 5740 843c eb3c 9fbb 9144 1d3c 5108 9e3c
00000150: 6a85 533c b862 47bc 1e3a 0c3b efbb 4fbc
00000160: 24c1 853c 0ce7 5bbc bd6c 68bc 00f5 4eba
00000170: 6b74 2bbc c13f 803b 7cd1 23bb 7ba8 edba
00000180: 0ac9 9d3a a5e9 cabb b5de 57bc ffe8 a6bc
00000190: 0db8 23ba b230 9fbc 1c21 2abb 728d 9b3c
000001a0: 8d00 2c3c 3465 bc3b c795 003c b3ba 0d3c
000001b0: b9da bf3a 356a f4bb 231b 0fbc f0a6 62bc
000001c0: e6d4 a43c 4d47 e8bb a532 efbb 8695 813c
000001d0: 17f1 37bc d7a3 573c 0843 3c3c 2068 4b3c
000001e0: aa87 663c 197e 47bb c00d 913a 3f09 1abc
000001f0: 13c8 e2bb caa5 a7bb d50b d9bb 848f 073c
00000200: 406c 5e3c 189b 1039 ddca 66bb 052e 6fbc
00000210: 091f 383c 269c 473c 0dc1 643c ed1d 20bc
00000220: 8748 ddbb a127 22bc 77b8 c4ba 8e63 883c
00000230: 041c e7bb 56c2 59bc 8ac8 66ba 5436 84bb
00000240: 0ae6 bd3c 45b1 0b3b 9d25 a5ba 1044 b73c
00000250: 9f81 fabb d133 563c 41bb 473c a276 233c
00000260: b99e 8d3c 48f3 073c 19db b5bb ef4b 51bc
00000270: 8ca5 81bb 2252 2fbb 4479 593a 99ab a0bb

module.BN_layer.running_mean f4 [160]
0.033481464 -0.07814244 -0.047611386 -0.034011204 0.020735929 -0.049303196 -0.016289335 -0.08929107
0.016360046 -0.009464088 0.06763614 -0.062305838 0.009443948 -0.0074047283 -0.020736488 -0.08279098
0.05184519 -0.124680795 -0.08085381 -0.05008845 0.049106732 -0.0776193 -0.017460164 -0.14067285
0.028185343 0.0013516102 0.0900053 -0.09339408 0.023345146 -0.007353818 -0.025638336 -0.12970236
0.0645016 -0.15188856 -0.0998926 -0.061430104 0.07204506 -0.09553123 -0.01014472 -0.16906415
0.034148596 0.01586629 0.10075754 -0.11335433 0.034087826 -0.0141378455 -0.027042441 -0.15085512
0.07528223 -0.16669795 -0.10929135 -0.06864877 0.09051052 -0.10690121 -0.0010959668 -0.18489411
0.034970585 0.024863 0.097396515 -0.12770924 0.039778303 -0.01404001 -0.025900057 -0.16804981
0.08374155 -0.17846228 -0.11892289 -0.07038694 0.10085931 -0.109705284 0.0068324297 -0.19401811
0.035850875 0.037893135 0.09165538 -0.1329426 0.04704913 -0.015347653 -0.027066205 -0.17416595
0.079075895 -0.18682516 -0.116689995 -0.0777657 0.1103546 -0.11782647 0.015239342 -0.19561018
0.033338234 0.040415503 0.089137934 -0.13588639 0.046622753 -0.010748433 -0.025114046 -0.18082704
0.0831726 -0.18787731 -0.119975165 -0.07902301 0.11504872 -0.12219113 0.022842398 -0.19721168
0.03311208 0.04399651 0.08502204 -0.14075482 0.047762077 -0.015053972 -0.024964837 -0.18141113
0.08697965 -0.19060363 -0.11966349 -0.07806483 0.11779982 -0.122840665 0.028269071 -0.20161651
0.03360004 0.050812345 0.081723794 -0.14398107 0.04898821 -0.015510591 -0.023971934 -0.18150161
0.08919685 -0.18889295 -0.12263793 -0.077387415 0.12062968 -0.12268152 0.030033948 -0.20348552
0.030465974 0.050884627 0.08000738 -0.14185639 0.05150956 -0.01724633 -0.026169006 -0.18557277
0.09433427 -0.19199254 -0.12249022 -0.07695544 0.12202853 -0.12284196 0.033177093 -0.20396219
0.028558832 0.053238228 0.07822895 -0.14523387 0.0486033 -0.014406011 -0.02437007 -0.18804954
00000000: dc23 093d 2509 a0bd 2804 43bd 554f 0bbd
00000010: 65de a93c 26f2 49bd 3671 85bc 3dde b6bd
00000020: 8105 863c 430f 1bbc d184 8a3d 6834 7fbd
00000030: caba 1a3c 5da3 f2bb 91df a9bc 518e a9bd
00000040: 9f5b 543d a558 ffbd af96 a5bd 8c29 4dbd
00000050: 2424 493d def6 9ebd 9e08 8fbc 8b0c 10be
00000060: f3e4 e63c 8328 b13a b354 b83d 6545 bfbd
00000070: 523e bf3c 4cf8 f0bb 7d07 d2bc b2d0 04be
00000080: 6a19 843d ad88 1bbe 7e94 ccbd 229e 7bbd
00000090: 5c8c 933d e1a5 c3bd 0a36 26bc 271f 2dbe
000000a0: 66df 0b3d 06fa 813c f859 ce3d 5126 e8bd
000000b0: ad9f 0b3d 6ca2 67bc 1c88 ddbc c479 1abe
000000c0: 922d 9a3d deb2 2abe 25d4 dfbd ba97 8cbd
000000d0: 945d b93d 06ef dabd 8ba6 8fba e254 3dbe
000000e0: 513d 0f3d 7dad cb3c d377 c73d 36c6 02be
000000f0: 93ee 223d 1208 66bc 5b2c d4bc 4015 2cbe
00000100: b180 ab3d d1be 36be d88d f3bd 0727 90bd
00000110: 538f ce3d 2aad e0bd 93e2 df3b afac 46be
00000120: 5ed8 123d d535 1b3d d1b5 bb3d 1b22 08be
00000130: 97b6 403d b974 7bbc f2b9 ddbc 8f58 32be
00000140: 8bf2 a13d 184f 3fbe 2afb eebd a043 9fbd
00000150: 9801 e23d 014f f1bd 6fae 793c 094e 48be
00000160: ac8d 083d ba8a 253d f38d b63d cd25 0bbe
00000170: 80f7 3e3d 321a 30bc f9bb cdbc b92a 39be
00000180: 6556 aa3d e962 40be 8ab5 f5bd d1d6 a1bd
00000190: aa9e eb3d 583f fabd fb1f bb3c dcf1 49be
000001a0: 88a0 073d af35 343d 0920 ae3d 0822 10be
000001b0: 2ba2 433d efa4 76bc 0f83 ccbc d7c3 39be
000001c0: 6322 b23d 992d 43be 2212 f5bd 74e0 9fbd
000001d0: 0841 f13d e393 fbbd 8a94 e73c 8f74 4ebe
000001e0: 32a0 093d 9b20 503d ce5e a73d c66f 13be
000001f0: dca7 483d 2220 7ebc ca60 c4bc 8fdb 39be
00000200: d7ac b63d 276d 41be 9829 fbbd 4b7d 9ebd
00000210: b20c f73d 7340 fbbd c109 f63c 825e 50be
00000220: c793 f93c 666c 503d e9da a33d cd42 11be
00000230: b0fb 523d 2d48 8dbc 6260 d6bc ca06 3ebe
00000240: 5332 c13d b199 44be 27dc fabd d09a 9dbd
00000250: 18ea f93d 9194 fbbd b4e4 073d 77db 50be
00000260: 36f4 e93c 5410 5a3d 8036 a03d 30b8 14be
00000270: 4114 473d 3107 6cbc bea3 c7bc 0f90 40be

module.BN_layer.running_var f4 [160]
0.0011758959 0.0004865167 0.00079660286 0.0012017624 0.00096037175 0.00060088723 0.00050424243 0.000754995
0.00041262177 0.0012767566 0.0011043433 0.0011550738 0.0008241555 0.001123786 0.00066401536 0.0007062418
0.0033046086 0.0013021945 0.0021989695 0.0025812949 0.0023625935 0.001694702 0.001185574 0.0015978473
0.00097618456 0.004089892 0.0021809975 0.0029819675 0.0021344428 0.002179952 0.0016109955 0.0014384915
0.0068711336 0.0027440484 0.0038609817 0.0037894556 0.0034893705 0.0028718617 0.0017501004 0.0025717781
0.0013599228 0.0076743225 0.003349699 0.004249306 0.0030796826 0.002991477 0.0023588366 0.002019556
0.008836939 0.003915243 0.005061082 0.0050408286 0.0041545182 0.0037892086 0.00248795 0.003289114
0.0019212589 0.011295312 0.0046207914 0.0054736 0.004242592 0.0033184316 0.0025467712 0.002602045
0.01081431 0.004480671 0.006085613 0.005266989 0.0044892863 0.0044296123 0.0031563425 0.0039539505
0.002122795 0.0133316135 0.0055945995 0.005910513 0.005677293 0.0037890754 0.0030339838 0.002538262
0.012177438 0.0051529007 0.0064134174 0.0062422776 0.0052006794 0.0048585804 0.0040522213 0.004497581
0.0025557538 0.015997866 0.006548165 0.007008783 0.0065865284 0.0042947344 0.0033838002 0.002702096
0.014328177 0.0064064893 0.00718151 0.0066712196 0.0056345053 0.0052840766 0.0052953446 0.0051582386
0.0028043552 0.018888367 0.0071234712 0.0077704657 0.0075953742 0.0047880197 0.0035862303 0.0032155483
0.015185758 0.006200509 0.007052443 0.0073156995 0.0058301394 0.005077964 0.006068964 0.005619733
0.0028797 0.019270232 0.008585957 0.0077529424 0.00849841 0.0052955286 0.0034394895 0.0029799736
0.0142836785 0.006753805 0.006941888 0.007247294 0.0057346974 0.0047065387 0.0065011834 0.005585721
0.0031344416 0.019488359 0.009002317 0.007874349 0.00953779 0.0051405528 0.0035541207 0.0030036739
0.014865453 0.00689611 0.007387263 0.0069209053 0.0054894844 0.0047915285 0.0068906816 0.0058056177
0.0031715017 0.019658996 0.0095062945 0.0077129384 0.010070729 0.004980358 0.0034185294 0.0030699235
00000000: 8520 9a3a 2b13 ff39 1dd3 503a 7484 9d3a
00000010: 75c1 7b3a dc84 1d3a 232f 043a dbea 453a
00000020: 2855 d839 d858 a73a 9dbf 903a d865 973a
00000030: 240c 583a 004c 933a 5111 2e3a 1623 393a
00000040: 2292 583b 66ae aa3a 961c 103b f12a 293b
00000050: bed5 1a3b c320 de3a 4365 9b3a dc6e d13a
00000060: a3e6 7f3a 8004 863b 11ef 0e3b 1d6d 433b
00000070: 02e2 0b3b 87dd 0e3b 0a28 d33a c48b bc3a
00000080: 3f27 e13b 7ed5 333b 8608 7d3b 8458 783b
00000090: ecad 643b d835 3c3b a063 e53a 478b 283b
000000a0: 703f b23a e278 fb3b a086 5b3b c33d 8b3b
000000b0: 80d4 493b a80c 443b b696 1a3b 875a 043b
000000c0: cfc8 103c 704b 803b 6fd7 a53b 892d a53b
000000d0: a022 883b 5f54 783b e00c 233b 2d8e 573b
000000e0: c0d2 fb3a f90f 393c 026a 973b e25b b33b
000000f0: 7105 8b3b 0b7a 593b bbe7 263b 1287 2a3b
00000100: 812e 313c 98d2 923b d269 c73b b596 ac3b
00000110: dd1a 933b 4826 913b a4da 4e3b 2490 813b
00000120: 971e 0b3b d76c 5a3c e752 b73b faac c13b
00000130: 9608 ba3b 2352 783b cdd5 463b f858 263b
00000140: e083 473c aad9 a83b a527 d23b 058c cc3b
00000150: 766a aa3b ba34 9f3b 7fc8 843b 7260 933b
00000160: 6f7e 273b f50d 833c fd91 d63b efa9 e53b
00000170: ced3 d73b d8ba 8c3b bfc2 5d3b a615 313b
00000180: bbc0 6a3c 87ed d13b df52 eb3b 3f9a da3b
00000190: a8a1 b83b 0c26 ad3b 9284 ad3b 7106 a93b
000001a0: 46c9 373b c7bb 9a3c 026c e93b 649f fe3b
000001b0: 9ee2 f83b d2e4 9c3b f606 6b3b f3bb 523b
000001c0: afcd 783c a42d cb3b 2e18 e73b 89b8 ef3b
000001d0: c10a bf3b 0d65 a63b 29de c63b bd25 b83b
000001e0: 59b9 3c3b 9bdc 9d3c 1dac 0c3c 650c fe3b
000001f0: ea3c 0b3c 1d86 ad3b 0f69 613b a94b 433b
00000200: 1706 6a3c 064f dd3b c778 e33b b57a ed3b
00000210: 21ea bb3b 4f39 9a3b e107 d53b 6d08 b73b
00000220: 346b 4d3b 0da6 9f3c 747e 133c 6a03 013c
00000230: 6444 1c3c 1572 a83b 40ec 683b 49d9 443b
00000240: 3b8e 733c c3f8 e13b da10 f23b c3c8 e23b
00000250: 22e1 b33b 4102 9d3b 3acb e13b 0d3d be3b
00000260: f8d8 4f3b e70b a13c 4ac0 1b3c d1bc fc3b
00000270: b3ff 243c 4532 a33b 6809 603b c530 493b
