Stage2_pickedmodel/Stage2_LSTMAgegen_SZOthers/model_epoch_107.pth (torch, 86647 bytes, 14 tensors)

module.LSTM_layer.weight_ih_l0 f4 [64, 256]
0.114743285 -0.1473872 -0.03380955 0.288492 0.070565 -0.1404174 -0.12055031 -0.13181436
-0.24701805 -0.023203788 0.041535426 -0.25231874 0.06347716 -0.07308282 -0.027769998 0.13119203
0.08974103 0.00052445853 -0.11750361 -0.10534543 0.18852596 0.035812467 -0.03129664 -0.13035041
-0.1539937 -0.05328162 0.019804174 -0.18788907 0.1722216 -0.018630752 0.025301034 0.027982078
0.11054668 -0.17402282 -0.05021128 0.031361625 -0.12618382 0.14108597 0.09277426 -0.21550891
0.1354228 0.2080682 -0.024778474 0.1310369 -0.15409994 0.16719031 -0.20366293 0.104469225
-0.08105646 0.13948824 -0.04658945 -0.13086364 0.00901439 -0.10782606 0.18971632 -0.023336211
-0.24019885 0.18425353 0.04811777 0.05452761 -0.12911938 0.08417529 -0.11778166 0.19257241
0.16884285 -0.1421637 0.08034287 0.08470135 -0.10823533 0.0055469526 -0.04012854 0.13311878
-0.015827829 0.116438426 -0.08021522 -0.17885673 0.0601791 0.23217519 0.2381899 -0.040970042
-0.099008486 0.2350133 -0.0012065837 0.23354751 0.18465137 -0.16376545 0.071968496 0.20603174
0.15601632 -0.07396261 -0.103389196 -0.16324413 0.14208019 0.1539917 -0.124648996 -0.05332644
0.27431336 0.068826005 0.12668823 0.020830475 -0.06500375 -0.066037305 -0.1252431 -0.1752648
-0.23222739 0.20760979 0.18710388 0.19830112 -0.1672896 0.070657805 -0.016670512 0.013607424
-0.1729668 0.21334979 0.0059013474 -0.0144066755 0.06461828 -0.068914875 0.061775703 0.040514696
0.08538685 -0.20619555 0.15450387 0.07998429 0.042746656 0.1906611 -0.08869634 -0.13629611
-0.09129141 0.24722235 -0.13785845 0.24955416 0.0975185 0.10383534 0.13981533 0.12738363
-0.051078506 0.10159666 -0.08510063 0.10793268 0.028241567 0.25207478 -0.21439059 -0.0058881887
-0.09510763 -0.1461771 -0.06703877 0.28913546 0.017937753 -0.17063254 -0.19482394 -0.01819352
0.05236474 -0.1480588 -0.1873007 -0.19107285 -0.20175588 -0.24726504 -0.29676643 -0.21968524
0.032649092 0.051221363 0.110016815 -0.030223625 0.12111588 -0.04287199 -0.1535501 -0.06928533
0.25785872 0.13704114 0.052019574 -0.058474116 -0.08500832 0.0062495964 -0.04633035 0.029213749
-0.07958575 0.2081423 -0.01020454 0.14793393 -0.14190125 0.036491722 0.1844576 -0.0034295376
-0.004470376 -0.2279209 -0.10407931 0.17743246 0.096449114 -0.13875501 -0.23005232 0.04528166
-0.20713122 0.12150262 0.24048425 -0.023195766 -0.07167222 -0.054474458 -0.07515047 0.20717853
0.030770792 0.232307 -0.13811365 -0.11178301 -0.23062344 0.19860893 -0.20593745 0.099832974
0.18466577 0.033316318 -0.012648722 0.09488604 0.0019151125 -0.07588994 -0.16636977 -0.116580024
0.0044481372 0.037677407 -0.1538039 0.09926101 0.011013501 0.16267814 0.26471362 0.14029393
0.18114467 -0.02339538 0.06926817 0.18354468 -0.16471037 -0.14046708 0.08339171 0.036985125
0.031259045 -0.045497835 0.15738437 -0.12125722 -0.033922534 0.061295863 -0.017130768 -0.14122333
-0.18528053 0.08860644 -0.24228738 0.18296729 -0.02588133 0.098890126 0.013734539 -0.036164608
0.017838338 -0.05312244 0.16917495 -0.21770397 0.097168766 0.17467104 -0.124518365 0.016212333
00000000: 87fe ea3d acec 16be e27b 0abd 39b5 933e
00000010: 6284 903d 94c9 0fbe 15e3 f6bd 58fa 06be
00000020: 4df2 7cbe df15 bebc 0d21 2a3d ec2f 81be
00000030: 5000 823d 72ac 95bd e87d e3bc 3457 063e
00000040: 25ca b73d d17b 093a bca5 f0bd 58bf d7bd
00000050: f30c 413e 18b0 123d e830 00bd 947a 05be
00000060: 86b0 1dbe d43d 5abd 5d3c a23c fe65 40be
00000070: dc5a 303e 859f 98bc 1d44 cf3c ac3a e53c
00000080: 4c66 e23d 0a33 32be 58aa 4dbd 0c75 003d
00000090: 5536 01be d778 103e 6e00 be3d 5eae 5cbe
000000a0: 46ac 0a3e d50f 553e 3afc cabc 8a2e 063e
000000b0: 60cc 1dbe f033 2b3e 048d 50be f6f3 d53d
000000c0: ee00 a6bd 01d6 0e3e 94d4 3ebd 1e01 06be
000000d0: 18b1 133c e9d3 dcbd ff44 423e 952b bfbc
000000e0: b0f6 75be f5ac 3c3e 2417 453d 5858 5f3d
000000f0: df37 04be 1864 ac3d 8337 f1bd b431 453e
00000100: 24e5 2c3e 5c93 11be cd8a a43d e777 ad3d
00000110: 7caa ddbd 36c3 b53b d35d 24bd 4a50 083e
00000120: 5da9 81bc 4577 ee3d e147 a4bd 3826 37be
00000130: 5c7e 763d 55bf 6d3e 0ee8 733e 34d0 27bd
00000140: f6c4 cabd 54a7 703e 3b26 9eba 1427 6f3e
00000150: 4015 3d3e 21b2 27be 3864 933d fcf9 523e
00000160: bec2 1f3e b579 97bd b7bd d3bd 7829 27be
00000170: 787d 113e 00b0 1d3e f947 ffbd d36c 5abd
00000180: cd72 8c3e a6f4 8c3d 8fba 013e aca4 aa3c
00000190: b020 85bd 913e 87bd ba3f 00be 9e78 33be
000001a0: 04cd 6dbe a997 543e 2998 3f3e 730f 4b3e
000001b0: f74d 2bbe 0ab5 903d 9990 88bc acf1 5e3c
000001c0: 351e 31be 5e78 5a3e 1760 c13b fa09 6cbc
000001d0: 9756 843d 3e23 8dbd 8508 7d3d bdf2 253d
000001e0: 4ddf ae3d ed24 53be 4336 1e3e cece a33d
000001f0: 1e17 2f3d aa3c 433e 6da6 b5bd 3591 0bbe
00000200: fef6 babd db27 7d3e c42a 0dbe 208b 7f3e
00000210: c8b7 c73d 9fa7 d43d c02b 0f3e db70 023e
00000220: b237 51bd e911 d03d 3d49 aebd cf0b dd3d
00000230: dc5a e73c f20f 813e 3589 5bbe b5f1 c0bb
00000240: cac7 c2bd 73af 15be 9f4b 89bd 9009 943e
00000250: 32f2 923c 4cba 2ebe ed7f 47be 940a 95bc
00000260: 697c 563d ba9c 17be c1cb 3fbe 9aa8 43be
00000270: 1899 4ebe 0c33 7dbe c5f1 97be 2bf5 60be
00000280: 0ebb 053d 7ecd 513d 7f50 e13d 8997 f7bc
00000290: 9a0b f83d 8a9a 2fbd 3d3c 1dbe 78e5 8dbd
000002a0: 0f06 843e 8354 0c3e 7a12 553d 8e82 6fbd
000002b0: d818 aebd 6ac9 cc3b e5c4 3dbd ac51 ef3c
000002c0: dbfd a2bd 4123 553e f130 27bc fe7b 173e
000002d0: 904e 11be 5878 153d 74e2 3c3e 18c2 60bb
000002e0: 3b7c 92bb 1964 69be 8927 d5bd dbb0 353e
000002f0: 1d87 c53d cb15 0ebe d692 6bbe 4379 393d
00000300: 351a 54be 5ed6 f83d 8141 763e 0c05 bebc
00000310: e3c8 92bd 9c20 5fbd 7de8 99bd 9c26 543e
00000320: 0713 fc3c e3e1 6d3e aa6d 0dbe 7eee e4bd
00000330: 8d28 6cbe 2460 4b3e 44e1 52be 3b75 cc3d
00000340: 0619 3d3e b176 083d 963c 4fbc 9d53 c23d
00000350: 8304 fb3a 2f6c 9bbd d65c 2abe 82c1 eebd
00000360: aec1 913b a053 1a3d c57e 1dbe 5b49 cb3d
00000370: f971 343c 1995 263e 8b88 873e 36a9 0f3e
00000380: fd7d 393e aba7 bfbc 78dc 8d3d 23f3 3b3e
00000390: d6a9 28be 9ad6 0fbe 46c9 aa3d b77d 173d
000003a0: 7c09 003d f05b 3abd 5e29 213e b555 f8bd
000003b0: 5bf2 0abd 5f11 7b3d d355 8cbc d99c 10be
000003c0: 2eba 3dbe 4b77 b53d 2f1a 78be c75b 3b3e
000003d0: 1505 d4bc e886 ca3d d506 613c 5721 14bd
000003e0: b521 923c ea96 59bd 333c 2d3e caed 5ebe
000003f0: 6b00 c73d f7dc 323e 7c03 ffbd bacf 843c

module.LSTM_layer.weight_hh_l0 f4 [64, 16]
-0.1961573 0.038515627 -0.20281824 0.25913432 0.23473875 -0.19630566 0.08142378 0.070224024
0.12033428 -0.16041885 -0.16633242 0.07043583 -0.03287712 0.0073810555 0.1603949 -0.08361908
0.081941985 -0.061667517 -0.14895774 -0.17537421 -0.089307755 0.008122335 -0.1362125 0.14375931
0.22830132 0.18974343 0.19990562 -0.09751186 -0.019050252 -0.16450112 -0.15691288 0.13992037
-0.040085953 0.21504863 -0.0052369046 -0.09643679 -0.14906861 -0.015154153 -0.23580912 0.14961573
0.23820874 0.0058236243 0.042659916 0.14361371 0.045545783 -0.19030306 -0.12080233 0.026658332
-0.18463202 -0.20236483 0.066184916 -0.024223404 0.20689076 0.23237455 -0.082971685 0.022460615
0.043163605 0.1925469 0.18314478 0.1868191 -0.1732776 -0.06421512 -0.1753242 -0.13870063
-0.30797112 -0.009800271 0.07160014 -0.0773404 -0.010121984 -0.018631663 -0.21185854 -0.14374329
0.017237877 0.23069799 0.3329927 0.16874714 0.22159252 -0.016445529 0.095529936 -0.16941813
0.14330392 0.13854441 0.20039546 -0.1155967 -0.0031068122 0.1183524 -0.16956499 -0.1102517
0.050781753 0.061725482 0.08882716 0.1148353 0.213314 0.029560523 -0.13473547 0.15666257
-0.1693635 -0.01489727 -0.11759922 0.16485271 -0.05059324 0.09856317 -0.14672118 -0.06402884
-0.04349476 -0.12115847 -0.03845051 -0.16420154 -0.11545706 -0.21774301 -0.03462558 0.053268872
-0.027406678 -0.03675593 0.07661 -0.13369013 0.238827 0.33315423 0.08353023 0.23698041
-0.2141572 0.025274707 0.25907 0.06528818 0.051981322 -0.1077377 -0.07081784 0.14170149
-0.28183514 -0.15227659 0.057282433 0.022498311 -0.07415602 0.053705648 0.042567577 0.21806073
-0.15612182 -0.13523321 -0.029676318 -0.2500008 0.15588686 -0.22522874 0.07845644 -0.17391595
-0.03490885 0.04629509 -0.0061618607 0.2365968 0.18150827 0.20250839 -0.110237464 -0.16262956
0.11455531 0.10215425 0.116619974 0.058513675 -0.042263396 0.1939175 -0.12397932 0.1619778
-0.29169002 0.11713056 0.13138442 -0.032700494 -0.2799701 -0.025454843 -0.24821487 -0.14809377
0.13164535 0.2673768 -0.033751335 0.19271915 -0.15072143 -0.17424522 -0.01292331 -0.27611384
0.12761207 -0.023819843 -0.10809831 0.18686284 0.18005416 0.1911574 0.27853864 0.06168833
-0.15360415 -0.07159996 0.15198956 0.2204382 -0.20628677 0.16882597 -0.08082938 -0.006945663
-0.23754153 0.07233042 0.102055155 0.20188335 0.080478 -0.13851455 -0.033916693 -0.12280481
-0.054766595 -0.24600093 0.14399397 0.19677985 -0.14471199 0.051796645 -0.119214475 0.053194284
0.051346406 0.14552283 -0.19497354 0.12704314 0.10820349 0.088051185 -0.09440837 -0.09402237
0.06449455 -0.07296427 -0.05652516 0.33646107 -0.016375342 0.24748753 -0.10825009 0.10281337
0.09738597 -0.14144112 -0.11649119 -0.13725406 0.22982256 -0.24173672 -0.03189324 0.018732984
0.009391456 0.012197469 -0.22422607 0.14610386 -0.20098913 -0.08204045 -0.14331326 -0.19613293
0.1362546 0.20818087 0.06956938 0.22857276 0.16823353 0.07637589 0.17770393 0.1851686
0.079114825 0.24356946 -0.27696273 -0.0050176964 0.10375256 -0.24594729 -0.02017003 -0.21102154
00000000: 76dd 48be 90c2 1d3d 96af 4fbe 41ad 843e
00000010: 5b5f 703e 5a04 49be 83c1 a63d 9dd1 8f3d
00000020: d271 f63d d744 24be 0c53 2abe a940 903d
00000030: 29aa 06bd c8dc f13b 903e 243e 7b40 abbd
00000040: 33d1 a73d 1497 7cbd 6188 18be 4c95 33be
00000050: fce6 b6bd 8b13 053c 4a7b 0bbe a435 133e
00000060: d2c7 693e 1a4c 423e 0fb4 4c3e 4cb4 c7bd
00000070: 460f 9cbc fb72 28be c5ad 20be 4947 0f3e
00000080: 2b31 24bd b535 5c3e 579a abbb a780 c5bd
00000090: 71a5 18be 2049 78bc f277 71be de34 193e
000000a0: feec 733e 1ad4 be3b 2abc 2e3d 790f 133e
000000b0: 378e 3a3d cede 42be 3667 f7bd 9362 da3c
000000c0: 2d10 3dbe ba38 4fbe f58b 873d 2970 c6bc
000000d0: 2cdb 533e 98f3 6d3e 0fed a9bd 53ff b73c
000000e0: 52cc 303d 042b 453e 4e8a 3b3e 824d 3f3e
000000f0: af6f 31be 3883 83bd 3088 33be 8a07 0ebe
00000100: 64ae 9dbe 5191 20bc 18a3 923d a564 9ebd
00000110: aed6 25bc 6ea1 98bc 72f1 58be 7131 13be
00000120: 7336 8d3c 183c 6c3e 057e aa3e 0dcc 2c3e
00000130: 26e9 623e c6b8 86bc 33a5 c33d f27b 2dbe
00000140: 43be 123e 96de 0d3e 7834 4d3e f6bd ecbd
00000150: a99b 4bbb be62 f23d 72a2 2dbe a5cb e1bd
00000160: 8700 503d dcd3 7c3d 04eb b53d c52e eb3d
00000170: fc6e 5a3e e928 f23c 18f8 09be 276c 203e
00000180: a06d 2dbe ae13 74bc dcd7 f0bd 26cf 283e
00000190: db3a 4fbd 7ddb c93d 143e 16be 8d21 83bd
000001a0: 9027 32bd ef21 f8bd 487e 1dbd 7324 28be
000001b0: c074 ecbd 06f8 5ebe 8dd3 0dbd 7630 5a3d
000001c0: f883 e0bc 638d 16bd b4e5 9c3d 11e6 08be
000001d0: 118f 743e 3193 aa3e e611 ab3d feaa 723e
000001e0: 064c 5bbe e70c cf3c d3a4 843e cfb5 853d
000001f0: 5eea 543d 95a5 dcbd f208 91bd 321a 113e
00000200: b24c 90be 65ee 1bbe fca0 6a3d 614e b83c
00000210: 1ddf 97bd 74fa 5b3d 575b 2e3d 504b 5f3e
00000220: 66de 1fbe 937a 0abe c01b f3bc 1b00 80be
00000230: cea0 1f3e 5da2 66be c5ad a03d 0617 32be
00000240: 95fc 0ebd ec9f 3d3d 6fe9 c9bb 6e46 723e
00000250: 4edd 393e 5c5e 4f3e 2ec4 e1bd 5d88 26be
00000260: f99b ea3d 3f36 d13d 74d6 ee3d 09ac 6f3d
00000270: 621c 2dbd 4f92 463e dfe8 fdbd 82dd 253e
00000280: 6558 95be 26e2 ef3d a389 063e f4f0 05bd
00000290: 3e58 8fbe ad86 d0bc 0a2c 7ebe e5a5 17be
000002a0: 0ace 063e 9de5 883e d73e 0abd 2b58 453e
000002b0: b856 1abe 576d 32be 4abc 53bc cb5e 8dbe
000002c0: bdac 023e d521 c3bc a662 ddbd f958 3f3e
000002d0: 1e60 383e c4be 433e 9e9c 8e3e e7ac 7c3d
000002e0: 684a 1dbe 00a3 92bd 27a3 1b3e 8dba 613e
000002f0: d73c 53be b7e0 2c3e e089 a5bd 7298 e3bb
00000300: 163e 73be f921 943d 4b02 d13d 82ba 4e3e
00000310: a6d1 a43d c2d6 0dbe 3bec 0abd 1781 fbbd
00000320: f052 60bd abe7 7bbe 2873 133e a880 493e
00000330: 612f 14be b828 543d b826 f4bd 40e2 593d
00000340: 9c50 523d f003 153e 25a7 47be 9917 023e
00000350: cb99 dd3d 2e54 b43d 2d59 c1bd cd8e c0bd
00000360: b815 843d 4b6e 95bd ed86 67bd a044 ac3e
00000370: 9525 86bc 5f6d 7d3e 39b2 ddbd d18f d23d
00000380: 4c72 c73d f1d5 10be ef92 eebd 548c 0cbe
00000390: 9b56 6b3e d589 77be 7ca2 02bd ea75 993c
000003a0: 9fde 193c e5d7 473c 859b 65be 409c 153e
000003b0: 18d0 4dbe d304 a8bd b6c0 12be 12d7 48be
000003c0: 5386 0b3e 5e2d 553e 647a 8e3d fa0e 6a3e
000003d0: 6945 2c3e f66a 9c3d 05f8 353e d69c 3d3e
000003e0: f406 a23d 466a 793e 0fce 8dbe 7d6b a4bb
000003f0: 397c d43d 9bd9 7bbe 9e3b a5bc 0816 58be

module.LSTM_layer.bias_ih_l0 f4 [64]
0.14030956 0.00885046 -0.0551508 0.22738005 0.1710642 -0.14684954 0.15193163 0.15856688
-0.023443403 -0.1389294 -0.1961614 0.1996138 0.01235274 -0.18952951 0.08458116 -0.15768042
-0.0805794 -0.06201305 0.13907151 -0.18579698 -0.16952664 0.14328596 0.22421445 -0.22154613
0.059922967 0.21796829 -0.2360183 -0.18424389 0.048896335 0.14673209 0.06418007 0.058086336
-0.044209715 -0.1438601 0.21363339 0.11043917 -0.022659088 -0.13538055 -0.097815 -0.19684097
-0.0057753837 -0.15313181 0.18757473 -0.21308148 -0.17948917 -0.027835414 -0.081539124 -0.02426079
-0.16601707 -0.039587367 0.16596228 0.15785511 -0.00023579321 0.15018196 0.01082693 0.09141615
0.24041276 0.14133805 -0.030513916 -0.2008964 0.117445216 -0.0038261248 -0.09006312 -0.21618542
00000000: 4fad 0f3e 8501 113c cee5 61bd 51d6 683e
00000010: 742b 2f3e ba5f 16be f793 1b3e 5b5f 223e
00000020: 610c c0bc 8243 0ebe 89de 48be 8f67 4c3e
00000030: 2663 4a3c 0614 42be e338 ad3d fa76 21be
00000040: d006 a5bd 6501 7ebd c368 0e3e 9041 3ebe
00000050: 6498 2dbe 8eb9 123e 7998 653e fddc 62be
00000060: c971 753d 1433 5f3e c8ae 71be 6eaa 3cbe
00000070: 8647 483d f040 163e d770 833d f0eb 6d3d
00000080: 3f15 35bd 1050 13be b6c2 5a3e ee2d e23d
00000090: 8d9f b9bc 33a1 0abe 3b53 c8bd ae90 49be
000000a0: 6e3f bdbb 96ce 1cbe 9713 403e 0832 5abe
000000b0: 02cc 37be 1807 e4bc fcfd a6bd 90be c6bc
000000c0: 6100 2abe 5d26 22bd 04f2 293e c5a4 213e
000000d0: 423f 77b9 4dc9 193e 7063 313c 6438 bb3d
000000e0: c32e 763e ecba 103e 52f8 f9bc c9b7 4dbe
000000f0: 1e87 f03d b9bf 7abb 0373 b8bd b65f 5dbe

module.LSTM_layer.bias_hh_l0 f4 [64]
0.05211736 0.22657427 -0.14175384 -0.07195803 0.07526976 -0.048818085 0.1469925 -0.110257246
-0.012630848 0.108859584 0.0083825 0.11708619 -0.115333736 -0.17982614 -0.002886531 -0.11849453
0.17428869 -0.13407883 0.048307322 -0.17789248 -0.20896415 0.19526918 -0.23549293 -0.19584
-0.08400836 0.2144382 0.056728784 -0.16776824 0.18732677 0.19284393 -0.15528841 -0.057976156
0.10513717 0.15510121 -0.10343196 -0.07992855 -0.21377268 -0.02119953 -0.1886131 0.0059852577
0.07414273 0.08537046 0.051075462 -0.0037795708 0.034858063 -0.16439995 0.23051687 -0.19941576
-0.22721502 0.17985778 0.1408097 0.19163038 -0.09462886 0.09402853 0.22695345 0.21804523
-0.066584624 -0.002506233 0.12726606 -0.18451908 0.015153108 -0.18781902 0.16179864 -0.19072598
00000000: 0379 553d 1603 683e eb27 11be bb5e 93bd
00000010: 0827 9a3d 79f5 47bd 3485 163e 8dce e1bd
00000020: 9ef1 4ebc c6f1 de3d c156 093c e2ca ef3d
00000030: 1834 ecbd 5824 38be f42b 3dbb 43ad f2bd
00000040: bc78 323e f64b 09be e6dd 453d 7229 36be
00000050: b3fa 55be a5f4 473e 0f25 71be 488a 48be
00000060: 930c acbd b095 5b3e 715c 683d 70cb 2bbe
00000070: 97d2 3f3e e178 453e ed03 1fbe 6878 6dbd
00000080: 2852 d73d dad2 1e3e 23d4 d3bd 94b1 a3bd
00000090: 3ae7 5abe a3aa adbc cb23 41be fb1f c43b
000000a0: 25d8 973d b5d6 ae3d 8134 513d adb2 77bb
000000b0: 54c7 0e3d 7658 28be 9d0c 6c3e a533 4cbe
000000c0: 0eab 68be a32c 383e 6b30 103e c13a 443e
000000d0: c7cc c1bd 0892 c03d 7c66 683e 4047 5f3e
000000e0: 855d 88bd 9d3f 24bb 0952 023e 92f2 3cbe
000000f0: be44 783c a153 40be 8bae 253e ac4d 43be

module.LSTM_layer.weight_ih_l1 f4 [64, 16]
0.20138101 0.14182486 0.19853571 0.26019332 0.009796506 0.17697443 -0.012542602 -0.20109883
-0.03862012 0.08882624 0.18491788 -0.08434783 -0.038354527 -0.13598758 0.18272902 -0.19282785
-0.015895048 0.1652169 -0.07429355 -0.13100377 -0.17167686 -0.1196425 -0.14363495 0.06320336
-0.1319928 -0.14891696 -0.22581145 0.075357325 -0.16322961 0.1099637 0.1903336 0.10028601
0.17325057 -0.1880444 -0.06252667 -0.115277365 -0.10041515 0.17609437 -0.023279041 0.14299206
-0.18128185 0.20299862 -0.092100345 -0.03952737 -0.18878388 -0.12212387 -0.035611343 0.13260438
-0.2575614 -0.19917089 0.09015653 0.08459936 -0.055398393 -0.17661938 -0.18179673 0.18230082
-0.1901264 -0.1187439 -0.0039106193 -0.093623646 -0.029532256 -0.059452955 0.07562998 0.18362658
0.20874602 -0.10769567 -0.20541854 -0.02632747 0.020395383 -0.007592038 0.09517268 -0.13218382
-0.15964846 0.14218982 0.11493 0.12279475 0.1883426 0.10806243 -0.17737594 0.02054914
-0.16262516 -0.26126406 -0.26687637 0.21682462 0.16675879 0.07827849 0.06888332 -0.11418661
0.06437508 0.012939992 -0.0010328371 0.25919664 0.05963334 0.1886507 -0.045066845 -0.058191106
0.19147235 0.10909699 0.06628091 -0.19421548 0.17236376 -0.0011682017 0.2822638 -0.07948576
-0.04259515 -0.004410408 0.017702498 -0.13859797 0.14516538 -0.15235277 0.006427667 -0.19843854
-0.09957084 0.283471 -0.033151425 -0.19988658 -0.08500134 -0.09798948 0.20561966 -0.08987239
0.024549522 0.02737236 -0.13800023 -0.2876279 -0.22628523 -0.043152593 -0.008700438 0.21744964
0.163952 -0.20324789 -0.21157628 -0.016564269 0.043929555 0.072316736 -0.015001193 0.11544327
0.17725067 0.22858006 0.13326083 0.16293119 0.016237523 0.26775447 0.1786654 0.17981215
0.044937752 -0.07886034 0.12937935 0.19990143 0.1922644 -0.03096249 -0.09953458 0.09110968
9.450123e-05 -0.15083104 -0.0006331432 0.17005867 0.19287139 0.2000841 -0.27512664 -0.028146561
0.12755552 -0.1339961 -0.12776692 -0.073992915 0.15376149 0.09568257 -0.021919772 -0.10483358
-0.14694668 0.07042219 0.0017838397 0.27716327 0.037982527 0.10318237 0.053627923 -0.13070646
-0.054864526 -0.19173005 0.08462101 -0.17390981 0.12157899 0.10493531 -0.22783996 -0.17621222
-0.17783235 0.20975736 0.13278231 0.24990387 -0.23735973 -0.17596321 0.07312786 0.0078050476
-0.022054685 0.20903906 -0.2522771 -0.2479438 0.10167617 -0.16947474 -0.057465293 0.059244562
-0.10356001 0.19796117 -0.0058733597 -0.24264084 0.1661451 0.09692843 0.11525547 0.057982434
0.13657339 0.13602823 -0.11264636 -0.15653521 0.13266265 0.05102481 -0.069364905 0.22188632
-0.14736816 0.059311412 -0.17914806 -0.2396751 -0.115930706 0.13080505 -0.28571406 -1.49383995e-05
-0.13466923 0.09182931 0.2662387 -0.05247766 0.25402722 0.16892251 0.1290023 0.27254456
-0.06710663 0.16420692 -0.2500195 -0.14953597 -0.034840826 0.20495398 -0.21531405 -0.10506328
0.22650743 0.11658113 0.23765627 0.0890782 0.13857782 0.043571346 0.05219921 -0.147205
-0.021534545 -0.0866012 -0.34847414 0.13646394 0.037529375 0.1268167 -0.1963517 0.018932112
00000000: d336 4e3e 893a 113e f24c 4b3e 0f38 853e
00000010: 8681 203c c938 353e 7c7f 4dbc daec 4dbe
00000020: 2230 1ebd 88ea b53d 1d5b 3d3e 8ebe acbd
00000030: a319 1dbd 5440 0bbe 511d 3b3e aa74 45be
00000040: 5536 82bc 9e2e 293e 3727 98bd da25 06be
00000050: 0fcc 2fbe 2107 f5bd 0a15 13be c370 813d
00000060: 1f29 07be b07d 18be 1e3b 67be f154 9a3d
00000070: aa25 27be a634 e13d d0e6 423e c062 cd3d
00000080: 9968 313e b68e 40be fc0d 80bd 8a16 ecbd
00000090: 75a6 cdbd 1552 343e b0b3 bebc 836c 123e
000000a0: f3a1 39be dfde 4f3e 1b9f bcbd 74e7 21bd
000000b0: 9050 41be 141c fabd 33dd 11bd 71c9 073e
000000c0: 16df 83be 74f3 4bbe fda3 b83d 6e42 ad3d
000000d0: 6de9 62bd b6db 34be ec28 3abe 11ad 3a3e
000000e0: 7fb0 42be 0030 f3bd a724 80bb c1bd bfbd
000000f0: a1ed f1bc f184 73bd e4e3 9a3d 9b08 3c3e
00000100: 84c1 553e 8c8f dcbd 3d59 52be b5ac d7bc
00000110: 3814 a73c a1c6 f8bb e5e9 c23d 325b 07be
00000120: e37a 23be 359a 113e 6b60 eb3d d07b fb3d
00000130: e2dc 403e d64f dd3d 0aa2 35be ac56 a83c
00000140: 3687 26be 67c4 85be 05a4 88be 4607 5e3e
00000150: d1c2 2a3e 7950 a03d b312 8d3d abda e9bd
00000160: 15d7 833d 4302 543c 4360 87ba 6cb5 843e
00000170: 1742 743d a62d 413e 0398 38bd cc59 6ebd
00000180: 5411 443e 3e6e df3d 49be 873d 6ce0 46be
00000190: 2080 303e 581e 99ba e184 903e 6ec9 a2bd
000001a0: 4178 2ebd 2f85 90bb d404 913c a0ec 0dbe
000001b0: 3ca6 143e 5d02 1cbe 2e9f d23b 7933 4bbe
000001c0: cceb cbbd 1c23 913e cac9 07bd 11af 4cbe
000001d0: 2f15 aebd b5ae c8bd f68d 523e 040f b8bd
000001e0: 141c c93c 003c e03c ef4f 0dbe f743 93be
000001f0: 51b7 67be c6c0 30bd 488c 0ebc 1eab 5e3e
00000200: 08e3 273e 3720 50be 74a7 58be cab1 87bc
00000210: 7aef 333d cc1a 943d 90c7 75bc 856d ec3d
00000220: 3381 353e e410 6a3e 8775 083e 6fd7 263e
00000230: 8e04 853c 1d17 893e 10f4 363e ad20 383e
00000240: a610 383d 8881 a1bd 057c 043e f6b2 4c3e
00000250: f5e0 443e 0ca5 fdbc c9d8 cbbd b697 ba3d
00000260: f62e c638 7473 1abe 85f9 25ba dc23 2e3e
00000270: 1480 453e d9e2 4c3e 66dd 8cbe 9e93 e6bc
00000280: ea9d 023e 4636 09be 55d5 02be 9989 97bd
00000290: a773 1d3e 39f5 c33d 1891 b3bc fdb2 d6bd
000002a0: 3179 16be 8239 903d bacf e93a 58e8 8d3e
000002b0: 9193 1b3d 4751 d33d f4a8 5b3d ead7 05be
000002c0: a0b9 60bd e254 44be c84d ad3d 6a15 32be
000002d0: 68fe f83d 53e8 d63d e14e 69be fa70 34be
000002e0: af19 36be a2ca 563e 16f8 073e cde6 7f3e
000002f0: 6e0e 73be b32f 34be 0fc4 953d 7cc1 ff3b
00000300: 07ac b4bc 560e 563e 772a 81be fbe4 7dbe
00000310: 993b d03d c98a 2dbe ba60 6bbd 6daa 723d
00000320: 4517 d4bd 55b6 4a3e 5075 c0bb d776 78be
00000330: f121 2a3e 6a82 c63d 0f0b ec3d fd7e 6d3d
00000340: e5d9 0b3e fc4a 0b3e 23b3 e6bd c44a 20be
00000350: b8d8 073e 64ff 503d 300f 8ebd 2b36 633e
00000360: aee7 16be 86f0 723d 9772 37be 646d 75be
00000370: 146d edbd c2f1 053e 1d49 92be f09f 7ab7
00000380: bbe6 09be 0111 bc3d 7050 883e d1f2 56bd
00000390: db0f 823e 06fa 2c3e 2e19 043e f68a 8b3e
000003a0: 336f 89bd dc25 283e 8e02 80be f51f 19be
000003b0: 41b5 0ebd 75df 513e 497b 5cbe 6b2b d7bd
000003c0: 90f1 673e 16c2 ee3d 2a5c 733e a26e b63d
000003d0: 58e7 0d3e de77 323d d7ce 553d e8bc 16be
000003e0: 3769 b0bc f85b b1bd 346b b2be 34bd 0b3e
000003f0: 67b8 193d 3ddc 013e 6c10 49be 8417 9b3c

module.LSTM_layer.weight_hh_l1 f4 [64, 16]
0.07892105 -0.021052316 0.19555984 -0.07195162 -0.12307634 0.2611337 0.06310268 -0.09366378
-0.08253804 -0.11304351 -0.08260916 -0.20588237 0.03877516 -0.0573779 -0.18634191 -0.041648347
-0.16184549 -0.2631914 -0.005700154 0.19457214 0.08362296 0.05114615 -0.1371569 -0.18120274
-0.22761007 0.19311641 -0.2256586 -0.09307718 -0.16787815 -0.011199049 0.03427319 0.17620434
0.002225965 -0.19737993 0.105905905 0.0064467327 -0.21375373 -0.16094437 -0.0020157045 0.23398446
0.2185618 -0.009964057 -0.22640218 0.12847239 -0.12356606 0.20812756 0.12963323 -0.18414406
0.051682953 0.16034861 -0.1842562 -0.110088766 0.082250014 -0.033158157 -0.12759204 0.19467229
0.011911178 0.104075134 -0.07354256 -0.22756217 0.16521144 -0.20485938 0.118993 0.1259637
0.13923822 0.16873606 -0.19350211 0.12666975 0.09239311 -0.20520844 -0.11598941 0.22943313
0.17267711 -0.25126448 0.18347374 0.033423387 0.07862886 0.21673633 -0.18615206 0.21883345
-0.28899652 0.057112087 -0.024885401 -0.08156767 -0.09422401 0.21402377 -0.21366373 -0.25225952
-0.009550337 -0.01004062 -0.2763572 0.03751999 0.21768008 0.13170253 0.07773284 0.09321198
-0.105030246 0.12389769 -0.21551621 -0.094776794 -0.048324402 0.104673244 -0.14253946 -0.16147402
-0.061633684 0.023174768 -0.12804945 -0.2606915 0.098880835 -0.22045322 -0.0741973 -0.094547056
-0.14586467 -0.105556644 0.19293658 -0.022816561 -0.15480931 -0.28226024 0.26697966 -0.20686586
-0.16021627 0.15585591 0.2373491 0.2781037 0.13584489 0.09388174 -0.16325553 -0.14452294
-0.12588789 0.26658717 0.15546022 0.17024957 -0.031112269 -0.1903395 -0.19108519 0.15379757
-0.031050531 -0.1004423 -0.25349793 0.17560709 0.10303492 0.053351708 -0.08936205 -0.1540614
-0.19984509 0.1452856 0.20850517 0.024738794 0.14378695 0.10934135 -0.1765976 -0.06936041
0.125311 0.16189167 -0.20738988 0.118908815 0.008870418 0.022606257 0.2934405 -0.15008353
-0.26479122 0.14437822 -0.072652444 -0.03618659 -0.17268369 0.18116593 0.014659493 -0.19709805
-0.019008232 -0.1893635 0.101230055 -0.21734096 0.23964769 0.06872556 -0.090995416 0.22326128
-0.07878288 0.06033005 -0.13953161 -0.08433019 0.12042765 0.08541602 0.22922015 0.2306066
0.0045797294 -0.09945107 -0.12286745 -0.08756106 0.067828715 0.046873827 0.16757885 -0.11760699
-0.14514537 0.17234005 0.035433915 0.06127233 0.075373806 0.06922181 -0.11733809 0.06386772
-0.033120602 -0.22070795 0.15340252 -0.061725356 -0.042070862 0.1393458 -0.0025593212 -0.08340289
-0.21839863 -0.031145139 0.0058332705 0.011141893 0.14105217 0.04635251 0.004226712 0.13969864
-0.25671917 0.08062017 -0.09717424 0.22585474 0.11341301 0.21448873 -0.11506015 0.08731532
-0.058520332 -0.24101798 0.23955412 0.050868694 0.15247244 0.03896887 0.046454478 -0.16239178
-0.17967714 0.16536261 0.11889519 0.21058019 0.22248094 0.11933377 -0.11044603 -0.10483043
0.029072635 0.19944915 0.026712611 -0.23659226 0.1421215 0.08216607 -0.17442788 -0.14486887
0.21542454 -0.07276301 -0.20561373 0.16760668 0.035960987 -0.009643654 0.16284965 -0.17585865
00000000: 5ca1 a13d e875 acbc d740 483e 5f5b 93bd
00000010: 730f fcbd 51b3 853e fa3b 813d ccd2 bfbd
00000020: b409 a9bd 5b83 e7bd fe2e a9bd d4d2 52be
00000030: b4d2 1e3d 1705 6bbd 6ad0 3ebe 7597 2abd
00000040: d3ba 25be 06c1 86be 5cc8 babb eb3d 473e
00000050: 8442 ab3d a07e 513d dc72 0cbe 368d 39be
00000060: 9d12 69be 4fc0 453e 0c13 67be 409f bebd
00000070: 40e8 2bbe 377c 37bc 0b62 0c3d e96e 343e
00000080: 7fe1 113b f71d 4abe 32e5 d83d 1d3f d33b
00000090: 42e2 5abe 9ace 24be e919 04bb 9f99 6f3e
000000a0: aace 5f3e 4940 23bc f9d5 67be 448e 033e
000000b0: 3410 fdbd 641f 553e 93be 043e 4390 3cbe
000000c0: 81b1 533d 6d32 243e a8ad 3cbe 3876 e1bd
000000d0: b272 a83d d9d0 07bd 7da7 02be 2c58 473e
000000e0: 1a27 433c 5825 d53d 7b9d 96bd 0f06 69be
000000f0: 302d 293e a8c6 51be 9ab2 f33d a1fc 003e
00000100: 7794 0e3e 25c9 2c3e 6b25 46be b7b5 013e
00000110: 9938 bd3d 2922 52be db8b edbd 85f0 6a3e
00000120: 45d2 303e bda5 80be 8ae0 3b3e f6e6 083d
00000130: 2b08 a13d 21f0 5d3e a59e 3ebe e015 603e
00000140: 5af7 93be 5dee 693d 78dc cbbc f30c a7bd
00000150: 85f8 c0bd 0c29 5b3e aaca 5abe 2928 81be
00000160: 0479 1cbc 6a81 24bc b17e 8dbe 90ae 193d
00000170: 87e7 5e3e 07dd 063e 6532 9f3d ece5 be3d
00000180: 191a d7bd 12be fd3d 48b0 5cbe 561a c2bd
00000190: cfef 45bd ed5e d63d ddf5 11be 7259 25be
000001a0: 9a73 7cbd 03d9 bd3c 651f 03be 5b79 85be
000001b0: 0982 ca3d 7dbe 61be c1f4 97bd e3a1 c1bd
000001c0: 8c5d 15be 152e d8bd 2b91 453e cce9 babc
000001d0: 5586 1ebe 6a84 90be 8fb1 883e a5d4 53be
000001e0: bc0f 24be b198 1f3e a40b 733e 9c63 8e3e
000001f0: ec1a 0b3e 1245 c03d 752c 27be d2fd 13be
00000200: c1e8 00be 1d7e 883e f730 1f3e e755 2e3e
00000210: 28df febc 5ce8 42be d6ab 43be 1c7d 1d3e
00000220: af5d febc b1b4 cdbd 7bca 81be 58d2 333e
00000230: f903 d33d 5287 5a3d 7303 b7bd 46c2 1dbe
00000240: 31a4 4cbe c0c5 143e 6182 553e 03a9 ca3c
00000250: e33c 133e 5cee df3d 00d6 34be d50c 8ebd
00000260: 8751 003e eec6 253e 035e 54be 7786 f33d
00000270: 3b55 113c c230 b93c d53d 963e 7faf 19be
00000280: b792 87be e2d7 133e ceca 94bd 6438 14bd
00000290: fed3 30be 9083 393e 5f2e 703c 12d4 49be
000002a0: 27b7 9bbc 81e8 41be b451 cf3d a18e 5ebe
000002b0: 3466 753e fdbf 8c3d ce5b babd 9b9e 643e
000002c0: eb58 a1bd a41c 773d 60e1 0ebe 4fb5 acbd
000002d0: c6a2 f63d 98ee ae3d b0b8 6a3e 2324 6c3e
000002e0: 8e11 963b 01ad cbbd eea1 fbbd 3753 b3bd
000002f0: c8e9 8a3d c5fe 3f3d ca99 2b3e efdb f0bd
00000300: fda0 14be e979 303e 2723 113d b2f8 7a3d
00000310: 955d 9a3d 2ac4 8d3d f44e f0bd 14cd 823d
00000320: 78a9 07bd 4401 62be 8d15 1d3e bad3 7cbd
00000330: 7f52 2cbd aab0 0e3e 49ba 27bb 22cf aabd
00000340: e4a3 5fbe 1724 ffbc 0525 bf3b 7d8c 363c
00000350: fb6f 103e 21dc 3d3d 3b80 8a3b 290d 0f3e
00000360: b270 83be 301c a53d 4a03 c7bd 7746 673e
00000370: 1545 e83d efa2 5b3e a8a4 ebbd 60d2 b23d
00000380: 04b3 6fbd 6bcd 76be ad4d 753e b15b 503d
00000390: bc21 1c3e d29d 1f3d 0d47 3e3d 084a 26be
000003a0: 49fd 37be d154 293e 527f f33d 55a2 573e
000003b0: 0bd2 633e 4365 f43d 8731 e2bd 56b1 d6bd
000003c0: bc29 ee3c 663c 4c3e 68d4 da3c 3e45 72be
000003d0: 4c88 113e af46 a83d 399d 32be 8158 14be
000003e0: 4098 5c3e c604 95bd 688c 52be 16a1 2b3e
000003f0: d44b 133d 6b00 1ebc 0fc2 263e 4a14 34be

module.LSTM_layer.bias_ih_l1 f4 [64]
-0.1443463 0.2483654 -0.09887953 -0.056573458 0.051272664 0.01737594 -0.091274835 0.07967451
0.09630448 0.0005667146 -0.17581388 -0.12757854 -0.038251884 0.094127335 -0.09889844 -0.18525073
-0.09432026 0.09061874 -0.14999937 0.073025785 -0.010686911 0.028982565 0.13724782 -0.011712571
-0.15128559 0.10637248 0.046588082 -0.19650362 0.07315241 -0.066087544 -0.038662836 -0.014206769
-0.025650926 -0.27559936 -0.13650523 -0.07916672 -0.013203918 0.18999006 -0.14240786 -0.03355343
0.041646775 -0.13524862 -0.091609165 0.20435323 -0.2088819 -0.18095061 0.0472505 0.017501434
0.07969708 0.15049748 0.1344511 0.27581796 0.037870564 0.02954816 -0.058465205 0.16061813
-0.22214745 -0.008333109 -0.25364307 0.2329841 0.15107982 0.16961025 0.11001608 0.04349944
00000000: 84cf 13be 8053 7e3e 5a81 cabd 92b9 67bd
00000010: 4903 523d fd57 8e3c 4dee babd 642c a33d
00000020: 493b c53d 938f 143a 8e08 34be f3a3 02be
00000030: 02ae 1cbd d5c5 c03d 448b cabd 5eb2 3dbe
00000040: fb2a c1bd 5196 b93d 6f99 19be 8b8e 953d
00000050: 2718 2fbc d86c ed3c b18a 0c3e 15e6 3fbc
00000060: 9cea 1abe d1d9 d93d 25d3 3e3d 3f38 49be
00000070: eed0 953d e858 87bd ec5c 1ebd 82c3 68bc
00000080: e421 d2bc 5c1b 8dbe 07c8 0bbe 2922 a2bd
00000090: 3f55 58bc c18c 423e 5ed3 11be 526f 09bd
000000a0: cf95 2a3d 9d7e 0abe 969d bbbd f941 513e
000000b0: 23e5 55be 1e4b 39be be89 413d 2b5f 8f3c
000000c0: 3938 a33d 031c 1a3e 8dad 093e 0338 8d3e
000000d0: 2a1e 1b3d fc0e f23c 3679 6fbd 1479 243e
000000e0: 9f7a 63be 9887 08bc 81dd 81be 6293 6e3e
000000f0: abb4 1a3e 4fae 2d3e 1c50 e13d 782c 323d

module.LSTM_layer.bias_hh_l1 f4 [64]
0.11452752 0.10004346 -0.021220323 0.095950946 0.2008155 0.106462054 0.22368419 -0.102100395
-0.1634244 0.0047426634 -0.20786557 0.020875229 0.08810475 -0.0853995 -0.091092035 -0.018243803
0.15411568 -0.17349616 0.00621357 -0.14289178 -0.063830554 -0.0375322 -0.073094405 -0.18000546
-0.23968172 -0.11655726 0.26611528 -0.0042348257 -0.28023943 0.21426232 0.2312291 -0.115636095
-0.073898524 0.11406983 0.19995555 -0.06276026 -0.17432956 -0.1264012 -0.26294777 0.21283334
0.050937414 0.19363414 -0.13096568 -0.116431214 0.21251658 -0.13060729 0.18457983 -0.18073316
-0.19524556 -0.099874586 0.0006079278 0.19936433 -0.13576844 -0.03735129 0.041126728 -0.22620386
-0.1955006 9.9512865e-05 -0.07318315 0.10323337 0.061668444 -0.10579332 0.16874212 -0.17318445
00000000: 688d ea3d 96e3 cc3d 3ed6 adbc ee81 c43d
00000010: 94a2 4d3e c708 da3d 780d 653e 031a d1bd
00000020: ba58 27be 5868 9b3b b6da 54be 8702 ab3c
00000030: 4370 b43d efe5 aebd 768e babd 0774 95bc
00000040: 80d0 1d3e faa8 31be 349b cb3b 3952 12be
00000050: 98b9 82bd 5dbb 19bd 85b2 95bd 5a53 38be
00000060: 206f 75be 93b5 eebd 4340 883e 4bc4 8abb
00000070: 8b7b 8fbe 9567 5b3e 52c7 6c3e 9ed2 ecbd
00000080: 1c58 97bd 719d e93d 26c1 4c3e 7488 80bd
00000090: 7383 32be 516f 01be 17a1 86be fcf0 593e
000000a0: c0a3 503d 0748 463e de1b 06be 7d73 eebd
000000b0: f29d 593e ebbd 05be 7f02 3d3e 1d12 39be
000000c0: 74ee 47be 0c8b ccbd 585d 1f3a 2a26 4c3e
000000d0: e206 0bbe abfd 18bd 8074 283d fca1 67be
000000e0: 4f31 48be 90b1 d038 0ce1 95bd 046c d33d
000000f0: 0d98 7c3d 2baa d8bd bcca 2c3e 4457 31be

module.BN_layer.weight f4 [160]
1.0196497 1.0167019 1.0043885 0.9830567 1.0016983 0.9997603 1.007327 0.97616243
1.003285 0.96695 0.9954978 0.9632035 0.9868017 0.9869083 1.0116783 0.97762406
0.9960321 0.9936361 0.9949285 0.9882945 0.98144764 1.0132927 1.0067326 0.988565
0.98872566 0.98777866 0.98357844 0.98682845 0.9765623 0.9956889 0.98308647 0.9584995
0.9922436 0.97239953 1.0103481 0.99089485 1.0052599 1.0623118 0.9961153 1.0351815
0.97300786 1.0226929 0.991572 0.9806538 1.0151455 0.9958892 1.0106827 1.0081091
1.0050519 0.9750049 1.0073249 0.9886027 0.9826541 1.0636054 1.0145904 1.0113909
1.0192987 1.0460801 1.0172809 0.9912633 1.0035233 0.98503613 1.0028814 1.0090591
0.98503804 1.008942 1.023052 1.0052656 0.99571615 1.031277 0.9959923 0.9992768
0.9901788 1.0161997 0.98483604 0.987873 1.0037184 0.9938064 0.99478334 0.9844503
0.9902931 0.99076444 1.0403517 0.98981076 0.9930872 1.0056928 0.9971462 1.0465299
0.98856765 0.9886118 0.9867499 0.99294907 1.0033423 0.9742126 0.99068767 0.9560975
0.987374 0.9817422 0.9759744 0.9799784 1.0027764 1.0488448 0.9707835 0.96884584
1.0213627 1.0010146 1.0017421 0.9805452 1.0136522 0.98466116 1.0147023 1.0279894
1.0032579 1.0017062 0.9746423 0.97968054 1.010115 1.0427444 0.97831327 1.026018
0.9951489 1.0119796 0.9995851 1.026195 1.0128436 0.9860982 0.99973327 1.0076616
0.99973106 1.0013312 0.9618069 0.97045636 1.013122 0.99908257 0.9971276 1.0262792
1.0132651 0.9993251 0.98650956 0.9614785 0.96843624 0.9986961 0.9529577 1.0161268
0.9769012 1.0191401 1.0046368 1.003059 0.99503046 1.0855683 0.98353183 1.0700814
0.97183186 1.0693529 0.97896177 1.0102786 1.0242739 0.9975021 1.0652891 1.0170186
00000000: e283 823f 4a23 823f cd8f 803f 9ba9 7b3f
00000010: a637 803f 4bf0 7f3f 17f0 803f c8e5 793f
00000020: a56b 803f 098a 773f f2d8 7e3f 8194 763f
00000030: 099f 7c3f 06a6 7c3f ad7e 813f 9245 7a3f
00000040: f6fb 7e3f ef5e 7e3f a2b3 7e3f de00 7d3f
00000050: 2740 7b3f 93b3 813f 9ddc 803f 9912 7d3f
00000060: 201d 7d3f 10df 7c3f cccb 7b3f caa0 7c3f
00000070: fdff 793f 78e5 7e3f 8eab 7b3f 3960 753f
00000080: ad03 7e3f 2def 783f 1653 813f 49ab 7d3f
00000090: 5bac 803f d5f9 873f 6a01 7f3f d480 843f
000000a0: 0b17 793f 9ae7 823f aad7 7d3f 210c 7b3f
000000b0: 4af0 813f 98f2 7e3f 0d5e 813f b809 813f
000000c0: 8aa5 803f ec99 793f 06f0 803f 1115 7d3f
000000d0: 388f 7b3f 3924 883f 19de 813f 4275 813f
000000e0: 6178 823f f4e5 853f 4336 823f 6ec3 7d3f
000000f0: 7473 803f 542b 7c3f 6b5e 803f d928 813f
00000100: 742b 7c3f 0325 813f 5ef3 823f 8bac 803f
00000110: 41e7 7e3f e200 843f 5af9 7e3f 9bd0 7f3f
00000120: 5c7c 7d3f d512 823f 371e 7c3f 3fe5 7c3f
00000130: d879 803f 196a 7e3f 1faa 7e3f ef04 7c3f
00000140: d983 7d3f bda2 7d3f 3f2a 853f 3d64 7d3f
00000150: f63a 7e3f 8bba 803f f944 7f3f b1f4 853f
00000160: c512 7d3f aa15 7d3f a49b 7c3f e931 7e3f
00000170: 856d 803f ff65 793f b59d 7d3f cec2 743f
00000180: 8bc4 7c3f 7553 7b3f 75d9 793f dddf 7a3f
00000190: fa5a 803f 8c40 863f 4485 783f 4806 783f
000001a0: 03bc 823f 3f21 803f 1639 803f 0305 7b3f
000001b0: 5bbf 813f c112 7c3f c4e1 813f 2895 833f
000001c0: c16a 803f e937 803f 2882 793f 58cc 7a3f
000001d0: 734b 813f a678 853f bd72 7a3f 8f54 833f
000001e0: 14c2 7e3f 8c88 813f cfe4 7f3f 5c5a 833f
000001f0: dca4 813f ee70 7c3f 85ee 7f3f 0efb 803f
00000200: 60ee 7f3f 9f2b 803f fa38 763f d46f 783f
00000210: fbad 813f e0c3 7f3f c143 7f3f 1e5d 833f
00000220: acb2 813f c5d3 7f3f e48b 7c3f 7423 763f
00000230: 70eb 773f 8caa 7f3f 09f5 733f 7110 823f
00000240: 3216 7a3f 2f73 823f f097 803f 3d64 803f
00000250: 51ba 7e3f e7f3 8a3f bec8 7b3f 6df8 883f
00000260: f9c9 783f 8ee0 883f 3d9d 7a3f cf50 813f
00000270: 681b 833f 4c5c 7f3f 655b 883f aa2d 823f

module.BN_layer.bias f4 [160]
0.031108592 0.011848625 -0.008340226 -0.015557678 0.009427352 0.024802875 -0.0061362823 -0.0409031
-0.0009952137 -0.017592361 -0.0011291084 -0.028159754 -0.044136547 -0.009355615 0.030315274 -0.01466362
-0.01942828 -0.008145163 -0.022555197 0.0022331253 -0.017336931 -0.02653841 0.0069638216 -0.008268608
-0.017593766 0.012235964 -0.02516421 0.0016997259 0.0027604322 0.020473558 0.008218297 -0.033220485
0.020332864 -0.011805376 0.022705862 -0.020885415 0.013004896 -0.021682397 0.0003818428 0.0394783
0.02785624 -0.029890466 0.015736407 -0.022031434 0.031242864 0.006839258 0.039399616 -0.0023567046
-0.024750657 -0.026012462 -0.0036886954 -0.0054620057 -0.0112480745 0.022664681 0.017074147 -0.006288942
-0.027027719 -0.0009530477 -0.010746681 -0.0038717748 0.035653662 -0.0038562592 -0.013672615 0.012926795
0.019663824 0.008207447 0.01951048 -0.0154403 0.0025698242 0.0006535602 -0.009681973 0.012130145
0.03440889 -0.007910871 -0.03151943 -0.022795014 0.02568686 -0.027032638 -0.020650448 -0.013725473
-0.027913878 -0.019879969 0.018708846 -0.01837573 0.004683365 -0.05226424 0.009798521 0.0062611713
-0.024633667 0.00011436912 -0.026308676 0.009149492 -0.0035206066 -0.033329483 0.0264437 -0.026180884
-0.03301682 -0.03129068 -0.0099093765 -0.020507226 -0.013373701 -0.01445365 -0.012005727 -0.023105359
-0.013068216 -0.0075737024 0.028272133 -0.019297427 0.01972679 -0.006456959 0.020580372 0.014102968
0.029268077 0.010008121 -0.010869887 -0.029772656 -0.009992262 -0.010995401 -0.0040883785 0.0070031486
0.03098451 -0.010050448 0.036556836 0.038241733 0.0027212226 0.016555654 0.03060184 0.012691962
0.011153873 0.011289768 -0.024132194 -0.04565185 0.0058395118 0.024824675 -0.0007822625 0.031872403
-0.014029782 -0.0031592427 0.01314818 -0.032669224 -0.041861303 0.0013553181 -0.042814385 0.009403881
-0.024765732 0.027791921 0.018952837 -0.02708353 -0.01638974 0.018648233 -0.013498622 0.04155401
0.0035750626 0.04284177 -0.026651083 0.012834946 0.025005857 0.011258576 0.07222258 0.0059908954
00000000: 72d7 fe3c bc20 423c 71a5 08bc a2e5 7ebc
00000010: 2e75 1a3c 662f cb3c de12 c9bb 028a 27bd
00000020: d571 82ba db1d 90bc 97fe 93ba 49af e6bc
00000030: 86c8 34bd 4b48 19bc bd57 f83c ae3f 70bc
00000040: 0e28 9fbc 4a73 05bc adc5 b8bc a059 123b
00000050: 2e06 8ebc 1467 d9bc c530 e43b 0e79 07bc
00000060: cd20 90bc 5a79 483c 2c25 cebc 56c9 de3a
00000070: 5ee8 343b 2ab8 a73c 09a6 063c 3412 08bd
00000080: 1b91 a63c 566b 41bc a501 ba3c e417 abbc
00000090: 7d12 553c 489f b1bc 1332 c839 ffb3 213d
000000a0: c532 e43c dadc f4bc a3e9 803c 447b b4bc
000000b0: 09f1 ff3c db1b e03b 7e61 213d f172 1abb
000000c0: e4c1 cabc 1618 d5bc 0abe 71bb a0fa b2bb
000000d0: d849 38bc 48ab b93c 15df 8b3c 7813 cebb
000000e0: 3c69 ddbc f3d5 79ba d912 30bc 9abd 7dbb
000000f0: 9309 123d 4bb9 7cbb 1b03 60bc e8ca 533c
00000100: 0716 a13c 8778 063c 71d4 9f3c 50f9 7cbc
00000110: 7f6a 283b af53 2b3a 23a1 1ebc 84bd 463c
00000120: 56f0 0c3d 999c 01bc 851a 01bd 9cbc babc
00000130: 406d d23c 8d73 ddbc 212b a9bc cee0 60bc
00000140: a5ab e4bc 51db a2bc 4b43 993c b388 96bc
00000150: ea76 993b 0713 56bd fa89 203c 832a cd3b
00000160: 8bcc c9bc 74d9 ef38 4b85 d7bc c0e7 153c
00000170: fab9 66bb 7f84 08bd 75a0 d83c 4b79 d6bc
00000180: a53c 07bd a82a 00bd f05a 22bc c5fe a7bc
00000190: 5e1d 5bbc 01cf 6cbc abb3 44bc 7347 bdbc
000001a0: 121c 56bc d22c f8bb f69a e73c a315 9ebc
000001b0: 149a a13c e694 d3bb 2b98 a83c 2310 673c
000001c0: 9bc3 ef3c 1af9 233c 9c17 32bc c9e5 f3bc
000001d0: 96b6 23bc 0e26 34bc cef7 85bb ab7a e53b
000001e0: 3ad3 fd3c a2aa 24bc 9fbc 153d 5da3 1c3d
000001f0: 8a56 323b b99f 873c b6b0 fa3c f2f1 4f3c
00000200: bcbe 363c b8f8 383c e1b0 c5bc 6ffd 3abd
00000210: 6059 bf3b 1e5d cb3c bf10 4dba a38c 023d
00000220: 2cdd 65bc 4c0b 4fbb 776b 573c 2ad0 05bd
00000230: c276 2bbd eea4 b13a 235e 2fbd bc12 1a3c
00000240: 81e1 cabc e2ab e33c fb42 9b3c 47de ddbc
00000250: c743 86bc 2ec4 983c 5329 5dbc 8a34 2a3d
00000260: 994b 6a3b da7a 2f3d 5f53 dabc aa49 523c
00000270: 15d9 cc3c e475 383c 6fe9 933d 464f c43b

module.BN_layer.running_mean f4 [160]
-0.03844966 -0.037545074 0.023574285 -0.04784178 -0.07371231 0.053648543 -0.08625735 0.010938023
0.0055053965 0.01158643 -0.04453198 -0.013602011 -0.023265373 -0.05141464 0.06921987 -0.01856387
-0.05456443 -0.05119327 0.05436751 -0.05581228 -0.1030936 0.07990872 -0.133158 0.0053750877
0.01476771 0.017522134 -0.089465804 -0.014682594 -0.03353323 -0.072670855 0.10525902 -0.0189595
-0.06375227 -0.059601497 0.07087168 -0.052312933 -0.118108265 0.09312554 -0.15698849 -0.0009163719
0.022236547 0.024641188 -0.11434069 -0.0078329 -0.039071828 -0.074746035 0.1274395 -0.007820396
-0.06617487 -0.060163714 0.08395969 -0.049725823 -0.12621897 0.099640295 -0.16634099 -0.0066327187
0.029619528 0.032835584 -0.13808693 -0.009917276 -0.04376379 -0.07697673 0.13734598 -0.004665533
-0.06189315 -0.06660718 0.08560324 -0.047232132 -0.1321856 0.099226706 -0.17425418 -0.003969958
0.033647027 0.03946141 -0.14011267 -0.010023125 -0.035965648 -0.07525417 0.13997339 -0.0029825298
-0.06693504 -0.06777827 0.08429267 -0.042372867 -0.13846359 0.10838143 -0.17905895 -0.002334093
0.042119283 0.04586447 -0.15510969 -0.012865893 -0.036404446 -0.074322045 0.14702407 -0.0005618268
-0.06533412 -0.07046701 0.08767461 -0.038095515 -0.13642003 0.108426206 -0.18172014 -0.00063215464
0.04374481 0.044511188 -0.15481763 -0.009998391 -0.0341893 -0.07410406 0.14469996 -0.0004614938
-0.063350596 -0.074364275 0.0847093 -0.03018891 -0.1382094 0.10327769 -0.18270099 -0.0015018933
0.046112906 0.042716905 -0.15417941 -0.0054889806 -0.032293856 -0.07266251 0.1423662 -0.000997646
-0.06568137 -0.072380126 0.0855069 -0.025925959 -0.1424194 0.10806448 -0.17804305 -0.006280483
0.04338847 0.04120869 -0.16010639 -0.012637158 -0.03761293 -0.070864476 0.14095911 -0.00038857764
-0.05876965 -0.074612826 0.083579935 -0.023152024 -0.14001726 0.09805496 -0.17860572 -0.006211542
0.046648785 0.04330418 -0.15725622 -0.008849624 -0.034889553 -0.07500666 0.1411532 -0.0023066099
00000000: 647d 1dbd ddc8 19bd dc1e c13c bef5 43bd
00000010: 7bf6 96bd 93be 5b3d b2a7 b0bd 6535 333c
00000020: 9d66 b43b 02d5 3d3c 2a67 36bd f8da 5ebc
00000030: 0697 bebc 2898 52bd 26c3 8d3d 4213 98bc
00000040: f47e 5fbd 09b0 51bd 77b0 5e3d 6b9b 64bd
00000050: bd22 d3bd 2fa7 a33d 925a 08be 8121 b03b
00000060: 44f4 713c 948a 8f3c d939 b7bd 438f 70bc
00000070: 245a 09bd 75d4 94bd 0b92 d73d f450 9bbc
00000080: 8d90 82bd b320 74bd 2c25 913d 1646 56bd
00000090: bfe2 f1bd 9ab8 be3d 97c1 20be ad38 70ba
000000a0: 6b29 b63c 51dc c93c 742b eabd 9055 00bc
000000b0: c809 20bd 7314 99bd 807f 023e 1e21 00bc
000000c0: b186 87bd 3a6e 76bd 0ff3 ab3d 4ead 4bbd
000000d0: 8c3f 01be 3610 cc3d 4b55 2abe 4757 d9bb
000000e0: a7a4 f23c 9b7e 063d a966 0dbe 127c 22bc
000000f0: a941 33bd faa5 9dbd 6da4 0c3e 54e1 98bb
00000100: ac83 7dbd 5869 88bd c050 af3d 7b76 41bd
00000110: a95b 07be 5f37 cb3d b06f 32be 6c16 82bb
00000120: 77d1 093d 4aa2 213d b279 0fbe 0938 24bc
00000130: b750 13bd dc1e 9abd 2f55 0f3e 8c76 43bb
00000140: 3d15 89bd 55cf 8abd a3a1 ac3d 2c8f 2dbd
00000150: 66c9 0dbe 15f7 dd3d 3b5b 37be 95f7 18bb
00000160: 4585 2c3d 62dc 3b3d 13d5 1ebe 77cb 52bc
00000170: d41c 15bd 2836 98bd 7a8d 163e 8f47 13ba
00000180: e5cd 85bd 0251 90bd bf8e b33d 0b0a 1cbd
00000190: b1b1 0bbe 8f0e de3d d814 3abe 2eb7 25ba
000001a0: c22d 333d 5d51 363d 8388 1ebe 4bd0 23bc
000001b0: 140a 0cbd dfc3 97bd 3a2c 143e a6f4 f1b9
000001c0: f5bd 81bd 4c4c 98bd 127c ad3d bc4e f7bc
000001d0: c486 0dbe 4183 d33d f815 3bbe 2ddb c4ba
000001e0: e3e0 3c3d ecf7 2e3d 35e1 1dbe e8dc b3bb
000001f0: 9046 04bd 15d0 94bd 72c8 113e 72c3 82ba
00000200: f483 86bd 083c 94bd 3e1e af3d ad62 d4bc
00000210: 64d6 11be e950 dd3d eb50 36be 83cc cdbb
00000220: 1cb8 313d 71ca 283d eef2 23be 150c 4fbc
00000230: 0410 1abd 6521 91bd 9657 103e 02ba cbb9
00000240: 72b8 70bd 9cce 98bd f52b ab3d 50a9 bdbc
00000250: af60 0fbe 0ad1 c83d 6be4 36be 318a cbbb
00000260: cc12 3f3d b95f 313d c607 21be 03fe 10bc
00000270: 59e8 0ebd 179d 99bd 778a 103e 7e2a 17bb

module.BN_layer.running_var f4 [160]
0.0029717474 0.00081253605 0.0006624698 0.00332784 0.0035897654 0.008599162 0.00095909776 0.0014423403
0.0015409876 0.002893598 0.001640812 0.0052664913 0.0013932342 0.0026951514 0.002370298 0.0009723489
0.007178972 0.0025122573 0.0012844587 0.009052127 0.0046062795 0.020945469 0.0023496763 0.0023586717
0.0035682225 0.00644611 0.0054661785 0.008206966 0.0020756985 0.0058385483 0.005458087 0.001987695
0.011593829 0.0044018296 0.0024955007 0.010937241 0.006385962 0.030447656 0.0031376393 0.0030066776
0.0064180866 0.010914317 0.009012524 0.010267664 0.0025945173 0.00900616 0.009600945 0.0031383894
0.014899593 0.006348595 0.0030436548 0.014930028 0.006978849 0.042108316 0.0038417373 0.0026422525
0.008824013 0.016614033 0.014433873 0.012189835 0.0025152494 0.01234723 0.012968702 0.0037326626
0.01657331 0.007981545 0.003491871 0.016764844 0.0075259553 0.045525506 0.004170635 0.003011514
0.010542906 0.020214938 0.015749209 0.011874793 0.0026852982 0.015469708 0.014906791 0.0038020618
0.017452488 0.009248594 0.0035818534 0.019152516 0.008015692 0.049752843 0.00409353 0.0030806423
0.012056053 0.022309097 0.019698955 0.012495267 0.0025540795 0.017769897 0.01568622 0.0040908107
0.01889643 0.0097616995 0.0041123806 0.01956682 0.007770115 0.051135127 0.0047402615 0.0032246658
0.012787602 0.024253007 0.019760324 0.01152817 0.002851103 0.019414878 0.017295457 0.003877864
0.01859636 0.009828543 0.0049712597 0.020214444 0.007964292 0.04811883 0.004791167 0.0033502693
0.013555582 0.02466619 0.018895539 0.011941298 0.002787453 0.020532832 0.018035524 0.0037451407
0.019022416 0.01018368 0.0049864575 0.022437 0.009343858 0.05167652 0.0049465355 0.0032873675
0.013602048 0.026303438 0.021127738 0.013089039 0.0025055024 0.021541392 0.01816122 0.003413494
0.01863336 0.010027472 0.005503402 0.021556847 0.008687478 0.048758343 0.0050039166 0.0031828631
0.015066668 0.026555337 0.021293784 0.011808388 0.002538395 0.022087105 0.019881044 0.003467435
00000000: a6c1 423b 5f00 553a 99a9 2d3a e417 5a3b
00000010: 4542 6b3b 80e3 0c3c f66b 7b3a e90c bd3a
00000020: f7fa c93a 85a2 3d3b 8410 d73a 8892 ac3b
00000030: 2f9d b63a 23a1 303b 0057 1b3b 3be5 7e3a
00000040: 953d eb3b afa4 243b 485b a83a 5f4f 143c
00000050: 46f0 963b d595 ab3c 07fd 193b f293 1a3b
00000060: d7d8 693b e439 d33b a11d b33b 8376 063c
00000070: 7108 083b 4b51 bf3b c1d9 b23b fd43 023b
00000080: 0bf4 3d3c 393d 903b 8e8b 233b 1d32 333c
00000090: 5541 d13b 5d6d f93c daa0 4d3b ae0b 453b
000000a0: d04e d23b f7d1 323c 44a9 133c b439 283c
000000b0: c708 2a3b 938e 133c 484d 1d3c 70ad 4d3b
000000c0: 6c1d 743c e007 d03b 0e78 473b 139d 743c
000000d0: d4ae e43b c579 2c3d a8c5 7b3b a429 2d3b
000000e0: 9892 103c 271a 883c 0d7c 6c3c e0b7 473c
000000f0: e2d6 243b 094c 4a3c ae7a 543c b09f 743b
00000100: c0c4 873c 07c5 023c e0d7 643b 6d56 893c
00000110: 4a9c f63b f478 3a3d d2a9 883b d25c 453b
00000120: 27bc 2c3c cc99 a53c 7c04 813c 7e8e 423c
00000130: d4fb 2f3b a874 7d3c 9d3b 743c 032c 793b
00000140: 85f8 8e3c 6a87 173c 87bd 6a3b bde5 9c3c
00000150: 4054 033c a3c9 4b3d 0523 863b 9ae4 493b
00000160: c086 453c 91c1 b63c b45f a13c f3b8 4c3c
00000170: 5862 273b 2d92 913c 6380 803c 350c 863b
00000180: b0cc 9a3c 89ef 1f3c 26c1 863b 984a a03c
00000190: 739c fe3b 1173 513d 3254 9b3b ea54 533b
000001a0: 1783 513c 3eae c63c 67e0 a13c a6e0 3c3c
000001b0: 92d9 3a3b f30b 9f3c 34af 8d3c c323 7e3b
000001c0: 6557 983c e607 213c f3e5 a23b c398 a53c
000001d0: a97c 023c 4018 453d 39ff 9c3b 3190 5b3b
000001e0: 3b18 5e3c c010 ca3c d1ca 9a3c 6fa5 433c
000001f0: b3ad 363b 7834 a83c 3cbf 933c 0971 753b
00000200: e6d4 9b3c 73d9 263c 7065 a33b cdcd b73c
00000210: fb16 193c c2aa 533d 8c16 a23b e070 573b
00000220: 20db 5e3c 4f7a d73c 1414 ad3c 6973 563c
00000230: 5b33 243b 9377 b03c d7c6 943c edb4 5f3b
00000240: fda4 983c 444a 243c e255 b43b fc97 b03c
00000250: ec55 0e3c d4b6 473d e5f7 a33b 9597 503b
00000260: 30da 763c 948a d93c 4d70 ae3c f877 413c
00000270: 345b 263b 04f0 b43c 92dd a23c e83d 633b
