Stage2_pickedmodel/Stage2_LSTMAgegen_BDSZ/model_epoch_7.pth (torch, 86647 bytes, 14 tensors)

module.LSTM_layer.weight_ih_l0 f4 [64, 256]
00000000: a72e 833d af9a 85bd ce74 fcbc 8f61 de3c
00000010: 9488 02be 0718 06be 35df 883d fb36 55be
00000020: 3bf7 983d 7582 1bbe f98e 5f3e 62bd a13d
00000030: 6d1c 18be 7d11 973e 8f52 b1bd 81ba 903d
00000040: c8bd f3bd eeff 46be c2b5 a33d 4a59 3abe
00000050: 499c 493a e18a 323e 9824 e83d 2b9c 47be
00000060: 8208 133e 823f 2ebc dcdc 95bd 309a 96bd
00000070: 1bc5 063e ab1e 873d 862e d93d facf 2bbe
00000080: cb1d 12bd f0bc 0d3e 4fc9 493e a2c0 e63d
00000090: ca87 553e 6478 033d 409b 66bd 9658 1f3c
000000a0: a800 093e 1e00 f7bd fdf4 333e c1d3 26bd
000000b0: fc21 ab3c 2ece 853d 3408 b8bd f869 febd
000000c0: 7f6f 563c 7a35 223e b207 50bd 21cb 45be
000000d0: 686c 3bbe 11e3 3b3e c532 60be 4df0 fabc
000000e0: 6960 3abd f62e c93d 5429 713c fd39 993d
000000f0: e2bc 23be 5539 483e 6d25 01be 9930 80bc
00000100: aa28 debd 04d6 16be 4068 55be 22b1 043e
00000110: decb 1a3e d284 30be 74c5 80bd e49f c6bd
00000120: 0ed2 143e 2600 1c3e e365 d73d 9c5c f53d
00000130: 3b8e 29be 0634 073e f46d e93d 322e 1abe
00000140: 8a11 19be 47ba 6b3e d144 03be 4daa 0c3c
00000150: 0691 c2bd 2d61 d23d aa01 0ebe 760f 103d
00000160: e257 643d a576 0c3e d995 10bd ed49 5fbd
00000170: 1449 d43d 22f8 aebd abf6 e93d 0597 583e
00000180: 954c 143e c331 023e 2243 25be e401 c53d
00000190: 5bff 853e ba2c 78be 9d22 53bd dc04 18bd
000001a0: fd3e d7bd 12e9 783d ff71 01be 76a7 e23d
000001b0: d459 d6bd 979e 1dbd fb4d 9fbd 1f93 abbd
000001c0: 6a35 0e3e 03d4 8b3d 9abf 5cbe bca1 51be
000001d0: 9ebe 433d a2b3 e7bd 6c03 e03c 5bef 6c3e
000001e0: fe2b f3bd eec7 b4bd b8f6 dbbd b2b3 253e
000001f0: 93f7 01be a7e0 acbd 957e 3c3d 4a64 dcbc
00000200: 1c3b 9d3d 20e0 91be f265 223e 2cf5 203e
00000210: 37a7 22be c95f 46be e9a5 58be 4328 14be
00000220: 93d3 f0bd b39a d2bd f1e7 943d caa6 23be
00000230: 2d75 fd3d cbd6 e23d 92d9 67bd 58dc 633d
00000240: 44ff 7a3e e224 4fbd e495 3e3e 6a8f 923d
00000250: b5d9 0f3d 846c 58bd b7b5 a2bd e21f c6bd
00000260: af07 703d ac6c 923c 6ad3 c83c 0d5d 26bd
00000270: b294 5cbe 92af 163e 20db 31be 055e 5b3e
00000280: 85d1 1b3d e283 ab3d 897a 99bd 93c0 f1bd
00000290: 0886 5b3d f60e cabd 5629 c8bc 44ed 6ebe
000002a0: 79d0 153e 3c02 50bd 6ecf b9bd 3fdb 74be
000002b0: adcf a6bd 9df9 8e3d 12c3 18be a7fe 46be
000002c0: 4ed9 90be fca5 1cbe c83b 653e a0cc 193c
000002d0: 927e 16be 7378 103e 1fc3 43be 6b5a 013e
000002e0: 931d 26be 29e1 63bd 0ab2 dbbd b790 62be
000002f0: ed3e f9bd 3e20 f63d d8e1 97bd 4bd8 933d
00000300: 7226 583e 4f88 7c3e 5dee 613e bc71 1dbd
00000310: bc8e 13bc ce3a b43b f9e8 8dbd b576 86bd
00000320: 4556 d73d f888 ae3c 675c cbbd 5180 30be
00000330: 2d8f 023e 754e 793d e132 653d e9d4 c6bc
00000340: 2dc7 bebd 98b0 31bd 2adb 613e 0d8c f53d
00000350: 0a59 0bbe 985b 463e 40ef 243e 7d60 a73d
00000360: 0cb4 13be 3b72 323e c979 1bbc 13a5 313d
00000370: 91a8 5f3e 79df 78be 2559 293e f313 06be
00000380: 0556 73be 782b fabd f930 4a3d 0531 f7bd
00000390: 0acd 54be 14a5 973b 0aac 37be cc0c bfbd
000003a0: d8c0 3abe a9c3 75be d85f 5e3d da47 56bc
000003b0: 6396 423e de1d 86bc cbad d8bb cc15 513e
000003c0: a0c7 84bd 106a b6bd 91d1 083e 8f7d 0c3e
000003d0: 8c0b 583e 4667 ab3d 1c05 79be 346a 28be
000003e0: 36c7 ccbb 2ee8 f63d da42 693e 9d18 b23c
000003f0: 3129 98bd c64f 97bc 9542 ddbd 4af7 aebd
0.064053826 -0.06523644 -0.030817416 0.027146129 -0.12747413 -0.13095103 0.06683198 -0.20821755
0.074690305 -0.15186484 0.21831883 0.0789745 -0.14854594 0.2950553 -0.08658325 0.07066823
-0.11901432 -0.19433567 0.07993652 -0.18198124 0.000769083 0.1743579 0.11335105 -0.19493167
0.14358714 -0.010635259 -0.07317516 -0.07353628 0.13161127 0.06597646 0.10604577 -0.16778556
-0.035672944 0.13841605 0.197057 0.112672105 0.2085258 0.032097235 -0.0563004 0.00972571
0.13379157 -0.12060569 0.17573924 -0.040729288 0.020890228 0.06533466 -0.089859396 -0.12422556
0.013088106 0.15840712 -0.05078859 -0.19315769 -0.18303072 0.18348338 -0.21894367 -0.030632162
-0.0455021 0.0982341 0.014719326 0.074817635 -0.15990022 0.1955312 -0.12611933 -0.015648173
-0.108476 -0.14730078 -0.2084055 0.12958196 0.15116832 -0.17238167 -0.06287661 -0.096984655
0.14533255 0.15234432 0.1051748 0.119805545 -0.16558163 0.13203439 0.11397925 -0.15056685
-0.14948097 0.23020278 -0.1281922 0.008585525 -0.09500317 0.10272441 -0.13867822 0.035170995
0.055747874 0.13717134 -0.035299156 -0.05451386 0.10365501 -0.08543421 0.11424001 0.2115136
0.14482339 0.12714295 -0.1613889 0.09619501 0.26171383 -0.24235812 -0.05154668 -0.03711401
-0.10510061 0.06076915 -0.12641142 0.11067097 -0.10466352 -0.03848132 -0.077785455 -0.083776705
0.13887563 0.068275474 -0.21557465 -0.20471853 0.04778921 -0.11313559 0.027345382 0.23138182
-0.11873625 -0.08827196 -0.10740417 0.1618183 -0.12692098 -0.084412865 0.046019156 -0.02690329
0.0767729 -0.28491306 0.15859202 0.15718526 -0.158841 -0.19372477 -0.2115704 -0.14468484
-0.117591046 -0.10283413 0.07270802 -0.15981594 0.12375865 0.11076125 -0.056603976 0.055630058
0.24511439 -0.050572284 0.18611866 0.0715626 0.03511973 -0.052837864 -0.079448156 -0.0967405
0.058601078 0.017874084 0.024514873 -0.040616084 -0.21541098 0.14715412 -0.17368746 0.21422584
0.03804161 0.08374764 -0.07494075 -0.11804309 0.05359462 -0.09866135 -0.024433773 -0.23332697
0.14630307 -0.05078338 -0.09072767 -0.23911761 -0.0814508 0.06981204 -0.14918163 -0.1943308
-0.2829079 -0.15297693 0.22386086 0.009387165 -0.1469672 0.14108448 -0.19117402 0.12632148
-0.16222219 -0.05563465 -0.10727318 -0.22125517 -0.12170205 0.120178685 -0.07416123 0.07218989
0.21108416 0.24661373 0.22063585 -0.038438544 -0.0090061985 0.005500174 -0.06929202 -0.0656561
0.105145015 0.021305546 -0.09929734 -0.17236449 0.1274993 0.060865838 0.055956725 -0.024271445
-0.093153335 -0.043381304 0.2205626 0.11989603 -0.13608184 0.19370878 0.16106892 0.081727006
-0.14424151 0.17426388 -0.009489485 0.043370318 0.21841647 -0.24303998 0.16537912 -0.13093548
-0.23763283 -0.12215322 0.04936311 -0.120698966 -0.20781341 0.004627833 -0.17936721 -0.09328613
-0.18237627 -0.2400042 0.054290622 -0.013078654 0.1900268 -0.016371664 -0.0066125146 0.20418471
-0.06483388 -0.089069486 0.13361193 0.13719772 0.21098155 0.08369307 -0.24318355 -0.16446763
-0.0062493337 0.120560035 0.22779408 0.021740252 -0.07429732 -0.018470656 -0.10803715 -0.085432604

module.LSTM_layer.weight_hh_l0 f4 [64, 16]
00000000: a46d 22bd a588 dcbd e9d3 1e3d 3128 6ebd
00000010: bf56 a93e df0a efbd 91d3 543e 8c3d 973e
00000020: 414e 003d c17a a3bd 246c 5ebe 2a41 84ba
00000030: 912d c3bd 1d2c 313e ab8e 01be 0fb8 01be
00000040: eb10 15bd 2d6b 27bd 8fe4 ae3c b95b 4e3e
00000050: 3186 953d 7d65 0fbd 6527 58bc 224c 24be
00000060: d002 1bbe 3653 b13d 9ea5 dcbd 7276 51be
00000070: e668 bc3c 393c 823e 497b 41be 0437 90bc
00000080: 9122 303e aea9 083e d2d5 0b3c 830c 00bd
00000090: 7a74 833e c107 35bd c6db 103d e443 33be
000000a0: 0dbd a03d 3d71 713d 5d85 933d 2215 653d
000000b0: 9560 5c3e d061 45bd 16bc 5e3e 4b8c d93d
000000c0: b2c8 6a3c 5f16 02bd e04d 4e3e 93f2 29be
000000d0: b52d 3d3e 9baf 37be 2eb0 44be dab4 8f3e
000000e0: 7df0 03be 8223 a8bd 12be 203e 925d 3e3e
000000f0: 2d66 14be bd4c 1e3d 1585 033d 425a 6fbe
00000100: 81f5 353d a673 85be e602 0bbe c094 23be
00000110: 8ccb 8c3d 2cc4 cdbc 6779 81be 917e b3bc
00000120: 2f4c 7e3e 4760 ca3d d3a0 283d 6802 a0bd
00000130: d937 e83d f945 20be 8b9c 453e 71bb 623d
00000140: 5e4c 913e f0ae 573e d896 3f3e 7234 27bd
00000150: ae58 36be 7076 283e 4c53 563e 6a99 aa3c
00000160: b6a2 cbbd 8b23 393d db47 19be 2087 eabd
00000170: 9618 ad3d 63d4 63bd 7075 2a3e 271d 2c3d
00000180: e940 d2bd da4c e9bd 65ed 7a3d a2fa 23ba
00000190: ba0f fe3d 6081 a1be a1ea cc3d a705 0bbd
000001a0: 78ec 993d 45d6 b13b 0f7e 80be c635 363e
000001b0: 982e e6bc a305 09be 00d0 0abe cd44 41bd
000001c0: e0af 8ebc 637a 43bd d7fb 9ebc 64ab 633e
000001d0: 063b 1dbd 5266 4fbd 37dd 86bc b502 773e
000001e0: afe0 efbd ffeb 8bbe 703d 553d 1c07 353c
000001f0: e890 2c3e ecfb 063e e0aa 103e 2f12 b3be
00000200: 915e 2cbe 4f60 40be 7fec 7fbe 084b 803d
00000210: b1c8 1b3e 359e 453e b144 cabd f7a0 193c
00000220: 2582 db3d c397 96bd bfff 003c 1dca 48be
00000230: ab56 363d b042 bf3a df92 5e3e e1e4 1a3e
00000240: 8052 2a3e 50d6 8a3d e420 e63c ffaa 103e
00000250: 6dcf 0fbb eb46 78bd bd28 0aba e2e3 50be
00000260: 9a28 6cbc d700 6ebe 37ce 2a3e 3a24 1cbe
00000270: 687f 7d3d e8b7 003e ab28 36be e916 343e
00000280: 7cc6 6dbd 17ef 92bd d264 323e 04c1 34be
00000290: 76a6 3a3e 4694 953e 4e4f e03c d9f4 7bbe
000002a0: f6df 4dbc 0f2e 453e 134f 15be 4537 cf3d
000002b0: c0c5 1c3e 2f36 533e eb55 b53b 3e88 10bd
000002c0: 9afd 1a3e f215 cb3d 86f3 d1bc a9f7 9a3d
000002d0: 88fa 18be 873b ebba ce1c 883e 60d0 43be
000002e0: 58e1 393e 5ebb 403e ad3a d03d c303 34be
000002f0: 22e8 06be b933 2e3d 4fbf f03d f3e3 803e
00000300: dd1d e5bd 63d0 643d 97a4 a0bc 1f25 4fbe
00000310: d5cb 2b3d c180 4bbe 2f60 1d3d bbb8 acbd
00000320: 98fa ea3d d886 c5bd 69c7 b3bd 25a5 be3c
00000330: 64c6 063e efa7 b9bc 7ad9 133d 7f43 acbd
00000340: 49e5 423e 0ace e0bc e874 d2bd 0fe5 453e
00000350: 7797 53bd 7b4f 663e 95a5 a43e 1bc4 96be
00000360: a664 debb 7acc 113d dd7e 67bd 41c5 cebc
00000370: 1b16 35be 2ab9 b23d cd3c 633e 301a 893e
00000380: b935 3c3e 6007 bdb8 eb2e 1f3e 155d 3abe
00000390: d9df 5bbe 7771 85bc 1f1a bd3d 39a4 b6bd
000003a0: c35c 463c 271e 0bbe 7115 713d d671 0d3e
000003b0: f697 103c 4d40 5a3d ad10 b73d 6155 663e
000003c0: f8f2 3abe 03a8 3e3e ed5c 6abe 9e6c 9fbd
000003d0: 721b 80bc c828 4cbc ac78 d73d 132e 913d
000003e0: 6aca 0bbe 100d a23d 8044 febd 5221 08be
000003f0: 2987 4f3d 3b20 31be 8ffa a7bb e5a5 513e
-0.039655343 -0.107682504 0.038776312 -0.0581438 0.33073995 -0.11671995 0.20783831 0.29539144
0.03132463 -0.07982398 -0.2172094 -0.0010090221 -0.095301755 0.17301984 -0.1265208 -0.12667869
-0.036393087 -0.040873695 0.02134922 0.20152177 0.073009856 -0.035008896 -0.013192986 -0.16044667
-0.15137792 0.08658449 -0.107737765 -0.2045534 0.022999238 0.2543657 -0.18894686 -0.017604358
0.17200686 0.13345978 0.008534865 -0.031261932 0.25674802 -0.044196848 0.035365842 -0.17506367
0.078485586 0.058945883 0.072031714 0.055928357 0.21521218 -0.048188984 0.21751437 0.10622462
0.014330076 -0.031759616 0.20146894 -0.16596441 0.18474467 -0.17938082 -0.19207832 0.28067666
-0.12884708 -0.082098976 0.15697506 0.18590382 -0.14492102 0.038647402 0.03210934 -0.23374274
0.044423584 -0.26064795 -0.13575324 -0.15974712 0.06874761 -0.025117956 -0.25287935 -0.021910938
0.24833749 0.09881645 0.041169 -0.07812959 0.11338777 -0.15651692 0.19297998 0.05535454
0.28378576 0.21062827 0.18709886 -0.0408215 -0.17807266 0.1645143 0.20930213 0.020825107
-0.09943144 0.045199912 -0.14968817 -0.11451554 0.08451955 -0.05562247 0.16646361 0.04201999
-0.10266287 -0.113916114 0.061261553 -0.0006255304 0.12405343 -0.31544018 0.100056894 -0.033940937
0.07515806 0.0054271542 -0.25096175 0.1779395 -0.02809839 -0.13381056 -0.13555908 -0.047184754
-0.017417848 -0.04772414 -0.019407196 0.22233349 -0.038386367 -0.05063469 -0.016462905 0.24122126
-0.11712777 -0.27328488 0.052060544 0.011049058 0.16852152 0.13182038 0.14127684 -0.3497481
-0.16832949 -0.18786739 -0.2499256 0.06264311 0.15213276 0.19298632 -0.09876383 0.009376756
0.107181825 -0.07353165 0.007873475 -0.1960835 0.044516247 0.0014592018 0.21735714 0.15126373
0.16633034 0.06779158 0.028091855 0.1412773 -0.0021943704 -0.060614508 -0.00052703527 -0.2039943
-0.014413977 -0.23242508 0.16680227 -0.15248194 0.061889082 0.12570155 -0.17788951 0.17586865
-0.058050618 -0.07174509 0.17421272 -0.17651755 0.18227562 0.29214686 0.027381565 -0.2460512
-0.0125656035 0.19255851 -0.14580946 0.10117964 0.1530981 0.20626138 0.005533924 -0.03528618
0.15135804 0.09916295 -0.025628816 0.07566769 -0.1493932 -0.0017946818 0.26584476 -0.19122458
0.18152368 0.18821475 0.101674415 -0.1757956 -0.13174489 0.042529795 0.11755239 0.2517391
-0.111873366 0.055862796 -0.019609733 -0.20229004 0.041942436 -0.19873334 0.038421806 -0.08433672
0.11473578 -0.0964486 -0.08778269 0.023272106 0.13161618 -0.022663085 0.036096074 -0.08411311
0.19032778 -0.027441997 -0.10276204 0.1932566 -0.05165812 0.22491257 0.3215758 -0.29446492
-0.0067869006 0.035595395 -0.05651747 -0.025240542 -0.17684214 0.087267235 0.22191162 0.26777792
0.18379869 -9.013596e-05 0.15545242 -0.1819957 -0.2147211 -0.016289456 0.09233498 -0.08918042
0.012107077 -0.13585721 0.05885834 0.13812956 0.008825293 0.05328398 0.089387275 0.22493507
-0.18256748 0.18618779 -0.22887011 -0.07784389 -0.015638087 -0.012460895 0.10521063 0.07088866
-0.13651434 0.07912648 -0.12415409 -0.1329396 0.05066601 -0.17297451 -0.0051263045 0.2047344

module.LSTM_layer.bias_ih_l0 f4 [64]
00000000: 52ac b9bd 0b75 ca3d 4261 bbbd a2dd 62be
00000010: 5787 5bbe c9f5 353e cfb2 e53c 4159 5a3e
00000020: dc37 92bd 8201 9a3d 6a2c dabd f069 5bbc
00000030: 1b46 173e 2313 28be 06c7 f0bd 13d0 313e
00000040: 25ff 383d 6f8b 91bd 354c b43d e1cd 173e
00000050: 21b3 013e 636a 86bc bc19 6f3c ec73 42be
00000060: ca93 debc 48dc 01bd 3715 463d ad2f 873d
00000070: 5995 86be dc7d 703e 3957 143e d860 623e
00000080: 9bb8 41be 655f 39bd c4cb a5bd 5526 353d
00000090: 952d 773e bd1a 45be 241f de3d 6472 64be
000000a0: 7c25 3dbd d6d3 0abe 112e 763e 9ba7 18be
000000b0: 945f 65be 74ea a9bc 8cca 11be 4c55 093e
000000c0: 1400 57be 3f2c 2dbc eb23 68be 051c 07bd
000000d0: 523e 3cbe 0e8f 9cbc 787b 4abd 6c5a 453e
000000e0: e39e 70be 1d93 123e 9784 86bc 0570 393e
000000f0: cdd7 863e 92a7 633c c824 54be fe20 153e
-0.090660706 0.098856054 -0.0914941 -0.22154859 -0.21438347 0.17769541 0.028039364 0.2132311
-0.071395606 0.07519819 -0.106530026 -0.013391957 0.14772837 -0.1641355 -0.11756711 0.1736453
0.0451652 -0.07106673 0.08803598 0.1482463 0.12665989 -0.016408151 0.014593538 -0.18989533
-0.02717008 -0.031704217 0.048360076 0.0660089 -0.26285818 0.23485512 0.14486398 0.22107255
-0.18918078 -0.04525699 -0.08095506 0.04422601 0.24138482 -0.19248481 0.10845783 -0.22309262
-0.046178326 -0.13557371 0.2404101 -0.14907686 -0.22399741 -0.020741679 -0.14237422 0.13411444
-0.20996124 -0.010569631 -0.22669952 -0.032985706 -0.18383148 -0.019111183 -0.049434155 0.19272774
-0.2349811 0.14313932 -0.016420646 0.18109138 0.26336518 0.013894932 -0.20717156 0.14563367

module.LSTM_layer.bias_hh_l0 f4 [64]
00000000: 7a20 b1bd 7662 cabc be37 4d3e a409 6d3c
00000010: ee7b 453e 6595 6dbd d7de b9bd 0db6 263e
00000020: 0b95 45bd 1d5c 383e 5c41 a83d 4139 ac3d
00000030: d18e afbd 9b6d 0fbe b17a 4c3e 20ad a0bd
00000040: 50a3 20be aa8f 173e 6433 cdbd 88f1 3dbe
00000050: dd1a 7dbd ac89 223e 5ff6 34bd e345 903e
00000060: 18ff 013e b16f 4dbe e192 103e 7929 f5bc
00000070: 74e4 563e b55d edbc f3d7 dc3d b937 bd3d
00000080: 3a03 743e 4211 30be be4f c43d 98fc 283e
00000090: 2bca e3bd be06 453e 03ad 0e3d 3589 afbd
000000a0: 124a 1ebe 1ea2 46bd cb80 8cbc 0b19 303e
000000b0: 160f 1e3d dfb0 35be e29a adbb d457 c3bd
000000c0: a9fd 7fbd 7cc8 c9bd 747a 46be 51a1 3e3d
000000d0: d6a9 dcbd f31a f13d 1d52 0dbe ca2c 0fbd
000000e0: 2bf8 203d 5e9e 46bd 96c8 45be c892 e4bd
000000f0: 4a53 973c 9529 0d3d bd6e f9bd 6fb9 6abd
-0.086487725 -0.024705153 0.20040795 0.014467631 0.19285557 -0.0580038 -0.090757065 0.16280384
-0.04823784 0.18003888 0.08215591 0.08409358 -0.08572162 -0.14006655 0.19968678 -0.07845521
-0.15687299 0.14800897 -0.100195676 -0.18549168 -0.061793197 0.1587283 -0.04418027 0.2817832
0.12694967 -0.20062138 0.1411853 -0.029927002 0.20985585 -0.028975347 0.107833765 0.09239144
0.23829356 -0.17194083 0.09585522 0.16502607 -0.11122545 0.19240853 0.034832966 -0.08571092
-0.15457943 -0.04849445 -0.017151257 0.17197053 0.038588606 -0.17743252 -0.0052980045 -0.09538236
-0.06249777 -0.098526925 -0.1938265 0.046540562 -0.10774581 0.11772718 -0.13800855 -0.034954824
0.03929917 -0.048490874 -0.19314799 -0.11160809 0.018472333 0.034463484 -0.12179325 -0.05730575

module.LSTM_layer.weight_ih_l1 f4 [64, 16]
00000000: 1c2f 4b3e 2a94 653e cf00 423d 50e3 57be
00000010: 36d6 f5bd 9a1b 6f3e b70f 1abe 0436 f5bd
00000020: 795f 233e 0914 5a3e ae6d e9bd e36d 70be
00000030: 1105 11be a337 41be e0a4 093e e443 0ebe
00000040: 099d 463e fbde 053e e183 28be 69a5 d83d
00000050: 8539 a73d d846 42be 2a16 34be 0bf0 10be
00000060: 1e45 4d3e a701 103e 7bb6 5ebd b917 063e
00000070: bad8 1c3e 17c2 2c3e c9c0 693e edc7 96bd
00000080: ba47 783e a168 053e a0fc 48bd 6019 9f3c
00000090: 1b2d 3e3e a743 05bc 1f22 ba3d f113 ca3d
000000a0: 1a32 b5bd 2cc6 b2bc 7d8a 5dbe e260 823d
000000b0: 3e3f a13b b60a 013e 349b 953d 0fee 6f3d
000000c0: 68ad a43c 8804 fcbc 5129 33be feb3 2cbe
000000d0: 4343 29be b7c7 3abe 8379 53be 8b36 893d
000000e0: b90d b23c 6387 843d 695a 86be 135e b73d
000000f0: a4f0 c63b 366b bfbd fc91 2dbe e49c 6b3e
00000100: 63b8 2dbe a0e1 473e 2899 2e3e 1a84 f9bc
00000110: aade a33e a06e 603e 9525 8abe 2b39 033e
00000120: 8374 a23d 2f84 273d c168 173e 533c 14be
00000130: 9a26 25bd 0c90 413e 706b 1bbd 92c0 293e
00000140: 53e9 313d 9204 20bd a75e ddbc 2d42 cf3d
00000150: 96d7 43be 19c6 90bb 9546 c3bd 66da 803e
00000160: a361 c2bc d980 b6bd b2a3 8b3e 480f 7ebe
00000170: 941d 143d 5409 4e3e f9f2 53be 5e8b 31be
00000180: c707 29bd d77f 453e 72c7 8b3d a57d fb3d
00000190: 88de 0d3e c84b f43d 0526 463e f8ee 123e
000001a0: b36d 343e 0ad4 853d f126 623e 22bb 29be
000001b0: fd6f 5ebe 20c3 03be 4c2f 9b3d 0fac 033e
000001c0: 8572 243e e45f 35be f232 52bd 56de 15be
000001d0: 48a5 0b3e 1ae1 88be 40cb 5d3e 11c9 48bd
000001e0: 3769 73be 9602 333e 8fe0 ce3d 2cdd b0bd
000001f0: 287a 153e 84a9 16be ba45 3f3e 8055 503e
00000200: 57f4 ddbd 9a64 6f3e 2eaa 19bd 44c7 bf3c
00000210: d64b bfbd b10d 573d 95f0 15be b706 f93d
00000220: 3058 b4bd 2746 2dbe 600f 19bd 6e45 b23d
00000230: 486d 52be 386b 233e 8e75 2f3e 6f46 0a3e
00000240: 0406 c13c cc23 38be 24f5 9c3d 000e 633e
00000250: a0f9 d4bd d6f3 6c3e 1b65 243e 99d6 043d
00000260: 1cdb a83d 270f 523e 38e2 fdbd b6a7 d33d
00000270: 1cb6 163e fe36 a23c 05c9 35be 385e 8c3c
00000280: 189e 3c3d acd8 a1bd 4806 bfbb b163 d7bd
00000290: a23b 1d3e de24 a538 9f44 dc3d c169 22be
000002a0: 8fec 7bbd c7db 653e 5814 5cbe 4011 043e
000002b0: 425c 2dbe a39c 993d 7fee 693d e270 3cbe
000002c0: 5d6c 803e 1406 7ebd 310c 173e 922d 44be
000002d0: 3b1c edbd 7646 7dbe fbfb 1d3e 0ab3 9a3d
000002e0: b7b0 553b ab3d c63d 3011 0f3e ec06 863d
000002f0: a8c4 413b c616 353e 9240 88bc 3c1f 4ebe
00000300: bbae 923d ebd5 543e 45c6 393c d4c4 00be
00000310: 5dca f0bd 9db8 1d3e 83cf fbbd 09d2 c83d
00000320: 1bfb 3b3e e3d1 23be d41d 683d 1ce4 05be
00000330: dcb1 223e c2a4 87bd 5be6 2a3c 363a d2bd
00000340: 1a9d 08be 45d1 11bc 10d8 b0bd 3ce4 43be
00000350: 5fc9 453e 6299 2e3e f54d 51bd a973 a23d
00000360: 12c1 d1bd aede 513e d596 9b3d 7672 0f3e
00000370: 87e5 18bc a7c6 72be 35c8 f13d a542 183e
00000380: f36d a43c 6ccb 77be c29d 72bc bc14 0a3c
00000390: de4d 81be ebee ec3d c3a6 413e aaf1 0abe
000003a0: c241 ac3d ded3 1a3e fa9b b53d dfcb da3d
000003b0: 1c89 bd3b b51e 313e f8f5 0cbe eb8e 84bd
000003c0: eaec 06be 4e11 71be 0741 453e 3354 3bbe
000003d0: e0cd 07be f729 623e cbda fb3d 5eee 51be
000003e0: a7d1 f0bc 776c 1cbe a968 173e 5f0a a83c
000003f0: bd94 50be 1206 113e bfe9 203e d29d 80bc
0.1984219 0.22419801 0.047364052 -0.21082807 -0.12003748 0.23350373 -0.15045057 -0.11973193
0.15954389 0.21296705 -0.11397873 -0.23479418 -0.14162089 -0.1886888 0.13441801 -0.13893086
0.19395842 0.13073342 -0.16456558 0.105784245 0.08165268 -0.18972337 -0.1758658 -0.14154069
0.20045897 0.1406313 -0.054373246 0.13094987 0.1531705 0.16870914 0.22827448 -0.073623516
0.24246112 0.13028194 -0.049069047 0.01942128 0.18571894 -0.008133805 0.09088539 0.09867085
-0.08847447 -0.021823011 -0.2163486 0.06366135 0.004920869 0.12601742 0.07304993 0.05857664
0.020102218 -0.03076388 -0.1749623 -0.16865537 -0.16529565 -0.18240248 -0.20651822 0.06699856
0.02173506 0.064711355 -0.26240852 0.0895349 0.006071167 -0.09346621 -0.1695022 0.23009068
-0.16964869 0.19519663 0.17050612 -0.030458499 0.32005817 0.219172 -0.26981798 0.12814777
0.07932379 0.040897544 0.14786054 -0.14476137 -0.040320016 0.18902606 -0.037944257 0.16577366
0.043435406 -0.03906686 -0.027022673 0.10120044 -0.19125208 -0.0044181463 -0.09534947 0.25166625
-0.023728197 -0.089112945 0.27273327 -0.24810517 0.03616102 0.20120746 -0.20698155 -0.1733832
-0.041267183 0.19287048 0.068251505 0.12279824 0.1385442 0.119285166 0.19350441 0.14348972
0.17619972 0.06534584 0.22085167 -0.16575292 -0.21722408 -0.12867403 0.075773805 0.12858604
0.1605931 -0.1771236 -0.051318116 -0.14635596 0.13637269 -0.2673424 0.21659565 -0.049019877
-0.23770605 0.17481455 0.10101425 -0.08635935 0.1459738 -0.14713103 0.18678942 0.20345116
-0.1083762 0.2337822 -0.03751581 0.023410447 -0.093406364 0.05250329 -0.14642556 0.12159484
-0.08805883 -0.16921292 -0.03736818 0.08704649 -0.205495 0.1595887 0.17134687 0.13503431
0.023562439 -0.17982405 0.07663944 0.2217331 -0.10399175 0.23139891 0.16054194 0.03243122
0.08244917 0.20513593 -0.123966634 0.10334723 0.14717907 0.019801613 -0.17752464 0.01713477
0.046049207 -0.07902655 -0.005829606 -0.105170615 0.1535478 7.87468e-05 0.10755276 -0.15860654
-0.061504897 0.2244712 -0.21492136 0.12897205 -0.16929725 0.07500579 0.057112213 -0.18402436
0.25082675 -0.062017515 0.14750744 -0.19158009 -0.1157765 -0.2473391 0.15428154 0.0755368
0.003260655 0.09679731 0.139714 0.06544289 0.002956668 0.17684469 -0.016632352 -0.20129102
0.071622334 0.20784728 0.011338775 -0.12575084 -0.11757348 0.15402456 -0.12295439 0.09805686
0.18357508 -0.15998034 0.05666907 -0.13075298 0.1588816 -0.06623222 0.010430898 -0.10265009
-0.1334118 -0.008899991 -0.08634961 -0.19130033 0.19315098 0.17050698 -0.051099736 0.07932217
-0.10241903 0.20495102 0.07597128 0.14008507 -0.009332067 -0.23708592 0.118057646 0.14869173
0.02007196 -0.24198693 -0.01480812 0.008427795 -0.2525472 0.115690075 0.18911271 -0.1356875
0.0841098 0.15119883 0.08867641 0.106834166 0.005784167 0.1729687 -0.13765705 -0.06472572
-0.13176313 -0.23541757 0.19263087 -0.18293838 -0.13262129 0.22086321 0.12297591 -0.20501086
-0.029396845 -0.15275751 0.14786018 0.020512758 -0.20369239 0.14162472 0.15714167 -0.015700255

module.LSTM_layer.weight_hh_l1 f4 [64, 16]
00000000: 1ec1 24be 6ba8 87be e22a 02bc 8d9a 4cbc
00000010: 5544 5fbe 26d1 d3ba c9f9 893d 1940 743e
00000020: 4f9c 6a3e 2705 bfbd 1e23 c93d 8532 c03d
00000030: d244 00be 638c 533e 6156 8c3c d9a5 9c3c
00000040: 1d90 173e 0fcd 0b3d c104 423e 7b3a 4bbe
00000050: 1709 cbbd fe79 b4bd d205 a33c 0c34 253e
00000060: 55d9 5a3e 93d2 a8bd ffc5 3fbe 533a 8ebd
00000070: 2126 6fbd ca92 edbd f28c 233e bfdb 2dbe
00000080: 3bd8 c1bd c98d 2439 eaa7 313d ac11 22be
00000090: 3e1b 543e bb74 17be c197 27bd 70e4 ce3c
000000a0: 830c 7ebe f346 53be 2243 c53d 423e 8dbe
000000b0: 2cb2 85bd bbf5 fbbd f3f5 e4bc e2c6 013e
000000c0: 7f1c 34bc 6e46 673e 205d 74bd e3c5 20be
000000d0: 043f 1d3e 4ca5 093d 5287 26be 6700 c63c
000000e0: 4ef3 f1bd 7f50 623e 7973 083d 19ba 6bbe
000000f0: 9e68 313e 6cf2 90bd 2628 103d 51d4 17bd
00000100: 358f 1bbe 8df5 843e 17a6 08bd 932a 85bb
00000110: 1a67 553d 14c7 933d 2f9b 3e3c c072 c5bd
00000120: fc09 a83d 8837 823e a2ef 1fbe d21d 473e
00000130: 65af 463d 2d53 05be a702 a73d 874d 7f3e
00000140: d1ee 6cbc 34c8 dabd 3d9d a03c 251a 50be
00000150: 264c 813d 5aab 8dbe 59e2 5abe 11de 7cbe
00000160: f0c7 353e 2605 32be f2b4 59bd bdb1 3b3e
00000170: f02d e8bd f2e9 313e 5fb1 08be 1e4c 083e
00000180: 49a0 e83d 1e0c 9fbc efe5 dd3d a785 ce3d
00000190: 8464 39bd 76a7 5bbe 885c 7ebe 27e3 28be
000001a0: 147a 22bd 8667 aebd 2c5a 4b3d 79c0 ec3d
000001b0: 19ba 403e bbef 3dbe 89a1 2bbd 09d9 c5bc
000001c0: 56ee 4cbe 845b 6dbe b7c1 6e3d 4c97 0dbd
000001d0: ee67 2f3e 9ec2 b03d c822 57be 58bc 02be
000001e0: 80f9 643e 0c7a 5ebe 011a 2fbe 1422 c4bc
000001f0: db67 85be fb20 36be cdb0 de3d 1f45 263e
00000200: c1c4 d3bb 00bc 043e 2220 6c3d 76e5 5dbe
00000210: a280 113e 9db3 abbc 5f22 88bd b378 603e
00000220: 2c45 8b3e ecd9 963d 31fe cabd fe5a 2b3e
00000230: 74df 603d 1a18 073e 7280 85be 5de1 00bc
00000240: c194 b1bd 147d 1ebe b28d 003d b285 903d
00000250: 7178 09be 7e96 2b3e 344c 023e 441c 283e
00000260: 6dc1 1f3d fe62 fa3d 8d10 1fbe 2b57 7bbe
00000270: f75b 033d b3bd 17be 37eb 0ebe 9842 363d
00000280: e0af e5bc 5d54 7dbe 88dc 5abe 2618 a6bd
00000290: 1100 6d3e 87d6 e4bd 5231 43be e7ac 0dbd
000002a0: 9964 203b c45e 023e 023f a6bd c0b4 6bbe
000002b0: 8f97 4b3e acce 22be d9cc bf3d 6d4d 60be
000002c0: a763 53bd 7f85 78be 85e2 d13d 262e ed3d
000002d0: 8c65 373e 07a6 123c daf1 b23d aeb0 923d
000002e0: 60f3 eebd b688 39be c42c 4ebe 7f8b 8b3d
000002f0: 6710 06be 40bf 06bd 4ec2 213e 2890 d53d
00000300: 4746 35be bd4d 82be 59ae 343e adf6 9abc
00000310: 1dda 2f3e 082f 53bd 1c22 183e 1f4b 4abe
00000320: 4f66 a7bc b1c0 4cbe 776c 393e 6067 81be
00000330: 304a 833d 007d 613e c7f3 463e cdfb 883d
00000340: 2802 87bd 774d 7d3c 6389 1bbd ab51 7e3e
00000350: f316 46be ad83 ef3d 648b 8d3d 4e4e 4abd
00000360: 3080 bd3d 0d57 e23d 1346 1e3d ef7b 3cbe
00000370: adf4 793e ac24 40be 83b3 2ebe 1917 ea3d
00000380: b0f1 173e 7e71 82bd 5004 b5bd 9972 143e
00000390: 9878 b43d 6c84 203e f9d7 023d 0761 2abc
000003a0: 4f95 53be fd29 6f3e 84df 533d 8766 efbd
000003b0: b02e 8d3e ca84 43be 98ad f33d 8dfa 06be
000003c0: b26d dcbd 349e 14bb 8641 c9bd f9f9 6abe
000003d0: ccdb 86bd a2c2 15bb 3ab9 66be f9ba c63d
000003e0: 9aca 50be b8c4 253d 3977 443d 4ce9 45be
000003f0: ea44 40bd 4c32 0ebe 37c3 3fbc dfd7 5bbe
-0.16089293 -0.2649568 -0.007944794 -0.01248802 -0.2180341 -0.0016160354 0.06737096 0.23852576
0.2291119 -0.093271546 0.09821151 0.09384636 -0.12526253 0.20659022 0.017131032 0.019122051
0.14801069 0.034131106 0.18947126 -0.19846527 -0.09913843 -0.08812331 0.019900236 0.16133136
0.21371968 -0.08243289 -0.18727873 -0.06944718 -0.058385972 -0.116002634 0.15971735 -0.16978358
-0.09465071 0.00015693078 0.043373026 -0.15827054 0.20713517 -0.14790623 -0.04091621 0.025255412
-0.2480946 -0.20632534 0.09631945 -0.2758656 -0.06528124 -0.12302729 -0.027949309 0.12673524
-0.010993122 0.2258546 -0.059659123 -0.15700488 0.1535607 0.033604905 -0.16262558 0.024170114
-0.11813985 0.2210102 0.03331325 -0.2302021 0.17325065 -0.07077488 0.03519454 -0.037067715
-0.15191348 0.2596859 -0.03336152 -0.004063913 0.05210028 0.072157055 0.011633678 -0.096410275
0.08205029 0.25432992 -0.15618756 0.1944497 0.048507113 -0.1302001 0.08154803 0.24931918
-0.014461235 -0.10682717 0.019606227 -0.20322473 0.06313352 -0.27669793 -0.21375407 -0.24694087
0.17752051 -0.17384776 -0.05315108 0.1832952 -0.11336887 0.173744 -0.13348912 0.13310286
0.11358697 -0.019414958 0.10834872 0.10084086 -0.045261875 -0.214506 -0.24839985 -0.16492902
-0.039667204 -0.08515839 0.04964654 0.11560149 0.1882099 -0.18548481 -0.0419021 -0.024151342
-0.20012793 -0.23179442 0.05829021 -0.034568116 0.1712949 0.0863087 -0.21009362 -0.1276716
0.22360802 -0.21726245 -0.17099763 -0.023942031 -0.26055798 -0.17786019 0.10873566 0.16237305
-0.006462664 0.12962341 0.05764783 -0.21669564 0.14209226 -0.02095967 -0.06647181 0.21921043
0.2720121 0.07365784 -0.099117644 0.1673393 0.0549006 0.13192788 -0.26074558 -0.007866231
-0.08670951 -0.15477401 0.03138513 0.0705675 -0.13424851 0.16756627 0.12724382 0.16417032
0.039002825 0.122259125 -0.15533657 -0.2454497 0.032070126 -0.14818458 -0.13956915 0.044497102
-0.028037965 -0.24739213 -0.21373188 -0.08110075 0.23144557 -0.1117373 -0.19061783 -0.03458872
0.0024474023 0.12731463 -0.081174865 -0.2301817 0.19882034 -0.15899152 0.093652435 -0.21904536
-0.051608708 -0.24269675 0.10248283 0.11581068 0.17909831 0.008950717 0.08737536 0.07162605
-0.11667514 -0.18118557 -0.20134264 0.06813716 -0.13092194 -0.032897234 0.15796778 0.10427886
-0.1770259 -0.25449935 0.17644633 -0.018916452 0.17173047 -0.051558524 0.14856762 -0.19755219
-0.020434527 -0.19995381 0.18107782 -0.2527418 0.064106345 0.2202034 0.19428931 0.06688652
-0.06592208 0.015460364 -0.03797282 0.24835841 -0.19344692 0.11695037 0.06911352 -0.049391083
0.092529655 0.1105176 0.038641047 -0.18406652 0.24409743 -0.18763989 -0.17060666 0.11430187
0.1483829 -0.06369303 -0.08838713 0.1449684 0.08812064 0.15675515 0.03194425 -0.01039911
-0.20662425 0.23355861 0.051726833 -0.116894774 0.27574682 -0.19093624 0.11898345 -0.13181515
-0.1076311 -0.0022677304 -0.09826951 -0.2294692 -0.06584892 -0.0022851606 -0.22531596 0.09703631
-0.20389786 0.04047081 0.047965262 -0.19327277 -0.04694072 -0.13886374 -0.011704258 -0.21469067

module.LSTM_layer.bias_ih_l1 f4 [64]
00000000: 50fc 88bd 5f6e 593d e1ff 60bd 00a8 29be
00000010: 5682 303e 8d81 0ebc 3e87 9c3d 2e88 533d
00000020: 2c3d 14be 1226 69be 60b8 643e 67ac 783e
00000030: 5644 073d e480 3dbe ee29 20be aade 1ebd
00000040: 9a4b 1dbc 4386 e9bd 26cf 2abd b415 5dbe
00000050: a28c 913b 5186 073e eac7 333e 1610 fe3d
00000060: d6b4 1c3e b2f4 f03c 213e fcbd 6ba2 533e
00000070: da0b ffbd 559b 283e 376d 80be f10f 803d
00000080: a6a9 60be 6b6a 2d3e b701 5fbc 6e4a 463e
00000090: 639d 21be ee55 233d 726e b5bd 16ee 4b3e
000000a0: 69a1 cd3d e29f 7abd 7298 2b3e dfe6 83bc
000000b0: 75fd 30be b9ed 393e 25a8 a0bd 9320 6b3e
000000c0: 746d 2ebe 1040 0a3d c3ab 763e 1e71 033d
000000d0: 3417 f43d 0dd7 37be 7738 93bd 5448 b4bd
000000e0: 5a5e 543c 53a9 40be 44c3 24bd d6b9 3d3d
000000f0: 6200 1e3e 3a56 403d bccd 1bbe b64d 8a3e
-0.0668875 0.053083774 -0.054931525 -0.16567993 0.17237219 -0.0086978795 0.07642983 0.051643543
-0.1447646 -0.22768429 0.22335958 0.24284516 0.033024155 -0.18506199 -0.15640995 -0.038786568
-0.009600544 -0.114025615 -0.04170146 -0.2159031 0.0044418136 0.13234831 0.1755673 0.12405412
0.15303358 0.029413555 -0.12316538 0.20667426 -0.124534324 0.16465504 -0.25083324 0.062530406
-0.21939716 0.16935126 -0.013611249 0.1936433 -0.15782695 0.03987687 -0.088589564 0.19915041
0.10040552 -0.061187632 0.16757372 -0.016101299 -0.17284186 0.1815709 -0.07844571 0.22961645
-0.1703394 0.0337525 0.2408896 0.0320903 0.11918488 -0.17953129 -0.07188504 -0.08802858
0.012961948 -0.18814592 -0.040225282 0.046319805 0.15429834 0.046957232 -0.152152 0.27012414

module.LSTM_layer.bias_hh_l1 f4 [64]
00000000: f735 d63d 6a02 edbd 4ffd c4bd c137 883e
00000010: 8f3c 8cbd 5d47 6ebe a9fe da3d 7bba 2cbe
00000020: bced 19be b77b 47be 4c82 d03d 6ff4 f73d
00000030: 0be4 4bbd d3ef 553d 6a6a cabc 5f3e bdbd
00000040: 55d5 87ba 6cc8 643e d7cc 3abe 6364 153e
00000050: ba9e 723e 0167 353e 97f8 303e 5cd1 3d3e
00000060: 7c88 4c3e 8e78 1ebe 3c12 4fbe f9a4 81bd
00000070: 22bf 3a3d ecfa 1fbe 4c79 1f3e a88d 7b3e
00000080: a2b2 4a3e 1a09 523e e3c1 1b3e cc43 72be
00000090: bb9e e6bd 0c6b 24be 781e be3d d94f 9cbd
000000a0: ba80 653a 2900 1c3e 451a 5b3e b07a 34be
000000b0: 750b 0f3e 2fe4 b8bb 8e41 50be 956a 1c3d
000000c0: 7aeb ccbd 2247 6dbe 1f56 b7bd e1c5 5fbe
000000d0: 3875 a1ba 31a3 3fbe c505 8abe c791 243b
000000e0: 8fc4 d4bc 8a51 1e3c 0d97 0dbc 9f8e 7b3d
000000f0: e368 7cbe d646 0d3e 4f09 10bd 1aef abbc
0.10459512 -0.11572726 -0.09618627 0.26605037 -0.06847488 -0.2326941 0.10693104 -0.16868012
-0.15032095 -0.19480787 0.10181102 0.12107169 -0.049778026 0.052230667 -0.024708945 -0.09240412
-0.001036326 0.2234208 -0.18242203 0.14589076 0.23693362 0.17715074 0.1728233 0.18536896
0.1997394 -0.15475675 -0.202218 -0.06330294 0.045592435 -0.15623063 0.15573615 0.24565756
0.19794706 0.20511284 0.1521068 -0.23658675 -0.11260744 -0.1605646 0.09283155 -0.07632417
0.00087548385 0.15234436 0.2139674 -0.17624927 0.13969214 -0.005642436 -0.20337507 0.038187582
-0.10005851 -0.23171666 -0.08951973 -0.21852829 -0.0012318259 -0.18714596 -0.26957527 0.0025111304
-0.025972633 0.009662995 -0.00864197 0.06141531 -0.24649386 0.13796553 -0.035165127 -0.020988036

module.BN_layer.weight f4 [160]
00000000: f1b5 803f 1bd2 7d3f cb93 7a3f 59ea 7f3f
00000010: cdee 7a3f 90e3 823f a7f3 803f 9f61 793f
00000020: 89ce 833f 4669 7b3f 0716 7a3f 4f0d 7d3f
00000030: e4b5 7a3f 0442 7b3f 0ce9 823f bef0 773f
00000040: 8fd9 7a3f 8c8e 7c3f 4fb8 7e3f 6043 803f
00000050: 8ebb 803f 8863 7f3f ed44 7c3f 4bea 7f3f
00000060: bfcc 7e3f 94fe 7c3f e637 7e3f e648 7b3f
00000070: 75b8 823f 9242 7c3f a50e 7d3f d3ba 7c3f
00000080: d4ed 7d3f 6b70 803f 4a19 7f3f 0586 803f
00000090: 910d 7f3f c61f 7d3f bec3 7f3f a090 7f3f
000000a0: 9938 7d3f d315 803f e095 7a3f 412a 7d3f
000000b0: 24d9 783f 5b7d 843f fda7 803f 47f4 7a3f
000000c0: 4dc5 793f dc56 7c3f 3c44 7e3f dd00 833f
000000d0: 2068 7f3f 59ce 7a3f 1be1 793f 8a44 7e3f
000000e0: e9a6 803f 980b 813f e697 7f3f 70aa 783f
000000f0: e024 7a3f a919 7a3f 9d5a 803f 68a7 7c3f
00000100: efe9 7d3f e79d 7f3f 62b5 7a3f 4f83 7e3f
00000110: bb4c 7d3f 0efa 7d3f 0a2a 803f 0b8a 813f
00000120: e73a 7c3f 7403 7e3f 5738 813f c392 7e3f
00000130: e90f 813f 16d2 7c3f f51e 7f3f d964 7d3f
00000140: b578 813f 6ed5 7f3f d36f 7d3f d0dc 7c3f
00000150: 750c 803f a607 7d3f 2a15 7f3f f8c9 7a3f
00000160: 3a47 7f3f 4e05 7e3f 9c7d 813f eff7 7c3f
00000170: fcd7 7c3f 17bd 7c3f f624 803f a489 773f
00000180: 5128 7d3f 8b40 7a3f 7948 823f 48a7 793f
00000190: 432c 823f 6a44 803f a0a7 7c3f 90fa 823f
000001a0: 3949 803f d496 7e3f 43bc 7d3f a77e 7b3f
000001b0: 83f8 7c3f 8bbd 803f 0c20 7d3f d28b 803f
000001c0: 103f 7e3f 2b71 7c3f 336f 803f aefd 7e3f
000001d0: ee63 833f 783d 7d3f 829e 7e3f bfcb 7a3f
000001e0: 682a 7c3f 576c 803f 7d37 7f3f df34 813f
000001f0: ca4f 7e3f dd28 803f 1730 813f 971e 7e3f
00000200: 3f28 793f b202 793f 9f87 7c3f 5037 7e3f
00000210: 066e 833f 3660 7b3f 12f7 7f3f 55b5 823f
00000220: e2ba 803f 7c94 7f3f db23 803f 5019 7d3f
00000230: 1264 803f af6f 7f3f 666f 823f 57c2 7e3f
00000240: b00d 793f 199a 7e3f 3053 803f da35 813f
00000250: 92f3 7a3f d596 843f 2f98 803f 2b8a 843f
00000260: e08a 7d3f 9015 813f 269e 823f e853 823f
00000270: ee37 833f 7481 7f3f 89af 793f 023d 803f
1.0055524 0.9914872 0.97881764 0.9996696 0.9802063 1.0225697 1.0074357 0.9741458
1.0297405 0.9820751 0.9768986 0.9884843 0.97933793 0.98147607 1.022737 0.9685172
0.9798822 0.9865501 0.9949998 1.0020561 1.0057237 0.9976125 0.9854267 0.9996688
0.9953117 0.98825955 0.99304044 0.9815811 1.0212542 0.9853908 0.9885047 0.9872257
0.9919102 1.0034307 0.99647963 1.00409 0.99630076 0.9887661 0.99908054 0.99830055
0.98914486 1.000666 0.9788494 0.988926 0.9720633 1.0350755 1.0051266 0.9802899
0.9756668 0.98570037 0.9932287 1.0234638 0.9976826 0.9797111 0.9760911 0.9932333
1.0050937 1.0081663 0.99841154 0.97135067 0.97712517 0.97695404 1.0027653 0.9869294
0.9918508 0.99850315 0.9793302 0.9941911 0.98945206 0.9920968 1.0012829 1.0120252
0.9852738 0.9922402 1.0095319 0.9944269 1.008298 0.98758066 0.9965661 0.98982006
1.0114962 0.9993504 0.98998755 0.98774433 1.0003802 0.98839796 0.9964167 0.9796443
0.9971806 0.99226844 1.0116458 0.98815817 0.98767066 0.9872603 1.001128 0.966944
0.9888964 0.97754735 1.0178367 0.97520876 1.0169758 1.0020878 0.98693275 1.0232716
1.0022346 0.99448895 0.9911539 0.9824013 0.988167 1.0057844 0.98877025 1.004267
0.99314976 0.9861018 1.0033935 0.99605834 1.0264871 0.9892192 0.99460614 0.9796714
0.98502207 1.0033063 0.99694043 1.009426 0.993405 1.001247 1.0092801 0.99265426
0.97327036 0.9726974 0.9864444 0.9930315 1.0267951 0.9819368 0.99986374 1.0211588
1.0057032 0.99835944 1.0010942 0.9886675 1.0030539 0.9977979 1.0190246 0.9951529
0.9728651 0.99453884 1.0025387 1.0094559 0.9802791 1.035853 1.0046443 1.0354666
0.9904003 1.0084705 1.0204513 1.0181856 1.0251443 0.99806905 0.9753347 1.0018618

module.BN_layer.bias f4 [160]
00000000: 1636 823c c934 5cbc 56a7 b2bc 6b36 fdb9
00000010: 96bd 19bd 74b5 253d a008 023c 35c8 1bbc
00000020: 3095 a23c d037 9abc 0b37 23bc 0665 67b9
00000030: 67a8 39bc d143 333c eecd cf3c 115c c1bc
00000040: 7738 26bc b50a 34bc ba0b 15bc ab9e 86bc
00000050: b6f8 32bc e6e4 d2bc 5814 3639 10f8 aa3b
00000060: 74ed c83b e87e 363c ed55 1dbc 08bc 40bc
00000070: 01bf c63c a0dc c33b 8123 d6bc b7e9 bcbb
00000080: b9c7 973c 84d4 8b3c 5321 05bc 77cb e83a
00000090: 5ebd 47ba d428 5abc 23a1 81ba 0f40 ebbb
000000a0: 78fe 2bbc 8dea 13bc 4e3b 57bc 1e5c 4abc
000000b0: 6f00 a2bc bde4 073d 3abd 8dbb d8a2 b0bb
000000c0: a517 c0bc 47c2 db3b 5bee 06bb 31db e7ba
000000d0: 3e0a 05bc 4a1d 63bb 0ff2 aebb 2c19 4abc
000000e0: 165d 49bc 04d7 893c 659e 943b 2549 8cbc
000000f0: e805 e7bb 5c43 95bc f143 3cbc 7c1f 0dbc
00000100: 80a3 7ebb c5fb 9dbb 4a2e 8dbc 7505 0a3c
00000110: 2906 a53b 7773 e7bb 6feb 58bc 32f6 d3bb
00000120: 8c23 3c3b 982e 82bc 080a c4bb 060d d23b
00000130: 62f0 80b9 27e1 06bc a11c 893c 12ea efbb
00000140: 99a0 e7bb da2a 763c c171 b0bb 41c8 5a38
00000150: 35e9 52bc 261a 113a b44e dbbb 4805 5fbc
00000160: 8d3b 98bc 5624 d03a 67b4 82bc d188 20bc
00000170: a1be 3e3c 9332 cd3b 425b 05bc 6d06 2bbc
00000180: 15c7 f0ba ebdc 00bc 2dfe 663c bc9b 6fbc
00000190: e858 1f3c ce99 64bb 17be 9cb9 2d2b 243b
000001a0: 07f0 95bc 30ae 02bc 565f 8bbc d254 24bb
000001b0: ae37 fbbb 1c48 573c 4d4e b6bb dd40 7a3c
000001c0: c2aa 1fbc 9cdd f1ba d5f3 923b 5cb5 b2bb
000001d0: 74ba fe3b 92d2 763b b52c a5ba 3900 87bb
000001e0: a6ac b83b 201e 883c d136 a83c de37 27bc
000001f0: e20c 2dbc c641 8a3b f20c 2d3c 54d8 8bbc
00000200: f8e2 4abc 53b4 25bc f3a3 283b 5f1f c4bb
00000210: e80b 383b a440 4a3b b962 9dbb fe55 0cbc
00000220: a3d5 68bc a834 53bc cda4 a1bc 25fb d2bb
00000230: 4c12 1fbc a76f 2e3c ebf3 343c ea83 223c
00000240: 5c82 24bc dfd5 813b 73d3 45bc b9d8 bb3b
00000250: 9124 5ebc 5d66 77bb 0b6e 24bb 508e 90bc
00000260: 5eee a1bc e1f2 103b a611 53bc 9144 5f3b
00000270: e16e 393b 44e1 69bb 7b40 26bc c2b9 6bbc
0.01589493 -0.013440319 -0.021808308 -0.00048296465 -0.03753432 0.04045625 0.007936627 -0.009508182
0.019846529 -0.018825442 -0.009961854 -0.00022067511 -0.011331654 0.010941462 0.02536675 -0.023603471
-0.010145298 -0.010988881 -0.009097034 -0.01643308 -0.010923555 -0.025743913 0.00017364451 0.0052175596
0.0061318222 0.011138655 -0.009603006 -0.01176358 0.024261 0.0059772283 -0.026139976 -0.0057651657
0.018527852 0.017069109 -0.008125621 0.0017760833 -0.00076194655 -0.013315398 -0.0009889941 -0.0071792672
-0.010497682 -0.009028089 -0.013136698 -0.012351064 -0.019775597 0.033177126 -0.004325536 -0.0053905062
-0.023448775 0.0067065093 -0.0020588848 -0.0017689225 -0.008120118 -0.0034654909 -0.005338914 -0.012335103
-0.01229026 0.01682616 0.0045354837 -0.017124722 -0.0070502646 -0.018220596 -0.011490808 -0.0086134635
-0.0038854778 -0.004821273 -0.017233986 0.008424153 0.0050361347 -0.007063325 -0.0132397255 -0.0064685578
0.002870771 -0.015891358 -0.005982641 0.006410244 -0.00024593162 -0.008232391 0.016737284 -0.0073216045
-0.0070687053 0.015024865 -0.0053846543 5.216175e-05 -0.012872984 0.00055352075 -0.0066927318 -0.013612099
-0.018583084 0.001587997 -0.015955163 -0.009798245 0.011642129 0.0062621324 -0.008139433 -0.010438544
-0.0018369878 -0.007865171 0.014098686 -0.014624532 0.009725787 -0.0034881714 -0.00029896267 0.0025050149
-0.01830293 -0.0079761 -0.017013233 -0.002507497 -0.0076665496 0.013139751 -0.0055635334 0.015274254
-0.009745302 -0.0018452886 0.0044846334 -0.0054537486 0.007773692 0.003766213 -0.0012601825 -0.0041198996
0.0056358157 0.016615927 0.020533951 -0.010206191 -0.0105621535 0.0042192666 0.010562168 -0.017070927
-0.012383215 -0.010113793 0.0025732487 -0.005985185 0.0028083269 0.0030861283 -0.0048030284 -0.008565424
-0.014211091 -0.012890972 -0.019731903 -0.00643863 -0.009708952 0.010646737 0.011044483 0.009919146
-0.010040846 0.003962263 -0.012074339 0.0057326225 -0.013558523 -0.0037750222 -0.0025090005 -0.017645985
-0.019766983 0.0022117423 -0.012882626 0.0034067968 0.0028294849 -0.0035687247 -0.010147209 -0.01438755

module.BN_layer.running_mean f4 [160]
00000000: 5fee a03c 429a be3d 9bd0 9a3c f5a6 4b3c
00000010: 010a 8bbd 43b8 febc 2c30 dabc a2b3 6b3d
00000020: dbd1 d5bc 430c 5f3c df98 b33d 64e3 6ebd
00000030: 2bea bf3a 87e3 0e3d 5e10 52bd eb7a 513d
00000040: effe 063d f281 0e3e 0dda fd3c 7a89 f13c
00000050: ab45 c9bd 2791 3ebd 17e7 34bd 3c67 df3d
00000060: 0ff9 67bd e060 983c 2f52 e83d 3e90 bfbd
00000070: 53ea 9b3b 3dca 5e3d feba aebd cb48 8f3d
00000080: a6dc 363d b0d5 173e 6521 2c3d c470 203d
00000090: 4b53 f1bd 4ace 78bd 50cf 71bd 7a94 073e
000000a0: 7136 91bd 3185 943c 5bd5 ea3d 3f92 d7bd
000000b0: ca64 903c aefb 823d 8876 cebd 23b2 9d3d
000000c0: c8b4 743d 934b 213e cfa5 4b3d 30b7 313d
000000d0: 3e05 00be 1ac6 8cbd 9c04 8ebd 1548 213e
000000e0: 6838 a5bd f254 543c bcdc e73d 253c d9bd
000000f0: 68a5 8c3c cc3f 733d 1c53 e3bd 8c4a af3d
00000100: 14a9 663d 930e 263e 605e 413d 3ef5 543d
00000110: adb0 04be 8303 90bd 270e 91bd c6be 283e
00000120: 6966 a7bd 5a22 1d3c 9665 f53d a30e d3bd
00000130: f10d c83c 390b 883d 7b1c ecbd 63b6 b53d
00000140: ce99 953d 7098 323e ba01 2e3d ca70 573d
00000150: 912b 08be 16ec 9cbd 247d 89bd 2234 283e
00000160: e925 b5bd f7d8 033c 50dc e63d b08a bebd
00000170: 8895 c23c 82a5 743d 5648 f4bd 2154 af3d
00000180: a5b2 963d afa7 333e 8d12 263d 45d2 683d
00000190: 4c47 0cbe 95fc a3bd 98fb 89bd 3beb 293e
000001a0: ea0f aabd d92c c13a 8106 eb3d 6c7f b8bd
000001b0: 7ec2 c03c a328 7b3d 35dd f0bd e0d1 c43d
000001c0: 1b06 8a3d 61f1 283e eb78 633d e4da 743d
000001d0: 8b84 0fbe be8e a9bd 15da 94bd 98f1 293e
000001e0: 3cd2 9fbd 6129 473b 79e8 d83d 3f38 abbd
000001f0: 51e2 fc3c 41f9 853d 7415 f2bd a02f c53d
00000200: d81c 993d 215c 2b3e 019d 5f3d 86c8 633d
00000210: ff4c 12be e132 aabd 88da 99bd f501 243e
00000220: dc5a 9cbd 6235 93b9 43c9 e13d 7497 a5bd
00000230: ddf6 053d 852d 843d 374e f1bd f61d c23d
00000240: d5ec 9c3d e898 263e 4142 4c3d 7774 4f3d
00000250: a0a4 10be 8636 a1bd 9e6a a5bd 86d1 243e
00000260: 534b 93bd bee8 f3b9 29dd df3d bdbd 93bd
00000270: c582 173d 7a0e 863d 3261 f2bd 07fd c93d
0.019644914 0.09306766 0.018898299 0.012429942 -0.067890175 -0.031093722 -0.026634298 0.057544358
-0.026101043 0.013613763 0.08769392 -0.058322325 0.0014641931 0.034884956 -0.05128514 0.051142614
0.032957967 0.13916758 0.030987764 0.0294845 -0.09827741 -0.046525147 -0.044165697 0.10908362
-0.056634005 0.018600881 0.113438 -0.09353684 0.0047581582 0.05439209 -0.0853176 0.06996306
0.04464402 0.14827609 0.042024035 0.03917004 -0.11783465 -0.060743608 -0.0590356 0.13240233
-0.07090462 0.018129917 0.114664756 -0.10525941 0.017626185 0.0639566 -0.10081202 0.076999925
0.05974272 0.15751486 0.049718674 0.04338759 -0.12502 -0.068737224 -0.06934473 0.15750153
-0.08067399 0.012959706 0.113213986 -0.10607175 0.017168716 0.059387013 -0.11099836 0.085591406
0.05631359 0.16216497 0.047209144 0.051991694 -0.12958021 -0.0703192 -0.070827775 0.16479024
-0.0817383 0.00959071 0.119822666 -0.10305526 0.02442071 0.066427656 -0.1152887 0.08872678
0.073047265 0.17440963 0.042482115 0.0525978 -0.1329787 -0.07662217 -0.06713322 0.16426137
-0.088451214 0.008047334 0.1127249 -0.09303796 0.023752943 0.059728153 -0.119278595 0.08560968
0.073582925 0.17544435 0.040545035 0.056841154 -0.13699073 -0.080071606 -0.06737441 0.1659364
-0.083038166 0.0014738097 0.1147585 -0.09008679 0.023530241 0.06131805 -0.11760942 0.09610343
0.06739446 0.16498329 0.05553524 0.059779063 -0.14015405 -0.08279179 -0.07268158 0.16596067
-0.07803771 0.0030389654 0.10591216 -0.083603375 0.030869635 0.06541682 -0.11820498 0.096282244
0.07476205 0.16734363 0.05459309 0.055611156 -0.14287184 -0.08310486 -0.07512385 0.16016372
-0.076345176 -0.00028077798 0.11024716 -0.08085528 0.03270613 0.06453995 -0.117824964 0.09478371
0.076623596 0.16269267 0.049867872 0.05064818 -0.141253 -0.07871728 -0.08076976 0.16095552
-0.07192101 -0.00046521978 0.10930855 -0.07213924 0.036989946 0.0654573 -0.11834945 0.09862714

module.BN_layer.running_var f4 [160]
00000000: aeea 773b db3e 233b f327 ec3b 9e08 993b
00000010: 22d4 223b b31a 2d3b d6a8 243b 79df 523b
00000020: a15d 343b 292d 4d3a fc8c 2d3b 2430 9e3b
00000030: 0537 8c3b 3162 323b 5f08 983a bac0 8c3b
00000040: 8578 313c 776a 993b 5b8c 803c b8bc 0b3c
00000050: 73e5 d43b 30d3 eb3b 3d71 743b a39b d83b
00000060: 2518 c63b 76cc 103b 8d20 053c 3c35 423c
00000070: fd3b 093c d06f d23b 5b9b 6d3b fdf8 1f3c
00000080: f6f3 893c 48ce cc3b dd6e b93c e543 233c
00000090: 7be9 283c 1aa2 403c e4b3 b93b b533 3b3c
000000a0: 9a1a f63b 7503 723b 47c2 4a3c 84bd a73c
000000b0: 8156 3e3c 5368 1f3c 79a7 e53b 26e5 743c
000000c0: 1d88 bf3c ae66 e73b 8714 fc3c fc5c 2c3c
000000d0: 5a4e 4c3c 86a6 5f3c 9da5 f93b f907 663c
000000e0: 88be 253c ffc9 d73b 1091 863c 2ada b93c
000000f0: b8fe 573c 5bde 723c 1e16 193c 2e38 a33c
00000100: f522 d63c f808 fa3b 6409 f13c d795 3c3c
00000110: cadb 713c 0fbf 833c 0f7a e93b 83b8 913c
00000120: 65a7 373c cbe8 193c ea4e 9d3c af71 f63c
00000130: e38a 5a3c 856d 883c 94a3 343c 7441 c23c
00000140: dbd5 f23c 3fe9 ff3b 1653 ff3c 59ef 433c
00000150: 79ba 773c 8d2f 8d3c be88 033c fd96 b53c
00000160: 332c 583c a14d 153c 9f29 923c 7c16 fe3c
00000170: 7a74 553c 2fd0 9b3c 87a0 4e3c dba7 e23c
00000180: 83fe dc3c 8ee4 053c 7592 0a3d 4702 593c
00000190: c2d1 7d3c 9773 9a3c ef09 093c 1a56 e03c
000001a0: 53df 673c 091c 3f3c ce22 9f3c 1ba2 113d
000001b0: 2430 6d3c 62b3 9c3c cdd0 5d3c a62e fc3c
000001c0: abe5 ec3c c505 dc3b f1b2 0c3d 2a5a 703c
000001d0: 8f2a 923c 5be8 a73c 2935 1c3c 4f07 e73c
000001e0: 9421 5c3c 75bf 3f3c 1893 b23c 2082 163d
000001f0: d4b8 603c a9e6 a73c 331c 803c 0ead ec3c
00000200: 9787 003d fc18 0e3c 2066 f43c 63df 5e3c
00000210: fe5c 8f3c f00c a53c b27f 3e3c 5065 fa3c
00000220: a13a 6b3c d6da 543c f9e8 a53c aac0 1b3d
00000230: dfd3 743c 6d76 b83c 56d1 823c ad0e e03c
00000240: 2f6c 113d b2d9 e93b 7212 fe3c 8a61 503c
00000250: c045 963c 00ef ad3c 12df 303c 119c 193d
00000260: c2ff 793c e133 5f3c 5a0c ba3c 1896 2a3d
00000270: 1be8 7f3c fab3 c53c cc6a 8d3c 3b3b f83c
0.003782909 0.002490929 0.0072069108 0.0046702167 0.002484568 0.002641362 0.0025125048 0.0032176657
0.0027521627 0.0007826859 0.0026481738 0.004827516 0.00427902 0.0027219171 0.0011599174 0.0042954357
0.010831957 0.004681881 0.015691927 0.008528881 0.006497079 0.0071968064 0.003729894 0.00661035
0.0060453587 0.0022094524 0.0081254365 0.011853512 0.008376119 0.0064220205 0.003625593 0.009763953
0.016839962 0.0062501766 0.022635872 0.009964918 0.010309572 0.011757398 0.0056671966 0.011425902
0.0075104954 0.003692833 0.012375421 0.02047611 0.011617304 0.009729463 0.0070084897 0.014947211
0.023380334 0.007061801 0.030771507 0.010520216 0.012469852 0.013650542 0.0076186196 0.014039987
0.010116227 0.006585359 0.016426593 0.022687037 0.013183288 0.0148235215 0.009343652 0.01992425
0.026139716 0.0076304637 0.029423423 0.011510334 0.014761874 0.016082315 0.007125146 0.017788177
0.011209344 0.009393881 0.019202668 0.030083505 0.013338777 0.016653785 0.011025328 0.023712851
0.02964299 0.0078097875 0.031167548 0.01195892 0.015120142 0.017234588 0.008028207 0.022166723
0.013194132 0.009112746 0.017842112 0.03101658 0.013028258 0.019020168 0.012611515 0.02766793
0.02697683 0.008172167 0.03383108 0.013245172 0.015491905 0.018853946 0.008364185 0.027384806
0.014152366 0.011664399 0.019425776 0.035554986 0.01447681 0.019128505 0.0135385515 0.030783962
0.028918108 0.006714555 0.03435034 0.014669934 0.01784256 0.020496538 0.009534159 0.028201727
0.01343574 0.011703362 0.021798655 0.03674519 0.013715941 0.02049573 0.015638446 0.028891113
0.03137931 0.008672949 0.029833853 0.013603064 0.017500397 0.02014777 0.011627125 0.030565888
0.01435724 0.012991628 0.020252692 0.038025536 0.014943092 0.022517407 0.01596896 0.027350748
0.035503563 0.007136547 0.031014655 0.012718568 0.018343806 0.021232128 0.010795372 0.037502352
0.015258731 0.013623209 0.022710968 0.041647047 0.015619303 0.024133671 0.017262839 0.03030168
