Stage2_pickedmodel/Stage2_LSTMAgegen_BDSZ/model_epoch_1.pth (torch, 86647 bytes, 14 tensors)

module.LSTM_layer.weight_ih_l0 f4 [64, 256]
000000 f7 08 e4 bc fb 2c 4a be 3a 43 16 3e 66 c0 33 3b
       -0.027836306 -0.19743721 0.14674082 0.002742791
000010 1d c9 71 3e 97 4e 1c 3d d3 67 0b bd 85 a0 e8 3d
       0.23611875 0.038160887 -0.03403456 0.11358742
000020 a7 1a d6 bc 67 7c 22 be d2 38 6a 3e ef 6b 32 3e
       -0.026135756 -0.15867768 0.22873238 0.17423986
000030 30 d8 0a 3d 76 ab 20 be e2 11 fe 3d a0 af 58 be
       0.03389758 -0.15690407 0.124057546 -0.21160746
000040 ad 83 06 be 03 87 0a 3d 22 67 0f be 63 e2 30 be
       -0.13136168 0.033820163 -0.14004186 -0.1727386
000050 c0 50 f7 3d 79 1d 20 3e 2e 24 29 be 40 27 78 be
       0.12075949 0.15636243 -0.16517708 -0.24233723
000060 d0 37 6c 3e 41 e5 ce bd bd 94 24 bc 26 21 12 be
       0.23068166 -0.101023205 -0.010045228 -0.14270458
000070 5c 80 42 be 79 7a 1a bd 12 ae 20 be 83 0f 31 3e
       -0.18994278 -0.037714455 -0.15691403 0.17291074
000080 a6 42 92 3d 72 62 18 3e f6 fa 35 3e 51 1e 53 3e
       0.071416184 0.14881304 0.17771515 0.20617034
000090 48 3b ba bc c3 40 fa 3c 13 2b d3 bd 2e 9c 6a 3e
       -0.022733346 0.030548459 -0.1031095 0.2291114
0000a0 f1 33 a8 bd 2b 91 76 be f5 c7 a5 3d 95 24 40 bd
       -0.08213032 -0.24078815 0.080947794 -0.046909887
0000b0 39 65 5f 3e e5 f3 4d 3e 34 0c 48 3a cd 90 26 be
       0.21815957 0.2011257 0.0007631213 -0.16266175
0000c0 99 5c a1 3d 94 36 11 3e df 41 47 3e 96 6d 61 3d
       0.0787899 0.14180976 0.19458722 0.05503615
0000d0 3f 50 39 be 45 85 1d be bb 81 fb bd 90 a8 7b 3e
       -0.18097018 -0.1538287 -0.122806035 0.2457602
0000e0 5d c6 47 3e 49 14 0f be 78 e9 ba 3d 3a 4c 97 bd
       0.19509263 -0.13972582 0.09126562 -0.07387586
0000f0 47 86 60 be 98 d2 3f be 28 d3 72 3e 32 7c e8 bb
       -0.21926223 -0.18732679 0.23713362 -0.0070948834
000100 52 e3 bc 3d 5b 01 49 3d 6a a4 fe bd fb bc c4 3d
       0.092230454 0.04907356 -0.12433703 0.09606358
000110 86 a8 50 bb 9f db 66 bd 36 b3 d5 3d ac 99 4f 3e
       -0.003183873 -0.05636179 0.104345724 0.20273465
000120 ec e1 d6 bd 19 ae 59 be ea fe 67 bd eb 0a 40 be
       -0.1049231 -0.21257819 -0.05663959 -0.18754165
000130 27 bc 5d be a2 f0 53 3e 16 74 72 be e4 45 6b 3e
       -0.21653806 0.20697263 -0.23677096 0.2297588
000140 80 17 64 be 01 6a f8 3b f8 a7 df bc 05 0e 1e be
       -0.2227459 0.007580996 -0.027301773 -0.15435036
000150 9e 9b 05 3d f4 86 45 be 8e d1 e6 bc 1d 55 6d be
       0.03261911 -0.19289762 -0.028176095 -0.23177
000160 d5 b4 b7 3c c2 7f 19 be 58 bc 58 be 4d 51 b4 bd
       0.022425095 -0.14990142 -0.21165597 -0.088045694
000170 5b 1f 37 3e 05 c5 58 be 2b bc c7 bd 7c 4d 61 3e
       0.17883055 -0.21168907 -0.09752687 0.22002214
000180 40 f6 25 be 26 17 93 3d c0 7b 5f be 0b f7 d9 3d
       -0.16207218 0.071821496 -0.2182455 0.10642823
000190 52 9f fa 3d b4 42 37 bd fc ff 7e 3e 91 6d ee bd
       0.12237419 -0.044741347 0.24902338 -0.11641992
0001a0 c4 4e 2a be d0 63 4a be 92 30 77 3c 6a bd 08 3e
       -0.16631609 -0.19764638 0.015087264 0.13353506
0001b0 da 33 10 3d a9 f4 15 be a8 c3 3e 3d e3 06 0a 3e
       0.0352057 -0.14644112 0.04657331 0.1347919
0001c0 23 23 48 bc 39 46 ba 3d 41 f6 62 3e 2f 77 a0 3d
       -0.0122154085 0.09095425 0.22164251 0.078352325
0001d0 7d 07 99 bc 82 52 b9 3d 8c 9a 16 bc 49 e9 ca 3d
       -0.018680329 0.0904894 -0.00919212 0.09907777
0001e0 d8 29 02 bd ea 86 64 be dc 43 65 bd ca c1 f3 3d
       -0.031778187 -0.2231709 -0.05597292 0.11902197
0001f0 97 df 02 3e 1d 8a c0 bd bc 92 48 3e 6a cb a1 bc
       0.12780605 -0.09401343 0.19587225 -0.019750316
000200 78 2f 82 bd 5e 89 79 be a6 7e d9 bd d1 94 68 bb
       -0.0635671 -0.24368808 -0.106198594 -0.0035489092
000210 4c fd 03 be 50 5b 1a 3e 1d cf 44 3e 61 07 c2 3d
       -0.12889594 0.15073895 0.19219632 0.09474064
000220 19 a3 a5 bd 2f 72 40 be 47 64 64 be b5 40 0e 3d
       -0.08087749 -0.18793558 -0.22303878 0.03472968
000230 70 7f e0 bc fd 97 9f bd 3d c9 83 3e fb 61 38 bd
       -0.027404517 -0.07792661 0.2573947 -0.045015316
000240 40 66 61 3e 31 20 67 3e 74 27 f8 3d 52 a3 4d be
       0.22011662 0.22570874 0.121169 -0.20081833
000250 73 a4 b6 bd 8b 99 9e bd e3 c6 07 be ba 14 87 bb
       -0.08918085 -0.0774413 -0.13259463 -0.004122344
000260 eb 56 33 be 4e 98 b2 bd 7c 19 5f be c3 86 0e 3e
       -0.17513625 -0.08720456 -0.21787065 0.13918595
000270 5c 27 84 3e 50 11 f6 bc cc 67 1d be 75 6e bf bd
       0.2581128 -0.030037552 -0.15371627 -0.0934724
000280 a9 35 ec bd b3 a8 b1 3c f5 93 d8 3d 21 11 0f 3e
       -0.11533672 0.021686887 0.105750956 0.13971378
000290 f5 1b 40 be a6 81 98 bc 05 61 c5 3d 84 2b 8c 3d
       -0.18760665 -0.018616509 0.09637646 0.068442374
0002a0 89 f4 29 bd 44 a9 53 3d 7d 0e 04 be 6d c5 76 be
       -0.041492973 0.051675096 -0.12896152 -0.2409875
0002b0 8c bd a2 3c b3 7d 03 3e c1 85 8e bd 1f 9d 4f 3e
       0.019865774 0.12840919 -0.06959105 0.2027478
0002c0 2a 97 bd 3d b9 34 ea bd 2d 44 2f 3e 2f cd 73 3d
       0.09257348 -0.11435837 0.17115851 0.05952185
0002d0 df aa 16 be 01 54 e3 3d e8 07 2c be 85 bf 31 be
       -0.1471362 0.11100007 -0.16799891 -0.17358215
0002e0 65 48 d3 bd b7 eb 55 3e 6c f3 b8 3d 8b 40 4d be
       -0.103165425 0.208907 0.09030804 -0.20044152
0002f0 3e b2 5d 3d f3 4b 87 3d ba f7 dd 3d ad 2f 59 3e
       0.054125063 0.06606283 0.10838266 0.21209593
000300 42 c9 85 ba be 41 41 be cf fa 58 be e0 38 80 3e
       -0.0010207074 -0.18872735 -0.21189426 0.25043392
000310 7f 8e 80 3c fd 87 c9 bd d0 37 25 be 97 cf 38 3e
       0.015692947 -0.09840391 -0.16134572 0.18047939
000320 9e b7 15 be f4 8c 17 be 69 48 1f 3d 19 9a 42 bd
       -0.14620826 -0.14799863 0.038887415 -0.04751024
000330 e1 2d e2 bd 6c e8 18 3e f6 45 58 3e f2 36 de bc
       -0.11043907 0.14932412 0.21120438 -0.02712581
000340 ae 8f 26 3e 71 70 00 3e cb 47 f6 bc dd 2c 55 3e
       0.16265747 0.12542893 -0.03006353 0.20817895
000350 fb e2 7a be 0a cc 6d bd bb fd 83 3d 70 45 4b be
       -0.24500649 -0.058055915 0.064448796 -0.19850707
000360 75 96 5f be 51 f8 6b be a4 f2 4a 3e b5 47 fe bd
       -0.21834739 -0.23043944 0.19819123 -0.12416021
000370 10 06 17 3e 2c 7d ac bd a5 f1 dc 3c 1f ad 78 3e
       0.14748406 -0.08422312 0.026970694 0.2428479
000380 9f 1b b6 3d 4e 50 4f be 62 8a 64 3e ee a1 48 3e
       0.08891987 -0.20245478 0.22318414 0.19593021
000390 62 8a 76 3d c8 16 97 bc 61 43 f7 3d 34 37 e5 bd
       0.060190566 -0.01844348 0.120733984 -0.1119217
0003a0 95 f8 04 3c 5a b9 67 3d 4f 62 61 3e 99 51 23 3c
       0.008115907 0.05657325 0.22010158 0.009968185
0003b0 ce f8 ab bd 41 5d 08 3d 24 ed 59 bd 1e fb 47 be
       -0.08397065 0.03329206 -0.05320467 -0.19529387
0003c0 cc c1 04 be 03 70 0a be 98 93 8c 3d 3f 52 d7 3d
       -0.12964553 -0.13519292 0.06864089 0.10513734
0003d0 c0 28 b8 3c 3b 86 6a be 03 87 1f bd 18 1c 23 be
       0.022480369 -0.22902767 -0.038947117 -0.15928686
0003e0 52 cf 06 be 53 2d 83 3e da 5f 02 be 7b 63 11 bd
       -0.13165024 0.25620517 -0.12731877 -0.035495263
0003f0 c1 5a 4c 3d ad 8b f4 3d b3 f8 1b be d9 c0 36 3c
       0.049891237 0.119407035 -0.1523159 0.011154377

module.LSTM_layer.weight_hh_l0 f4 [64, 16]
000000 09 2f 42 be 06 68 67 3e 8e c7 9f bd 02 67 28 3e
       -0.18963255 0.22598276 -0.07801734 0.16445544
000010 84 08 1e be 75 9e 50 bd 58 7b 76 be 96 6b 65 3e
       -0.15432936 -0.050932366 -0.2407049 0.22404322
000020 c0 5f 9f 3d 9b 51 03 3e 5e 96 37 3e 0a f5 f7 bc
       0.07781935 0.12824099 0.17928454 -0.03026821
000030 a8 72 c9 3d 74 4c 29 3e 02 5f 29 3e 47 06 30 3d
       0.09836322 0.16533071 0.16540149 0.042974737
000040 70 2e bf 3d 34 3e 22 3e 80 7e 4a 3e f8 1c ab 3d
       0.09335029 0.15844041 0.19774818 0.08355135
000050 c5 57 0c 3e 2a e7 25 3e 9b b9 96 bc 1b a5 3a bd
       0.13705356 0.16201463 -0.01839905 -0.045567613
000060 83 2e 3d 3e 32 0a ea 3d 9a 1a 54 be a2 fe ab 3d
       0.18474774 0.11427726 -0.20713273 0.08398177
000070 1e f4 9c bc ef 75 66 be 8a 86 16 3e 0f f8 19 3d
       -0.019159373 -0.22505926 0.1469976 0.037590083
000080 75 6f 53 be 4d ac 79 be 41 0d bc 3d 15 c7 2d 3e
       -0.20647986 -0.24382134 0.091822155 0.16970475
000090 4a 35 ff bc d7 d6 08 be 25 65 65 be 37 6d 5c be
       -0.03115334 -0.13363205 -0.22401865 -0.21526037
0000a0 9c 49 31 bb 69 2f 25 3c 16 b7 27 3e 07 a5 6c 3c
       -0.0027051931 0.010082104 0.16378435 0.014443642
0000b0 9a a0 0e 3e 8d 83 69 3e 26 c9 dd 3c a3 eb 30 bd
       0.13928452 0.22804089 0.027073454 -0.04319347
0000c0 66 e1 9d 3d c6 93 6f be bc bc 81 3c f3 92 11 be
       0.07709007 -0.23396215 0.015837066 -0.14216213
0000d0 91 ba cf 3d 22 c2 5c 3e f9 19 71 3e 09 4f 92 bc
       0.101430066 0.21558431 0.23545064 -0.017859953
0000e0 72 da dd bd 57 b7 1a be 6b 2a 69 3e aa a7 3d bd
       -0.10832681 -0.15109001 0.22770087 -0.046302475
0000f0 77 6c 58 be fc 25 12 3d 32 9d 8d 3d 6d 3c 47 3d
       -0.21135126 0.035680756 0.06914748 0.04864161
000100 30 85 c9 bd 95 0d 6f be cb 35 bd bd c1 26 e0 bd
       -0.098398566 -0.23345025 -0.09238776 -0.10944892
000110 b7 ef 2d 3e cb 00 83 3e ec aa 34 3c 9f 80 43 be
       0.16985975 0.25586542 0.011027079 -0.19092034
000120 23 e1 83 bd 93 8c ef bd d8 1e 6f be 9e 8c 53 3e
       -0.06439426 -0.11696734 -0.2335161 0.2065911
000130 3c d8 5b 3d ce 56 bc bd d2 0e 44 3d 1c bc 0c 3d
       0.053673014 -0.09196244 0.047865696 0.034359083
000140 c3 5e 2b 3e d6 e1 11 be 68 d5 33 be 8b 65 e7 bd
       0.16735367 -0.14246306 -0.17561877 -0.11298665
000150 89 bd 09 be fe 92 bf 3d af 71 57 3e df 96 8d 3d
       -0.13451208 0.093542084 0.2103946 0.06913542
000160 99 29 4b be 44 9c 6e bd 27 86 77 be 68 c9 1e be
       -0.19840087 -0.058254495 -0.24172269 -0.15506518
000170 de 07 0a bd 54 e7 8f 3c 44 d7 a9 bc a9 09 37 be
       -0.03369891 0.01756636 -0.02073253 -0.17874779
000180 c1 f2 cf bb 18 41 50 be 44 7f 0c be e0 bc 33 3e
       -0.006346077 -0.20337331 -0.13720423 0.17552519
000190 14 54 28 3e 32 5c 96 bd f6 00 33 3d 3a 9d 4d be
       0.16438323 -0.073418036 0.04370209 -0.20079508
0001a0 eb e5 75 3e 82 71 fb bd 3e 52 88 3d 0f bd 4f 3e
       0.24013488 -0.12277509 0.066563115 0.20286964
0001b0 56 b1 74 be 68 1c 8b 3d 34 0d 45 3e 60 1f a2 3c
       -0.23895773 0.067925274 0.19243318 0.019790351
0001c0 6b c3 34 3d 5d 16 d1 3b a1 5e 46 be b6 42 04 be
       0.044131678 0.0063808397 -0.19372036 -0.12916073
0001d0 44 41 42 bb d9 63 02 bd 5f 53 2f 3e 2c c9 47 3e
       -0.0029640952 -0.031833503 0.17121647 0.19510335
0001e0 91 dc 2c be c8 c9 7f 3e af b3 a0 3d cd 1c 94 bd
       -0.16881014 0.24979317 0.07846772 -0.07232056
0001f0 4f 11 14 3e b6 9e 5c be 17 36 24 3e f8 08 57 3e
       0.14459728 -0.21544918 0.16036259 0.20999515
000200 2e f9 94 bd be 0f 10 be 16 c0 86 bd 7f b0 72 3e
       -0.0727409 -0.14068505 -0.06579606 0.2370014
000210 c5 6b 46 bd df ac 85 bc f5 c3 51 be 77 f7 aa bc
       -0.04844262 -0.016317783 -0.20484908 -0.020869954
000220 45 90 17 3d c5 4d 2e be eb 19 05 be cd 34 3e 3e
       0.03700282 -0.17021854 -0.12998168 0.1857483
000230 cb a4 02 be 14 05 2e be b7 cc 90 3d b4 43 fd 3d
       -0.12758176 -0.16994125 0.07070296 0.12366429
000240 d6 8e 5a be fe 30 ab 3d a4 a7 45 be cf 9d 4c be
       -0.2134355 0.08358954 -0.19302231 -0.19982074
000250 12 0d 7b 3e cc 09 f8 3c 38 ff 9f bd 10 28 f7 3d
       0.24516705 0.030278109 -0.07812351 0.12068188
000260 3d e2 41 bd d3 31 8a bc 22 4d 26 be bd 89 9a 3c
       -0.0473349 -0.016869461 -0.16240361 0.018864507
000270 91 5a 1a be b5 64 85 3d 2e 3c 0e be a0 05 2b be
       -0.15073611 0.06513349 -0.13890144 -0.16701365
000280 8b 36 16 be e3 f2 34 bd 81 55 63 bd 6e 83 5c be
       -0.14669244 -0.044176947 -0.055501465 -0.21534511
000290 69 2f d5 b9 10 d9 0b be 7d e0 d6 3d a9 5f 24 3e
       -0.0004066185 -0.13657022 0.104920365 0.16052116
0002a0 10 77 17 3e 74 60 2c 3e 92 95 3b bd 9d 3e 91 3b
       0.14791512 0.16833669 -0.04579694 0.004432513
0002b0 70 64 44 be ee 4f 44 3e c6 ec 70 be 47 99 20 be
       -0.19178939 0.19171116 -0.23527822 -0.1568347
0002c0 7c 46 20 be b5 70 b6 bd 22 7f 6b be 04 cd 9d 3d
       -0.15651888 -0.08908216 -0.22997716 0.07705119
0002d0 67 3e 53 be be 78 42 bd 58 d9 70 3e 19 86 34 3e
       -0.20629273 -0.04747843 0.2352041 0.17629279
0002e0 3c 0c 2f 3e 31 ae 18 3d 2e 77 27 3e c4 45 c3 bc
       0.17094511 0.037275497 0.16354057 -0.023836978
0002f0 a6 9c df bd 9c ab 35 3e 8d b8 92 bc 6b 63 05 bd
       -0.1091855 0.17741245 -0.017910266 -0.032565515
000300 5d d4 58 be 73 d0 6b 3d 2b 88 81 3d c6 0a 47 3d
       -0.2117476 0.05757184 0.063248 0.04859426
000310 71 35 2b 3e 4c f7 a7 bd 45 ea 4a 3e b8 fd 2c 3d
       0.16719605 -0.08201465 0.19815929 0.042234153
000320 6b 53 47 be 98 3c 4f 3e e8 63 49 3e a3 38 03 3e
       -0.19465415 0.20237958 0.19667017 0.12814574
000330 0f cd 96 3c cf 92 07 be 29 8d 4e be 43 9b 1f 3d
       0.018408326 -0.13239597 -0.20171036 0.03896643
000340 83 ce 34 3e e2 2f 5f 3e 4a 2e 5e be 79 5b 27 be
       0.17656903 0.2179561 -0.21697345 -0.16343488
000350 4a 0e 67 be 0a 92 1a 3e c0 a6 f5 3c af 12 70 3e
       -0.22564045 0.15094772 0.02998674 0.23444627
000360 84 0a 01 3e 11 0e 91 bd 4d e2 6b 3e f8 0b 63 be
       0.12601668 -0.07082761 0.23035546 -0.22172534
000370 cc e2 9f 3d d2 0d 18 be 06 69 3c 3e f3 8c 06 3d
       0.0780693 -0.14849022 0.18399438 0.032849263
000380 57 8c de bd 29 8b d4 3d 8e d6 79 be 51 20 66 bd
       -0.108666115 0.10378105 -0.24398252 -0.056183163
000390 4e b3 a4 3d 38 12 07 3e 01 0b 13 3e 97 37 b1 bd
       0.08042012 0.13190544 0.14359666 -0.08653181
0003a0 4a 2f b9 3d a9 1a 0c 3e d5 7e ba 3d c9 71 76 3e
       0.09042223 0.13682045 0.091062225 0.24066843
0003b0 59 34 53 bb 6f 94 47 be 3d 48 0d be ba f5 10 3d
       -0.0032227247 -0.19490217 -0.13797088 0.035390593
0003c0 ad 09 6d 3e d1 7d a7 bc f3 df c5 bc d9 2a 31 be
       0.23148222 -0.020445736 -0.024154639 -0.17301501
0003d0 fe 56 5c 3d 94 fb e7 bd 16 34 65 3e ac e5 20 3e
       0.0537939 -0.113272816 0.2238315 0.15712613
0003e0 ee 8c 1b be f2 03 0a 3e 8a 8e 57 3d 20 e2 38 be
       -0.15190479 0.13478068 0.05262617 -0.1805501
0003f0 a9 7a af 3d 65 d3 ad 3d ea ec c2 3c 6e 80 28 be
       0.085683174 0.08487586 0.02379461 -0.16455242

module.LSTM_layer.bias_ih_l0 f4 [64]
000000 88 62 3b be 83 a3 bd bd a0 71 48 be 53 ea 97 ba
       -0.18299305 -0.09259703 -0.19574594 -0.001159022
000010 f9 52 1b 3d b1 af ca bd fa 93 a8 bc 6e b2 c3 bd
       0.037920926 -0.09896792 -0.020578373 -0.09555517
000020 b0 93 18 3e 2e fb 19 be 1f ba 33 bd ad 4c 18 be
       0.14900088 -0.15037224 -0.04387867 -0.14873
000030 a3 1b 27 3e cc 04 20 3e 0a ce a9 bd be c5 42 3e
       0.16319136 0.1562683 -0.08291252 0.19020745
000040 45 c8 40 3d 8f b3 f1 bd 73 df 6b be fd fe 05 3e
       0.047065992 -0.11801826 -0.23034458 0.13085552
000050 cc 7f d7 3d e6 76 51 3e 84 ec 50 be 17 d6 2b 3c
       0.10522422 0.20455512 -0.20402724 0.010488055
000060 05 38 f5 bd e0 d2 cd 3d b7 32 06 be 64 d8 7b 3d
       -0.119735755 0.10049987 -0.13105284 0.061485663
000070 75 e0 f1 bd a6 83 d1 bd ad e7 0d 3e 67 62 16 3d
       -0.1181039 -0.10230188 0.13857909 0.036714938
000080 59 b2 3e be cf 73 6b be d6 e9 eb 3c 01 b2 74 be
       -0.18622722 -0.22993396 0.028798025 -0.23896028
000090 15 3f 11 3e 16 ed b4 3d db 5a f8 3d f7 98 8f 38
       0.1418422 0.08834283 0.12126704 6.847263e-05
0000a0 c0 e7 48 3e 1a 11 f6 bd fb d3 a2 bd a2 07 69 3e
       0.19619656 -0.120149806 -0.07950588 0.22756818
0000b0 ed 86 33 be c0 a8 d2 3d cf 89 0f be 6e f4 17 be
       -0.17531939 0.10286093 -0.14017414 -0.14839336
0000c0 dc 67 69 bd 73 67 26 be fa f3 d8 bc 32 97 65 be
       -0.056983814 -0.162504 -0.026483525 -0.22420958
0000d0 c7 01 bc ba 15 7f cc bd 82 d1 1e be cf 23 a4 3c
       -0.0014343791 -0.099851765 -0.15509608 0.020036606
0000e0 17 32 49 3e 55 98 85 3d 20 ec a3 ba e4 55 ff 3d
       0.19648014 0.06523196 -0.0012506284 0.12467554
0000f0 a8 30 8c 3d c5 33 3f 3d 61 7f 30 be a5 aa 07 be
       0.06845218 0.04668023 -0.17236091 -0.1324869

module.LSTM_layer.bias_hh_l0 f4 [64]
000000 33 35 32 3e 39 e6 35 be 98 c0 53 be 6c 24 58 3e
       0.17403106 -0.17763604 -0.20678937 0.21107644
000010 0b 97 0f be 2e db 0f bc 82 b8 e0 bd 2b 4c bc bd
       -0.14022462 -0.008780284 -0.10972692 -0.091942154
000020 1a 65 2f be 76 e9 24 3e 13 28 30 be 02 e4 31 3e
       -0.17128411 0.16104683 -0.17202787 0.17372134
000030 06 6e 6e bd 3c 2f 58 be 50 7a 21 3e 39 00 fe bd
       -0.058210395 -0.21111768 0.15769315 -0.12402386
000040 f5 04 f7 3d 8e 54 3a 3e 90 aa 16 3c 8c 54 64 3e
       0.12061492 0.18196318 0.009195939 0.22297877
000050 c1 fb 47 3e 8a 4c 46 3e 1b f6 a8 3d 7d 57 09 be
       0.1952963 0.19365135 0.08250066 -0.1341228
000060 dc 5f 1b be e3 e4 9d 3b 18 c9 da 3d e0 ba 3e bd
       -0.15173286 0.004818545 0.10682887 -0.046564937
000070 3b 39 6a 3e be 24 20 be d8 9b de bb 2f b3 33 be
       0.22873394 -0.15639016 -0.0067934804 -0.17548822
000080 65 d0 4d 3e 08 3a 82 3d 96 9e bf bd 7c 0f 22 be
       0.20099027 0.06358725 -0.0935642 -0.1582622
000090 18 39 66 bd 3f 9a 80 bd f5 98 80 bd 9e 79 c8 3c
       -0.056206793 -0.0627942 -0.06279174 0.024472054
0000a0 30 48 5b be c8 eb 9e 3d b5 fc 46 3e 09 08 16 3d
       -0.21414256 0.077598155 0.19432338 0.036628757
0000b0 8c 38 67 bd 48 93 4d be 14 6e 17 3e be 83 0d 3e
       -0.05645041 -0.20075715 0.14788085 0.13819787
0000c0 ec ab c9 3d 29 c5 ca bc 9f d4 be bd 4c 06 1b 3e
       0.098472446 -0.024752216 -0.09317898 0.15139121
0000d0 9c 0b 7e 3d c9 10 3c be 7b 57 a7 3d e1 7c 35 be
       0.06202279 -0.18365778 0.081709825 -0.17723419
0000e0 0f b1 24 3e ba c2 c6 bd 30 14 99 bd 83 d1 72 3e
       0.16083167 -0.0970511 -0.074745536 0.23712735
0000f0 d6 db b2 3d 90 8a 3a 3e 7b b7 17 3e 7b 13 0b 3e
       0.08733337 0.1821692 0.14816086 0.1358165

module.LSTM_layer.weight_ih_l1 f4 [64, 16]
000000 ff 88 6a be 82 96 1c 3e 9b ae 4b be 5a e9 46 be
       -0.22903822 0.15291789 -0.19890825 -0.19424954
000010 e2 a3 a1 3d 16 cf fb 3c e5 81 b1 3b 69 ee f5 3d
       0.07892586 0.030738395 0.005417096 0.12008364
000020 87 68 05 be f1 50 28 be 69 f7 73 be 21 90 81 bc
       -0.13028155 -0.16437127 -0.23824848 -0.015815796
000030 e8 89 64 3e fb 74 37 3d 41 25 d6 bc a3 8e 63 be
       0.22318232 0.044789296 -0.02614081 -0.2222238
000040 17 c7 af ba 8b 0f 47 be 9a dc c5 bd 1d fb 39 be
       -0.0013410774 -0.19439523 -0.09661217 -0.18162198
000050 1f a5 32 bd ab 71 fc 3d af 23 06 3d bd d0 55 be
       -0.043614503 0.12326368 0.032748874 -0.20880409
000060 c0 00 7f 3e 13 22 67 be 19 72 17 be 4d a0 27 be
       0.2490263 -0.22571592 -0.14789619 -0.16369744
000070 d9 4e 24 be 9c 26 83 3d e5 af 9c 3d e6 f5 f4 bd
       -0.16045703 0.064038485 0.07650737 -0.11960964
000080 b0 96 19 be 85 85 31 bd 53 60 36 be a4 6a 2d 3e
       -0.14998889 -0.043340225 -0.17810182 0.16935211
000090 4a 50 17 be a0 98 e1 3c 3c 10 73 be cd 1b dd 3d
       -0.14776722 0.027538598 -0.23736662 0.10796318
0000a0 6d 4a e2 bd d7 31 05 3e a1 2e 3e 3e 84 fd fa 3b
       -0.11049352 0.13007294 0.18572475 0.007659616
0000b0 81 ac 6a 3e 9f bb 38 3d 83 19 ce bd f4 f1 60 3e
       0.22917368 0.045100804 -0.1006346 0.21967298
0000c0 46 fa d7 bd c6 6d 27 3d bf 45 11 3e 43 e6 4d 3e
       -0.10545783 0.040876172 0.14186762 0.20107369
0000d0 50 45 78 be 56 a6 80 be 71 71 1b 3d f3 6b 3e be
       -0.2424519 -0.25126904 0.037949983 -0.18595867
0000e0 d8 39 60 bd 0c e3 7c be ab 41 35 be ee c9 e8 bd
       -0.054742664 -0.24695987 -0.17700832 -0.1136664
0000f0 86 07 36 3e ba a1 15 3e 6f 8a 32 3e 5d 03 1c 3e
       0.17776307 0.14612475 0.1743562 0.15235658
000100 fb e8 3d bb 25 ff 93 bc 8c db 3b be 80 4f 19 3e
       -0.0028977979 -0.018065998 -0.18345469 0.14971733
000110 8b ff d9 bd 02 6b 12 be de 4c 63 3e 5c d2 6c 3e
       -0.10644444 -0.14298633 0.22197291 0.2312712
000120 4c 5a eb bc 06 9c 1c 3e 3d f3 5a 3e e8 d4 56 3e
       -0.02872958 0.15293893 0.2138185 0.20979655
000130 be d4 5e be 2a 0a 1c be 13 2f 6a bd 72 60 8f 3d
       -0.21760842 -0.15238252 -0.0571738 0.07000817
000140 e7 38 e1 bd 8a 76 42 be c2 d8 fd 3d 22 43 6a 3e
       -0.109971814 -0.18990532 0.12394859 0.22877172
000150 9b fa 9a bd ef 39 03 be c7 1b 22 3e 1f b8 fb bd
       -0.075673304 -0.12815069 0.15830909 -0.12290978
000160 5c 93 66 3e 0e e0 83 bd 0a 11 27 3e 2e 06 27 be
       0.2251715 -0.064392194 0.16315094 -0.16310951
000170 df 05 aa bd 8a 6f 3d 3e 9f 16 36 3e 69 b0 72 3e
       -0.08301901 0.1849958 0.17782067 0.23700108
000180 bd 3f 44 be db 7d dd bd da 39 6b be a6 78 ce bd
       -0.19164939 -0.10815021 -0.22971287 -0.100816056
000190 c3 f2 ec bd 19 ab aa bd c8 a4 21 3e 7c fe 55 be
       -0.115697406 -0.083334155 0.15785515 -0.2089786
0001a0 e7 03 30 be 08 1a 8b 3d 0b 74 57 be 5a 5f 4a be
       -0.17188989 0.067920744 -0.2104036 -0.19762936
0001b0 52 0e d6 3c c8 41 e0 3c 31 df 3e bd 01 7a 6b be
       0.026129875 0.027375117 -0.04659957 -0.2299576
0001c0 b7 61 4a 3d 3d c5 53 be 12 c1 79 be 81 eb 1b 3e
       0.049409594 -0.20680709 -0.24390057 0.15226556
0001d0 d4 85 2c 3e ae 49 67 be 26 47 ce 3d aa 5a 21 3e
       0.16847926 -0.225867 0.10072164 0.15757242
0001e0 0c 08 5c be 4f 24 80 3d f3 3c 9a bd 0f 46 ac 3d
       -0.21487445 0.06256925 -0.075311564 0.084118
0001f0 dd b6 26 be 2f fd 10 3e 33 35 1f 3e dd 3b 55 3e
       -0.16280694 0.14159082 0.15547638 0.20823617
000200 35 89 0c 3e c1 a8 01 3e 0c 2d b2 bd 63 e2 ab bd
       0.13724215 0.12662031 -0.08699998 -0.08392789
000210 eb 6e 0e 3e e6 cd 9e 3d 2e e0 9f ba 47 b6 59 3e
       0.139095 0.07754116 -0.0012197548 0.2126094
000220 a1 eb 00 bd 4e 2a 13 be 8c e5 e2 bc 75 0e 19 bc
       -0.031474713 -0.14371607 -0.027697347 -0.009341826
000230 ee 93 e0 bd d3 e0 6e 3e 89 ee 4b be 12 5a f6 3d
       -0.10965715 0.23327951 -0.19915213 0.12028898
000240 22 c1 50 3e d3 f8 96 bd 5c f9 12 3e 53 5e 0f be
       0.20386174 -0.07371678 0.14352936 -0.14000826
000250 00 79 85 3b 47 29 58 be be a5 8d 3d 04 a8 32 3e
       0.004073262 -0.21109496 0.069163784 0.17446905
000260 e6 9c a1 3d c1 19 38 3e bf 3c 17 3b 1f 25 60 3e
       0.07891254 0.17978574 0.002307698 0.2188916
000270 29 65 11 3e e9 da 40 3e 6e ac 3d be 93 80 09 be
       0.14198746 0.18833508 -0.18522808 -0.13427953
000280 9c 62 fe bd cf ec 89 bd 45 d5 36 be 6d 77 f6 bc
       -0.12421152 -0.06734621 -0.17854793 -0.030086244
000290 0e f6 77 3e 47 96 12 be 14 f8 93 bd f3 d2 95 3d
       0.24214956 -0.14315139 -0.072250515 0.07315626
0002a0 2f ea 70 3e dc dc e6 3c 1d c7 d3 bd d8 f9 84 bd
       0.23526834 0.028181486 -0.10340712 -0.064929664
0002b0 65 8e 72 3e d4 ff 16 be 6d 44 43 bd 33 59 1f 3e
       0.23687132 -0.14746028 -0.047672678 0.1556137
0002c0 72 6b 38 3e c8 55 e4 bd 3c 24 50 3e 4b 18 33 be
       0.18009737 -0.11149174 0.20326322 -0.17489736
0002d0 99 a1 31 be da f0 35 be f3 16 5e bd c3 f9 33 3e
       -0.17346801 -0.17767659 -0.054221105 0.17575745
0002e0 96 72 21 bc e2 57 f5 3d 66 0e 45 be e2 94 9e 3d
       -0.00985398 0.11979653 -0.19243774 0.07743241
0002f0 a9 c8 2d 3d 99 0d ab bd fa 10 b3 bc 4f a0 6a 3d
       0.042427693 -0.08352203 -0.021858681 0.05728179
000300 89 65 6e be 9b e3 fb 3c b3 b4 5a be 14 26 cf bb
       -0.2328092 0.03074818 -0.21357994 -0.006321678
000310 a1 c4 1f bd 74 58 06 be db 52 b9 bd 1b 85 a7 bd
       -0.03900588 -0.1311968 -0.090490066 -0.08179685
000320 66 51 57 be 1b f5 fb 3d 21 1e 00 be 3a 39 a0 bc
       -0.21027145 0.123026095 -0.12511493 -0.019558538
000330 b4 5f 5b be 0f 7c 86 bd 80 88 ff bd 9a 46 49 3e
       -0.21423227 -0.06566631 -0.12477207 0.19655839
000340 16 00 21 3e e7 fb d9 3d 9f 6d 5e be f8 34 6a be
       0.15722689 0.1064375 -0.21721505 -0.22871768
000350 92 ed 19 be 3c 7c 55 3e 61 b2 98 3b 62 b1 c0 bd
       -0.15032032 0.20848173 0.0046599363 -0.09408833
000360 5c 6a 65 be 12 d7 42 be 01 25 11 bb 97 b0 31 be
       -0.22403854 -0.19027355 -0.00221473 -0.1735252
000370 be 55 c3 3b e2 16 50 3e c2 a9 75 3e d5 2e 11 be
       0.005961149 0.20321229 0.23990539 -0.14178021
000380 59 99 30 3e 3c 17 93 bd 24 be b0 bd 9a 23 b4 bd
       0.17245997 -0.07182166 -0.086300164 -0.08795853
000390 2b 37 7d bc 41 e3 5c 3e 28 aa 06 3e 47 ba 1a be
       -0.015455048 0.21571065 0.13150847 -0.15110122
0003a0 e2 a1 a0 3d 89 8e 98 36 72 1c 09 be c8 67 b5 3d
       0.07843377 4.5465463e-06 -0.13389757 0.08857685
0003b0 62 70 59 3e c7 45 5a 3e 41 61 14 3b c8 dc 24 3e
       0.21234277 0.2131568 0.0022640976 0.16099846
0003c0 1e cc a1 bd 92 a0 fb 3d 8c cd 8a 3b 0e 2b 74 3e
       -0.079002604 0.12286486 0.004235929 0.23844549
0003d0 2d 5d b6 3c 07 fe 58 be b5 38 40 3e 3c 40 80 be
       0.022261227 -0.21190654 0.18771632 -0.25049007
0003e0 b9 24 14 be 57 f9 60 3e 11 25 06 be 6c d1 72 bd
       -0.14467134 0.21970116 -0.13100077 -0.05928175
0003f0 6e 42 4e bc 6f dc 19 be bf 01 fb bd e2 83 1d be
       -0.01258908 -0.15025495 -0.122561924 -0.1538234

module.LSTM_layer.weight_hh_l1 f4 [64, 16]
000000 b4 15 95 3d c1 2f 60 3e 21 19 ca bd 5f 61 dd 3d
       0.0727953 0.21893217 -0.09868074 0.10809588
000010 ca 4c 0a 3e 86 e4 4f be 5a fc 9c bd 5d c7 8c 3d
       0.13505855 -0.20302019 -0.0766532 0.06873963
000020 3f 42 75 3e b7 bf 9a bc f3 de 06 3e 08 34 1b be
       0.23951052 -0.018890245 0.13170986 -0.15156567
000030 61 8b 00 3d 3d 94 a7 bd 98 9f a5 3c 20 f0 b8 bd
       0.031382922 -0.08182571 0.020217702 -0.09030175
000040 d2 94 86 bc 19 e3 79 bd 89 ec 76 3e b3 a5 24 bd
       -0.016428385 -0.061007593 0.24113669 -0.040197086
000050 49 6e 7a 3e 09 6b 25 3e 96 84 11 3e 92 95 40 3c
       0.24456133 0.16154112 0.14210734 0.01175441
000060 11 9c 4f bd 7f 20 79 3d 05 be 33 bd 6d 5f eb bd
       -0.050685946 0.060822006 -0.04388239 -0.114928104
000070 ac 11 58 3e d8 e1 2b be eb f8 5b be 90 7c cd 3d
       0.21100491 -0.16785371 -0.21481673 0.10033524
000080 b1 ad 6f 3d 9a b7 38 3e c5 78 4b bd af 82 bd 3c
       0.058515254 0.18038788 -0.04967572 0.023133604
000090 ee d5 68 be ba 6a 2f 3e 1b da 9e 3c c9 9e 2d bd
       -0.22737858 0.17130557 0.01939111 -0.042387757
0000a0 f7 3c 38 3d ad 2a 61 3e 67 5e 63 3e 65 f9 d4 bd
       0.044980016 0.21988936 0.2220398 -0.10399131
0000b0 d9 e4 2d 3e 95 c7 56 bd 90 3a 08 3e 08 07 3e 3e
       0.1698183 -0.05243643 0.1330359 0.1855737
0000c0 46 7a 4e be f5 d5 13 be ca 56 71 be 46 5e 44 3d
       -0.20163831 -0.14437087 -0.23568264 0.04794147
0000d0 34 c9 13 be 20 69 79 be a1 a1 dc 3b dd d1 5d be
       -0.14432222 -0.24356508 0.006733135 -0.21662088
0000e0 88 95 8a 3d 96 1c ff bd 67 c3 72 3e e2 68 28 3e
       0.06766802 -0.12456624 0.23707353 0.1644626
0000f0 f7 5f 30 3e 2b 00 18 3e 51 48 85 bd ae e4 0f 3e
       0.17224108 0.14843814 -0.06507934 0.14052078
000100 a3 b7 00 3c 2f ae 17 be 37 05 1f be 9e 5c 30 3e
       0.007856282 -0.1481254 -0.15529333 0.1722283
000110 c2 83 a4 bd 80 b0 e0 bd 2f 8c 57 3d 7b 56 c7 3d
       -0.08032943 -0.10971165 0.052623924 0.09733292
000120 1c 74 59 3e a7 d6 f6 bc 6b 8b 30 3e 96 3c 69 3d
       0.21235698 -0.030131651 0.17240684 0.056942545
000130 08 a3 94 bd e1 45 6c bd 45 69 06 be 7a 47 00 be
       -0.07257658 -0.05768383 -0.13126095 -0.12527266
000140 90 45 7d be 50 d7 5d bd 37 c0 90 bc 79 90 c4 bd
       -0.24733567 -0.054160416 -0.01766978 -0.095978685
000150 44 8a 64 be 03 f6 59 3e 45 ef 0a be ae ec 32 3e
       -0.22318369 0.21285252 -0.13567837 0.17473099
000160 0a aa 2f be 17 75 d7 3d 9f fa 87 bd 80 9f fb bd
       -0.17154709 0.1052038 -0.06639599 -0.122862816
000170 18 1d 87 bd fd 72 8c bc 90 0a ca bb 53 69 b5 3d
       -0.06597346 -0.017144674 -0.00616581 0.088579796
000180 b1 c2 92 bd a9 9d 0e be dc f7 bd bd 0d b7 02 be
       -0.07166041 -0.1392733 -0.09275791 -0.12765141
000190 78 d6 7c be 0c ec 60 be 3e b1 f1 3d cf 09 1a 3e
       -0.24691188 -0.21965045 0.118013844 0.15042804
0001a0 fd b9 6d bd e5 f4 e0 3d 6d eb aa bc 51 f5 bf bc
       -0.0580387 0.1098421 -0.020864213 -0.023432406
0001b0 9d d8 91 bd d9 5c 45 3e 0b 9f 97 bd f6 57 72 3e
       -0.07121394 0.192737 -0.07403382 0.23666367
0001c0 d2 7c 3d bb 7c 9a 4c 3e 66 15 80 3d f8 82 60 be
       -0.002891351 0.19980806 0.062540814 -0.2192496
0001d0 4e 82 67 3e 39 90 49 3e 4f 96 4c 3e da df 4a 3e
       0.22608301 0.19683923 0.19979213 0.19811955
0001e0 b7 0d 01 3d 2e 85 6a be 28 8b 07 3e af 35 2e 3e
       0.03150722 -0.22902367 0.13236678 0.17012666
0001f0 29 ba ff 3d ba 11 62 3e 4f 2e d5 3d d1 7e f3 bd
       0.12486679 0.22077075 0.10409223 -0.11889423
000200 f2 13 35 3e b1 7b e5 bd 01 a4 0b 3d 5a 92 70 be
       0.1768339 -0.11205233 0.034091953 -0.23493329
000210 eb ae 4d 3d 5e 0d 06 3e a7 6c 0d be b0 76 3e 3e
       0.050215643 0.13091037 -0.13810979 0.18599963
000220 3c 31 2b be 53 c8 b9 3d 57 e6 32 3e 61 b3 4d 3e
       -0.16718 0.09071412 0.1747068 0.20087959
000230 a0 28 a2 bd 8a ba 11 3d c5 59 0e bc a9 39 14 3e
       -0.07917905 0.03557829 -0.008688395 0.1447512
000240 a6 31 bf 3d 15 56 6e 3c 20 9c 5c 3e 6b dc eb bd
       0.093356416 0.014546891 0.21543932 -0.11516651
000250 c3 0b 5f 3e d8 f9 a3 3d f4 c6 17 3e d1 fb cc bc
       0.2178183 0.08006638 0.14821988 -0.02502242
000260 4e dd 72 3e c5 9b 6e bd bf c6 76 3e 61 0b 84 3d
       0.23717234 -0.058254022 0.24099253 0.06447483
000270 df 0e 1d be 8d 1d de 3d 7a 6c ce 3d 6c 46 ea bd
       -0.15337704 0.1084548 0.10079284 -0.11439213
000280 80 cf 2b be 23 d7 6e be 6b 72 07 3c 5d 14 20 3e
       -0.16778374 -0.23324256 0.008267025 0.15632768
000290 6f 9f 47 3e 8b 4a 58 be b7 f0 4d bd e7 3e be 3d
       0.19494413 -0.21122186 -0.05027839 0.092893414
0002a0 50 50 97 3d bf 14 1f be 33 ed 48 3e a3 36 8c bd
       0.07388365 -0.15535258 0.19621734 -0.068463586
0002b0 56 35 b0 3c 3f 20 b6 3d 1f 61 49 be d1 dc 19 3e
       0.021509808 0.08892869 -0.19665955 0.15025641
0002c0 87 62 5a be d1 aa ca bd c2 32 b2 3d 82 7f 1e 3e
       -0.21326648 -0.09895862 0.087010875 0.15478328
0002d0 9d 2f 94 bc 7b 62 5e be 51 39 59 be cc 06 cc 3d
       -0.01808911 -0.21717255 -0.2121327 0.09962234
0002e0 1d f2 fe bc 85 a5 17 be 73 9c 57 3d 58 58 bb bd
       -0.031121308 -0.14809234 0.052639436 -0.091477096
0002f0 45 17 66 3d 83 24 f9 3d 96 9f 62 be 4d 10 49 3d
       0.056174535 0.12165167 -0.2213119 0.04908781
000300 aa ac 69 3d 11 a4 5f bc de 27 29 be a6 1e 6e be
       0.05704943 -0.013649956 -0.16519114 -0.23253879
000310 40 f0 f5 bd 93 a5 69 be d3 95 95 bc 71 11 ae bb
       -0.12008715 -0.22817068 -0.018259918 -0.005312138
000320 7b 70 6f 3d 50 37 34 be be 65 24 be 12 77 6b 3d
       0.05845688 -0.17599225 -0.16054437 0.0574866
000330 09 2d 98 3d 2d d7 af 3d 1b 81 b9 3c 3d cd 17 3e
       0.07430465 0.085859634 0.02264457 0.14824386
000340 85 5b da 3d 30 de 30 bd 10 8c c9 bc 49 1b 45 3d
       0.10661987 -0.043180645 -0.02460292 0.048121724
000350 95 33 d5 3d 3d 52 64 3e 17 0c eb bc 9f 21 69 be
       0.10410229 0.22296996 -0.028692288 -0.22766732
000360 e5 b8 4c 3e bf dc b4 3d 87 2f 2c 3e d0 06 61 be
       0.19992407 0.088311665 0.16815005 -0.21975255
000370 6d 72 5f 3e 21 25 48 bd 80 fc b5 ba 49 53 1c bc
       0.21820994 -0.048863534 -0.0013884455 -0.009541341
000380 9e 0e 6a be 5d d2 b0 bd 14 4d 99 3d 6f a2 a6 bc
       -0.22857139 -0.086338736 0.074854046 -0.020341126
000390 5a 52 d3 3d a6 e5 12 be aa 0b 51 3e 69 69 e8 bd
       0.10318442 -0.14345416 0.20414606 -0.113482304
0003a0 1a 2b 56 be 4b 89 fd bc e4 e3 5c 3e 0d d2 f1 bd
       -0.2091488 -0.030949255 0.21571308 -0.11807642
0003b0 82 26 8a bd 7b 8a 2e 3d f4 e5 56 be bf 7a 56 3d
       -0.06745626 0.042612534 -0.20986158 0.052363154
0003c0 ba 39 a6 bd 8e 00 0f 3c 1a e1 6d bd 82 7b 5a 3d
       -0.08116479 0.00872816 -0.058076 0.053340442
0003d0 94 a8 59 3e 8e f2 92 3d 57 6e 6a be f4 44 58 be
       0.21255714 0.0717517 -0.22893654 -0.21120054
0003e0 c1 b4 19 3d 63 da 94 bd 10 a3 fd bd 24 3d 1a be
       0.037525896 -0.072682165 -0.12384617 -0.15062386
0003f0 2f 39 c9 3d 20 8b bc bd 7c 99 72 be 3b 31 80 3d
       0.0982536 -0.092062235 -0.23691362 0.0625939

module.LSTM_layer.bias_ih_l1 f4 [64]
000000 d9 30 0e be 80 16 75 be 0d 5e 71 bd 94 f7 74 be
       -0.13885821 -0.23934364 -0.058927584 -0.23922569
000010 6b 3d 3e be 64 4a b6 bd 1a ad ec bb 9e 55 1a be
       -0.18578117 -0.08900908 -0.0072227838 -0.15071723
000020 a7 f6 6c 3e 5c b4 e1 bd b6 d8 5a 3c d2 97 25 be
       0.23140965 -0.11020729 0.013357332 -0.16171196
000030 20 de 1c 3e 67 6e 8c bd 8f 05 4a be 3f 84 29 3e
       0.15319109 -0.06856995 -0.19728683 0.16554354
000040 e1 a9 81 bd 4c 06 c8 3d 9f d8 2b be d3 37 32 3e
       -0.0633123 0.09766826 -0.16781853 0.17404108
000050 79 cf 00 bd 60 78 a5 bd 21 4c b3 bd fe ad 67 bd
       -0.03144786 -0.080796 -0.08754755 -0.056562416
000060 a6 8c f0 3d 38 e2 58 3e d3 23 4f 3e 00 98 c2 bd
       0.117455766 0.21180046 0.2022851 -0.09501648
000070 30 62 bc 3d 66 d0 38 be 17 c8 e8 3d 58 e5 75 3d
       0.09198415 -0.18048248 0.11366289 0.060033172
000080 4b 70 58 be e8 85 44 3e 5c 46 40 3e 92 37 27 be
       -0.21136586 0.19191706 0.1877684 -0.16329792
000090 86 94 bf 3d d9 3b 4f be 3d 03 06 be bd 62 a0 bd
       0.093545005 -0.20237674 -0.13087173 -0.07831333
0000a0 65 33 61 be fd 27 c2 bd c3 f6 b1 bd 09 48 d6 3d
       -0.21992262 -0.094802834 -0.08689644 0.10462958
0000b0 80 9e fa 3d 2e e1 13 3e 74 b0 45 3e bc 8a 6b 3e
       0.12237263 0.14441368 0.19305593 0.23002142
0000c0 8e d9 ca bd 5d fc 15 be 6a 28 b6 3d 3a 66 eb bc
       -0.099047765 -0.1464705 0.08894427 -0.028735269
0000d0 cc 9e ef 3d 3d 09 78 3e da e5 6a be e5 4b 51 be
       0.1170021 0.24222274 -0.22939244 -0.20439108
0000e0 48 57 56 be 73 fe 3a be bf d6 7f 3d 30 96 c1 3c
       -0.20931733 -0.18261127 0.062460657 0.023631185
0000f0 0b a6 6c be a6 c6 ae 3c 3d 03 ed 3d 83 14 27 be
       -0.23110215 0.021334957 0.11572883 -0.16316418

module.LSTM_layer.bias_hh_l1 f4 [64]
000000 2e 44 71 3e bb e1 41 3e a5 a7 09 3e e1 00 23 3e
       0.23561165 0.18933766 0.13442858 0.15918304
000010 98 e6 fb 3c 03 42 26 bc 54 db 85 bd 2f c1 48 3e
       0.030749604 -0.010147574 -0.06535974 0.19604944
000020 f0 d7 ba 3d 78 4f 82 be 7a 9b 46 bd b3 d2 58 39
       0.09123218 -0.25451255 -0.048488118 0.00020677857
000030 76 4f 18 3e c3 e7 26 be 0e 7a 92 bd 29 d2 62 be
       0.14874062 -0.16299348 -0.07152186 -0.22150482
000040 7c 99 3c be f5 d2 ab bd 5a 4f 57 bd 51 c4 b6 3d
       -0.18417925 -0.08389846 -0.05256591 0.08924163
000050 57 7b ae bd 55 77 4b 3e 6d 6c 1f 3e 79 93 f7 bc
       -0.08519619 0.1986974 0.15568705 -0.030221688
000060 4d a2 7c be 38 17 f5 3d 34 21 d9 3c f3 9c da bd
       -0.24671288 0.11967319 0.02650509 -0.10674467
000070 df 81 58 3e f8 3c 03 be 6b ef 49 bd 3b 8b 62 be
       0.21143292 -0.12816226 -0.049300592 -0.22123425
000080 1b a8 8a bd f2 3e 46 be 86 f7 41 3e b6 2b 5a 3e
       -0.06770345 -0.19359949 0.18942079 0.21305737
000090 e2 e0 38 3d e5 7e 32 be c3 2b 6d be 04 64 e3 bc
       0.04513634 -0.17431219 -0.23161225 -0.027757652
0000a0 55 49 f1 bd 46 0b e3 3c 32 96 9f 3d 25 ef a0 3d
       -0.11781565 0.027715337 0.07792319 0.07858113
0000b0 fa 39 03 be 6e 61 24 3e 24 42 62 3e 8e 86 83 3c
       -0.12815085 0.16052791 0.22095543 0.016055372
0000c0 3c 6e 16 3e fe e2 d8 3d 20 b2 67 3d 1b 7b 02 3e
       0.14690489 0.1059017 0.056566358 0.12742274
0000d0 dd 08 d1 3d 9f e5 f7 bd c3 3b 24 3e e5 f1 00 be
       0.10206769 -0.121043436 0.16038422 -0.12592275
0000e0 a5 d0 61 be 4f 94 66 be a0 1f 77 3e 90 c7 40 be
       -0.22052248 -0.22517513 0.24133158 -0.18826127
0000f0 37 e9 e8 bd 7f 0c a5 bd a9 c1 ba 3c 82 85 58 3e
       -0.11372607 -0.08059024 0.022797422 0.21144679

module.BN_layer.weight f4 [160]
000000 18 34 80 3f c4 3b 7f 3f 48 94 7e 3f d4 9d 7e 3f
       1.0015898 0.9970057 0.9944501 0.99459577
000010 10 c0 7f 3f fb 08 7f 3f fb bb 7e 3f b1 2d 7f 3f
       0.9990244 0.9962308 0.99505585 0.99679095
000020 ac 0e 7e 3f b6 97 80 3f 4f dd 7e 3f 9e 0e 80 3f
       0.9924114 1.0046299 0.9955644 1.0004461
000030 74 9e 7f 3f 96 e0 7f 3f 3f c9 7e 3f b7 99 80 3f
       0.99851155 0.99952066 0.9952583 1.004691
000040 7d 53 7e 3f 7f 2e 7e 3f 6b 4b 80 3f 78 e0 80 3f
       0.99346143 0.992897 1.0023016 1.0068502
000050 59 4f 7f 3f 2b 94 80 3f 7f d9 80 3f 1a ae 7e 3f
       0.9973045 1.0045217 1.0066375 0.9948441
000060 be be 7e 3f 52 53 7f 3f 99 8e 80 3f 76 4d 80 3f
       0.995098 0.9973651 1.0043517 1.0023639
000070 07 91 7f 3f 66 a5 7f 3f 12 16 80 3f 49 42 80 3f
       0.9983067 0.99861753 1.0006735 1.0020229
000080 9c 36 7f 3f 0c ba 7d 3f bc 77 80 3f 30 3a 7f 3f
       0.996927 0.9911201 1.003654 0.9969816
000090 f9 bb 7f 3f 16 40 80 3f 06 2f 7e 3f dd 62 7f 3f
       0.998962 1.0019557 0.992905 0.9976023
0000a0 61 3a 80 3f 0c b2 7f 3f 55 7e 80 3f 1d ab 7f 3f
       1.0017816 0.9988105 1.0038553 0.99870473
0000b0 30 8b 80 3f 0f 60 7f 3f 47 40 80 3f ff 5b 7e 3f
       1.0042477 0.9975595 1.0019616 0.99359125
0000c0 7d 6f 7f 3f 80 09 7e 3f d9 88 80 3f e4 5d 80 3f
       0.9977949 0.99233246 1.0041763 1.0028653
0000d0 97 11 80 3f af 03 80 3f 3d 8c 80 3f 40 73 7f 3f
       1.0005368 1.0001124 1.0042797 0.9978523
0000e0 bf e7 7f 3f f4 25 7f 3f ae 7c 80 3f 70 4b 7f 3f
       0.9996299 0.99667287 1.0038049 0.99724483
0000f0 63 ed 7d 3f 74 ce 7f 3f 8e d9 7f 3f d0 40 7e 3f
       0.9919035 0.999244 0.9994134 0.99317646
000100 f1 dc 7e 3f 9d f3 7e 3f f2 7a 80 3f ec 9a 7e 3f
       0.9955588 0.99590474 1.003752 0.9945514
000110 b2 6c 7f 3f f9 0e 80 3f 72 f0 7d 3f c2 61 7f 3f
       0.9977523 1.0004569 0.99195015 0.9975854
000120 c7 61 80 3f 23 fd 7f 3f 31 ba 7f 3f 46 c3 7f 3f
       1.0029839 0.9999563 0.9989348 0.9990734
000130 36 ef 80 3f 42 11 7f 3f e2 b3 7f 3f da ee 7f 3f
       1.0073001 0.9963571 0.99883854 0.99973834
000140 b9 63 7e 3f da 6b 80 3f 4e a0 7e 3f 2e 50 80 3f
       0.99370915 1.0032914 0.99463356 1.0024469
000150 6f e7 7f 3f 9d 1f 80 3f 2d 3c 80 3f 30 47 7f 3f
       0.99962515 1.0009648 1.0018364 0.99718
000160 98 43 80 3f 95 e7 7f 3f c6 20 80 3f c7 20 7f 3f
       1.0020628 0.9996274 1.0010002 0.9965939
000170 2a 18 7e 3f ac 15 80 3f 44 0a 80 3f c8 4a 7e 3f
       0.9925562 1.0006614 1.0003133 0.9933286
000180 36 e6 7e 3f 64 66 80 3f 40 9b 80 3f bf 70 80 3f
       0.99570024 1.0031247 1.0047379 1.0034407
000190 5f 00 80 3f 94 4e 7f 3f fa f9 7f 3f cd 4b 7f 3f
       1.0000113 0.99729276 0.9999081 0.9972504
0001a0 54 52 7e 3f f6 83 80 3f a5 59 7f 3f 42 6e 7f 3f
       0.9934437 1.0040271 0.9974616 0.99777615
0001b0 7a 6b 80 3f 32 84 80 3f 13 e2 7f 3f 4d 45 80 3f
       1.0032799 1.0040343 0.99954337 1.0021149
0001c0 38 e9 7f 3f 4b 8e 80 3f 60 bf 80 3f c8 af 7e 3f
       0.9996524 1.0043424 1.0058403 0.9948697
0001d0 da 34 80 3f 4d b6 7f 3f a8 6c 80 3f e9 2c 80 3f
       1.0016129 0.99887544 1.0033159 1.0013705
0001e0 2d cc 80 3f d0 0d 7f 3f 0d 5f 7f 3f 6c 0f 80 3f
       1.006231 0.9963045 0.9975441 1.0004706
0001f0 b3 4e 80 3f 42 f6 7e 3f 38 d9 7f 3f ea 1d 7f 3f
       1.0024017 0.9959451 0.99940825 0.9965502
000200 8e 06 7f 3f c7 1a 7f 3f fa 10 7e 3f cc 56 7e 3f
       0.99619377 0.99650234 0.99244654 0.9935119
000210 34 2a 80 3f 57 31 80 3f bb ab 7e 3f 01 d0 7e 3f
       1.0012879 1.0015057 0.9948079 0.9953614
000220 e1 88 7d 3f 60 af 80 3f 29 de 7e 3f 05 db 7f 3f
       0.99036986 1.005352 0.9955774 0.9994357
000230 fa 3a 80 3f 8d 66 7e 3f 61 0e 7f 3f 88 af 80 3f
       1.0017998 0.9937523 0.99631315 1.0053568
000240 61 61 7f 3f cb db 7e 3f fe 02 7e 3f 6f 16 7e 3f
       0.99757963 0.9955413 0.99223316 0.9925298
000250 6f 27 80 3f c2 39 80 3f 1a b1 80 3f b3 12 80 3f
       1.0012034 1.0017626 1.0054047 1.0005707
000260 03 0a 7f 3f 3e 8d 7e 3f 76 5b 80 3f e4 06 7f 3f
       0.9962465 0.9943427 1.0027912 0.9961989
000270 c4 74 7e 3f ae 01 80 3f aa 73 7f 3f 6a aa 7d 3f
       0.9939692 1.0000513 0.99785864 0.99088156

module.BN_layer.bias f4 [160]
000000 59 08 c7 3a b0 a7 27 bb 6b 72 be bb 1d 9e fd ba
       0.0015184983 -0.0025582127 -0.0058119795 -0.001934949
000010 6a 69 03 3b 98 02 58 bb 3a 0c 69 bb 81 51 35 bb
       0.0020051845 -0.003296053 -0.0035560266 -0.0027666988
000020 95 01 d8 bb e0 17 23 3b 79 36 07 ba be 23 ce 3a
       -0.0065919855 0.0024886057 -0.00051579584 0.0015727205
000030 66 0d a0 3a 42 dc 95 3a 21 5d 3e bb 03 ac 7f 3b
       0.0012211024 0.001143344 -0.0029047208 0.003901244
000040 cc 27 76 bb f3 bd b3 bb 6c 7a 56 3b 95 b2 86 3b
       -0.0037560342 -0.00548529 0.0032726778 0.004110644
000050 46 2c 53 bb 53 f9 df 3b 2b 43 d9 3b 64 db 26 bb
       -0.0032222434 0.0068351417 0.0066303215 -0.0025460357
000060 7c 9c 9f bb 30 d7 ee ba 0f d4 1c ba ac 82 86 3b
       -0.0048709493 -0.001822209 -0.0005982527 0.004104933
000070 80 0f 24 3b 4c cc 8c b9 7d f5 68 3a 56 3a 8a 3b
       0.0025033653 -0.00026855094 0.0008886678 0.00421838
000080 6a f5 89 ba b0 26 e6 bb 2f e6 87 3b d3 4b d7 ba
       -0.001052541 -0.007023655 0.004147313 -0.0016425796
000090 71 ae bd 3a 49 d0 05 3b e2 38 dc bb 72 82 51 b9
       0.0014471543 0.0020418337 -0.006720648 -0.00019980388
0000a0 db 17 6a 3b 73 e3 41 ba d3 29 6a 3a ad 60 83 38
       0.0035719785 -0.00073962583 0.0008932624 6.264574e-05
0000b0 65 b0 ce 3b c1 04 78 ba cf 71 8d 3a 5f 9a a8 bb
       0.006307649 -0.00094611576 0.0010791364 -0.0051453556
0000c0 c5 30 45 bb 68 97 bd bb 4b 45 ac 3b f8 2f 5d 39
       -0.0030088883 -0.0057858713 0.005257284 0.00021094072
0000d0 c8 51 a5 ba 51 51 4c b9 98 34 83 3b 1c ba 23 39
       -0.0012612874 -0.00019485249 0.0040040724 0.00015614223
0000e0 da 99 09 3b 94 46 86 b9 5e c0 a6 3a 7e 85 98 ba
       0.0020996244 -0.00025611056 0.0012722125 -0.0011636463
0000f0 71 c7 05 bc 99 7e 96 b9 15 29 e3 ba 23 7f c8 bb
       -0.008165226 -0.00028704552 -0.0017330969 -0.0061186715
000100 36 ba a4 bb 6a f4 75 bb 10 34 9b 3b 3f 3e 15 bb
       -0.005027081 -0.0037529715 0.004736431 -0.0022772697
000110 07 a6 05 bb 89 78 29 ba 62 55 c9 bb f0 04 23 bb
       -0.002039315 -0.00064647995 -0.0061442116 -0.002487477
000120 96 c5 96 3b 89 94 50 ba 4d 55 68 ba ab 78 af b9
       0.004601191 -0.0007956704 -0.00088628085 -0.00033468506
000130 18 af 0a 3c f3 8f 3a bb d1 d3 80 ba de 1f 63 3b
       0.008464597 -0.0028467148 -0.0009828751 0.0034656445
000140 cb f8 a8 bb ad c7 22 3b 9d e7 9e bb 0f 0d bf ba
       -0.0051566116 0.0024838254 -0.004849388 -0.0014576035
000150 66 11 08 36 64 b2 c9 3a c1 09 47 3b 1c ec 4b bb
       2.0275706e-06 0.0015388248 0.0030370804 -0.0031116074
000160 dd 19 56 3b 89 7f fe 3a 6e 8f c5 b9 ed 6d 26 bb
       0.0032669224 0.001941667 -0.00037681632 -0.002539511
000170 fd 80 d6 bb 6d 24 a7 b9 c7 8a 68 3a eb cc c4 bb
       -0.0065461383 -0.00031879861 0.0008870777 -0.0060058734
000180 9b 18 7f bb ed c5 28 3b c0 58 c7 3b c2 0c c3 3a
       -0.0038924578 0.0025752739 0.006083578 0.0014881121
000190 95 b3 35 ba 2b b3 2e bb 5b 7c fd 3a 24 e6 2e 3a
       -0.0006931362 -0.0026657085 0.0019339429 0.0006671867
0001a0 9f 18 bf bb d2 0f 81 3b e3 36 52 b9 1f 23 25 bb
       -0.0058317925 0.0039386535 -0.00020047608 -0.0025197936
0001b0 ec 83 87 3b 39 5d 6c 3a 64 57 c7 ba a2 e3 55 3b
       0.0041355994 0.0009016577 -0.001520854 0.00326369
0001c0 15 5f 9d 3a b7 2e 13 3b e6 5c ee 3b e0 17 18 bb
       0.0012006486 0.0022458264 0.007274258 -0.002320759
0001d0 4c 2b 08 ba 0c 75 26 bb 7a e0 1b 3b 13 ab 85 3a
       -0.000519444 -0.0025399355 0.0023784922 0.0010198079
0001e0 ca 0f d9 3b 6c f2 0f bb 67 8c 66 39 8a a1 39 3b
       0.0066241967 -0.0021964563 0.00021986813 0.0028325045
0001f0 0b 0d 8a 3b 76 21 a7 ba 8b a1 68 3a d4 f1 8a bb
       0.0042129806 -0.0012751061 0.00088741694 -0.004240254
000200 e2 0a e9 b8 b7 dd f2 ba c6 87 f8 bb 18 e3 81 bb
       -0.00011112333 -0.0018529211 -0.007584545 -0.0039638393
000210 52 9c ac b8 7e 67 3d 3b ee 0f 33 bb eb 87 db b9
       -8.230716e-05 0.0028900797 -0.0027322727 -0.00041872202
000220 33 6c 07 bc 05 13 64 3b 75 8b a3 ba 0c 85 05 3b
       -0.008265543 0.0034801376 -0.0012477475 0.0020373492
000230 48 96 9c 3b 03 19 14 bb da 85 21 bb c3 56 b3 3b
       0.004778657 -0.0022597916 -0.0024646432 0.0054729893
000240 a5 bf 2e ba fc 1b 1c bb 56 9f dc bb b5 ad 64 bb
       -0.00066661305 -0.002382039 -0.0067328615 -0.0034893577
000250 c9 da 8c b8 a4 2f d7 3a 3d 5c 83 3b b4 20 14 b9
       -6.716472e-05 0.0016417396 0.0040087984 -0.00014126563
000260 b8 25 5e bb db 4c 89 bb 33 fe 32 3a c5 11 34 bb
       -0.0033896994 -0.00419007 0.000682804 -0.0027476412
000270 d8 c8 d0 bb 09 c5 46 3a ff c4 a9 ba b7 ec e2 bb
       -0.0063715987 0.0007582461 -0.0012952386 -0.0069251913

module.BN_layer.running_mean f4 [160]
000000 7b 7c c7 bd f5 a1 ac 3c 08 bd da 3d 83 d9 90 3b
       -0.0974054 0.02107332 0.10680586 0.0044204607
000010 d1 bb ff 3b dd d3 a2 bd 1c d2 95 bd 9f b3 4c bc
       0.007804372 -0.07950566 -0.07315466 -0.012493997
000020 27 03 a8 bd 7e 33 1f bc 3e d0 ad 3a 07 c8 2e 3d
       -0.08203726 -0.009716867 0.0013260914 0.04267123
000030 86 f4 05 bc 44 57 89 3d 70 35 b7 3d be 64 87 3d
       -0.008175975 0.06706098 0.08945739 0.06611012
000040 d7 87 07 be fa 64 07 3d db 1a 3a 3e 1a 74 87 ba
       -0.13235413 0.033055283 0.18174307 -0.0010334284
000050 ff ea 29 3c c5 46 05 be a5 b9 ee bd b9 61 e9 bb
       0.010370969 -0.13015278 -0.11656503 -0.007122245
000060 00 28 06 be 89 a4 97 bc 29 2b 28 3b dc 5f 77 3d
       -0.13101196 -0.018511074 0.002566049 0.060394153
000070 e6 f8 02 bb 26 ac bc 3d 58 8a 0a 3e e8 c7 ac 3d
       -0.001998478 0.09212522 0.13529336 0.084365666
000080 95 79 19 be 73 5c 16 3d aa 1b 67 3e ef d4 73 bc
       -0.14987786 0.03670926 0.22569147 -0.01488231
000090 94 30 42 3c 2a c3 20 be 89 75 0e be c5 50 71 3b
       0.011852402 -0.15699449 -0.13912024 0.0036821824
0000a0 0d 4e 1d be 74 5b b1 bc 12 ad 13 3c f4 0a 8e 3d
       -0.15361805 -0.021650054 0.009013431 0.06935683
0000b0 62 45 1d 3a 00 a1 ca 3d 92 83 1d 3e 9c a9 af 3d
       0.00059994136 0.098939896 0.15382221 0.08577272
0000c0 76 ec 20 be f6 f5 27 3d 8c 0e 7f 3e 30 1f 08 bd
       -0.15715203 0.04100605 0.24907893 -0.033232868
0000d0 46 3f 49 3c 41 53 31 be 53 79 19 be 53 47 5e 3c
       0.012283152 -0.17316915 -0.14987688 0.01356681
0000e0 db 3b 28 be 7a 5a c6 bc d7 37 83 3c 2b e3 99 3d
       -0.16429083 -0.024213064 0.016017837 0.07514032
0000f0 27 74 81 3b df 43 d2 3d 74 87 23 3e 07 ab ad 3d
       0.003950614 0.10266852 0.1596964 0.084798865
000100 e4 3b 23 be 7a 12 1f 3d 21 cb 85 3e e5 0c 31 bd
       -0.15940815 0.03883598 0.26131538 -0.043225188
000110 3f 8c 55 3c c5 0d 3d be db bd 22 be 95 9b ed 3c
       0.013033926 -0.18462284 -0.15892737 0.029004851
000120 c3 95 2c be 48 75 bc bc f8 b9 ec 3c 6e 12 a1 3d
       -0.16854005 -0.023005143 0.02889727 0.07864843
000130 31 24 b1 3b 35 d9 d1 3d fc b6 27 3e 7b c3 a4 3d
       0.0054059257 0.10246507 0.16378397 0.080450974
000140 65 42 23 be f2 a0 1f 3d 2c 70 89 3e e9 f9 30 bd
       -0.15943296 0.03897185 0.26843393 -0.043207083
000150 62 95 69 3c f3 ee 44 be 5a 14 21 be 5a 29 fc 3c
       0.014256807 -0.19231777 -0.1573042 0.030781437
000160 e2 d6 2b be ce 7b c5 bc c0 4c e6 3c 3f ba 97 3d
       -0.1678119 -0.024106886 0.02811277 0.074085705
000170 14 c1 11 3c 4e d7 cb 3d 45 05 2b 3e 8e dc a6 3d
       0.008896131 0.099531755 0.16701229 0.08147536
000180 c8 ca 21 be bc 2e 25 3d 39 68 87 3e 70 8e 30 bd
       -0.15800011 0.040327772 0.26446703 -0.04310459
000190 97 3a 64 3c bf cc 4b be 5e b4 1a be dc 3a 2a 3d
       0.0139299845 -0.19902323 -0.15107867 0.04156004
0001a0 6a ca 32 be cc 96 e1 bc 9b 31 0d 3d aa fe 96 3d
       -0.17460027 -0.027537726 0.034471136 0.07372792
0001b0 45 1e 7c 3c 81 42 ca 3d 46 2d 29 3e 5b ff a0 3d
       0.015388076 0.09875966 0.16521177 0.07861205
0001c0 ed 3f 23 be c3 3f 1b 3d 94 c5 89 3e c2 55 4b bd
       -0.15942355 0.037902605 0.26908553 -0.049642332
0001d0 fd 9f 26 3c 0c 53 4d be c5 b3 1e be af 39 34 3d
       0.01016998 -0.20051211 -0.15498264 0.044000324
0001e0 fe a4 31 be 75 78 fb bc d6 79 0e 3d 18 28 89 3d
       -0.17348096 -0.030697087 0.03478416 0.066971004
0001f0 b9 94 7e 3c 80 94 c6 3d 60 e8 2b 3e 71 c7 a6 3d
       0.015538388 0.09696293 0.16787863 0.08143509
000200 3a e8 24 be 31 f5 04 3d ff 81 8a 3e b7 50 62 bd
       -0.16104212 0.032460395 0.27052304 -0.055252757
000210 f2 8e 26 3c a9 38 4e be ec ce 20 be d4 8e 4a 3d
       0.010165917 -0.20138802 -0.15703934 0.049452618
000220 89 b8 2c be a4 bd d7 bc aa 87 1a 3d 6c ee 8f 3d
       -0.1686727 -0.026335545 0.037727036 0.07027897
000230 2a 5c 87 3c 2b 97 c1 3d 12 b2 2f 3e a2 0c ac 3d
       0.01652344 0.09452661 0.17157772 0.08400847
000240 6f c5 26 be 1b 66 0b 3d 64 3d 8c 3e 46 b3 6c bd
       -0.16286252 0.034032922 0.27390587 -0.057788156
000250 42 83 03 3c 86 82 50 be 8f ac 1e be d9 0f 4b 3d
       0.0080269 -0.2036229 -0.15495513 0.04957566
000260 63 ce 2e be 18 7c f8 bc 05 7a 11 3d 5f 1e 85 3d
       -0.17070918 -0.03033261 0.035516758 0.064999335
000270 cb 75 ac 3c 1c 96 be 3d a9 c7 30 3e c8 ec b1 3d
       0.021052262 0.09305975 0.17263664 0.086877406
