Stage2_pickedmodel/Stage2_LSTMAgegen_BDSZ/model_epoch_163.pth (torch, 86647 bytes, 14 tensors)

module.LSTM_layer.weight_ih_l0 f4 [64, 256]
000000 dc 20 98 bc f6 ad 3e be fa 6d 1f 3e df 93 e1 3c
       -0.018570356 -0.18621048 0.15569296 0.02753633
000010 44 13 7b 3e 9f e6 47 3d 40 f6 c8 bc 20 d2 ed 3d
       0.24519068 0.04880392 -0.024531484 0.11612344
000020 07 24 62 bc 11 80 11 be 21 3b 74 3e 1c bc 41 3e
       -0.013802535 -0.1420901 0.23850681 0.18919414
000030 42 19 32 3d e9 b1 17 be 9a 01 0e 3e 0e fb 5d be
       0.04348112 -0.14813961 0.13867798 -0.21677801
000040 ae c2 ec bd fe dd 3c 3d 1b 93 f9 bd 5e bf 21 be
       -0.1156057 0.046110146 -0.12186261 -0.15795657
000050 e4 a6 ec 3d 85 f2 30 3e c6 e4 1e be e6 2c 6d be
       0.11555269 0.17280014 -0.15516958 -0.23161659
000060 8a 32 76 3e b1 6e ba bd b7 eb b7 bb ef f4 07 be
       0.24042717 -0.09103144 -0.005612816 -0.13277029
000070 1d 99 3b be b7 b3 e8 bc 26 08 0c be b4 73 3a 3e
       -0.18320127 -0.028406007 -0.13674983 0.182082
000080 d8 f2 a6 3d be 08 25 3e ae c1 3f 3e 66 e4 57 3e
       0.081517875 0.16116616 0.18726227 0.21083221
000090 39 35 16 bc 97 53 2d 3d 79 ae ec bd f6 6d 6e 3e
       -0.009167963 0.042316046 -0.115567155 0.23284134
0000a0 0f 3c 61 bd fc ff 70 be f5 ac b6 3d eb 9c 6c bd
       -0.054988917 -0.2353515 0.08919708 -0.057766836
0000b0 bf 23 76 3e dc 89 55 3e 99 04 7e 3c 06 87 15 be
       0.24037074 0.2085337 0.015504026 -0.14602289
0000c0 d3 2b 9b 3d 53 0e 1b 3e 88 0b 4b 3e 44 5c 7c 3d
       0.07576718 0.15142183 0.19828618 0.06161143
0000d0 e5 a1 2e be b6 d9 10 be 81 dc d2 bd b4 4f 86 3e
       -0.17053945 -0.1414555 -0.10295964 0.26232684
0000e0 4f 2d 50 3e 16 5d 07 be c3 d4 db 3d 17 a1 7b bd
       0.20329784 -0.13219103 0.107339405 -0.061432924
0000f0 c1 89 52 be 47 6d 2d be 33 2a 7d 3e a1 4a 85 bc
       -0.20560361 -0.16936217 0.24723129 -0.016270937
000100 66 35 d1 3d 10 4a 6f 3d f2 99 f2 bd 16 f5 db 3d
       0.10215263 0.05842024 -0.11845769 0.10740106
000110 13 a9 27 bc c0 a0 6e bd 84 87 eb 3d 47 38 57 3e
       -0.0102331815 -0.058258772 0.11500457 0.21017562
000120 0b d8 bb bd 54 c2 5e be 83 50 4f bd a1 f6 3a be
       -0.09172066 -0.21753818 -0.05061389 -0.18258144
000130 e3 e6 4a be e5 65 5f 3e d4 46 6c be c0 24 7b 3e
       -0.19814639 0.21816213 -0.23073894 0.24525738
000140 01 9e 62 be 02 c8 af 3c ad 49 13 bd 89 30 1a be
       -0.22130586 0.021457676 -0.035958935 -0.15057577
000150 8e 50 2d 3d ce ad 5c be f2 d5 d2 bc 64 9e 63 be
       0.04231315 -0.21550676 -0.025736783 -0.2222839
000160 cf 7a f6 3c c5 11 16 be 37 bd 5a be 5c 61 b8 bd
       0.030087857 -0.14655216 -0.21361242 -0.09002945
000170 6e 54 4c 3e 1b cd 44 be 00 fb b9 bd ae 5a 66 3e
       0.19954082 -0.19218867 -0.090810776 0.22495529
000180 bd 52 17 be 30 50 b5 3d 99 16 4c be 49 cc f6 3d
       -0.14777656 0.08853185 -0.19930495 0.12050683
000190 51 ca 00 3e 23 0f 0f bd 7c c4 87 3e 9d 99 cf bd
       0.12577178 -0.034926545 0.26517093 -0.10136721
0001a0 d4 b2 21 be 3b 4e 43 be c4 8c 90 3c 8a 84 19 3e
       -0.15790874 -0.19072811 0.017645247 0.14991966
0001b0 15 e6 29 3d 68 3d 0a be 22 73 76 3d d7 7c 20 3e
       0.04147919 -0.13499987 0.060168393 0.15672623
0001c0 7b 79 61 3b a8 f0 c4 3d 57 93 6d 3e 0f 32 b5 3d
       0.0034404683 0.09616214 0.23200737 0.088474385
0001d0 73 5c 44 bc cc 8b c7 3d 9b 08 47 3c 59 a7 d1 3d
       -0.011984932 0.09743461 0.012148048 0.10236997
0001e0 6a 05 b8 bc 6c fe 5d be 87 f7 45 bd 9a e6 04 3e
       -0.02246352 -0.21679085 -0.048331764 0.12978593
0001f0 e4 c3 0a 3e 26 12 ad bd b1 c0 52 3e d6 dd 2d bc
       0.13551289 -0.08450727 0.20581318 -0.010611972
000200 66 c4 65 bd 12 83 64 be f8 a9 bf bd 4d 94 dc 3b
       -0.056095503 -0.22315624 -0.09358591 0.006731546
000210 c3 60 d7 bd 33 55 26 3e 60 59 4d 3e ee 20 d9 3d
       -0.10516503 0.16243438 0.20053625 0.10601984
000220 8b ae 98 bd e4 db 36 be 00 b2 58 be a9 32 48 3d
       -0.074551664 -0.17857319 -0.21161652 0.04887644
000230 39 4a ac bc 21 89 82 bd 61 7c 83 3e f7 98 d5 bc
       -0.021031486 -0.063738115 0.2568083 -0.026073916
000240 6d ab 6b 3e 60 7a 78 3e 1c cd 03 3e 73 20 51 be
       0.23014612 0.24265432 0.12871212 -0.20422535
000250 86 3e a0 bd 3e 72 96 bd c7 52 fa bd 1d 7c 5d 3c
       -0.078244254 -0.07346009 -0.1222282 0.01351836
000260 53 4c 40 be 36 e7 8b bd b2 ad 5a be f3 dd 16 3e
       -0.18779115 -0.06831209 -0.21355322 0.14733104
000270 ce d7 87 3e 0f 52 25 bd 12 5a 27 be e7 08 b4 bd
       0.26531833 -0.04036146 -0.16342953 -0.087907605
000280 86 b6 db bd 4a 53 e8 3c e5 70 ed 3d 64 74 12 3e
       -0.10728173 0.028360028 0.115937985 0.14302212
000290 31 18 40 be 1c 6d ae bb 1b 5a c6 3d 87 07 76 3d
       -0.18759228 -0.0053230654 0.09685155 0.060065772
0002a0 58 1c f6 bc fc 1a 59 3d 3e 11 eb bd e4 2f 69 be
       -0.030042812 0.05300425 -0.11477898 -0.22772175
0002b0 5a 1f d8 3c 1c 37 0b 3e 99 d6 8f bd 88 ac 5d 3e
       0.026382137 0.13595241 -0.07023353 0.21647847
0002c0 9e ad ad 3d cf 4f eb bd ab a4 36 3e 93 d1 86 3d
       0.084803805 -0.11489832 0.17836253 0.06582942
0002d0 61 bb 0f be 44 2b eb 3d 72 a1 1c be a8 af 30 be
       -0.14036323 0.11482862 -0.15295961 -0.17254508
0002e0 a3 14 c1 bd f0 67 60 3e 7b 0a d5 3d f1 a2 41 be
       -0.09427764 0.21914649 0.104023896 -0.18909813
0002f0 24 0d 82 3d 66 7e 8c 3d e6 d3 e7 3d 2d 4d 71 3e
       0.063501626 0.06860046 0.11319713 0.23564596
000300 05 9e 20 3c 7b 8c 3a be 90 8d 4d be b9 ab 87 3e
       0.0098033 -0.18217652 -0.20073533 0.264982
000310 37 65 0f 3d 87 06 a2 bd 4b e2 1f be 0a 0f 37 3e
       0.035008635 -0.07911401 -0.15613668 0.1787683
000320 ad 2f 14 be b3 1f 0a be 75 73 27 3d 92 0e 2b bd
       -0.14471312 -0.13488655 0.040881593 -0.041761942
000330 83 39 cf bd 3b 53 21 3e 1f 49 64 3e 2e 27 9d bc
       -0.10118391 0.15754406 0.22293518 -0.019183721
000340 3c 0b 2e 3e 3d ac 10 3e 01 91 f2 bc ba 03 5d 3e
       0.16996473 0.14128204 -0.029610159 0.21583453
000350 8d c1 75 be 50 19 2c bd f9 d1 92 3d 8f 5d 47 be
       -0.23999615 -0.042016327 0.07168955 -0.19469284
000360 d3 88 4f be 18 e9 61 be 95 d0 57 3e 16 ef ef bd
       -0.20267038 -0.22061574 0.21075661 -0.11715524
000370 e3 95 20 3e 94 14 93 bd ea 39 f7 3c 95 da 7f 3e
       0.15682177 -0.07181659 0.030178983 0.24985726
000380 51 ea cd 3d 65 a4 49 be 2c dc 6c 3e 62 7f 37 3e
       0.10054458 -0.19691618 0.23130864 0.17919686
000390 d0 0b 91 3d d4 65 20 bc 55 3e 13 3e 80 e5 cf bd
       0.07082331 -0.009789903 0.14379247 -0.101511955
0003a0 fb 9d e1 3c 57 d8 88 3d 9f f8 59 3e c0 49 6c 3c
       0.027541151 0.066818886 0.21286248 0.01442188
0003b0 8f e4 8f bd 56 d2 da 3c f1 c9 42 bd a1 0e 44 be
       -0.07026016 0.026711624 -0.047555868 -0.19146205
0003c0 aa 53 09 be 43 16 fb bd fc de 9d 3d 89 f1 e0 3d
       -0.13410822 -0.122601055 0.077085465 0.10983569
0003d0 18 3a 10 3d 21 fb 63 be 9b 50 ad bc 69 22 1c be
       0.035211653 -0.22263767 -0.0211566 -0.15247501
0003e0 57 df f5 bd b9 a2 87 3e 1f 4b f1 bd e2 d6 da bc
       -0.12005489 0.26491335 -0.11781906 -0.026713792
0003f0 b1 4a 65 3d 4f 13 03 3e 0e 8b 0d be 2a a7 a0 3c
       0.055979434 0.12800334 -0.13822576 0.01961096

module.LSTM_layer.weight_hh_l0 f4 [64, 16]
000000 bf b8 46 be 3f 8d 6a 3e 0f d6 a2 bd d7 09 26 3e
       -0.19406413 0.22905444 -0.07950985 0.16214691
000010 3a 75 1b be 08 e1 76 bd e3 49 72 be 2b 5f 5b 3e
       -0.15181437 -0.0602732 -0.23660998 0.21423022
000020 4e 52 92 3d 81 b8 eb 3d 33 98 2b 3e 3f 17 cf bc
       0.071446046 0.11509801 0.16757278 -0.02527964
000030 b7 85 d2 3d 90 ce 33 3e 34 40 33 3e 86 73 b9 3c
       0.1027941 0.17559266 0.1750496 0.022638094
000040 71 d0 ae 3d 7d 8b 29 3e c5 2d 54 3e d2 54 b2 3d
       0.08535851 0.16557117 0.20720585 0.087075844
000050 f9 43 0b 3e 80 c0 2e 3e 3f aa 82 bc bb c1 56 bd
       0.13600148 0.1706562 -0.01595032 -0.05243085
000060 18 4d 4b 3e 3f 9b f9 3d a6 a1 41 be 1e de 8b 3d
       0.19853628 0.12187814 -0.1890932 0.06829475
000070 cf 36 9a bc 10 40 66 be 6d 47 0f 3e fa 18 43 3d
       -0.018824963 -0.22485375 0.1399209 0.04763124
000080 7d 43 51 be 24 34 7c be 3d 1a b9 3d eb f8 28 3e
       -0.20435901 -0.24629265 0.09038208 0.16501205
000090 c7 22 d4 bc e6 63 0c be 1d 50 6a be 53 10 65 be
       -0.02589549 -0.13709983 -0.22882123 -0.22369508
0000a0 e1 e5 22 bc 69 4a 70 3b 99 ea 25 3e 53 43 46 3c
       -0.009942503 0.0036665446 0.16202773 0.012101012
0000b0 d1 80 11 3e 5e 4c 6c 3e f3 63 00 3d 83 4d 4f bd
       0.14209296 0.23076007 0.03134532 -0.05061103
0000c0 95 c4 b7 3d d9 ac 6a be 6e b3 87 3c ed df 17 be
       0.08973042 -0.22917499 0.01656505 -0.14831515
0000d0 9a 98 e7 3d 8a 41 54 3e f6 77 6c 3e cd 2c eb bc
       0.11308403 0.20728126 0.23092636 -0.028707886
0000e0 96 65 e5 bd 1a ff 20 be 21 73 72 3e fc 11 7b bd
       -0.112010166 -0.15722314 0.2367673 -0.061296448
0000f0 8b e4 52 be 0c b1 40 3d 03 59 9d 3d ef 13 41 3d
       -0.20594995 0.047043845 0.07682993 0.04713815
000100 3c 0b ae bd c3 39 65 be e5 59 d0 bd 2e ac f2 bd
       -0.084982365 -0.22385316 -0.10173396 -0.11849247
000110 ca 67 36 3e 72 0e 80 3e 3e de 2d bb 54 09 42 be
       0.1781303 0.2501102 -0.0026530172 -0.18948871
000120 d6 9c 5d bd 69 d4 eb bd c1 f2 65 be a1 47 45 3e
       -0.05410465 -0.115151234 -0.22455885 0.19265606
000130 77 e5 4a 3d 0f 57 b3 bd 17 7d 28 3d 8c de f0 3c
       0.04953524 -0.087568395 0.04113492 0.029402994
000140 f4 65 29 3e 2d fd 0e be b7 4d 36 be 3b 94 eb bd
       0.16542798 -0.13963766 -0.17803083 -0.11502882
000150 18 a2 03 be 3b bd ba 3d b9 5b 53 3e 18 3a 89 3d
       -0.12854803 0.09118124 0.20640458 0.06700534
000160 9c c0 42 be 57 ea 70 bd 53 19 7b be 9e 63 1e be
       -0.19018787 -0.058817234 -0.24521379 -0.15467688
000170 61 d4 1a bd f0 24 b7 3c 5f 71 bf bc 42 9b 39 be
       -0.037800197 0.02235648 -0.02336949 -0.18125632
000180 f1 be 25 bc b6 aa 49 be 32 51 12 be 7e 5a 2e 3e
       -0.010116325 -0.19694027 -0.14288786 0.17026708
000190 cf c3 2d 3e b0 b5 9e bd b9 3f 1d 3d e0 9f 51 be
       0.16969226 -0.07749498 0.03839085 -0.20471144
0001a0 a8 db 6e 3e e0 37 ff bd cb c5 8a 3d cc 72 48 3e
       0.2332598 -0.12461829 0.06776007 0.19575042
0001b0 a7 a3 78 be 64 aa 93 3d 66 70 47 3e 10 a1 44 3c
       -0.24281178 0.07210234 0.1947647 0.012001291
0001c0 42 be 74 3d 3c 44 a1 3b e4 4b 4f be f9 e1 07 be
       0.059751756 0.0049214642 -0.20243794 -0.13269795
0001d0 2f 35 5c 3b c9 b9 21 bd 97 f1 26 3e 19 20 46 3e
       0.0033601036 -0.03948382 0.16303097 0.19348182
0001e0 07 e2 28 be da 32 81 3e dc a6 a2 3d 08 e3 97 bd
       -0.16492473 0.2523411 0.07941982 -0.0741635
0001f0 37 ba 11 3e 79 58 5c be a1 49 24 3e 0d 75 59 3e
       0.14231192 -0.21518125 0.16043712 0.21236058
000200 27 db a5 bd 1d fb 16 be 10 93 9a bd ba 2d 66 3e
       -0.080984406 -0.1474423 -0.07547581 0.22478381
000210 fc 54 08 bd 60 ca f1 bc e6 17 58 be 9d 23 0a bd
       -0.033284172 -0.029515445 -0.21102867 -0.03372537
000220 aa 79 3a 3d ba 8a 34 be 69 c8 0c be b6 aa 41 3e
       0.045526184 -0.17631045 -0.13748325 0.18912777
000230 87 8b 08 be a2 46 22 be 6a 8c 94 3d b9 be f9 3d
       -0.13334475 -0.15847257 0.07253344 0.121945806
000240 90 9c 46 be da d0 ac 3d d0 8b 41 be b5 5c 42 be
       -0.19395661 0.08438273 -0.1890099 -0.18980677
000250 82 68 65 3e 14 12 03 3d 8c 81 98 bd a0 ce 08 3e
       0.22403148 0.031999663 -0.07446584 0.13360071
000260 54 14 58 bd 9b d6 51 bc ff 88 0d be 62 df 69 3c
       -0.05275376 -0.012807514 -0.13821791 0.01427445
000270 f0 14 10 be d8 46 6a 3d a8 1e 0b be b2 49 11 be
       -0.14070487 0.057196468 -0.13585913 -0.14188269
000280 b4 cb 2f be 1c ea 1d bd 9b 16 3f bd ff de 5a be
       -0.1716755 -0.038553342 -0.046652418 -0.21374129
000290 3d 9c 90 3b 75 46 06 be 13 04 d8 3d c0 0c 21 3e
       0.0044131563 -0.13112815 0.10547652 0.1572752
0002a0 59 1f 17 3e 5d c2 26 3e c4 46 64 bd 1d db 52 3b
       0.14758052 0.16285081 -0.05573155 0.0032174059
0002b0 9f 7e 47 be da c1 3e 3e 7a 72 74 be 47 51 2f be
       -0.19481896 0.18628636 -0.23871794 -0.17120849
0002c0 42 ec 2d be ad 06 aa bd 80 f2 7b be 84 c9 86 3d
       -0.16984656 -0.083020546 -0.24604225 0.06581405
0002d0 f3 4d 3d be a1 2b 77 bd 11 4e 68 3e d0 da 23 3e
       -0.18486767 -0.060344342 0.2268603 0.16001439
0002e0 d6 a4 30 3e 48 2b f6 3c a8 41 1c 3e cb bd d6 bc
       0.1725038 0.030049935 0.15259421 -0.026213547
0002f0 b8 b1 ef bd f9 c5 34 3e 82 33 4b bc ca 49 56 bd
       -0.11703819 0.17653646 -0.012402417 -0.052316464
000300 fa e7 56 be 98 31 61 3d 9c ba 88 3d b2 a1 63 3d
       -0.2098693 0.054978937 0.06676218 0.055574127
000310 45 f7 22 3e 34 bd 9b bd f2 04 53 3e 61 74 3f 3d
       0.15914638 -0.07604447 0.20607355 0.046741847
000320 87 e2 4b be 15 a2 51 3e a5 1b 54 3e 52 c9 f5 3d
       -0.19910632 0.20471986 0.2071367 0.120012894
000330 01 ac de 3c bd 9e 07 be b9 9a 4e be 8a 22 37 3d
       0.027181627 -0.13244148 -0.2017621 0.044710673
000340 89 b4 47 3e b8 d2 65 3e 9b ca 5f be 00 3e 32 be
       0.19502462 0.22443664 -0.21854632 -0.17406464
000350 b3 5f 5c be ca 54 0f 3e ec 4d a3 3c 4b 79 61 3e
       -0.21520881 0.13997188 0.019934617 0.22018926
000360 88 e9 ed 3d 8a 3c aa bd 50 a2 70 3e 59 17 6c be
       0.11616808 -0.08312328 0.23499417 -0.23055781
000370 c2 4a ad 3d 55 ce 0e be 2f cc 44 3e b0 f9 44 3c
       0.084615245 -0.13945897 0.19218515 0.012022421
000380 2a ff dc bd d5 69 d2 3d fe ab 7d be ec 88 78 bd
       -0.10790856 0.10274092 -0.24772641 -0.060677454
000390 64 93 ae 3d b2 d4 08 3e b4 c1 0e 3e da 09 b9 bd
       0.08524206 0.13362387 0.1394108 -0.09035082
0003a0 70 7d a7 3d 78 b6 0b 3e 36 33 c6 3d 9c c9 70 3e
       0.08178222 0.13643825 0.096777365 0.23514408
0003b0 50 df 56 3b 87 b0 3a be 0c 2c 09 be e7 e6 12 3d
       0.0032786913 -0.18231402 -0.13395709 0.035864737
0003c0 5a bd 67 3e 2f 30 84 bc fe fe 35 bd b7 87 45 be
       0.22630826 -0.016136257 -0.044432633 -0.19290052
0003d0 7d 05 99 3d a5 e3 05 be 89 85 55 3e 8d 87 0b 3e
       0.0747175 -0.13075121 0.20851721 0.13625927
0003e0 24 f6 13 be 12 6a f4 3d 72 af 2a 3d 02 7b 37 be
       -0.14449364 0.11934294 0.041671224 -0.17918018
0003f0 f6 7f a3 3d 08 9e d6 3d 60 a6 c4 3c f9 01 3e be
       0.07983391 0.10479361 0.024005115 -0.1855544

module.LSTM_layer.bias_ih_l0 f4 [64]
000000 55 f9 31 be 7b 31 e2 bd 01 0a 48 be c5 82 d5 ba
       -0.17380269 -0.11044594 -0.19535066 -0.0016289583
000010 2d ea 20 3d b6 33 c0 bd 14 da 83 bc 4f 97 c5 bd
       0.039285827 -0.09384863 -0.016095199 -0.096480004
000020 7a 50 1e 3e c7 96 25 be e4 4a 34 bd 97 64 1d be
       0.15460387 -0.16170798 -0.044016734 -0.15370403
000030 60 68 24 3e 82 76 26 3e fb 32 a5 bd ca 5c 54 3e
       0.16055441 0.16256145 -0.080663644 0.20738521
000040 2d 3b 3e 3d b5 83 f9 bd 58 1c 6c be 09 07 03 3e
       0.046443153 -0.12183324 -0.23057687 0.12795652
000050 cb 74 e9 3d a1 1d 51 3e 16 ba 50 be b2 a1 29 3c
       0.113992296 0.20421459 -0.20383486 0.010353493
000060 5c e0 ec bd 18 9c c0 3d 38 3d 07 be 17 77 70 3d
       -0.11566231 0.094047725 -0.13206947 0.058707323
000070 41 43 fa bd f2 45 c0 bd 1b ae 0e 3e 9c 42 3d 3d
       -0.12219859 -0.09388341 0.13933603 0.0462061
000080 f0 e8 35 be 7c 0b 6e be 76 00 df 3c f2 9a 73 be
       -0.1776464 -0.23246568 0.0272219 -0.23789576
000090 0f 40 1a 3e dc 05 b2 3d 26 a2 f0 3d 17 ff 1f bc
       0.15063499 0.08692524 0.11749677 -0.009765408
0000a0 f2 dc 59 3e 89 8b f7 bd 06 89 9d bd 0c b0 63 3e
       0.2127569 -0.12087161 -0.07692151 0.22235125
0000b0 0a d1 32 be 7a 18 c6 3d 94 65 08 be bc 38 17 be
       -0.17462555 0.09672637 -0.13319999 -0.14767736
0000c0 26 5d 76 bd 9a a1 35 be ca 12 f0 bc 91 3e 64 be
       -0.060147427 -0.17737427 -0.029305834 -0.22289492
0000d0 cd fc f3 39 95 15 d1 bd 98 64 1d be 55 22 ac 3c
       0.00046536923 -0.102091946 -0.15370405 0.021012465
0000e0 aa 88 50 3e 6c d1 4a 3d ef 1d 23 ba 46 8b 03 3e
       0.20364633 0.049516127 -0.0006222417 0.12846097
0000f0 c1 c1 7e 3d da 56 4b 3d 82 e3 30 be cc 58 ee bd
       0.062196497 0.049643375 -0.17274287 -0.116380304

module.LSTM_layer.bias_hh_l0 f4 [64]
000000 5e 9e 3b 3e 2a 2d 48 be f7 58 53 be 33 a9 57 3e
       0.18322131 -0.19548479 -0.20639406 0.21060638
000010 e0 30 0e be 92 f2 6f bb db 89 d7 bd 13 31 be bd
       -0.13885832 -0.003661309 -0.10524341 -0.09286704
000020 3b a8 29 be d3 4d 19 3e 46 4c 30 be c4 cb 2c 3e
       -0.16568081 0.14971094 -0.17216596 0.16874605
000030 b5 3a 79 bd 78 bd 51 be be c7 23 3e f2 d1 da bd
       -0.060847003 -0.20482433 0.15994164 -0.10684575
000040 56 be f5 3d 63 6c 36 3e 5e d6 12 3c 96 5c 61 3e
       0.11999194 0.17814784 0.008962242 0.22007975
000050 0f f6 50 3e 4f f3 45 3e 0c 5a a9 3d 8b 7a 09 be
       0.20406364 0.19331096 0.08269128 -0.13425653
000060 fd 33 17 be 5e 1b d6 ba 13 b4 d8 3d 10 1c 4a bd
       -0.14765926 -0.001633506 0.105812214 -0.04934317
000070 c1 07 66 3e cf 85 17 be ac cb c5 bb ab fa 29 be
       0.22463895 -0.14797138 -0.0060362425 -0.16599528
000080 cd 99 56 3e 5d 15 7a 3d e9 d8 c2 bd 76 f8 20 be
       0.20957108 0.06105553 -0.095140286 -0.1571978
000090 7c 34 42 bd 5c 81 83 bd 06 4f 88 bd e1 d4 6f 3c
       -0.047413334 -0.06421158 -0.066556975 0.014638157
0000a0 ea 52 4a be 58 71 9d 3d 3d a2 49 3e a5 a9 00 3d
       -0.19758192 0.07687634 0.19690795 0.031411786
0000b0 e0 60 64 bd 69 db 53 be 4d 92 1e 3e 46 3f 0e 3e
       -0.05575645 -0.20689167 0.15485497 0.13891324
0000c0 21 31 c3 3d 56 4b 22 bd 40 9c c4 bd a5 5e 1c 3e
       0.09530855 -0.039622627 -0.09600115 0.15270479
0000d0 ca e9 82 3d 02 5c 3e be 25 31 aa 3d 04 7d 34 be
       0.06392248 -0.18589786 0.08310155 -0.17625815
0000e0 a5 07 2c 3e 4a f2 e6 bd aa ca 97 bd d3 b1 76 3e
       0.16799791 -0.11276682 -0.07411702 0.24091272
0000f0 0b 0c a6 3d 39 93 3d 3e 4d 53 17 3e 95 91 1b 3e
       0.08107766 0.18513192 0.1477787 0.15192254

module.LSTM_layer.weight_ih_l1 f4 [64, 16]
000000 07 e8 63 be 44 15 24 3e 2d 22 48 be 0c 36 4f be
       -0.2225648 0.16023737 -0.19544287 -0.20235461
000010 51 62 a3 3d 69 6b 02 3d 79 1f 9e bb 3e 4d d6 3d
       0.07977737 0.031840716 -0.004825529 0.104639515
000020 54 0b 14 be d6 1a 2f be b1 14 72 be a8 b0 e5 bc
       -0.14457446 -0.17100081 -0.23640706 -0.028038338
000030 ca 59 61 3e 33 48 47 3d 93 f8 c4 bc 06 8c 71 be
       0.22006908 0.04865284 -0.02404431 -0.23588571
000040 82 18 8c bb 8b a0 4a be ff a9 ca bd 64 e6 36 be
       -0.0042753825 -0.19787805 -0.098957054 -0.17861325
000050 9c 09 48 bd 9f 95 02 3e 7b d6 02 3d c6 fb 54 be
       -0.04883729 0.12752388 0.031942826 -0.20799169
000060 db 74 7e 3e d9 4c 5f be 6c 1f 1b be 2e ad 1f be
       0.24849264 -0.21806659 -0.15148705 -0.15593407
000070 0d f9 28 be 37 98 64 3d 93 a1 92 3d b8 5d e1 bd
       -0.16501255 0.055809226 0.07159724 -0.110042036
000080 31 a4 08 be d4 32 28 bd 70 cf 35 be d2 27 2b 3e
       -0.13343884 -0.0410641 -0.17754912 0.16714409
000090 c4 37 16 be 16 45 a2 3c 67 0e 73 be 62 a5 d6 3d
       -0.1466971 0.019808333 -0.23735963 0.10480763
0000a0 3a 69 f1 bd 41 cb fa 3d 35 28 40 3e 06 c1 7c 3b
       -0.117876485 0.12245799 0.18765338 0.00385672
0000b0 1a f0 77 3e 21 63 63 3d 20 c1 c1 bd 0c 03 63 3e
       0.24212685 0.05551446 -0.09460664 0.22169131
0000c0 48 3c d7 bd ec fd 13 3d 5a 1a 13 3e ce 60 47 3e
       -0.105095446 0.03613083 0.14365521 0.19470522
0000d0 70 f1 79 be dd cf 81 be 83 35 1a 3d 40 ab 3c be
       -0.24408507 -0.253539 0.03764869 -0.18424702
0000e0 87 34 60 bd 3e 7e 7c be 3e 6e 2e be 5f 58 e8 bd
       -0.054737594 -0.24657533 -0.17034242 -0.113449804
0000f0 6f 53 39 3e 15 a2 1d 3e 1c b0 37 3e 65 b9 1f 3e
       0.18098234 0.1539386 0.17938274 0.15598066
000100 d9 c4 ac bc 03 d4 b9 bc 97 ed 36 be d9 84 20 3e
       -0.021089958 -0.022684103 -0.17864071 0.15675677
000110 04 7f f0 bd ee 41 0b be 82 5c 70 3e 73 d0 70 3e
       -0.11742976 -0.13599369 0.23472789 0.23517017
000120 27 67 1b bc 63 ed 1d 3e 06 4b 54 3e c0 26 64 3e
       -0.009485043 0.15422587 0.20731744 0.22280407
000130 a0 23 67 be 0a 16 22 be a5 27 81 bd 74 f6 a9 3d
       -0.22572184 -0.1582872 -0.0630639 0.0829896
000140 8f 24 de bd 8d 7b 3c be 60 aa f7 3d 9e 78 63 3e
       -0.10846817 -0.18406506 0.12093043 0.2221398
000150 d3 9e 86 bd 17 4c 07 be 01 9f 18 3e 0a 76 0a be
       -0.06573262 -0.1321262 0.14904405 -0.13521591
000160 5b 7c 65 3e a1 3d 7a bd 07 0a 2c 3e a7 51 32 be
       0.22410719 -0.06109393 0.168007 -0.1741396
000170 c9 82 b0 bd cf ac 46 3e 97 41 2a 3e d4 ee 77 3e
       -0.08618695 0.19401859 0.16626583 0.242122
000180 f3 df 5c be bc df d8 bd 7d ee 6a be 8f 6a c5 bd
       -0.21569805 -0.10589549 -0.22942539 -0.09639465
000190 af ba ed bd bc a0 9a bd 2a 3c 1d 3e 13 50 4e be
       -0.11607873 -0.07550189 0.15354982 -0.20147733
0001a0 65 4a 29 be e5 3f 94 3d 41 eb 5d be 05 84 4a be
       -0.16532286 0.072387494 -0.21671773 -0.19776924
0001b0 7c 68 43 3c 4b 76 87 3c ff 75 67 bd 51 ef 6d be
       0.0119267665 0.016535899 -0.056509014 -0.23235823
0001c0 48 8c 2a 3d 26 fe 4b be 69 e0 75 be 02 61 1e 3e
       0.04163769 -0.19921169 -0.24011387 0.15466693
0001d0 fe 10 3c 3e ff 7d 6b be 13 99 c7 3d eb 6d 1f 3e
       0.18365857 -0.22997282 0.097459935 0.15569274
0001e0 db c0 5e be c7 d3 39 3d d8 ac a3 bd 8e 5e a5 3d
       -0.21753256 0.045367982 -0.07991952 0.080746755
0001f0 ec f9 1c be 30 92 1a 3e 36 25 25 3e b6 db 3c 3e
       -0.15329713 0.15094829 0.16127476 0.18443188
000200 3d d8 ee 3d 67 b8 f7 3d 97 56 b6 bd d1 f9 ad bd
       0.11662338 0.12095719 -0.089032345 -0.08494914
000210 d5 00 0e 3e 8d 51 aa 3d 15 24 bb ba 2d e1 5d 3e
       0.13867505 0.08316336 -0.0014277721 0.21667929
000220 83 fb ab bc c1 a3 0d be e6 0b 12 bd 97 05 86 bb
       -0.020993954 -0.13831998 -0.03565588 -0.004090022
000230 fa da e7 bd cb 2f 6a 3e 47 42 4f be ce 5b ea 3d
       -0.11321063 0.22869794 -0.20240127 0.114432916
000240 88 0d 47 3e 89 96 8f bd af 83 11 3e 87 7c 0a be
       0.19438756 -0.07011134 0.1421039 -0.13524066
000250 13 0c 5e bb 6a 04 57 be 8d a5 a3 3d f3 54 36 3e
       -0.0033881709 -0.20997778 0.07990561 0.17805843
000260 04 54 9b 3d 46 22 35 3e db 0b b8 3b d5 9e 68 3e
       0.07584384 0.17688856 0.0056166477 0.2271684
000270 d8 a0 18 3e 0b 5b 39 3e d7 d4 35 be 88 f5 17 be
       0.14905107 0.18101136 -0.17756973 -0.14839756
000280 91 88 0a be 34 71 88 bd 65 b7 31 be c2 93 cc bc
       -0.13528658 -0.06662217 -0.17355116 -0.0249728
000290 7f 3c 75 3e 3b de 0b be f5 48 92 bd ee e1 93 3d
       0.23948859 -0.13658993 -0.07142822 0.07220827
0002a0 3e 7d 81 3e f3 7a a5 3c c7 0c d9 bd 41 16 66 bd
       0.25290865 0.020200228 -0.1059814 -0.056173567
0002b0 17 6f 70 3e 89 81 14 be 77 1d 50 bd 98 85 14 3e
       0.23479877 -0.14502539 -0.05080935 0.14504087
0002c0 c4 95 21 3e e2 41 e6 bd 5b b0 50 3e 7b ca 35 be
       0.15779787 -0.11243035 0.20379774 -0.17753021
0002d0 29 0a 29 be 1b 12 32 be ee 4c 4a bd f5 fc 3d 3e
       -0.16507782 -0.17389719 -0.049389772 0.18553527
0002e0 bc 79 cb 3a 09 62 f1 3d 7e 98 53 be 16 c7 b9 3d
       0.001552395 0.11786277 -0.2066364 0.09071176
0002f0 ca 7b 10 3d 18 cd c7 bd 3f c7 01 bd 67 81 75 3d
       0.035274304 -0.097559154 -0.031684157 0.05993786
000300 c1 6f 7d be 5e 7a fa 3c ac f6 59 be 1e 65 87 bc
       -0.24749662 0.030575927 -0.21285504 -0.016527709
000310 53 df 01 bd 16 bd 02 be 2a 2c c6 bd 7a 04 a6 bd
       -0.03170712 -0.12767443 -0.096763924 -0.081063226
000320 6b 0a 55 be ea a0 fb 3d ed 49 0d be 75 b6 bc bc
       -0.20804755 0.12286551 -0.13797732 -0.023036221
000330 21 c2 62 be e1 5d 94 bd 1e 6f 04 be ae 0b 41 3e
       -0.22144367 -0.072444685 -0.12933013 0.18852112
000340 ec 8e 23 3e 04 df d2 3d ba 14 60 be db 2f 6d be
       0.15972489 0.10296443 -0.21882907 -0.23162787
000350 7c cb 1b be 4d 08 56 3e f7 d2 ec bb ee 4d c1 bd
       -0.15214342 0.20901604 -0.0072272974 -0.09438692
000360 e0 19 6c be fb 32 48 be d6 09 6d 3b d7 29 39 be
       -0.23056746 -0.19550698 0.0036169193 -0.18082367
000370 4c ee 87 3b eb f6 4f 3e fc 39 73 3e cb 46 1e be
       0.0041482802 0.20309035 0.23752588 -0.15456693
000380 54 1f 1c 3e 9e 00 98 bd a9 50 b7 bd 5d 5b b1 bd
       0.15246326 -0.07421993 -0.089509316 -0.08660004
000390 4e b3 ab bc 0c d3 64 3e bb 9f fd 3d 39 94 18 be
       -0.020959523 0.22346133 0.12383982 -0.14900292
0003a0 e2 e7 be 3d a3 3b bc 3b a5 a4 19 be 68 95 c6 3d
       0.09321572 0.005744414 -0.15004213 0.09696466
0003b0 b7 11 4c 3e 0c d5 50 3e 17 a0 1a bc c2 d5 2b 3e
       0.19928633 0.20393771 -0.009437582 0.16780761
0003c0 ba 14 af bd e2 69 fa 3d 1b a1 20 b8 c2 07 6c 3e
       -0.08548875 0.12227227 -3.8297014e-05 0.23049834
0003d0 ea 39 e1 3c e7 75 5c be 23 3a 3f 3e d8 c1 83 be
       0.027493436 -0.21529351 0.18674521 -0.2573383
0003e0 a6 17 10 be 85 0e 57 3e b6 16 02 be 0a 58 68 bd
       -0.14071521 0.21001633 -0.12703976 -0.056724586
0003f0 9e 64 45 bc 42 47 0f be 67 71 fc bd 7c 5c 30 be
       -0.012047915 -0.13992026 -0.12326317 -0.1722278

module.LSTM_layer.weight_hh_l1 f4 [64, 16]
000000 af 42 8d 3d 64 eb 66 3e 31 8a c8 bd 54 2d e9 3d
       0.068974845 0.22550732 -0.09791983 0.11385599
000010 31 0d 02 3e af 4d 5c be b6 b4 88 bd 83 fa 65 3d
       0.12700345 -0.21514009 -0.06675093 0.05614711
000020 f0 62 72 3e 4c 84 db bc e6 70 f6 3d a7 68 27 be
       0.23670554 -0.026796483 0.120332524 -0.16348515
000030 82 d1 45 3d c1 5a a9 bd ed 61 40 3c 95 4f a4 bd
       0.048295505 -0.08269263 0.011742097 -0.080229916
000040 52 ee 84 bc 78 19 77 bd f3 f9 7c 3e ab 0f 27 bd
       -0.016226921 -0.060327023 0.24704723 -0.040786427
000050 26 ce 7b 3e c0 d3 1a 3e e5 f4 0a 3e 9f 5b 96 3c
       0.24590358 0.15119839 0.13569982 0.018354235
000060 66 71 6c bd 8e cc 77 3d e1 38 2e bd 45 57 e8 bd
       -0.057725333 0.060497813 -0.042534713 -0.1134477
000070 bb 04 57 3e e6 cf 28 be 1f 3b 53 be f0 91 c2 3d
       0.20997898 -0.16485557 -0.20628022 0.095004916
000080 1f 29 62 3d a4 1d 36 3e a5 33 23 bd 97 a3 92 3c
       0.055214997 0.17784745 -0.039844174 0.017900271
000090 1a e6 70 be 19 1a 28 3e ee e0 9d 3c c6 71 54 bd
       -0.23525277 0.16416205 0.019272294 -0.051866315
0000a0 ba c8 43 3d 46 16 63 3e df 2b 5d 3e 74 66 e1 bd
       0.04779885 0.22176465 0.21598767 -0.110058695
0000b0 7d ba 30 3e b7 13 6e bd f5 73 06 3e 36 cb 4a 3e
       0.1725864 -0.05812427 0.13130172 0.19804081
0000c0 00 b1 4c be b5 31 12 be ba 19 78 be 7b 8f 5d 3d
       -0.19989395 -0.14276774 -0.24228564 0.05409191
0000d0 24 17 13 be 93 a7 76 be 16 c8 91 3c df 6e 6e be
       -0.14364296 -0.24087362 0.017795604 -0.23284481
0000e0 8b 34 8a 3d c1 13 03 be d9 77 69 3e 07 03 23 3e
       0.06748303 -0.12800504 0.22799625 0.15919124
0000f0 81 ca 3c 3e f3 db 16 3e 46 05 91 bd 2b c7 19 3e
       0.18436624 0.14732341 -0.07081084 0.15017383
000100 ac b6 2c 3b 3f 09 13 be 9b d2 24 be bb d5 28 3e
       0.0026353998 -0.14358996 -0.16095965 0.16487782
000110 28 eb 95 bd db 87 ba bd 1a 36 54 3d ec 17 ea 3d
       -0.07320243 -0.091079436 0.051809408 0.11430344
000120 d3 cb 5e 3e 0d 22 de bc f3 5d 3c 3e 79 ab 83 3d
       0.2175744 -0.027115846 0.18395214 0.0642919
000130 09 87 b3 bd 22 5c 6e bd 9c 5c 09 be a7 3a 14 be
       -0.0876599 -0.058193333 -0.13414234 -0.14475499
000140 31 fb 7f be 20 94 4d bd db 0a a0 bc 48 53 b6 bd
       -0.24998166 -0.05019009 -0.019536426 -0.089026034
000150 eb de 5f be 21 6c 59 3e a2 c5 07 be 0b f1 2b 3e
       -0.2186238 0.21232654 -0.13258985 0.1679117
000160 db dd 38 be 09 2b ca 3d 5f 75 8a bd 17 b5 00 be
       -0.18053381 0.098714896 -0.06760668 -0.1256908
000170 13 f3 7a bd 05 eb 21 bc 55 03 04 bb 82 d3 b9 3d
       -0.06126697 -0.009882693 -0.0020143588 0.09073545
000180 bb c8 a1 bd 6d 8a 03 be d4 80 d2 bd 94 ac fe bd
       -0.078996144 -0.12845774 -0.10278478 -0.124352604
000190 8e a5 77 be 26 d2 52 be 3a 1a ea 3d 9b c4 2e 3e
       -0.24184248 -0.20587978 0.114307836 0.17067187
0001a0 15 4e 84 bd c1 9b d8 3d 24 00 20 bc 04 62 68 bc
       -0.064602055 0.10576583 -0.0097656585 -0.014183525
0001b0 ca aa af bd 76 89 4e 3e 80 8f 8a bd 9a f6 5e 3e
       -0.08577497 0.20169625 -0.06765652 0.21773759
0001c0 f2 99 9b bc 1c 31 59 3e b1 84 93 3d 01 90 5b be
       -0.018994305 0.2121014 0.07203043 -0.21441652
0001d0 b9 f5 5b 3e c9 33 41 3e 27 aa 51 3e 9f 72 46 3e
       0.21480455 0.1886741 0.20475064 0.19379662
0001e0 52 40 bb 3c f6 c7 78 be c6 0b 00 3e 40 0b 25 3e
       0.022857819 -0.24295029 0.12504491 0.16117573
0001f0 52 ff 01 3e 3d b1 6b 3e cc ee d2 3d c8 bb f1 bd
       0.12695053 0.2301683 0.10299453 -0.118033946
000200 66 16 2d 3e 43 60 d4 bd f9 b9 d0 3c 98 b0 68 be
       0.16903076 -0.10369923 0.025479304 -0.22723615
000210 9f 8e 73 3d ae 7f 0f 3e 99 d8 07 be 71 1b 47 3e
       0.059462186 0.1401355 -0.13266219 0.19444062
000220 f4 6f 38 be 91 35 a1 3d f5 4e 3b 3e d9 79 53 3e
       -0.18011457 0.07871545 0.18291838 0.2065195
000230 ad cd b3 bd 6c eb 47 3d 8e fe 07 bc ce 59 07 3e
       -0.08779464 0.0488085 -0.008300437 0.13217852
000240 a4 dc c1 3d c3 e9 82 3c 4b 29 58 3e b1 4e f3 bd
       0.09465912 0.015980607 0.21109502 -0.118802436
000250 74 bb 55 3e c4 df ac 3d 55 1e 1f 3e 85 3d 9a bc
       0.20872289 0.084411174 0.15538915 -0.018828163
000260 23 3f 75 3e f3 5a 83 bd 9a f9 75 3e 64 7b 6b 3d
       0.23949866 -0.064138316 0.24020997 0.05749072
000270 2e ab 1c be 88 bd d2 3d 99 57 bc 3d 85 0c f6 bd
       -0.15299675 0.102900565 0.091963954 -0.12014107
000280 9a 36 37 be 1d a3 5f be c6 01 fb 3b 34 0e 21 3e
       -0.17891923 -0.21839567 0.0076601235 0.15728074
000290 1e 97 46 3e 45 5e 53 be 50 99 3d bd e9 9a ca 3d
       0.19393584 -0.2064143 -0.04628879 0.09892828
0002a0 63 43 88 3d 09 03 2e be 6f b4 47 3e ed 9d 8f bd
       0.06653478 -0.16993345 0.19502424 -0.07012544
0002b0 0c d1 82 3c 8a 1c c1 3d b6 98 49 be 00 73 0a 3e
       0.015968822 0.094292715 -0.19687161 0.13520432
0002c0 74 00 65 be 7e cd ab bd ae 41 b5 3d c0 df 1d 3e
       -0.22363454 -0.08388804 0.08850418 0.15417385
0002d0 78 80 7b bc 69 b9 55 be 63 02 63 be 84 32 f6 3d
       -0.015350454 -0.2087151 -0.22168879 0.12021354
0002e0 d5 1c 2d bd a8 2a 20 be 00 9a 83 3d 39 67 a7 bd
       -0.042263824 -0.15641272 0.064258575 -0.08173985
0002f0 be 88 19 3d 3f 86 07 3e 0e f4 55 be c9 d6 ea 3c
       0.037483923 0.13234805 -0.2089388 0.02866687
000300 d9 7d 29 3d 6a da 93 3b 9a 96 2c be 47 2d 67 be
       0.041379783 0.004512121 -0.16854325 -0.22575866
000310 57 27 e6 bd 27 3c 64 be 4e 1e 8d bc e3 ae ef 3b
       -0.11237972 -0.22288571 -0.017226364 0.0073145493
000320 b7 85 33 3d 70 05 45 be 96 d9 18 be 59 84 88 3d
       0.043828692 -0.19240355 -0.14926752 0.06665868
000330 9f d4 79 3d 03 91 d5 3d bb e3 f8 3c 0a 38 10 3e
       0.060993787 0.104280494 0.030382028 0.14083877
000340 65 16 ed 3d 13 58 43 bd 36 0f c5 bc f1 4e 64 3d
       0.11576537 -0.047691416 -0.024055105 0.055739347
000350 b1 c8 c6 3d e5 82 5a 3e 33 c9 de bc fa 4f 6b be
       0.097062476 0.21338995 -0.027195549 -0.22979727
000360 53 5c 49 3e e8 e7 ac 3d ea 90 26 3e 49 ba 68 be
       0.19664125 0.0844267 0.16266218 -0.22727312
000370 4b 34 6a 3e d6 c1 50 bd 50 1a 57 bb 29 5f 2d bb
       0.2287151 -0.050966106 -0.003282208 -0.0026454425
000380 d6 7d 72 be bc 21 95 bd 17 04 8c 3d 01 f1 6c bc
       -0.23680815 -0.07281825 0.068367176 -0.014461757
000390 3b 51 e6 3d bf 86 09 be 19 d5 4f 3e 0a c9 c8 bd
       0.11245962 -0.13430308 0.20296134 -0.0980397
0003a0 1a 31 62 be 84 b7 1e bd 66 34 67 3e 6f c2 de bd
       -0.22089043 -0.038749233 0.22578582 -0.10876929
0003b0 75 bd a6 bd a6 e2 65 3d 92 e4 4e be c1 b1 0c 3d
       -0.08141605 0.056124352 -0.2020438 0.034349207
0003c0 8e 69 c4 bd 71 1b fb 3c 13 e1 85 bd ab aa 87 3d
       -0.095904455 0.030652734 -0.0653707 0.06624349
0003d0 f6 f8 57 3e 32 be 91 3d 91 7f 59 be 6a 96 5c be
       0.21091065 0.07116355 -0.21240069 -0.21541753
0003e0 2b 5c 94 3c 58 04 c6 bd 51 37 01 be 5d a2 29 be
       0.018110355 -0.09668797 -0.12618758 -0.16565843
0003f0 8f 05 d1 3d e1 a9 a2 bd 30 43 78 be de 28 7a 3d
       0.10206138 -0.07942558 -0.2424438 0.06107413

module.LSTM_layer.bias_ih_l1 f4 [64]
000000 22 54 0d be 4a 31 6b be 36 28 54 bd c9 51 72 be
       -0.13801625 -0.22968021 -0.05179616 -0.23664011
000010 bb 17 47 be 0f e3 ad bd dc d2 80 bc 82 cc 0b be
       -0.19442646 -0.084905736 -0.015725546 -0.13652232
000020 e0 04 73 3e 03 50 ec bd ef 53 59 3c 1c a5 19 be
       0.23732328 -0.115386985 0.01326464 -0.1500439
000030 50 57 1d 3e 2c 8b 98 bd 37 6c 3e be 81 3a 36 3e
       0.15365338 -0.0744842 -0.18595968 0.17795755
000040 a8 39 80 bd aa d5 d5 3d a3 be 26 be 9a d2 34 3e
       -0.06260997 0.10441144 -0.1628366 0.17658463
000050 08 28 d6 bc 99 ad a2 bd ac 56 a2 bd 89 9a 50 bd
       -0.026142135 -0.079432674 -0.079266876 -0.050928626
000060 c5 b6 ff 3d 24 78 55 3e 46 0e 50 3e 19 70 b5 bd
       0.124860324 0.20846611 0.20317945 -0.088592716
000070 64 8c c8 3d 3e d4 36 be d0 ef df 3d 3f 97 8c 3d
       0.097924024 -0.17854401 0.109344125 0.068647854
000080 73 fd 62 be 2c e1 3f 3e 5e 1d 39 3e be a9 20 be
       -0.22166996 0.1873824 0.18077609 -0.15689752
000090 e8 66 da 3d cc dc 4c be 41 f0 0b be 89 36 a8 bd
       0.10664159 -0.20006102 -0.13665868 -0.08213527
0000a0 8f db 58 be bb a5 ad bd 18 de b1 bd e8 d8 cd 3d
       -0.21177505 -0.08478876 -0.08684939 0.10051137
0000b0 a0 84 01 3e 52 20 14 3e 2c 94 37 3e 49 f9 67 3e
       0.12648249 0.14465454 0.17927617 0.22653688
0000c0 90 41 c5 bd 34 ab 0f be 8b 2b c7 3d ba 12 dc bc
       -0.09631646 -0.14030153 0.09725102 -0.026864398
0000d0 23 68 db 3d 41 37 7b 3e 8f 44 6b be 62 1a 45 be
       0.10713222 0.24532796 -0.22975372 -0.19248345
0000e0 08 8d 56 be 7a ec 40 be 9a 85 73 3d 9f 42 04 3d
       -0.20952237 -0.18840209 0.059453584 0.032290097
0000f0 60 e7 62 be bc 43 ff 3c fa bb ee 3d 54 83 18 be
       -0.22158575 0.031160228 0.116569474 -0.14893848

module.LSTM_layer.bias_hh_l1 f4 [64]
000000 b3 20 72 3e cc c6 4b 3e 0c f5 10 3e 7e a6 25 3e
       0.23645286 0.19900054 0.14155978 0.16176793
000010 68 13 b5 3c ac 0f c6 bb 29 45 97 bd 37 4a 57 3e
       0.02210398 -0.0060443487 -0.07386238 0.21024404
000020 9c f4 c6 3d 53 f6 84 be 9c fc 46 bd e5 8c 42 3c
       0.09714624 -0.2596918 -0.04858075 0.011874412
000030 a6 c8 18 3e 1e f6 2c be f8 8e 76 bd c8 1b 56 be
       0.14920291 -0.16890761 -0.06019494 -0.20909035
000040 60 e1 3b be 8a 03 9e bd 94 e7 42 bd f5 f9 bb 3d
       -0.18347692 -0.07715519 -0.04758413 0.09178535
000050 90 9d a3 bd ad dc 4c 3e 1e e7 27 3e 9f 6c c9 bc
       -0.07989037 0.20006056 0.16396758 -0.024587927
000060 2d 0d 75 be 15 43 ee 3d 26 75 e0 3c 07 75 cd bd
       -0.23930807 0.11633889 0.02739961 -0.10032087
000070 e0 96 5e 3e d4 40 01 be c3 9f 5b bd dd b8 59 be
       0.21737242 -0.12622386 -0.053619158 -0.21261926
000080 71 c2 9f bd a9 e3 4a be 88 ce 3a 3e 85 b9 60 3e
       -0.07800759 -0.19813408 0.18242848 0.2194577
000090 a3 85 6e 3d d8 1f 30 be c7 18 73 be 88 59 01 bd
       0.058232915 -0.17199647 -0.2373992 -0.031579524
0000a0 ae 99 e0 bd 25 8a 1a 3d d3 ae 9f 3d 05 80 98 3d
       -0.10966812 0.0377294 0.07797017 0.07446293
0000b0 21 09 fe bd 90 a0 24 3e dc 25 54 3e 7d f6 4d 3c
       -0.12404085 0.16076875 0.20717567 0.012570974
0000c0 2d 3a 19 3e 16 85 e5 3d 39 dc 84 3d 76 65 04 3e
       0.14963599 0.11207025 0.06487317 0.1292933
0000d0 38 d2 bc 3d 73 89 f1 bd f6 dc 23 3e df 80 e9 bd
       0.092197835 -0.117937945 0.16002259 -0.11401533
0000e0 65 06 62 be 54 82 6c be 4a 0b 74 3e a3 e9 37 be
       -0.22072752 -0.23096591 0.23832431 -0.17960219
0000f0 e2 6b d5 bd 2a ed 90 bd c3 a4 c1 3c 8c 16 67 3e
       -0.10420968 -0.070764855 0.023638135 0.22567195

module.BN_layer.weight f4 [160]
000000 ad 9a 7f 3f e5 8b 7f 3f 20 27 7d 3f 05 cb 7c 3f
       0.9984539 0.9982284 0.98887825 0.98747283
000010 03 58 7d 3f 5e 46 7f 3f b6 23 80 3f a7 91 7d 3f
       0.9896242 0.99716747 1.0010898 0.9905037
000020 8e 63 7b 3f 1d d4 81 3f 57 37 7e 3f f4 0b 81 3f
       0.98198783 1.0142857 0.9930319 1.0081773
000030 85 2d 7e 3f 18 4d 80 3f 6c 8d 7c 3f 8d ec 80 3f
       0.9928821 1.0023527 0.9865329 1.007219
000040 df 94 7e 3f e5 b4 7d 3f 94 9a 81 3f 43 6c 81 3f
       0.9944591 0.9910415 1.0125299 1.0111164
000050 c5 3e 80 3f ab 1d 80 3f aa ba 80 3f df 65 7d 3f
       1.0019156 1.0009054 1.0056965 0.9898357
000060 50 52 81 3f ab 13 7d 3f af c1 80 3f ad a4 7f 3f
       1.0103245 0.98858136 1.0059108 0.9986065
000070 e7 ca 7f 3f b7 7e 7e 3f 33 e9 7e 3f 51 bf 81 3f
       0.9991898 0.994121 0.99574584 1.013651
000080 c3 26 7f 3f 49 3e 7d 3f d5 98 81 3f fa b9 7f 3f
       0.9966852 0.98923165 1.0124766 0.9989315
000090 68 62 7e 3f d2 a3 7e 3f 1b c8 7c 3f c1 e9 7c 3f
       0.99368906 0.9946872 0.98742837 0.9879418
0000a0 0a 49 81 3f b0 26 81 3f 31 86 81 3f 63 2d 7f 3f
       1.0100415 1.0089931 1.0119077 0.9967863
0000b0 50 0e 82 3f 72 52 80 3f 52 70 80 3f aa 9d 7b 3f
       1.0160618 1.002516 1.0034277 0.9828745
0000c0 57 ff 7e 3f 07 ca 7d 3f a2 6b 81 3f 58 e5 7e 3f
       0.9960837 0.99136394 1.0110972 0.995687
0000d0 d2 36 82 3f cb 3a 82 3f b9 94 81 3f ce 95 7c 3f
       1.017298 1.0174192 1.0123512 0.98666084
0000e0 ef e8 80 3f e3 8a 80 3f dd ba 82 3f 9d f3 81 3f
       1.0071086 1.0042385 1.0213276 1.015247
0000f0 46 39 7a 3f 44 4b 7f 3f 6d 87 80 3f 02 9b 7a 3f
       0.9774364 0.9972422 1.0041329 0.97892773
000100 90 81 7d 3f f0 2e 80 3f a3 e6 81 3f d8 76 80 3f
       0.9902582 1.0014324 1.014851 1.0036268
000110 c9 1c 81 3f 25 44 82 3f d4 5d 7b 3f e6 0b 82 3f
       1.008691 1.0177046 0.98190045 1.0159881
000120 a3 9e 81 3f 27 65 7e 3f 0e e5 81 3f 79 d5 82 3f
       1.0126537 0.99373096 1.0148027 1.0221397
000130 31 a3 83 3f 64 8d 7d 3f 8f fc 80 3f 1c 41 82 3f
       1.0284177 0.9904387 1.0077075 1.017612
000140 7b 6d 7c 3f 57 0a 7e 3f fd 76 7c 3f a5 4c 80 3f
       0.98604554 0.9923453 0.9861906 1.002339
000150 31 a8 80 3f df ae 81 3f 02 2f 81 3f 67 e8 81 3f
       1.0051328 1.0131491 1.0092471 1.0149049
000160 1b b5 81 3f 24 e4 80 3f 00 8b 81 3f 05 1b 80 3f
       1.0133394 1.0069623 1.0120544 1.0008246
000170 53 30 7a 3f a8 83 80 3f b1 7d 7e 3f d2 e3 7d 3f
       0.97729987 1.0040178 0.9941054 0.9917575
000180 11 2e 7e 3f 13 d2 7e 3f fe 15 82 3f be 8a 7f 3f
       0.9928904 0.995393 1.0162961 0.9982108
000190 b5 27 81 3f f6 73 81 3f b8 32 81 3f cc d9 7f 3f
       1.0090243 1.0113513 1.0093603 0.99941707
0001a0 7c 4c 7b 3f 81 67 82 3f 70 08 7c 3f 2b 9e 81 3f
       0.9816358 1.0187837 0.98450375 1.0126394
0001b0 5c bc 82 3f a7 eb 80 3f 02 eb 80 3f d8 40 83 3f
       1.0213733 1.0071915 1.0071719 1.0254164
0001c0 7e 1d 7f 3f 25 ac 7f 3f 7b 9a 82 3f ca 04 7f 3f
       0.99654377 0.99872047 1.0203394 0.9961668
0001d0 c2 18 81 3f b8 5f 81 3f 92 7e 81 3f f3 85 82 3f
       1.008568 1.0107336 1.0116751 1.0197128
0001e0 f5 ac 82 3f 02 88 7c 3f 41 70 81 3f cf bc 80 3f
       1.0209032 0.9864503 1.0112382 1.005762
0001f0 1f 9c 82 3f b5 1b 7e 3f 63 85 7d 3f e9 30 7e 3f
       1.0203894 0.9926103 0.99031657 0.9929338
000200 22 e2 7c 3f 69 19 80 3f 96 ec 7b 3f ee f9 7d 3f
       0.9878255 1.0007755 0.98407876 0.9920949
000210 ad e1 80 3f b2 8b 7e 3f fd cc 7b 3f 14 40 7b 3f
       1.0068871 0.9943191 0.9835966 0.9814465
000220 c6 3d 7a 3f 7f 81 82 3f c0 e0 7b 3f c8 2a 80 3f
       0.9775051 1.0195769 0.98389816 1.0013056
000230 28 5a 82 3f c3 7c 7d 3f 05 6a 80 3f 8b 61 83 3f
       1.0183764 0.99018496 1.0032355 1.0264143
000240 c9 f8 7f 3f 95 f0 7f 3f 42 24 7b 3f d9 50 7e 3f
       0.9998899 0.99976474 0.981022 0.99342114
000250 e0 fd 80 3f 45 0e 7e 3f 05 d2 81 3f 44 b5 82 3f
       1.0077477 0.99240524 1.0142218 1.0211568
000260 60 56 82 3f ec e1 7d 3f f4 8d 82 3f 66 76 80 3f
       1.018261 0.99172854 1.0199571 1.0036132
000270 04 b0 7a 3f 81 54 80 3f b7 1c 80 3f be a9 7d 3f
       0.9792483 1.0025789 1.0008763 0.9908713

module.BN_layer.bias f4 [160]
000000 66 a8 33 ba eb 70 46 bb 42 57 17 bc 3c 6f 3f bb
       -0.00068534014 -0.0030279707 -0.0092371125 -0.0029210588
000010 4e b3 da ba 5e 9c a5 bb da 7f 3a 3b 57 b3 2f bc
       -0.0016685517 -0.005054041 0.0028457553 -0.01072391
000020 7e 84 42 bc 79 53 0b 3c 80 73 b6 38 06 2f cf 3a
       -0.011872409 0.008503788 8.69995e-05 0.0015806861
000030 ef 05 05 3b 37 d0 9d 3b 5e 09 e9 bb 18 81 8c 3b
       0.0020297726 0.004816081 -0.0071117124 0.00428785
000040 8b 9c a3 bb f9 8b 9f bb da 25 30 3c 4e ca d9 3b
       -0.0049930266 -0.004868981 0.010751212 0.006646431
000050 ba e7 d6 3a 8c c6 6c 3b f8 30 52 3b 5b 75 7c bb
       0.0016395964 0.0036129085 0.0032072645 -0.0038522098
000060 4d ec 3c 3b fa f6 0e bc 90 bf 43 39 f3 47 a2 3a
       0.002882737 -0.008725876 0.00018668012 0.0012381062
000070 b0 32 c0 3b ef 84 a2 bb 43 12 e3 ba a0 96 51 3c
       0.0058654174 -0.0049596946 -0.0017324168 0.012792259
000080 88 e8 90 b8 25 8d 2f bc 67 4f 3e 3c 5e ac 01 bb
       -6.9097674e-05 -0.010714804 0.011615611 -0.0019786577
000090 25 fe 30 bb 27 4a 6d bb 6e bc 23 bc be eb df bb
       -0.002700695 -0.0036207528 -0.009993656 -0.0068335226
0000a0 3b 8d f8 3b 34 63 82 3b 36 98 0c 3c 38 e8 05 bb
       0.0075851954 0.003979111 0.008581212 -0.0020432603
0000b0 1d fe 86 3c 54 17 1d 3b d1 37 17 3b 40 e2 6b bc
       0.016478593 0.0023970203 0.002307404 -0.014397204
0000c0 50 9d a1 bb 0e 4a 1c bc 83 7f 25 3c 96 49 24 bb
       -0.004932083 -0.00953914 0.010101202 -0.0025068275
0000d0 95 82 0d 3c 27 e5 35 3c 42 a4 36 3c 7e 07 21 bc
       0.00863709 0.011101997 0.011147561 -0.009828446
0000e0 dd 03 72 3b 2e 03 1e 3b 04 53 73 3c ec 15 26 3c
       0.0036928572 0.0024110782 0.014851335 0.0101370625
0000f0 c6 90 b7 bc df 22 15 bb ce 8f 57 3a 6b 1a ab bc
       -0.0224079 -0.002275638 0.00082230277 -0.02088662
000100 5c 96 25 bc 58 8f 40 bb 10 ab 3f 3c 52 f8 17 3a
       -0.010106649 -0.0029382315 0.011698499 0.00057971955
000110 7d b6 af 3b e5 d4 44 3c 7c 77 59 bc d1 5c 80 3c
       0.0053623305 0.012013649 -0.013273116 0.015669258
000120 22 35 18 3c 34 65 4e bb c0 e6 4b 3c 8e 4b 9d 3c
       0.009290012 -0.0031493427 0.012445152 0.019201066
000130 48 29 f6 3c 14 49 fe bb 0a be 89 3b 5a 94 a7 3c
       0.030048981 -0.0077601764 0.0042035626 0.020456482
000140 91 f1 43 bc 1c 42 59 bb 27 76 30 bc 06 7e 80 3a
       -0.011959449 -0.0033150977 -0.010770357 0.0009803183
000150 a3 03 a9 3b ce 7e 43 3c 61 c4 15 3c 71 5e 58 3c
       0.0051579042 0.011932088 0.009141059 0.01320611
000160 e6 d0 3b 3c 5a 19 dd 3b 89 de 43 3c d2 3e 70 3b
       0.0114633795 0.006747407 0.011954912 0.0036658538
000170 5c 87 a8 bc 27 60 80 3b 80 e6 25 bb 54 ab 00 bc
       -0.020572357 0.0039177123 -0.002531439 -0.007853348
000180 93 ca d7 bb f9 c8 64 ba e8 3a 82 3c 77 7c be 3a
       -0.006585428 -0.0008727457 0.01589723 0.0014532943
000190 f1 e7 9d 3b 42 d0 b6 3b 19 f0 1a 3c 39 70 d8 3a
       0.0048189093 0.0055790255 0.009456658 0.0016512937
0001a0 31 d5 73 bc fc a3 37 3c e4 5f 38 bc 68 ee 2c 3c
       -0.014882372 0.0112085305 -0.011253331 0.010554887
0001b0 07 ee b6 3c 80 03 e8 3b 5c 83 71 3b 89 72 c3 3c
       0.022330297 0.0070804954 0.0036851978 0.023858326
0001c0 12 61 e8 ba 3a 9d c9 36 86 85 8b 3c d7 7c 8b bb
       -0.0017729125 6.0085704e-06 0.017031442 -0.0042568254
0001d0 79 f7 5c 3b 09 99 47 3b 69 ea fc 3b af 48 8a 3c
       0.003371684 0.0030456206 0.0077183736 0.016880361
0001e0 20 2a aa 3c 6e f4 19 bc 2d 22 4c 3c a8 c9 fe 3b
       0.02077204 -0.0093966555 0.01245932 0.007775504
0001f0 c7 5b b1 3c f1 32 d4 bb c5 6a 8e bb 91 77 fd bb
       0.021650208 -0.0064757993 -0.004346224 -0.0077352007
000200 01 a0 a5 bb 51 6b bb 3a 48 16 69 bc 50 fc ea bb
       -0.0050544743 0.001429895 -0.014226504 -0.0071711913
000210 83 4e da 3b 72 33 4a ba 19 c3 06 bc e9 5d 72 bc
       0.0066621914 -0.00077133544 -0.008225226 -0.014792898
000220 d7 45 a7 bc f5 f0 7e 3c c1 35 4f bc f7 af 2c 3b
       -0.020419044 0.015560378 -0.012647093 0.002635
000230 a8 73 a1 3c 68 ae f8 bb e4 5f 87 3b 96 a9 cc 3c
       0.01970847 -0.00758915 0.004131304 0.024983209
000240 b7 10 39 3b 07 91 00 3b e5 1a 7a bc 87 ca b2 bb
       0.0028238723 0.0019617693 -0.015265201 -0.005456272
000250 ad 3f 04 3c e6 51 5c bb 8e bf 18 3c ed 34 90 3c
       0.008071822 -0.0033618151 0.009323014 0.017603362
000260 26 91 66 3c cc bd fb bb 2b 91 7e 3c 0d 7c 6c 3b
       0.014072692 -0.0076825377 0.01553754 0.0036084682
000270 3f 34 9f bc a4 cd d6 3b 98 13 9a 3a 67 1b ee bb
       -0.019434093 0.006555276 0.0011755107 -0.00726645

module.BN_layer.running_mean f4 [160]
000000 65 ab a4 bd 13 73 e9 3b 2c d5 b7 3d e4 e5 a8 3b
       -0.080405034 0.0071243136 0.08976206 0.005154358
000010 66 8a 17 3d 02 30 b2 bd e1 c1 9c bd 9f 5c ec bc
       0.03699722 -0.08700563 -0.07654167 -0.028852759
000020 0a 89 52 bd ba 38 45 3c cb 10 65 3a 1c 38 5b 3d
       -0.051400222 0.01203745 0.0008738159 0.053520307
000030 de e8 7f bc 4b eb 96 3d 69 ca aa 3d 36 f4 87 3d
       -0.015619485 0.07369097 0.08339388 0.066383764
000040 45 c8 e2 bd 87 c1 29 3c 9a 2e 13 3e 31 d6 82 3b
       -0.11073355 0.010361082 0.14373246 0.0039928188
000050 e1 08 7f 3d 81 00 0d be d5 49 fa bd 74 7b 13 bd
       0.062264327 -0.13769723 -0.122211136 -0.036006406
000060 54 d5 93 bd 35 43 bd 3c 33 0a 00 3b 89 df b1 3d
       -0.072184235 0.023103336 0.001953733 0.08685214
000070 7f ae b1 bc 2c d7 d5 3d 4f bb fc 3d 07 3a a6 3d
       -0.021689652 0.104414314 0.12340414 0.081165366
000080 5f d3 fc bd a5 c0 5d 3c c8 7b 2a 3e 0e b6 56 3c
       -0.12345003 0.0135347 0.16648781 0.013104929
000090 22 3d a1 3d 16 1b 26 be b5 68 0d be a4 c0 1a bd
       0.07872988 -0.1622127 -0.13809474 -0.037781373
0000a0 e0 f6 b8 bd bb ad a5 3c 9b 01 16 3b bd 1c d4 3d
       -0.09031463 0.020224443 0.002288914 0.10357044
0000b0 9d 65 db bc fb 29 f4 3d 49 57 0c 3e 84 54 a0 3d
       -0.026781851 0.1192207 0.13705172 0.0782862
0000c0 11 a5 05 be db 52 aa 3c 9b d6 36 3e 93 ff 92 3c
       -0.13051249 0.020791462 0.17855303 0.017944133
0000d0 35 18 b8 3d 4f 9c 2e be bc 76 1b be 41 6b 12 bd
       0.08988992 -0.17051814 -0.15182012 -0.035746817
0000e0 5c 1d bf bd 82 e3 a7 3c 6d 96 af 38 0a 6e fb 3d
       -0.09331772 0.020494226 8.372669e-05 0.12276848
0000f0 09 8d 16 bd 34 9b 00 3e 94 6b 12 3e 68 46 94 3d
       -0.036755595 0.12559205 0.1429885 0.072399914
000100 01 88 0d be 1f 6e e4 3c b8 a9 3d 3e c1 02 5c 3c
       -0.13821413 0.027884541 0.18521774 0.013428391
000110 27 73 bf 3d 87 04 2e be fa ab 25 be 92 ea b3 bc
       0.093481354 -0.16993915 -0.16178885 -0.021962438
000120 81 40 c8 bd 49 b1 76 3c b8 20 a3 ba 9d 09 0d 3e
       -0.09777928 0.0150569165 -0.0012445664 0.13773198
000130 93 38 44 bd 72 7c 00 3e 7b 0e 17 3e 2d c3 75 3d
       -0.047905516 0.12547472 0.14751618 0.060000587
000140 65 96 11 be ef 84 07 3d 36 3b 41 3e 2b ba 3a 3b
       -0.14217527 0.03308576 0.18870243 0.0028492312
000150 6d ad ca 3d 77 be 2c be 22 00 2e be c7 59 b2 bc
       0.098963596 -0.16869532 -0.16992238 -0.021771325
000160 b9 c4 cb bd 78 ae 9d 3c 1e fd 74 39 27 53 18 3e
       -0.09949631 0.019248232 0.00023363947 0.1487547
000170 61 68 55 bd 7d e7 00 3e 9a 88 1b 3e 21 b8 60 3d
       -0.052101497 0.12588306 0.15188828 0.0548631
000180 d3 04 1a be 30 69 13 3d a6 a1 43 3e 77 b7 d6 bb
       -0.15040903 0.035988986 0.19104633 -0.0065526324
000190 46 e9 cb 3d 1f 12 2a be 74 18 2d be 5e 41 ad bc
       0.09956603 -0.16608475 -0.1690386 -0.021149334
0001a0 7a a6 c9 bd 06 89 88 3c fa 2e 17 bb 72 a0 18 3e
       -0.09846206 0.0166669 -0.0023068772 0.14904955
0001b0 46 e8 5f bd 0a d2 00 3e 28 7e 1d 3e fe c4 5e 3d
       -0.054664873 0.12580124 0.15380156 0.054387085
0001c0 df f9 1b be 5f cd 23 3d 92 70 48 3e 91 a0 22 bc
       -0.15232037 0.03999078 0.19574192 -0.009925977
0001d0 4b 2a ca 3d de 7d 2c be 34 f8 2f be c0 3e 76 bc
       0.09871348 -0.1684489 -0.17184526 -0.015029609
0001e0 2a 98 d4 bd a8 fc 6c 3c 43 65 2d bc 60 bd 19 3e
       -0.103805855 0.014464535 -0.010583225 0.15013647
0001f0 25 c2 57 bd 9f ef fb 3d f3 e0 20 3e 25 96 48 3d
       -0.052675385 0.123015635 0.15710811 0.048971314
000200 e7 7c 19 be 31 34 0a 3d f8 fb 47 3e 46 0b 24 bc
       -0.14989053 0.03374118 0.19529712 -0.010012453
000210 36 57 d0 3d 32 09 30 be 68 a1 30 be 8c b5 7e bc
       0.10172884 -0.17191008 -0.17249072 -0.015546214
000220 9e f6 d3 bd 9d ec 83 3c 59 1f 47 bc ca 62 19 3e
       -0.10349773 0.016104037 -0.01215347 0.14979091
000230 0f cd 48 bd c6 c8 fa 3d f5 bb 24 3e 13 66 64 3d
       -0.049023684 0.12245326 0.16087325 0.055761408
000240 fc 0f 19 be af d5 12 3d f9 f5 4c 3e f5 a4 81 bc
       -0.14947504 0.035848316 0.20015706 -0.015825728
000250 e4 28 c9 3d 17 e0 2c be 8d cd 3a be ec 44 22 bc
       0.098222524 -0.16882358 -0.18242474 -0.009904128
000260 c1 79 c6 bd 02 cd 9f 3c 00 15 f6 bb 4d 4c 20 3e
       -0.096911915 0.019506935 -0.0075098276 0.15654106
000270 bf 54 6a bd 03 b3 fa 3d 1b 32 25 3e 67 03 4f 3d
       -0.057209726 0.12241175 0.16132395 0.050540354
