Stage2_pickedmodel/Stage2_LSTMAgegen_SZHC/model_epoch_176.pth (torch, 86647 bytes, 14 tensors)

module.LSTM_layer.weight_ih_l0 f4 [64, 256]
000000 d7 4b 9a bd 2d 90 20 be f6 6e ae bd 12 41 67 3e
       -0.075339966 -0.15679999 -0.08517258 0.22583416
000010 22 ba 01 3e 41 4d a2 bc dc ec e1 bd a0 db d7 bd
       0.1266866 -0.019812228 -0.110315055 -0.10539937
000020 bd ae 30 bb 4a f7 21 3e 64 81 8c bd 94 18 53 bd
       -0.002695962 0.1581699 -0.06860617 -0.05153711
000030 15 7e dc bd 09 a1 18 be 98 2c ab 3c 22 e9 2b be
       -0.10766236 -0.1490518 0.020895287 -0.16788152
000040 50 69 9c 3d 26 40 4f be 11 e3 48 3e 19 e7 5e 3e
       0.07637274 -0.20239314 0.19617869 0.21767844
000050 7a 94 4c 3d a9 92 0c 3e a4 dc 4e 3c de 0a 34 be
       0.049946286 0.13727821 0.012625847 -0.1758227
000060 16 4f d1 3d 08 39 06 3e 1e 6e 7c 3e 8e 5c c0 bc
       0.102201626 0.13107693 0.24651381 -0.023481634
000070 04 b0 1c 3d 19 eb 72 3d a3 cb 18 be ee 60 49 be
       0.0382538 0.059306238 -0.14921431 -0.19665882
000080 cf b3 d2 3d 1a 6f 80 bd 97 54 b6 bc e5 a3 55 be
       0.10288202 -0.06271191 -0.022257132 -0.20863302
000090 81 68 14 be a8 cf 24 be 1f 50 f2 bd ae 95 d0 bd
       -0.1449299 -0.1609484 -0.11831688 -0.10184799
0000a0 1f 0b 05 3d cb 01 87 bd 7f 64 56 be bc dd 61 3d
       0.03248131 -0.06592139 -0.20936774 0.055143103
0000b0 38 f9 50 3e 9a 22 f4 bc 3f 52 58 be 20 49 2b be
       0.2040757 -0.029801656 -0.21125124 -0.16727114
0000c0 06 9e 1c bd 97 bd 46 3a f2 fd 86 3e bf f8 65 be
       -0.03823664 0.00075813517 0.2636562 -0.2245817
0000d0 b2 9e fb bd 4c 62 22 3e d4 a0 0c 3e 8c d9 8f 3d
       -0.12286128 0.1585781 0.13733226 0.07023916
0000e0 5d fb 5e 3d 77 71 ff 3c 11 9c 48 3e fc 75 38 3e
       0.054438937 0.031182034 0.19590785 0.18013757
0000f0 b1 a9 f8 3c d2 c3 bb bd f4 3a 5c 3e 99 79 35 be
       0.030354353 -0.09168209 0.21506864 -0.17722167
000100 b9 81 43 3e b5 b1 62 3e 42 5a 32 be 1f 83 0a 3e
       0.19092454 0.22138102 -0.17417243 0.13526581
000110 94 29 0b be df dd 0f be cc cc e4 bc 2b 6a ff 3d
       -0.1359008 -0.14049481 -0.027929686 0.12471422
000120 fe 64 0b 3c f1 6c be bc fa 21 bf bd 9e 2e 3d 3e
       0.008507965 -0.023245307 -0.093326524 0.18474814
000130 b9 11 13 3d 4e 24 a5 3d 06 75 02 3b b1 70 b5 bd
       0.035905574 0.08063565 0.0019906177 -0.08859385
000140 eb d2 b5 bd 15 db 5a bd 5d 72 53 be 37 0c 5f 3e
       -0.0887812 -0.05343159 -0.20649095 0.21782003
000150 ac ba 96 3d c6 dd d6 3d 90 22 15 be ec 42 eb 3b
       0.073598236 0.10491519 -0.14563966 0.0071796086
000160 c5 f8 6c 3c 66 5f 46 be e1 18 43 3e 37 f5 0c be
       0.014463608 -0.19372329 0.1905246 -0.13765417
000170 61 3c 12 3e c3 68 a2 bc 27 e7 2b 3e d5 07 7d 3d
       0.14280845 -0.019825345 0.16787396 0.061775047
000180 88 cb 1d be 7b a1 1b 3e a4 2a 05 be d5 25 39 3e
       -0.15409672 0.15198319 -0.13004547 0.18080838
000190 2e fd b2 bd d7 e1 58 bd 72 c3 91 3d 35 f1 16 3e
       -0.087396964 -0.052949753 0.07117356 0.1474045
0001a0 b8 a1 12 3e 1a 2e 1f bd be bf 00 bd de 94 9a bd
       0.14319503 -0.038862325 -0.03143286 -0.075479254
0001b0 46 99 72 3d 22 ce 82 bd 6d 20 4f bd 48 e8 4f 3d
       0.059228204 -0.06386973 -0.050568033 0.05075863
0001c0 a3 15 40 be 11 4d 97 ba bf f7 52 be 20 8f 26 3d
       -0.18758254 -0.0011543353 -0.2060232 0.04066384
0001d0 00 10 ea 3c 4a 8b d0 bd 84 57 30 be d8 68 3f 3e
       0.028572083 -0.10182817 -0.17220885 0.18692338
0001e0 e9 41 4b be 1a 73 29 3e 1f a5 80 3b 9d 53 55 3e
       -0.19849361 0.16547814 0.003925934 0.20832677
0001f0 4c 13 59 bd a7 71 91 3d 38 49 54 be 1e c6 4b 3e
       -0.05299692 0.071017556 -0.20731056 0.19899794
000200 56 d9 50 3d 96 e8 1a 3e 8a e0 cc bd bd 18 8b 3d
       0.050988518 0.15127787 -0.10003765 0.06791828
000210 42 89 db bd 53 a3 0d 3e 3a fd ef 3c 3d ae 52 3c
       -0.10719539 0.13831834 0.029295553 0.012858924
000220 99 39 4e be 14 9c 87 bd ba 77 5a be a9 41 e7 bc
       -0.2013916 -0.066215664 -0.21334735 -0.028229551
000230 3d 4d 36 bc 00 46 2c 3e 68 46 26 3e 1e ae a7 3d
       -0.0111268135 0.16823578 0.16237795 0.08187507
000240 58 6f e1 bd 78 3c d2 bd a8 32 9f 3d c3 a6 4b bc
       -0.11007565 -0.1026544 0.07773334 -0.012429896
000250 af 67 05 3e 03 c9 94 3c fd 86 2e be f5 bf de 3c
       0.13027833 0.018162256 -0.17043681 0.027191142
000260 b9 6f 94 bd e5 82 d3 3d c3 c8 90 3d c3 18 b1 3c
       -0.07247872 0.103277005 0.07069542 0.021618253
000270 15 3f 6a 3e 3f 63 9c 3b 48 a9 77 3e 03 ab 2a be
       0.22875626 0.0047725732 0.2418567 -0.16666798
000280 ff 32 28 be 3f 71 ba bd ce b9 56 be 40 84 fd 3c
       -0.16425703 -0.09103631 -0.20969316 0.03094685
000290 fd 1e 47 3e 41 88 c0 3d 93 6a 22 3e 16 8a 5e 3e
       0.19445415 0.09400988 0.15860967 0.21732363
0002a0 35 fc f1 3d 17 db 4f 3e 89 5e 89 3d f7 24 a1 bc
       0.11815683 0.2029842 0.06707484 -0.019670947
0002b0 58 16 64 3e ee 7e 34 be 8c f9 98 3d 64 d5 30 3e
       0.22274148 -0.17626545 0.07469472 0.17268902
0002c0 ef 6f d3 3d 7a 63 fa bd cf 3d 11 be 66 9e c6 bc
       0.10324084 -0.12226005 -0.14183734 -0.024245452
0002d0 2f df c7 3d 56 eb 8e 3e e6 41 06 be c7 bf f8 3d
       0.09759366 0.27913922 -0.13111076 0.121459536
0002e0 9b 5d 4f be e7 9b 79 be a6 05 3b 3e a1 82 3f 3e
       -0.20250551 -0.24375878 0.18263873 0.18702175
0002f0 99 ca 5d bd 42 6a 19 be 7b 87 ca 3d f3 cd 86 bc
       -0.05414829 -0.1498194 0.09889122 -0.016455626
000300 d2 70 69 3e ca 65 a0 bd 25 10 1b be 97 d6 01 be
       0.22796944 -0.07831915 -0.15142877 -0.12679516
000310 4b fa b2 bc 86 41 7d 3d 60 6a 18 be e8 5b 62 3e
       -0.021847865 0.061830066 -0.14884329 0.22105372
000320 88 a0 4b be 8e 10 03 bd c5 a3 c0 bd 61 49 7c bd
       -0.19885457 -0.03199821 -0.094062366 -0.061593417
000330 7b 16 4f be 6f ce 21 be 7e 09 63 3d e3 6e 40 be
       -0.2022342 -0.15801404 0.055428974 -0.187923
000340 55 f9 82 be 0d d1 26 3e 0e 67 19 3c 00 4c 02 be
       -0.2558085 0.16290684 0.009362949 -0.12724304
000350 5f be 75 3e a3 09 31 3e aa 13 77 be f5 80 64 be
       0.23998402 0.17288832 -0.24128595 -0.22314818
000360 88 d7 0a 3e 38 44 a3 3c c1 ed b9 bd 1e 91 d9 bd
       0.13558781 0.01992999 -0.09078551 -0.10623382
000370 09 57 5a 3d 18 ab e3 bd 79 4d 15 be 0d ef a5 3d
       0.05330566 -0.11116618 -0.14580335 0.08102236
000380 d7 dd dc bd fa 81 5a 3d 6a 9c 18 bd 7b 0e 0a 3d
       -0.107845 0.05334661 -0.037258543 0.033705216
000390 7d 8c ab bc 87 85 20 3d 51 60 5c be 18 c0 01 3e
       -0.020941013 0.03918984 -0.21521117 0.12670934
0003a0 10 7e c1 3d 05 3f 86 bc 0f df 68 be f2 56 51 3e
       0.09447873 -0.016387472 -0.2274134 0.20443323
0003b0 8e 01 4b be 1a 52 da b9 83 6d e0 bd 3e ad b6 bc
       -0.19824812 -0.0004164137 -0.10958388 -0.022299405
0003c0 f3 cc 69 be ea 4e 12 3e f9 df fc 3c c7 21 3b 3e
       -0.22832088 0.14287916 0.030868517 0.18274604
0003d0 c3 9d 5f be e2 bb 6f bd 87 98 2c be 55 41 3c be
       -0.21837525 -0.05852879 -0.1685506 -0.18384297
0003e0 b1 df 02 bd 1e 83 80 3e 84 15 c3 3d 25 99 4e be
       -0.03195161 0.25100034 0.09525588 -0.20175608
0003f0 96 90 01 be 91 66 e6 3c 04 d8 6d 3e 82 90 f2 3d
       -0.12652811 0.02812508 0.23226935 0.11843969

module.LSTM_layer.weight_hh_l0 f4 [64, 16]
000000 eb af 42 3e 75 4a d5 3d ee 8d 0c bc 22 9d 02 3e
       0.1901242 0.10414592 -0.008578761 0.12755254
000010 db a4 75 3e c7 c7 fd bc 79 cd 36 be 71 9b f1 bd
       0.23988669 -0.03097905 -0.17851819 -0.11797226
000020 22 c6 72 3d 8f 45 c9 3d 84 26 a6 b9 97 1a 01 3d
       0.059270985 0.098277204 -0.00031690684 0.0315195
000030 29 8e 84 bb 32 c5 f8 3c 45 fb 39 be 5c ff 28 3e
       -0.004045267 0.030367468 -0.18162258 0.16503662
000040 d0 67 23 be 54 f9 a9 bc 6d 47 0f 3e 09 b8 af 3b
       -0.1595757 -0.020748772 0.1399209 0.005362515
000050 81 56 59 3e a2 93 da 3d 0d 62 02 ba 31 69 cb bc
       0.21224405 0.1067269 -0.0004973717 -0.024830433
000060 97 b3 11 3c 18 0a 6f 3e 4c 1a 25 3e 4f c0 ee bc
       0.008892915 0.23343694 0.16123313 -0.029144434
000070 e8 c8 68 3e 42 1b 1a be 26 fa 1d bd e4 9b 34 be
       0.2273289 -0.1504946 -0.03856864 -0.17637593
000080 47 48 00 be cf 8c bb bc 6e d1 2c be c4 9c f8 3c
       -0.12527572 -0.022894291 -0.16876766 0.03034819
000090 a2 91 03 3e 92 88 dc 3d 19 d2 d5 bd 7c 5d 95 3d
       0.12848523 0.10768236 -0.104404636 0.07293221
0000a0 77 3f 02 3b 43 69 73 3e 1f f7 7e be 61 03 24 be
       0.0019874254 0.23770623 -0.24898957 -0.16016914
0000b0 fb a6 de 3d 45 c9 ca 3d 95 88 3c 3e 30 9a c1 3c
       0.10871693 0.0990167 0.18411477 0.023633093
0000c0 6e aa 35 bd 24 d8 d9 bd fa ca 0b bd 38 2c 31 be
       -0.044351988 -0.10636929 -0.03412912 -0.17302024
0000d0 aa 8a fb bd 83 7a 35 bd 5e f0 53 3e 93 c5 1c 3e
       -0.122823074 -0.04430629 0.20697162 0.15309744
0000e0 a5 9e 75 3e 40 d8 0d 3c 88 bd 9b 3e f6 70 2d be
       0.239863 0.008657515 0.30418038 -0.16937622
0000f0 5e 47 7c 3e d2 dc 8c be f8 dc a7 3b d0 fb d4 3d
       0.246366 -0.27512223 0.005122777 0.10399592
000100 7a 71 18 3e ca 02 10 b8 54 e4 35 3c e7 21 19 3d
       0.14887038 -3.4334873e-05 0.011101801 0.037385847
000110 a7 06 23 be a2 e0 81 3b 7e f1 38 3e 2b 5d 8d bc
       -0.15920506 0.003963546 0.18060872 -0.01725634
000120 47 bd 0c be 05 19 2e be c0 4d f4 bd 80 ea 02 bd
       -0.13744079 -0.17001732 -0.11928892 -0.031961918
000130 0a 80 0c 3e a3 d5 b6 bd 69 33 f7 bd af a7 dd 3d
       0.13720718 -0.08927467 -0.120703526 0.10822999
000140 fd 37 29 be df 6e 05 3c c7 99 a6 3d 86 e6 19 be
       -0.16525264 0.0081441095 0.081347995 -0.15029344
000150 ce 11 53 3d dd 71 22 be 78 0f a2 bd 70 73 25 3d
       0.05153065 -0.15863748 -0.07913107 0.040393293
000160 a2 b4 45 be 7d e2 a1 bd 75 22 d8 3d 94 6d f3 bb
       -0.19307187 -0.07904527 0.10553447 -0.007428834
000170 9f c6 67 3e 4d 0e da 3c fc 96 5a 3e 16 88 b2 3d
       0.22634362 0.026618147 0.21346658 0.087173626
000180 b5 e1 ac 3d 98 22 86 be 26 29 8c 3d 14 e0 32 3e
       0.08441488 -0.26198268 0.06843786 0.17468292
000190 9a ef 55 3e 01 f0 0d be 16 08 d0 3d 2c d2 c2 3d
       0.20892182 -0.13861085 0.10157792 0.09512743
0001a0 b1 bf 8c be 50 3d 6d 3e 08 12 6c 3d 6f b3 db 3d
       -0.2749 0.2316792 0.057634383 0.107275836
0001b0 1c 63 96 bd c9 31 b7 3d 1a 4e 1b bc c8 2c fb 3d
       -0.07343122 0.08945043 -0.00947907 0.12264401
0001c0 c5 9a 8e 3e 9d b3 89 3d 30 35 52 bd 85 80 67 be
       0.27852455 0.06723712 -0.051320255 -0.2260762
0001d0 25 41 51 3c bd 07 98 3d 93 0c 29 be 28 44 91 be
       0.012771879 0.07423351 -0.16508703 -0.28372312
0001e0 f5 fb 26 be 16 bd 6b be f9 23 3f 3e 25 c3 9a 3d
       -0.16307051 -0.2302135 0.18666066 0.07556752
0001f0 4a 04 86 3e 3a 82 44 be ee 6d 34 3e 97 7a 9f bd
       0.26175147 -0.19190302 0.1762006 -0.07787054
000200 42 64 62 bd de a3 63 bd d6 16 00 3e bb 71 3a bb
       -0.055271395 -0.055576198 0.12508711 -0.0028449136
000210 72 6a 60 be 4a 4d 13 be 04 28 52 bc 2a e3 86 bd
       -0.21915606 -0.14384952 -0.012826923 -0.06586297
000220 34 e4 99 3c c8 1c 81 bd fa bb 89 3d 58 a1 b9 ba
       0.018785574 -0.06304318 0.06725307 -0.0014162464
000230 33 05 39 3e 45 10 c7 bd a5 fe 6a 3e 35 85 42 3a
       0.1806839 -0.097199 0.22948702 0.0007420362
000240 1c 19 07 3e 59 a3 54 be f9 7b 6c 3e 04 38 85 bc
       0.13193172 -0.20765437 0.23094167 -0.016262062
000250 c0 41 19 3e 99 2e 0d 3e 72 07 30 3e 75 22 4c be
       0.14966488 0.13787307 0.1719034 -0.1993502
000260 fb aa c9 3d 2a c5 5b 3e 0d ed d5 3c 02 18 47 be
       0.09847065 0.21461931 0.026114011 -0.19442752
000270 0c 5b 77 bd f3 0e 8b 3c 20 8d 84 3d d9 83 0b bd
       -0.060389563 0.016974902 0.0647223 -0.034061287
000280 4b 8b d8 3d c7 0c b8 ba cc 49 30 3e 16 35 49 3c
       0.10573443 -0.0014041894 0.17215651 0.012280723
000290 2c 6b cc bd a1 da 78 be c3 63 99 be 44 c5 b2 3b
       -0.09981379 -0.2430215 -0.29958925 0.005455645
0002a0 c0 70 c4 3d 17 c0 36 bd d4 e4 c5 bc b9 7f f3 3d
       0.09591818 -0.044616785 -0.024156965 0.118895955
0002b0 ae b3 6f be 78 ff ff bc 19 39 18 3e 95 ca ba 3d
       -0.23408386 -0.031249747 0.14865531 0.09120671
0002c0 c4 32 d2 3d ba a7 bc 3c d9 f2 98 3e e3 c1 e2 3d
       0.10263589 0.023029197 0.29872778 0.11072137
0002d0 2f 50 86 be 3a c2 19 be d9 aa 58 be cd 01 39 3e
       -0.2623305 -0.15015498 -0.21158923 0.18067093
0002e0 79 ef 0a 3e 65 6d d2 ba 7d e1 e2 3c 55 a1 94 3d
       0.13567914 -0.0016054331 0.027695412 0.07257334
0002f0 bf 63 1a be 1d b2 ab 3d bc db e2 bc a5 9f a8 bd
       -0.15077113 0.08383582 -0.027692668 -0.08233575
000300 25 a8 d5 bc 94 90 04 3e 90 9c 12 3e ca 59 61 be
       -0.026081154 0.12945777 0.14317536 -0.22006908
000310 1f c8 ac bd 8a 05 fc 3d 7c 77 af bd 70 d4 0a 3e
       -0.084366076 0.12305744 -0.08567712 0.13557601
000320 40 a0 3f 3c 31 a3 5b be 8e 30 8a bd 8d f4 ed bd
       0.011695921 -0.21448971 -0.06747542 -0.1161891
000330 3f 9d 45 3e 2d 46 39 bd 5e 60 23 3d c6 c3 83 3e
       0.19298266 -0.04523294 0.039886825 0.257353
000340 4b 77 0c 3d 79 a2 85 3d 3e 3e 83 3e 21 a0 7d be
       0.034293454 0.0652513 0.25633425 -0.24768116
000350 fc f7 e1 bc af 2b 34 3e 5f 5e 83 3e 6d f9 6c 3e
       -0.027584068 0.17594789 0.25657937 0.23142023
000360 3c a5 0f 3e cc 70 46 bd 58 a6 36 bd 10 2d db 3c
       0.14027876 -0.048447415 -0.04459223 0.026754886
000370 13 6e 0d be 51 e1 57 be d8 7c 65 be f5 c7 10 bc
       -0.13811521 -0.21082045 -0.22410905 -0.008836736
000380 97 fd 1f 3e 44 c3 51 be 50 70 04 3e 8d c0 83 bd
       0.1562408 -0.20484644 0.12933469 -0.064332105
000390 e6 88 39 3c 5a 6c 79 be 2b 7c 03 be ef 6d 30 3e
       0.011324143 -0.24357739 -0.12840335 0.17229436
0003a0 dd 20 92 3d f2 89 62 3e 4a 86 75 3e 80 42 ce 3d
       0.071351744 0.22122934 0.23977008 0.100712776
0003b0 ec 11 28 3e 6f 92 18 be ef e5 12 3e ef 16 5b 3e
       0.16413087 -0.1489961 0.14345525 0.21395467
0003c0 50 b8 82 3d 99 53 75 3e 54 c4 3e 3e e2 6a 07 3e
       0.06382811 0.23957671 0.1862958 0.13224366
0003d0 5e dd 7a 3e fd ed f3 3a c9 95 a7 3d b9 71 bf 3d
       0.24498507 0.0018610355 0.08182866 0.09347863
0003e0 6c 69 3e 3d 80 78 b8 bd 68 ba 22 3e 37 be 64 be
       0.046487257 -0.090073586 0.15891421 -0.22338186
0003f0 26 b0 5a 3c 3e 3a 55 bd 93 3d 10 3e 78 b9 33 3c
       0.013347661 -0.052057497 0.14085989 0.010969512

module.LSTM_layer.bias_ih_l0 f4 [64]
000000 82 fd 41 bd 89 bd 64 3e bb 07 7f 3e 80 f1 0b 3e
       -0.047360905 0.22337927 0.24905293 0.13666344
000010 1b dc 6e be ad ae 3b 3e 70 f0 94 3d ee 90 19 bd
       -0.23326151 0.18328352 0.07272422 -0.03749173
000020 8e 51 81 3e a9 06 7d be 73 26 86 3d 1e 27 7e 3d
       0.25257534 -0.24709572 0.06550302 0.062049024
000030 62 6e fe bd a1 4b 90 bd 02 e7 0c be f8 f1 34 3e
       -0.124233976 -0.07045675 -0.13759997 0.17670429
000040 f6 eb 4a 3e 8e 7c 34 3e 69 1e bc bb b5 7e 89 3d
       0.19816574 0.17625639 -0.00574093 0.067136206
000050 7e f6 5c be 26 dd bb bd 8b 24 da 3d 31 94 1c 3e
       -0.21578404 -0.0917304 0.10651501 0.15290906
000060 78 78 78 3e 08 0e 3f 3c 6c 93 36 3e c2 1d 48 bd
       0.24264705 0.01166106 0.17829674 -0.048856504
000070 54 db 13 be 80 0a 89 3c fe 55 15 3d 79 02 31 be
       -0.14439136 0.01672864 0.03645896 -0.172861
000080 3f 02 e8 bd c5 bf 11 3e 90 e2 92 bd 1d 4e 8d bd
       -0.113285534 0.1423331 -0.071721196 -0.068996646
000090 82 12 9e bd 09 c3 db bd f8 b6 6d 3e ec 81 2b 3d
       -0.07718374 -0.107305594 0.23214328 0.04187195
0000a0 b4 df 15 bd 3d d2 1f be 10 c5 f4 bd 9e 3d a1 3d
       -0.036590293 -0.15607543 -0.11951649 0.07873081
0000b0 72 6a 6b be 56 8b 0b bc 0e ca 29 3e 3c c9 08 3e
       -0.22989824 -0.008517107 0.16580984 0.13358015
0000c0 27 94 7e bc 8c a1 e6 bd eb 8f 0d 3e b0 f5 49 be
       -0.015538252 -0.11261281 0.13824432 -0.19722629
0000d0 9e c9 4d 3e 93 58 14 bd 63 21 ba 3b e6 40 01 bd
       0.20096442 -0.036217283 0.0056802495 -0.031556033
0000e0 24 d8 75 be 99 a1 f3 3d 7c ec 42 be b1 5a d6 3d
       -0.24008232 0.11896057 -0.19035524 0.10466517
0000f0 86 7b 4c 3e d9 a1 1e bd 6d a5 f7 3d 67 c0 76 3e
       0.19968995 -0.03872857 0.12092099 0.24096833

module.LSTM_layer.bias_hh_l0 f4 [64]
000000 0e c0 59 3e 25 ce 08 3e 8f 0b 55 be 75 b8 82 3c
       0.2126467 0.13359888 -0.2080519 0.015957097
000010 c7 51 f5 3d 7b 95 18 bd 0d 06 2e bd 39 9f 04 3e
       0.119784884 -0.03725193 -0.04248624 0.12951364
000020 1a 49 4b 3e ea 3a 46 be 86 ce 2f 3e ca 1b 6c bd
       0.19852105 -0.19358411 0.17168626 -0.05764369
000030 e1 a0 3c 3e 40 45 b8 3d e4 94 2d be 04 a8 6d 3e
       0.18420745 0.089975834 -0.16951329 0.23208624
000040 8d 62 66 3e 03 57 55 3d 5c 1d 6b 3e 05 2d 01 3e
       0.22498532 0.052084934 0.22960418 0.1261483
000050 35 64 77 3c 55 7e da 3d e7 e9 88 bd 80 9e c9 3d
       0.015099575 0.10668627 -0.06685238 0.098446846
000060 e0 53 cf 3d 74 d4 64 be 97 0b ea bd 75 df 31 be
       0.1012342 -0.2234667 -0.11427992 -0.17370398
000070 92 a6 76 3e 10 48 7c be 88 50 54 3e 29 a9 4b 3d
       0.24086979 -0.24636865 0.20733845 0.04972187
000080 cc 4c 20 3e fa b5 73 bd 2e de 77 3e 13 82 67 3e
       0.15654296 -0.05949972 0.24205849 0.22608213
000090 27 0b 77 be 84 a0 04 3e ad 78 d1 bc 3f f7 4a 3d
       -0.24125348 0.12951857 -0.025570238 0.0495522
0000a0 a7 c5 69 3e cc 8f 0c 3e 4a be 66 3e fa f0 86 3c
       0.22829305 0.13726729 0.22533527 0.016472328
0000b0 03 35 29 be 58 31 51 3e cf 92 63 3e cf 6e b2 bd
       -0.16524129 0.2042898 0.22223972 -0.08712541
0000c0 cf 53 6b be 25 da 30 3e ca 38 af bd 46 1d ed 3d
       -0.22981189 0.17270716 -0.085557535 0.11577849
0000d0 70 0c 4d 3c 7c 3a 13 3e df c8 81 3d 3e 60 69 3e
       0.012515172 0.14377779 0.06337141 0.2279062
0000e0 0f 8b f4 3c a7 19 5a be 23 d4 b2 3d b4 2a 26 3c
       0.029851465 -0.21298848 0.08731868 0.010142017
0000f0 df b7 47 be fd 51 41 be 4e 10 19 3e ab 39 21 3e
       -0.19503735 -0.18878932 0.14947626 0.15744655

module.LSTM_layer.weight_ih_l1 f4 [64, 16]
000000 08 77 ef 3c 9b a6 d2 bd 60 e0 0e be 76 d8 0b 3e
       0.029231563 -0.10285684 -0.1395278 0.13656792
000010 e5 22 f1 bd 6e 66 e0 3c f0 7f 1e be f8 ce 81 3e
       -0.11774234 0.027392592 -0.15478492 0.25353217
000020 1b 38 29 bd ac 6d 1f be cd 0c fb 3d 74 b2 7e be
       -0.041313272 -0.1556918 0.12258301 -0.24872762
000030 b9 e6 a8 bd 7a 18 cc bd b3 8c 55 3c ad d8 27 be
       -0.08247132 -0.09965606 0.013034034 -0.16391249
000040 b4 b0 80 3e 7e 37 26 3e 3b a4 13 3e d8 a9 65 bd
       0.25134814 0.16232106 0.14418118 -0.05607018
000050 fd 89 f1 bd 11 f4 0d be 63 b1 38 3e 9f ba b5 3d
       -0.11793897 -0.13862635 0.18036418 0.08873486
000060 48 a5 85 3b 84 f7 22 3d b4 9e ff bd 6d 80 72 3e
       0.004078541 0.03978683 -0.12481442 0.23681803
000070 ec cd 5c be 8e 31 81 be f2 24 74 ba 10 8e 03 be
       -0.21562928 -0.2523312 -0.00093133666 -0.12847161
000080 1b 40 0f be bf 81 31 3d 81 ac f8 3c f7 55 87 bc
       -0.13989298 0.043336626 0.030355694 -0.016520483
000090 2a 1c 48 3e 41 b8 97 bd c8 ec e4 bd fc 40 4b 3e
       0.19541994 -0.074081905 -0.11177975 0.19849008
0000a0 77 15 99 bc 43 6f 1f 3e bc 5d 5b 3e 7f 33 ad 3c
       -0.018686993 0.15569787 0.21422476 0.02114272
0000b0 1b e4 d8 3d f7 b4 82 be 82 c5 f2 bc b1 34 5a be
       0.10590383 -0.2552869 -0.029635195 -0.21309163
0000c0 69 a6 87 bd df c0 ed bd 17 40 ee bc 2e ac 57 3a
       -0.06623537 -0.11609053 -0.029083295 0.0008227256
0000d0 4d 9a e6 bd cf e1 16 3e 0f a7 22 be 96 29 d3 3d
       -0.11259899 0.14734577 -0.1588404 0.10310666
0000e0 ed 26 8b bd 49 b2 f7 bd 66 7c d9 bd ca 83 45 bd
       -0.06794534 -0.12094552 -0.1061943 -0.048221387
0000f0 67 6f 19 3e 38 4b b1 3d e3 a4 23 be 1d d4 54 be
       0.14983903 0.08656925 -0.15980868 -0.2078404
000100 e2 9a 75 be de 64 f5 3d ec 72 85 3e e9 98 a2 bd
       -0.23984864 0.119821295 0.2606424 -0.079393215
000110 f8 2d 82 3d c7 39 69 3e b4 fc 55 be 73 da 24 be
       0.06356424 0.22775947 -0.2089718 -0.16098957
000120 da 37 04 bd 19 58 56 be 51 00 5b be 2b 79 61 3e
       -0.032279827 -0.20932044 -0.2138684 0.22018878
000130 10 73 4f 3e c6 0c c2 bd af 23 67 be c0 ba 79 be
       0.20258737 -0.094750926 -0.22572206 -0.24387646
000140 8e 78 6d 3d 96 6e 81 3e bb e9 75 be b7 f6 b2 bd
       0.057976298 0.25279683 -0.24014942 -0.08738463
000150 76 81 82 be 71 16 64 3e a3 37 45 bd 05 c3 bb 3d
       -0.25489396 0.22274186 -0.048148762 0.091680564
000160 fd e1 0f 3e d4 2d 0a be 2f 76 3d be b9 5d e6 3c
       0.14051051 -0.13494045 -0.18502115 0.028120862
000170 83 68 29 3e d3 c0 ed bd 68 4c d8 bd d1 8e 6c 3b
       0.16543774 -0.11609044 -0.10561448 0.0036095867
000180 a8 54 58 3e a3 a8 3e be 34 c1 d0 bd 31 be ab bd
       0.21126044 -0.18619017 -0.101931006 -0.083858855
000190 a0 9c 2a be f1 f6 15 be b4 a8 8a 3d 48 1b ba 3d
       -0.1666131 -0.14644982 0.06770459 0.09087235
0001a0 95 73 2f 3e 92 a1 41 be 26 d4 b0 bd c2 a3 45 3d
       0.17133935 -0.1890929 -0.08634214 0.048251875
0001b0 8d 6d b9 3d 19 85 6c be c1 b2 5e be 47 87 d7 3d
       0.09054098 -0.23097648 -0.21747877 0.10523849
0001c0 9f 82 29 be c5 eb fc bc 1a e5 c0 3c 94 8f 37 be
       -0.16553734 -0.030874142 0.023546744 -0.17925864
0001d0 0c df b1 bd be d6 65 be 7f 48 81 3d c7 86 b3 3d
       -0.08685121 -0.22445199 0.06312656 0.08765941
0001e0 2b 33 31 3d a6 47 d1 3a 6d c4 3f 3e fc 3c 30 be
       0.04326169 0.0015966787 0.18727274 -0.17210764
0001f0 57 03 64 be 5a 0c 54 be c6 04 41 3e cb 69 b7 3c
       -0.22266899 -0.20707837 0.18849477 0.022389313
000200 a9 d9 82 be 7b 96 0d 3d a0 ad d7 3d ba 01 07 be
       -0.25556687 0.034567337 0.10531163 -0.13184252
000210 6e 1d ef 3d 33 3c a9 bc dd a7 28 3e d9 08 84 3d
       0.11675535 -0.020658588 0.16470285 0.06447
000220 a5 9a 3f be be 3f 84 bd 6d 9e b4 bd cd 2f f0 bb
       -0.18711336 -0.0645747 -0.0881928 -0.007329917
000230 47 d4 14 be 27 9b e0 3d 0d 0a 41 3d ce ff 1c be
       -0.14534102 0.10967093 0.047128726 -0.15331957
000240 a7 f3 05 bd 4d f7 df 3d 80 a6 fb 3d 2b a2 37 3e
       -0.032703068 0.10935841 0.12287617 0.17932956
000250 c5 e6 0b be 83 29 2b 3e 20 ea ce bd 1e 5b 49 be
       -0.1366225 0.16715054 -0.101032495 -0.19663665
000260 f4 f7 bf bd ed 6a a3 bc b6 fe 78 3e 70 f4 1d be
       -0.09373465 -0.019948447 0.24315915 -0.15425277
000270 9c c6 84 be e7 ee 18 3d d2 37 38 3b 93 c6 e7 3d
       -0.25932777 0.03733721 0.0028109443 0.11317172
000280 1a af af bc ac 4f 30 be 30 2c b6 3d 4f 54 cc 3d
       -0.0214458 -0.17217892 0.08895147 0.09977018
000290 bc 6c fb 3c 9a 24 54 3e 1f fd 61 be f6 36 a8 3d
       0.030691497 0.20717087 -0.22069214 0.08213608
0002a0 69 5b fd 3d 28 f8 40 3e c7 53 67 bc e0 37 71 bc
       0.12370951 0.18844664 -0.014119095 -0.014722794
0002b0 91 2b c3 bd c4 60 49 3e e6 6e 6a 3e 26 70 3b be
       -0.09529794 0.1966582 0.22893867 -0.183045
0002c0 2f f9 04 3e 97 53 76 3d 4d 5f af bd ce 66 0d be
       0.12985681 0.06013831 -0.08563099 -0.13808748
0002d0 7b 66 54 bd ae 92 39 3e fe a7 39 3e 45 87 e0 3d
       -0.051855545 0.1812236 0.1813049 0.109633006
0002e0 cd ea 5b be 92 ac a7 bd cf 82 c0 3c 2e 57 33 3e
       -0.21476288 -0.08187212 0.023499874 0.17513725
0002f0 96 48 37 be db 4f f7 bd 3e 56 0b be 1c 6c a3 3d
       -0.17898783 -0.12075778 -0.13607118 0.079796046
000300 da 22 f6 3d 20 49 57 bd c5 90 4d be 98 76 4a be
       0.12018366 -0.05255997 -0.20074756 -0.19771802
000310 e7 e6 45 3e f7 4e 26 3e 00 d2 a3 bd bb 73 bf 3d
       0.19326364 0.1624106 -0.07999039 0.09348246
000320 9f 89 72 3e 9a 84 88 bc 76 94 df bc cc 6c 43 3d
       0.23685311 -0.016664792 -0.027292471 0.04771118
000330 df ff 32 be ba 24 08 bd 37 58 62 be 0a 22 6c be
       -0.1748042 -0.03323815 -0.22103964 -0.2305986
000340 3c 33 11 be 22 01 43 be 46 22 d0 3d 16 79 d2 3d
       -0.141797 -0.19043401 0.10162787 0.102770016
000350 59 75 10 3d d2 3c 0a 3e 31 56 f9 bc 30 f3 20 be
       0.03526816 0.13499764 -0.030436607 -0.15717769
000360 23 59 cb bd fa 04 6a be de 41 5f be 72 a0 35 be
       -0.09929111 -0.22853461 -0.2180247 -0.17736986
000370 a5 11 b2 3b ac 94 a4 bd ce 6a 32 be 03 ca 59 be
       0.0054342323 -0.080361694 -0.17423555 -0.21268468
000380 cf a7 67 3e de f0 0c 3e ff aa 57 3e 45 87 d2 bd
       0.22622608 0.13763759 0.21061324 -0.10279707
000390 e5 8d 17 3e a6 5d 2c 3e eb 62 81 3e b6 95 73 be
       0.14800222 0.16832599 0.2527078 -0.23787579
0003a0 bc c3 00 3e 1e 06 14 be 6e 5d 15 be 06 f1 21 3e
       0.12574667 -0.14455459 -0.14586422 0.158146
0003b0 88 59 6a bb 88 a9 1a 3e 89 a5 1c 3e 96 7a 5c be
       -0.0035758931 0.15103734 0.15297522 -0.21531138
0003c0 f6 85 d9 3c 25 cb 46 be 7a 6b 73 3c 04 69 52 bd
       0.026553135 -0.19413431 0.014857167 -0.051369682
0003d0 b3 2d e8 3d 82 c0 48 3e b4 5a d4 bc 00 66 77 be
       0.113368414 0.19604686 -0.025922157 -0.24160004
0003e0 63 26 59 be bc fc 86 3c ec 9d 50 3b 58 53 0b 3d
       -0.2120605 0.016477935 0.003183241 0.03401503
0003f0 ab 47 4e 3e 9d e6 4f be 96 f9 c0 3d ea f1 c2 3d
       0.20144527 -0.20302816 0.09422605 0.09518798

module.LSTM_layer.weight_hh_l1 f4 [64, 16]
000000 05 2d 39 be 1a 83 05 bb 60 02 d8 bd 96 13 28 3d
       -0.1808358 -0.0020372332 -0.10547328 0.041034304
000010 fa dd 4d 3e 75 9f 88 be 04 8e 15 be 21 82 84 be
       0.20104209 -0.26684156 -0.14604956 -0.2588053
000020 bc 43 27 3e 38 5c 36 be 67 b5 a2 bd d4 43 34 3e
       0.16334432 -0.17808616 -0.07944756 0.17604
000030 92 02 05 3e ed ef e9 3d 7c 42 c6 bc e2 e2 60 be
       0.12989262 0.11422715 -0.024201624 -0.21961549
000040 e8 9c 6c bd 67 da 03 be 67 53 48 3e c7 40 a1 3d
       -0.057766825 -0.12876283 0.19563065 0.078736834
000050 aa 83 b3 3d 3f 87 82 bd bf 6c 31 3e 9e 9d b9 3d
       0.08765347 -0.063734524 0.1732664 0.09063266
000060 43 86 47 be d4 7c 33 ba 86 17 77 be b9 e3 46 be
       -0.1948481 -0.0006846909 -0.24130067 -0.19422807
000070 04 80 4b 3d 47 9f 8e bc 58 7d 41 3d 75 8a 7d 3e
       0.049682632 -0.017409934 0.047238678 0.24759848
000080 de 31 2f be 6a 53 b5 bd a9 5f d4 bd f3 67 26 3e
       -0.17108867 -0.088538006 -0.10369808 0.16250591
000090 bd 00 4e bd 9f e0 50 be 7c f7 12 bd e5 a3 a6 bc
       -0.050293673 -0.20398186 -0.03588055 -0.020341823
0000a0 9f ce 57 be 8d 84 58 3e 43 87 27 3d 79 0c 65 be
       -0.21074913 0.21144314 0.04090048 -0.22368039
0000b0 be 72 5e 3e bd 35 18 be e9 c2 8c 3d cf b5 c0 bd
       0.21723458 -0.1486425 0.06873114 -0.09409677
0000c0 aa c6 fe 3c 35 a2 6c bc f0 5d 7c bd 95 2c 60 3e
       0.03110059 -0.01444297 -0.061613023 0.21892007
0000d0 00 a9 52 be d9 b0 85 3d 8d ba 94 bc 99 5f fc bd
       -0.20572281 0.06527872 -0.01815536 -0.12322921
0000e0 af fb 1b be 88 25 f8 3d fd 10 3f 3e 8a c3 ae 3d
       -0.15232728 0.121165335 0.18658824 0.0853339
0000f0 ee bc e5 bd 78 0a 34 3d ce c3 3a bd 0d f7 1a be
       -0.11217676 0.043955296 -0.04559689 -0.15133305
000100 70 57 ef bc 4b f7 17 3e 7f c3 f2 bc f7 d6 35 3e
       -0.029216498 0.14840429 -0.029634235 0.17757784
000110 bc 44 b9 bc 27 59 53 be d9 af e7 bd 11 ad 4c be
       -0.022615783 -0.20639478 -0.11312837 -0.19987895
000120 a0 12 ef 3d d8 f7 79 bd dc 83 69 be 72 08 48 be
       0.11673474 -0.061027378 -0.22804207 -0.19534472
000130 07 4e d3 bd 6f 14 53 be a2 fe 90 bc 5f 88 e5 bd
       -0.10317617 -0.20613264 -0.017699543 -0.11207651
000140 4f 30 b4 3d 21 3c 0d 3e 6d 6c 1d 3e 4a 37 e6 3c
       0.08798277 0.13792469 0.15373392 0.028102536
000150 d0 7d 7f bd 0f 58 29 be 9e e8 24 be dc 71 0e be
       -0.062375844 -0.16537498 -0.16104361 -0.13910621
000160 f1 d4 9e 3d 72 4b 27 be 09 b8 72 3e 57 35 0e be
       0.07755459 -0.16337374 0.23703016 -0.13887535
000170 e8 5b c9 3d 9b c7 12 bd 46 eb 87 3d e6 3c e2 3d
       0.09831983 -0.03583489 0.06636672 0.11046772
000180 79 31 3f 3e 7d 1e e1 3d 2d 75 27 3e 97 b8 80 bd
       0.18671216 0.10992143 0.16353293 -0.06285208
000190 08 a1 2f 3e 7b c1 81 bd 9f d8 a6 3d f1 e0 61 3e
       0.17151272 -0.063357316 0.08146786 0.22058465
0001a0 83 2e 30 be 60 e5 19 3d cd 6a 89 3d b9 99 9a 3c
       -0.17205243 0.037572265 0.06709824 0.018872129
0001b0 59 d2 23 be ca 40 33 be 78 29 7c be 2e 4c 56 bd
       -0.1599821 -0.17505184 -0.24625194 -0.052318744
0001c0 d8 7e c8 3d 32 1a 8d 3d a7 bd 1b bd a0 7b 5c 3e
       0.097898185 0.06889762 -0.038022663 0.21531534
0001d0 56 0b c8 3d ed 1b 0c be 10 25 4c bd fe e1 75 3d
       0.09767787 -0.13682528 -0.049840033 0.060029976
0001e0 a6 e7 ec 3d 52 2a d9 bd 49 13 60 be 04 b6 af bd
       0.11567621 -0.10603775 -0.21882357 -0.085796386
0001f0 fd 49 61 3e 7a 53 b9 3c 32 ba bd 3d fb 61 0d 3d
       0.2200088 0.022622813 0.092640296 0.03451727
000200 66 c3 a7 3d c6 0e 51 3e f0 61 0e 3d 74 36 b4 3c
       0.08191566 0.20415792 0.03476137 0.021998622
000210 eb a4 db 3c 54 63 dc 3d ef cf 27 3e 1e 0d 07 be
       0.026812037 0.10761133 0.16387914 -0.13188598
000220 a2 ce 1f 3c 4e 75 e8 bd a3 7a 23 be 8e fd e6 bd
       0.009753855 -0.11350499 -0.15964751 -0.112788305
000230 e4 22 6b 3d 18 15 c8 bd 9c 5c a1 bd 31 12 4d bd
       0.05740632 -0.09769648 -0.07878992 -0.050066177
000240 f7 aa 5f 3e 56 ab 66 3e c7 db 1d be 48 4b a5 bd
       0.21842562 0.22526297 -0.1541587 -0.080709994
000250 82 f4 18 3e 53 ed ce bc 90 c7 ee 3a 91 61 2b 3e
       0.14937022 -0.02525965 0.0018217433 0.16736437
000260 7e c9 ed bd 69 69 ef bd 40 e5 8e 3d a7 be f9 bd
       -0.11610697 -0.11690027 0.0697732 -0.12194567
000270 ee 0e c3 bd 7d 54 38 be 14 a7 41 be 14 d9 29 be
       -0.09524332 -0.1800098 -0.18911391 -0.16586715
000280 34 57 e2 3d 0c e3 53 be af a9 c6 bd d7 62 40 3e
       0.11051789 -0.2069208 -0.09700333 0.18787704
000290 58 b0 a1 3d cc 44 cb 3d 49 6f ca bd bf d2 9b 3d
       0.07894963 0.09925231 -0.09884507 0.07608556
0002a0 38 93 64 3b 27 4c 55 3d a6 69 a4 3d 2c 25 36 3d
       0.0034877788 0.052074578 0.08027963 0.044469044
0002b0 6a 97 b6 3d 4c e8 3e 3d 42 0d 24 3e 30 e2 2a 3e
       0.08915599 0.046608254 0.16020682 0.16687846
0002c0 d6 6c 93 3d 26 67 49 be 8d 1b 81 be b9 a5 12 be
       0.07198493 -0.19668254 -0.25216332 -0.1432103
0002d0 0e 1b 35 3e 7b be 6c be 05 7e ab bd b2 79 5e be
       0.17686102 -0.23119538 -0.08373646 -0.2172611
0002e0 9e 1a 71 be 59 6f b9 3d 31 0d 3d 3e f8 7d 6d be
       -0.2354531 0.09054441 0.18462063 -0.23192585
0002f0 4e 69 07 be f7 23 fe 3c 76 7f 19 be 51 c6 89 3d
       -0.13223764 0.031023009 -0.14990029 0.06727279
000300 09 9d 90 3d 73 02 29 be 0b 23 03 3e a1 ae f6 bc
       0.07061202 -0.1650484 0.12806337 -0.030112566
000310 6b bf 42 be a8 81 46 3e df 08 28 be 2c 84 80 3d
       -0.19018333 0.19385397 -0.16409634 0.0627521
000320 ca 42 d0 bd 52 02 97 bd 8b 9f a7 3d 44 54 ba bd
       -0.10168989 -0.073734894 0.08184727 -0.09098104
000330 61 c1 3f be cb 16 0e be 19 6d 7a bd a8 3d 93 3a
       -0.18726112 -0.13875882 -0.0611392 0.0011233585
000340 e4 a2 80 3c 6e 11 74 3e fe 3f 5f be cf 1c 2c be
       0.015702672 0.23834774 -0.21801755 -0.16807865
000350 7a 31 aa bd 00 08 1b 3d 61 13 e6 3c a1 05 3b be
       -0.08310218 0.037849426 0.028085412 -0.18263866
000360 01 5c 3b bd 42 ab a7 bd c6 0c 44 bd 89 77 15 be
       -0.04574204 -0.08186962 -0.047863744 -0.1459638
000370 c8 03 5e be 51 ff 08 be 87 d8 60 3e 25 04 e2 3c
       -0.2168113 -0.13378645 0.21957599 0.027589867
000380 e0 41 0f be 60 ad 25 be 2b 80 65 ba 97 3c 4f be
       -0.13989973 -0.16179419 -0.0008754755 -0.20237957
000390 a7 34 53 3d f1 e1 cf bd 80 84 12 3e ad 1e 6c be
       0.051563885 -0.10150517 0.14308357 -0.23058577
0003a0 cf 72 1d be b1 d1 48 3e c5 90 80 be 3b ba 34 3d
       -0.15375827 0.19611241 -0.2511045 0.044122916
0003b0 50 c5 f1 3c c7 b9 18 be af b1 94 bd e4 a4 56 3e
       0.029513031 -0.14914618 -0.07260453 0.20961338
0003c0 ad 44 33 3e 3a b0 32 be 3f 25 f0 3c 53 f0 0d 3e
       0.17506666 -0.17450038 0.029314635 0.13861208
0003d0 5f 5b bd 3d 3c f3 69 bd c7 57 79 3d be 9b 1e be
       0.09245943 -0.057116732 0.060874727 -0.15489098
0003e0 08 a5 18 3e ca 96 52 3e b0 79 96 3d c3 24 96 be
       0.14906704 0.20565334 0.07347429 -0.29324922
0003f0 68 ae 9b 3d e7 c6 98 3d 4c 8f b2 bd da d0 2e be
       0.07601625 0.074598126 -0.08718738 -0.17071858

module.LSTM_layer.bias_ih_l1 f4 [64]
000000 93 6a ad bb 4e 5f 44 bd 74 cb 66 bd b2 04 29 be
       -0.0052922457 -0.047942452 -0.05634637 -0.16505697
000010 b7 a2 f3 3d 8c 88 5a be 80 61 4d 3e af 3d 4f 3e
       0.1189627 -0.21341151 0.20056725 0.20238374
000020 bf a7 26 3d d2 27 d3 3d 5a ef 46 3d df 39 49 3e
       0.04068732 0.103103295 0.048568107 0.19650982
000030 40 5d 0b be f2 34 93 bb dd 37 13 3e 39 c5 13 3e
       -0.13609791 -0.0044923956 0.14376779 0.14430703
000040 b3 ec d9 bd 11 61 7a be e8 99 9d bd c5 3b 5c 3d
       -0.1064085 -0.2445109 -0.07695371 0.05376794
000050 e1 00 f9 3d b3 25 39 3e 46 8e bc 3d 8c 11 ac 3c
       0.12158371 0.18080787 0.09206824 0.02100446
000060 bc e9 3d 3e ea 87 f4 3d 00 f2 63 bd 83 86 d7 bb
       0.18546194 0.11939986 -0.05565071 -0.0065773143
000070 9f 96 2d be 3f 2d 3d be 02 4e 8c bd 51 94 36 be
       -0.16951989 -0.18474291 -0.06850816 -0.17830016
000080 80 c0 ec bd 21 be f6 bd 52 d1 41 3d ec 5e 40 bd
       -0.11560154 -0.12047983 0.047318764 -0.046965525
000090 0e 5c 2e 3d 2d 91 41 be dc 10 3d 3e 7e 5f 00 bd
       0.04256826 -0.18903036 0.18463463 -0.03134107
0000a0 b9 c3 8c 3d 06 02 d5 3c 21 7c 82 3d d0 89 0b be
       0.06873269 0.026001941 0.06371332 -0.1362679
0000b0 db 70 bf 3d 54 bd 7f be 9b ce 34 be 84 e4 df 3d
       0.09347697 -0.24974567 -0.17656939 0.10932258
0000c0 8d 38 f7 bd 83 06 18 3c 74 9f 79 3e ae a1 5d 3e
       -0.12071333 0.009278896 0.24377233 0.21643707
0000d0 bf 4d b5 bd 7e fb 4c 3c 19 4d 34 be 33 5e 40 bd
       -0.088527195 0.012511132 -0.17607535 -0.046964835
0000e0 3f b8 8d bc 60 0b d4 3d 90 92 5b 3e 8d 49 4f be
       -0.01729977 0.10353732 0.21442628 -0.20242901
0000f0 32 1d 61 3d 74 09 64 3e 5e e4 6b 3e fd c8 90 3d
       0.054959483 0.22269231 0.23036334 0.070695855

module.LSTM_layer.bias_hh_l1 f4 [64]
000000 5f 64 1a 3e 96 98 d1 bd a6 f2 a9 3d a4 48 36 3e
       0.15077351 -0.102341816 0.08298235 0.17801148
000010 ff dd e4 3d fc 28 33 3e 64 55 37 3e 59 42 1f 3e
       0.11175155 0.17496103 0.17903668 0.15552653
000020 9a df 3f be ca 7c 08 be f9 bd 5c 3e f4 3f 2f 3e
       -0.18737641 -0.13328853 0.21556844 0.1711424
000030 1d 56 3b 3e 43 e1 db 3d 1d ab 38 3e 9a 3e bb bd
       0.18294568 0.10736325 0.18034025 -0.091428
000040 b8 03 5e be 25 fe 09 be 8f 87 88 3e d6 8a f9 3d
       -0.21681106 -0.13475855 0.26665923 0.12184684
000050 75 32 01 3e c7 b1 4c 3e 01 7e ec 3d c6 a7 50 3e
       0.12616904 0.19989692 0.11547471 0.203765
000060 75 d6 ab bd e5 59 48 be c1 ab 53 bd c7 c7 f0 3b
       -0.08390514 -0.19565542 -0.05167747 0.007348034
000070 69 d6 e2 3d 9f a8 ba 3d a4 63 27 be 7e 82 99 bd
       0.11076052 0.09114193 -0.16346604 -0.074955925
000080 ea ef b7 bd d0 18 92 bd dd d7 75 be 94 e1 7e 3e
       -0.08981307 -0.07133639 -0.24008127 0.24890739
000090 26 4b 72 3e ae c2 5f be d6 ed 39 3e 03 c6 44 be
       0.2366148 -0.21851608 0.18157133 -0.1921616
0000a0 6e ce 9c 3c 37 ea 56 3e 46 93 03 3e 89 28 eb 3d
       0.019141402 0.20987783 0.12849149 0.11482341
0000b0 4b 83 2f 3e 6d d3 6e be 33 2a cc 3d 52 65 36 3e
       0.17139928 -0.2332284 0.09968986 0.17812088
0000c0 5e b0 ef 3d 3d a2 40 be b1 9c 0a 3e 4e 07 18 bd
       0.11703561 -0.18811889 0.13536336 -0.03711634
0000d0 7b 34 ce bd ea c3 4e be 16 71 18 3d 5e 66 c1 bd
       -0.100686036 -0.20191923 0.037217222 -0.09443353
0000e0 09 3a df bc bd 74 8a 3e bc 2e 40 3e 5b b8 aa bd
       -0.027249353 0.2704219 0.18767828 -0.08335944
0000f0 e4 86 1c bd ae a0 78 3e f0 37 75 3d 1b 41 64 be
       -0.03821458 0.24280044 0.0598678 -0.22290461

module.BN_layer.weight f4 [160]
000000 05 f6 7f 3f 48 44 84 3f 47 8d 7f 3f 1e ec 80 3f
       0.9998477 1.0333338 0.9982495 1.0072057
000010 ca 84 7d 3f ee cf 7d 3f 88 59 80 3f 8b dc 82 3f
       0.99030745 0.991454 1.0027323 1.0223554
000020 7c 01 7e 3f b5 ab 80 3f 8c 6b 80 3f 75 08 81 3f
       0.99221015 1.0052401 1.0032821 1.0080706
000030 da d9 83 3f 7d 84 7a 3f 0f c5 7b 3f 31 22 80 3f
       1.0300858 0.9785841 0.9834756 1.0010434
000040 0d 42 7c 3f 30 66 81 3f 97 a1 83 3f 04 82 80 3f
       0.98538285 1.010931 1.0283688 1.0039678
000050 5a 05 7e 3f 84 11 7f 3f 80 d1 7a 3f bc 2c 82 3f
       0.99226916 0.996361 0.9797592 1.0169902
000060 68 c3 83 3f d9 0b 80 3f 48 26 81 3f 1c 07 84 3f
       1.0294008 1.0003616 1.0089808 1.031467
000070 84 bf 7f 3f 44 17 82 3f a1 09 81 3f 11 bb 83 3f
       0.99901605 1.016335 1.0081064 1.0291463
000080 57 86 7a 3f 7d 79 7d 3f 6b 62 82 3f f1 fc 80 3f
       0.97861236 0.990135 1.0186285 1.0077192
000090 5a da 7e 3f a3 61 80 3f 20 6a 7f 3f c4 2b 79 3f
       0.9955193 1.0029796 0.9977131 0.97332406
0000a0 86 1b 81 3f 10 a2 7e 3f 25 86 80 3f 16 04 80 3f
       1.0086524 0.9946604 1.0040938 1.0001247
0000b0 12 02 81 3f a8 60 82 3f 54 6e 80 3f 1e a6 7e 3f
       1.0078757 1.0185747 1.003367 0.99472225
0000c0 e8 17 7a 3f 21 63 7f 3f d1 e2 77 3f 86 68 7d 3f
       0.9769273 0.99760634 0.9683047 0.98987615
0000d0 db db 7f 3f a2 98 7e 3f c7 75 80 3f ae 0d 83 3f
       0.9994485 0.9945165 1.0035943 1.023855
0000e0 d8 4a 7c 3f dc a4 7e 3f 79 1b 80 3f cb 2b 83 3f
       0.985517 0.99470305 1.0008384 1.024774
0000f0 65 ac 80 3f a5 a4 81 3f f0 05 7c 3f 4a 26 81 3f
       1.0052611 1.012837 0.9844656 1.008981
000100 cc 96 80 3f 71 5b 82 3f 55 b2 81 3f b7 80 7d 3f
       1.004602 1.0184156 1.0132548 0.9902453
000110 a8 fb 7d 3f b8 18 80 3f 10 d0 7b 3f 91 8e 80 3f
       0.9921212 1.0007544 0.98364353 1.0043508
000120 fa 75 85 3f f6 d2 7e 3f e0 72 83 3f 12 dd 82 3f
       1.0426629 0.9954065 1.0269432 1.0223715
000130 d3 45 82 3f fa 7a 81 3f cd 1c 7f 3f 4c 06 7c 3f
       1.0177559 1.0115654 0.9965332 0.9844711
000140 60 f5 82 3f f7 42 82 3f 52 20 82 3f 6b 7d 7c 3f
       1.0231133 1.0176686 1.0166113 0.9862887
000150 92 8f 81 3f a3 9b 81 3f b5 08 82 3f 8f 43 7f 3f
       1.0121939 1.0125622 1.0158907 0.9971246
000160 1f ab 7e 3f 3f 74 80 3f a4 fb 7b 3f ae 24 83 3f
       0.9947986 1.0035475 0.9843085 1.0245569
000170 ba ea 7a 3f be b8 80 3f 25 43 82 3f cf b9 7d 3f
       0.98014414 1.0056379 1.0176741 0.99111646
000180 f4 16 82 3f d6 a3 80 3f a1 34 7c 3f 7a 2d 84 3f
       1.0163255 1.0049999 0.98517805 1.0326378
000190 cc 79 83 3f 81 ba 82 3f 75 03 82 3f 18 92 85 3f
       1.0271544 1.0213166 1.0157305 1.0435209
0001a0 6e d1 83 3f ee 6c 82 3f ea 32 82 3f 20 e0 81 3f
       1.0298288 1.0189493 1.0171788 1.0146523
0001b0 a5 19 7f 3f 0a ed 82 3f c8 18 80 3f b2 bf 81 3f
       0.99648505 1.0228589 1.0007563 1.0136626
0001c0 6a 82 7a 3f d6 00 80 3f 7b 1b 7c 3f a9 e1 83 3f
       0.97855246 1.0000255 0.9847943 1.0303241
0001d0 13 76 7c 3f 9f 8e 7f 3f fc 62 7e 3f 55 17 81 3f
       0.98617667 0.99827 0.9936979 1.0085245
0001e0 76 59 83 3f 24 d5 80 3f 3d 3c 77 3f 12 e2 86 3f
       1.0261676 1.0065045 0.9657629 1.0537741
0001f0 ee 99 7e 3f 62 52 83 3f e6 ed 80 3f bb c2 7c 3f
       0.9945363 1.0259516 1.0072601 0.98734635
000200 d2 cb 83 3f 0c d1 7c 3f 8e 18 83 3f 44 f4 81 3f
       1.0296576 0.9875648 1.0241868 1.0152669
000210 1c 78 7b 3f ac 26 7c 3f 01 2b 82 3f 84 a7 84 3f
       0.9823015 0.9849651 1.0169374 1.0363622
000220 98 5e 82 3f 2a c7 7d 3f 3d ec 83 3f 8c e9 80 3f
       1.0185118 0.99132025 1.0306469 1.0071273
000230 7f 26 80 3f 4b e0 81 3f b1 6a 84 3f 04 6e 82 3f
       1.0011748 1.0146574 1.034506 1.0189824
000240 62 4c 84 3f c9 83 7a 3f d5 17 83 3f 62 33 81 3f
       1.033581 0.9785734 1.0241648 1.0093806
000250 53 6a 82 3f 4a cf 81 3f 00 3b 7f 3f 38 19 85 3f
       1.0188698 1.0141385 0.996994 1.0398321
000260 9f e3 83 3f 92 f1 7e 3f ac a9 87 3f 9a 6d 86 3f
       1.030384 0.9958736 1.0598655 1.0502198
000270 8b 45 7e 3f 27 07 7b 3f d5 83 7e 3f 52 77 83 3f
       0.99324864 0.9805779 0.9941991 1.0270789

module.BN_layer.bias f4 [160]
000000 37 ff cf bb 70 39 b3 3b 8b 78 cb 3b d0 45 f2 3b
       -0.0063475627 0.0054694936 0.006209438 0.007393576
000010 bb 3a a2 bc 2c d4 15 bb 90 28 7b bb fd e7 33 3c
       -0.019803395 -0.002286206 -0.0038323738 0.010980603
000020 a1 46 06 3c ae bf 57 3c de 35 d7 bb 1d 3d 22 3c
       0.00819555 0.013168259 -0.0065677008 0.009902266
000030 0d a4 09 3c 8a 9c 40 bc 4a 61 ae bc 9a cd 7d bc
       0.008400929 -0.011756072 -0.021286625 -0.015490914
000040 ea 12 ca bb 55 59 37 bb 12 87 1a 3d d9 b0 87 39
       -0.0061668055 -0.002797683 0.03772647 0.00025880968
000050 0e b2 1f bc 92 27 18 3a b5 bf 82 bc fd 10 1f 3c
       -0.009747041 0.0005804236 -0.015960554 0.00970864
000060 a6 4f df b8 5b c0 3f bb fe 82 fb ba 75 71 08 3d
       -0.00010648304 -0.002925894 -0.0019188819 0.033311326
000070 5d 5d ad bc 3f ba d4 3c c9 31 8b 3c 9c 21 e7 3c
       -0.021162683 0.025967715 0.016991513 0.028214268
000080 98 05 84 bb 9a eb d2 bb 39 ab c9 3c df ff 51 3b
       -0.004028987 -0.0064367773 0.024617778 0.003204338
000090 cd 37 11 bb 27 fb d5 39 22 7d 22 ba 3f 88 7a bc
       -0.0022158504 0.0004081365 -0.0006198456 -0.015291273
0000a0 22 58 8d 3b 90 99 d8 ba 11 4e 31 3b 05 91 fb bb
       0.0043134848 -0.0016525257 0.0027054588 -0.0076772
0000b0 53 88 f7 3c 7f e1 d5 3c 13 a7 e7 39 4d 9c 28 bc
       0.030216372 0.026108501 0.00044184233 -0.010291171
0000c0 d3 4b 17 ba 63 b1 03 bc 2a 55 1c bd 93 2d 81 bb
       -0.00057714916 -0.008037898 -0.038167156 -0.0039422004
0000d0 3c e8 f9 ba 25 bd 82 ba 38 0d 38 3c 58 02 98 3c
       -0.0019066404 -0.0009974582 0.01123362 0.018555805
0000e0 d4 b3 d5 bb 74 32 9d 3c be f0 4d 3c ae aa fc 3c
       -0.0065216813 0.019189097 0.012569604 0.030843105
0000f0 4f 16 87 3b 00 da ac 3c 44 06 a8 bc cd 85 7f bb
       0.0041225324 0.021100044 -0.0205108 -0.0038989664
000100 01 37 47 bc 6a 20 17 3c 4b 53 be 3c b0 0e 0e bc
       -0.01215911 0.009224037 0.023233077 -0.008670494
000110 5e aa ad bb df 11 02 3a 22 3c 28 bc eb 07 1f 3c
       -0.0052998504 0.00049617694 -0.010268243 0.009706478
000120 2f f6 f0 3c 91 7c 3a bc d2 6a 13 3d 65 19 e6 3c
       0.029414264 -0.011382238 0.035990544 0.02808828
000130 0b 2e 9e 3c 23 3b 99 3c 5d 51 70 bc 09 1d 8d bc
       0.019309064 0.018704956 -0.014667836 -0.01722576
000140 d9 db d1 3c f9 59 4a 3c 54 a3 ff 3c ed 26 36 bb
       0.025617527 0.012350553 0.03120581 -0.0027794198
000150 be 92 02 3c 1e f2 d8 3b 56 54 44 3c 68 91 87 3b
       0.007969556 0.0066206595 0.011982998 0.004137207
000160 58 2e 39 bb 97 50 11 bc 0c 84 a4 bc f4 46 c6 3c
       -0.0028256383 -0.008869312 -0.020082496 0.024203755
000170 cc 6f d0 bc c7 c6 39 3c 88 0c ab 3c c1 28 b1 3b
       -0.025443934 0.011338896 0.020879999 0.0054064696
000180 0d 63 ea 3c 7a 1c d9 38 0f 41 a8 bc 77 da 9f 3c
       0.028611684 0.000103526705 -0.020538835 0.019513352
000190 0d 29 8a 3c 9d 6a 49 3c fd df 9f 3c 95 8a 92 3c
       0.016865278 0.012293485 0.019515986 0.017888347
0001a0 10 f2 a8 3c 3e ec bc 3c db e6 d7 3c fc 3a 07 3c
       0.020623237 0.023061868 0.026355198 0.008253809
0001b0 60 ba 48 bc 92 77 d6 3c e5 61 11 3a c6 78 1c b9
       -0.0122514665 0.026180062 0.00055458985 -0.00014922311
0001c0 9e 00 b2 bc b9 23 29 3b 9d 97 c7 bc 37 74 96 3c
       -0.02172881 0.0025808646 -0.024364287 0.018365962
0001d0 0f 39 d8 bb a3 8a 00 bc da 36 9c bb 60 5a 2a 3c
       -0.006598599 -0.007845554 -0.004767281 0.010397524
0001e0 06 c9 cb 3c 5a 82 a8 3b 2e a3 fc bc 57 2c 37 3d
       0.024876129 0.0051424922 -0.030839529 0.04472002
0001f0 d1 42 61 bc cb e6 ab ba 31 a9 b2 3b 4a 71 37 3b
       -0.01374884 -0.0013115046 0.005452298 0.002799111
000200 c7 6d 02 3d f6 82 57 bc af 72 02 3d 65 9f 51 3c
       0.031842973 -0.013153782 0.031847652 0.01279435
000210 50 e8 d0 bb 12 53 99 bc 53 59 9d 3c 2f 44 8c 3c
       -0.00637535 -0.018716369 0.019207632 0.017122356
000220 26 dd 7a 3c 87 53 dd 39 88 a7 09 3d 43 14 f2 bb
       0.015311515 0.00042214638 0.033607036 -0.0073876693
000230 c6 88 21 3c 4d 25 53 bc e4 f4 d0 3c 3a ed 94 3b
       0.0098592695 -0.012887311 0.025507398 0.004544881
000240 2a c5 04 3d b0 33 9b bc cf 54 e9 3c 9a ec fc 3b
       0.032414593 -0.018945545 0.028482823 0.007718635
000250 f6 96 80 3b a6 41 82 3c 2b 9c ca 3b f6 6d ca 3c
       0.003924246 0.015900444 0.0061831675 0.024710637
000260 45 5a 4d 3c b2 6c ad 3b b8 b6 44 3d 02 1f 0c 3d
       0.012533729 0.0052924985 0.048025817 0.03420926
000270 1d da 6d bc 4d 68 a9 bc 43 46 8b bb 3f f5 e2 3c
       -0.014517334 -0.020679617 -0.004250319 0.027704833

module.BN_layer.running_mean f4 [160]
000000 e2 a9 e6 bc 9a 5d e5 bc 11 62 99 bd 40 4e 19 3d
       -0.028157178 -0.027998734 -0.07489408 0.03742814
000010 52 7e 8e 3d 1b be b0 bd 20 5e b4 3d 05 02 9c bd
       0.069576874 -0.0863001 0.088070154 -0.07617573
000020 92 d8 81 3c ac 6a cb 3d 33 eb 19 3d 1f ba 9b bb
       0.01585034 0.099324554 0.03757782 -0.004752412
000030 41 b4 78 3d 5a 66 0b be 3c 92 96 bc ed d9 9d 3d
       0.06071878 -0.13613263 -0.018380277 0.07707582
000040 04 42 fd bc ce a9 05 bd 69 ce f7 bd 86 7b ac 3d
       -0.030915268 -0.03263264 -0.120999165 0.08421998
000050 26 e4 ef 3d 68 11 01 be 9e c0 de 3d ef 44 f5 bd
       0.11713438 -0.12604296 0.108765826 -0.11976039
000060 6c a8 df 3c 88 bc 11 3e f2 f2 22 3d 80 64 3d bc
       0.02730199 0.14232075 0.039782472 -0.011559606
000070 ff 28 70 3d 8a bc 4b be f3 4c 8d bb bd a7 b8 3d
       0.058632847 -0.1989614 -0.0043121516 0.090163685
000080 40 32 a6 bc 00 3b 03 bd c0 e6 22 be da fb eb 3d
       -0.020287633 -0.03203869 -0.15908337 0.11522646
000090 5c 38 12 3e f0 4a 13 be 5f 67 f1 3d 29 34 0b be
       0.14279312 -0.14384055 0.117872946 -0.13594116
0000a0 65 63 05 3d bd 6e 29 3e 34 a7 14 3d a7 4e b0 bc
       0.032565493 0.1654615 0.03629227 -0.02152188
0000b0 32 41 30 3d b0 95 74 be 5d 47 24 39 ad 45 bc 3d
       0.043030925 -0.23885226 0.00015666844 0.09192977
0000c0 39 13 8b bc 8d 3a f2 bc 77 4d 3f be aa 88 12 3e
       -0.01697694 -0.029568935 -0.18681894 0.14309946
0000d0 ec 2b 25 3e 67 7d 16 be 2c 72 eb 3d 17 0f 19 be
       0.16130036 -0.14696275 0.11496386 -0.14947163
0000e0 da 3b 0c 3d a0 67 3b 3e f9 02 ef 3c 56 d8 06 bd
       0.034236766 0.18301249 0.029176222 -0.032921158
0000f0 2f f6 19 3d 7e 39 86 be 1c 5c 87 3a 04 7f b6 3d
       0.037588295 -0.26215738 0.0010327133 0.08910945
000100 eb e5 ac bc 9a 40 0f bd 21 bc 4e be 41 61 25 3e
       -0.021105727 -0.03497372 -0.20188953 0.1615038
000110 dd 20 34 3e bf 17 1a be bf 8a ef 3d 74 22 1e be
       0.17590661 -0.15048121 0.116963856 -0.1544283
000120 e9 78 18 3d 95 e3 43 3e c2 99 fa 3c 22 e5 13 bd
       0.037224684 0.19129784 0.030590896 -0.03610719
000130 3b b4 f2 3c 91 ab 8a be 34 7b 02 bb 4f f5 ab 3d
       0.029626956 -0.2708402 -0.001990986 0.08396398
000140 e9 d5 73 bc 7a f4 ed bc 49 d5 59 be ca 14 38 3e
       -0.014882543 -0.02904724 -0.21272768 0.1797668
000150 9a b8 35 3e e0 62 1b be 41 b0 f6 3d 2c c2 24 be
       0.17746201 -0.15174437 0.120453365 -0.16089696
000160 3c 23 20 3d bf 94 4a 3e d7 d2 f1 3c d5 4c 31 bd
       0.039096102 0.19783305 0.029519482 -0.043286163
000170 04 ea a5 3c 12 aa 91 be d9 b8 99 bb ec 3a a9 3d
       0.020253189 -0.28450066 -0.004691225 0.082631916
000180 12 a9 9c bb 68 2e c9 bc dd 9f 63 be f6 9e 40 3e
       -0.004780897 -0.024558261 -0.22228952 0.18810639
000190 f1 b5 3a 3e e6 34 1d be 4b 16 f0 3d 8f ec 27 be
       0.18233468 -0.1535221 0.11723002 -0.16398834
0001a0 81 3f 0d 3d 3d a6 4c 3e 81 de eb 3c b3 16 54 bd
       0.03448439 0.1998529 0.028792622 -0.05177946
0001b0 35 f7 51 3c 9f 27 94 be 99 66 a3 bb 2d 90 a1 3d
       0.012815286 -0.28936478 -0.004986596 0.078888275
0001c0 04 e0 d5 bb 26 8e a6 bc c0 b1 61 be 6b 5e 49 3e
       -0.006526949 -0.020331454 -0.22040462 0.19664924
0001d0 7a 09 3c 3e 45 3d 1f be 2d 86 e2 3d a5 c8 30 be
       0.1836299 -0.15550716 0.11060748 -0.1726404
0001e0 91 f7 11 3d 18 86 49 3e 56 b6 04 3d e7 27 55 bd
       0.03563649 0.19680059 0.03240045 -0.052040007
0001f0 97 46 ec 3b 9a c3 96 be d3 cd a4 bb e3 45 9d 3d
       0.0072105634 -0.29446107 -0.005029419 0.076793455
000200 73 69 c4 bb 29 f8 ba bc 21 e5 6c be 6f 96 4c 3e
       -0.005994016 -0.02282341 -0.2313428 0.19979261
000210 b4 bc 40 3e ee af 1d be 76 96 de 3d ff 7e 29 be
       0.18821985 -0.15399143 0.10868542 -0.16552351
000220 ee 7e 1e 3d ef 59 4c 3e 7a 26 23 3d 14 24 5a bd
       0.03869527 0.19956182 0.039831616 -0.053257063
000230 e0 52 32 3c 6b 7f 95 be 3b 1e 1e bc 65 01 9c 3d
       0.010884017 -0.29198775 -0.009650762 0.076174535
000240 9d 68 31 bc a6 a9 ce bc 2d b7 66 be 94 06 4f 3e
       -0.010828164 -0.025227379 -0.22530814 0.20217353
000250 e7 64 47 3e 41 3d 21 be 30 28 d8 3d 84 1a 2e be
       0.19472085 -0.15746023 0.1055454 -0.17002302
000260 54 08 1d 3d b6 36 4a 3e a5 d8 29 3d e8 15 64 bd
       0.03833802 0.19747433 0.041466374 -0.055684954
000270 8e 65 6f 3b d3 56 98 be 0a 23 33 bb e5 27 a0 3d
       0.0036529037 -0.29753742 -0.0027334117 0.07820109
