Stage2_pickedmodel/Stage2_LSTMAgegen_BDOthers/model_epoch_1.pth (torch, 86647 bytes, 14 tensors)

module.LSTM_layer.weight_ih_l0 f4 [64, 256]
-0.019803956 -0.08877597 -0.20872493 -0.15381858 0.24228145 -0.14273407 0.19322585 -0.1568547
-0.027143372 -0.04801197 -0.17986968 0.22434944 -0.11020322 0.014962267 -0.099643886 0.2055045
0.04908728 -0.15188876 0.19058333 -0.120106846 -0.13187353 -0.1047398 -0.18904698 0.14073622
-0.061711896 0.14279562 -0.10893721 -0.098410614 -0.2145821 0.08510671 -0.17205076 0.13943058
-0.17582865 0.24860483 -0.19855401 -0.1490947 0.11669408 -0.20095105 -0.170104 -0.11153225
0.021555457 -0.13120428 0.0009215873 -0.24755333 0.06491456 -0.22222047 0.1739881 -0.049397703
-0.11578689 -0.04290334 0.06516071 -0.08037174 -0.17989469 -0.07173851 -0.23578449 -0.13299423
-0.047514323 0.09773456 -0.22155309 0.20236528 0.10824696 0.10955496 0.18357317 0.19827422
-0.1357474 0.058589943 -0.20931974 0.21506713 -0.17388164 -0.19009362 -0.061173435 -0.23847693
-0.044027742 -0.022191197 0.10647411 0.11069082 -0.07564798 0.19281878 0.22633484 0.078343876
0.0032767414 -0.23306723 -0.1963946 0.108766004 0.12699842 -0.072022274 0.17675242 -0.22786811
0.23694915 -0.20956543 -0.21251155 -0.0731416 0.21162634 0.0067994655 -0.21914017 -0.04451965
-0.080150254 0.039737556 0.015510227 -0.106906876 -0.24602534 -0.13095398 0.044430725 -0.048720017
-0.16434307 -0.14048482 -0.13415238 0.14965032 -0.046386752 0.006806823 0.015402996 -0.11028803
-0.1636586 -0.20287755 0.035072066 0.19602911 0.03649877 0.14708728 0.02097487 -0.05701046
-0.1301527 0.035598204 -0.104538016 0.21518087 0.16220473 -0.24056923 -0.20499429 -0.2360519
0.0298832 0.09202952 0.1695282 -0.037566714 -0.20989545 -0.14781454 0.077149175 0.12405972
-0.06066889 0.07963662 -0.116119966 -0.018226964 -0.19164294 -0.09483917 0.06678648 -0.20966204
-0.16597758 0.23339899 -0.24232182 0.06884554 -0.17422828 0.07088787 0.029949374 -0.00021719419
-0.049746886 -0.0832162 0.070750825 0.15099458 0.022341425 -0.14432174 0.25898325 -0.13932166
0.045851294 -0.11409568 0.22858839 0.0076219914 -0.21311086 -0.0847736 0.11025498 -0.10499073
0.07946583 -0.09743161 0.23017146 -0.11757206 -0.09141057 -0.029413963 0.0048410217 -0.027419938
0.1194624 -0.07039268 -0.17241617 -0.07971002 -0.14429085 0.2172384 -0.0555899 -0.16173275
0.07865352 -0.19446884 0.23108211 0.07797635 0.20496587 -0.1295754 -0.15612662 0.070565335
-0.21912582 0.21424982 0.10077501 -0.17254522 0.13391577 0.21386358 -0.14997739 -0.059895508
-0.22036676 0.045061216 0.15302101 -0.08908249 0.039907023 -0.06442915 -0.10310483 -0.06498423
0.15114594 -0.02384812 0.20171271 0.21553077 -0.07810276 0.21716207 -0.013365566 -0.018532142
-0.12515505 0.118629135 0.124065146 0.09521676 0.026250012 -0.1516564 -0.0012782691 -0.19531195
0.02435617 -0.22472283 -0.12098545 -0.14241053 -0.1846496 -0.062348027 -0.17268421 -0.087876596
0.024739418 -0.18605834 -0.22591278 -0.02580328 0.024070311 0.17068379 -0.033637293 0.180959
-0.1469321 -0.10803073 -0.0051024556 -0.19243163 0.13120937 0.22810642 0.23304304 0.16163106
-0.00015471784 0.033096734 -0.24155748 0.23131996 -0.068338074 -0.09161879 -0.21976388 0.1510531
00000000: e83b a2bc 2dd0 b5bd fdbb 55be 9e82 1dbe
00000010: a118 783e e128 12be ffdc 453e 859e 20be
00000020: c75b debc 33a8 44bd c22f 38be dcbb 653e
00000030: 3ab2 e1bd 4c24 753c 1812 ccbd c66f 523e
00000040: be0f 493d ba88 1bbe 4728 433e 94fa f5bd
00000050: db09 07be d281 d6bd 8895 41be 281d 103e
00000060: 9dc5 7cbd 0439 123e 791a dfbd 818b c9bd
00000070: 69bb 5bbe 6d4c ae3d 132e 30be e4c6 0e3e
00000080: 6d0c 34be 4492 7e3e be51 4bbe 48ac 18be
00000090: 4efd ee3d 1dc6 4dbe be2f 2ebe 056b e4bd
000000a0: 1295 b03c 6a5a 06be ad96 713a 9f7e 7dbe
000000b0: edf1 843d c38d 63be f029 323e 3f55 4abd
000000c0: ad21 edbd 6abb 2fbd fa72 853d f099 a4bd
000000d0: 5036 38be a4eb 92bd 7d71 71be a42f 08be
000000e0: 619e 42bd 0f29 c83d d0de 62be d838 4f3e
000000f0: 95b0 dd3d 5a5e e03d 9bfa 3b3e 6608 4b3e
00000100: 5e01 0bbe 02fc 6f3d ea57 56be 8f3a 5c3e
00000110: 070e 32be e7a7 42be ff90 7abd 4c33 74be
00000120: 6f56 34bd 50ca b5bc 190f da3d deb1 e23d
00000130: 54ed 9abd 4972 453e 52c4 673e c172 a03d
00000140: 99be 563b 2da9 6ebe ab1b 49be b6c0 de3d
00000150: e00b 023e 6a80 93bd 96fe 343e 4256 69be
00000160: cca2 723e 5298 56be a19c 59be 43cb 95bd
00000170: 93b4 583e 0dce de3b 4866 60be 3d5a 36bd
00000180: d125 a4bd d9c3 223d 9b1e 7e3c fef1 dabd
00000190: 11ee 7bbe cd18 06be fefc 353d a48e 47bd
000001a0: 8d49 28be 41db 0fbe 3e5f 09be ef3d 193e
000001b0: 0900 3ebd c50b df3b d95c 7c3c b1de e1bd
000001c0: 1f96 27be 22bf 4fbe baa7 0f3d dbbb 483e
000001d0: bc7f 153d 0c9e 163e 7ed3 ab3c cd83 69bd
000001e0: c046 05be 6ccf 113d 0718 d6bd 6058 5c3e
000001f0: ff18 263e c857 76be 06ea 51be 97b7 71be
00000200: 9dcd f43c f979 bc3d cd98 2d3e 8edf 19bd
00000210: d5ee 56be b25c 17be 6300 9e3d 0613 fe3d
00000220: f17f 78bd 8618 a33d 4ed0 edbd b750 95bc
00000230: 0c3e 44be 0a3b c2bd 5ac7 883d a5b1 56be
00000240: 07f6 29be 2500 6f3e 3623 78be e4fe 8c3d
00000250: e668 32be a92d 913d 6458 f53c 9fbe 63b9
00000260: 64c3 4bbd 416d aabd cfe5 903d 539e 1a3e
00000270: 5d05 b73c 14c9 13be 7499 843e 56aa 0ebe
00000280: 91ce 3b3d ffaa e9bd 1313 6a3e e6c1 f93b
00000290: bc39 5abe c89d adbd 5dcd e13d 6105 d7bd
000002a0: fbbe a23d 398a c7bd 11b2 6b3e 9fc9 f0bd
000002b0: 7735 bbbd 8df5 f0bc 6fa1 9e3b c79f e0bc
000002c0: b4a8 f43d 0a2a 90bd dd8d 30be 023f a3bd
000002d0: fbc0 13be be73 5e3e 3cb2 63bd 459d 25be
000002e0: 1915 a13d d722 47be caa0 6c3e 11b2 9f3d
000002f0: 93e2 513e 6aaf 04be a8df 1fbe 8f84 903d
00000300: 8562 60be 4e64 5b3e 2163 ce3d b2af 30be
00000310: 3721 093e 0eff 5a3e ac93 19be fe54 75bd
00000320: d3a7 61be 1c92 383d 8ab1 1c3e e170 b6bd
00000330: 8c75 233d 6ef3 83bd a028 d3bd 7416 85bd
00000340: 00c6 1a3e 225d c3bc c78d 4e3e 19b4 5c3e
00000350: 57f4 9fbd bc5f 5e3e 3ffb 5abc b8d0 97bc
00000360: a528 00be d5f3 f23d de15 fe3d 0101 c33d
00000370: 440a d73c d14b 1bbe 988b a7ba dbff 47be
00000380: 9786 c73c be1d 66be 38c7 f7bd 11d4 11be
00000390: c914 3dbe a560 7fbd 21d4 30be a5f8 b3bd
000003a0: 52aa ca3c 1486 3ebe ae55 67be 6661 d3bc
000003b0: 1a2f c53c bbc7 2e3e 42c7 09bd 514d 393e
000003c0: 5e75 16be 373f ddbd 8032 a7bb cc0c 45be
000003d0: c05b 063e bb94 693e d6a2 6e3e 9d82 253e
000003e0: c13b 22b9 7190 073d d85a 77be 24df 6c3e
000003f0: d5f4 8bbd a2a2 bbbd c809 61be aaad 1a3e

module.LSTM_layer.weight_hh_l0 f4 [64, 16]
-0.22086392 -0.19144058 0.13079041 -0.06260569 -0.109189995 -0.22401054 0.04318434 -0.16682836
0.14358862 0.14256975 0.15946874 -0.19332652 -0.20132303 0.044283904 0.14047156 0.055242136
-0.23901875 -0.10454397 -0.100644104 -0.11223193 -0.11459983 -0.09277694 -0.17371137 0.061276495
0.07262382 -0.1495262 -0.10146046 -0.023420582 0.104864694 0.1750826 -0.06059327 0.20152777
0.04953243 0.17691864 -0.1146487 -0.037285 -0.16164818 -0.045204416 -0.23373923 -0.18240055
0.19688311 -0.10714421 -0.21578433 0.2539567 0.08377375 -0.044253744 -0.04994678 0.22078337
0.20107219 0.036348626 -0.012894305 0.11634888 -0.20290706 0.09176609 -0.23247598 0.024421748
0.26027873 0.12458617 0.22367555 -0.2266368 0.0019557402 0.24176249 0.063634075 0.00999416
0.11463508 -0.040724795 -0.017161388 -0.044579465 0.13303646 -0.16085407 -0.15468526 0.13226627
-0.028945565 0.23839699 -0.041276086 -0.19442293 -0.0061071096 0.16166405 -0.13461453 0.14218123
-0.12570626 -0.06302594 0.16038401 0.22936358 0.13990559 -0.116103776 -0.15337753 0.09103175
-0.15983707 -0.22365263 0.010866393 -0.24265395 0.027378144 0.11617185 -0.17684309 0.23489496
-0.24023522 0.172572 -0.24082352 -0.20379683 0.21355534 0.23647808 -0.07576032 -0.097413555
-0.14978617 0.012869152 0.09951808 -0.03143712 -0.16792302 0.05071712 0.22245187 0.106572606
0.22894247 -0.14729404 0.046345446 -0.043285586 0.08262328 0.19469072 -0.15516591 -0.19428313
-0.09389253 -0.12265309 0.1448501 -0.22941023 0.10617175 -0.15317571 -0.047987152 0.051202614
-0.106533766 -0.13644254 0.10185695 -0.115251146 0.014101554 0.14470525 -0.0021943653 0.10417342
-0.17540908 -0.22054665 0.028588686 -0.034342814 0.09522389 -0.029660754 0.043603282 0.106967956
-0.0730155 0.25430492 -0.024613043 -0.18031915 -0.2360601 0.05348057 -0.030025981 0.037488036
-0.22435892 -0.05807877 -0.20211117 0.117595196 0.23815691 -0.12536 0.23210321 0.01927505
-0.24631658 -0.06946772 -0.21956654 0.014327148 0.22065982 0.1510124 0.0736071 -0.09721364
0.13942485 -0.22091605 -0.2263027 -0.09766777 -0.17233746 -0.24371682 0.1031285 -0.17078559
-0.14925975 -0.087206565 -0.12997288 0.07221779 0.022158727 0.050320342 0.23085721 0.113997266
-0.083320834 0.067071155 -0.15547943 0.21389005 -0.10677875 -0.013240943 0.046947088 0.23024113
0.11366197 0.0062989504 0.17585687 0.24646087 -0.19814116 0.2035251 0.22537117 0.14665176
0.111647815 -0.09528611 0.20736454 -0.01906819 0.02728058 0.020961128 0.15310508 0.08482724
-0.1551378 0.028145684 -0.1927542 0.17469059 -0.14891371 -0.17604552 0.08687845 0.14910929
-0.029266441 -0.14121632 0.08606596 -0.12516184 -0.07528039 -0.15090637 -0.008044153 0.11030758
0.25090313 -0.19039832 0.2113959 0.09274399 0.06855142 -0.1810438 0.017849887 -0.15580702
-0.112418644 0.16920993 0.13683063 0.087657884 0.19186082 -0.118117124 0.049431924 0.114699006
-0.1803671 0.030607346 -0.19113503 -0.22885484 -0.22202046 -0.16088936 0.014475498 -0.19370912
-0.23301975 -0.15138997 -0.21422268 0.1791305 0.17052658 -0.15149115 0.121846266 -0.1317685
00000000: 272a 62be 0009 44be eced 053e 6937 80bd
00000010: 019f dfbd 0563 65be 10e2 303d 0ed5 2abe
00000020: e508 133e cefd 113e c64b 233e 63f7 45be
00000030: a027 4ebe 0a63 353d c7d7 0f3e 9445 623d
00000040: 55c1 74be 261b d6bd 7f1e cebd dbd9 e5bd
00000050: 51b3 eabd d601 bebd 65e1 31be 10fd 7a3d
00000060: ccbb 943d 651d 19be 80ca cfbd 85dc bfbc
00000070: 4dc3 d63d da48 333e a630 78bd 4c5d 4e3e
00000080: 84e2 4a3d 292a 353e f0cc eabd 28b8 18bd
00000090: 1a87 25be 4428 39bd 5659 6fbe 36c7 3abe
000000a0: ba9b 493e 6c6e dbbd 91f6 5cbe 9d06 823e
000000b0: 9291 ab3d 6a43 35bd ff94 4cbd 0915 623e
000000c0: dee5 4d3e 4ce2 143d a342 53bc 5248 ee3d
000000d0: dec6 4fbe dcef bb3d 2f0e 6ebe 1e10 c83c
000000e0: 4143 853e 0927 ff3d 340b 653e 7a13 68be
000000f0: e02b 003b 9690 773e 9552 823d 8cbe 233c
00000100: ccc5 ea3d 0bcf 26bd 0a96 8cbc f598 36bd
00000110: b63a 083e eeb6 24be d065 1ebe cf70 073e
00000120: 401f edbc 571e 743e 1d11 29bd ce16 47be
00000130: 261e c8bb 438b 253e 64d8 09be f597 113e
00000140: 24b9 00be be13 81bd b53b 243e 49de 6a3e
00000150: 6943 0f3e d1c7 edbd 000f 1dbe db6e ba3d
00000160: 54ac 23be 3205 65be f508 323c 477a 78be
00000170: 2148 e03c 82eb ed3d 5b16 35be 4e88 703e
00000180: 3900 76be b7b6 303e 719a 76be 1eb0 50be
00000190: 40ae 5a3e 4f27 723e 3a28 9bbd c280 c7bd
000001a0: 8c61 19be 23d9 523c 23d0 cb3d 36c4 00bd
000001b0: 03f4 2bbe c1bc 4f3d 6cca 633e bd42 da3d
000001c0: e56f 6a3e 40d4 16be b9d4 3d3d 3a4c 31bd
000001d0: 6536 a93d 015d 473e d0e3 1ebe 28f2 46be
000001e0: ba4a c0bd 8b31 fbbd 9653 143e 84ea 6abe
000001f0: 9370 d93d 18da 1cbe 2d8e 44bd d5b9 513d
00000200: 602e dabd 98b7 0bbe 609a d03d cb08 ecbd
00000210: 340a 673c 9d2d 143e 57cf 0fbb e058 d53d
00000220: 709e 33be fbd6 61be d232 ea3c 0dab 0cbd
00000230: be04 c33d 1cfb f2bc 5b99 323d 0412 db3d
00000240: 2789 95bd 4134 823e 4ba1 c9bc 95a5 38be
00000250: bdb9 71be 710e 5b3d 0cf9 f5bc 0e8d 193d
00000260: 58be 65be 01e4 6dbd 3bf6 4ebe c0d5 f03d
00000270: 68df 733e 5f5e 00be 77ac 6d3e b6e6 9d3c
00000280: 6a3a 7cbe 1845 8ebd 0dd6 60be 6abc 6a3c
00000290: a6f4 613e ffa2 1a3e 52bf 963d f217 c7bd
000002a0: 63c5 0e3e d137 62be e5bb 67be 0a06 c8bd
000002b0: 3b79 30be e790 79be 0935 d33d 6be2 2ebe
000002c0: 8cd7 18be 5b99 b2bd 9c17 05be ece6 933d
000002d0: 3886 b53c b41c 4e3d d565 6c3e 6677 e93d
000002e0: 1da4 aabd 9a5c 893d 0036 1fbe fe05 5b3e
000002f0: d1ae dabd 8af0 58bc 974b 403d 55c4 6b3e
00000300: 9bc7 e83d 6d67 ce3b d313 343e 3d60 7c3e
00000310: 84e5 4abe e268 503e b3c7 663e e12b 163e
00000320: 9ca7 e43d 5d25 c3bd 5f57 543e e534 9cbc
00000330: 867b df3c acb6 ab3c 94c7 1c3e e7b9 ad3d
00000340: 72dc 1ebe c791 e63c 5b61 45be 17e2 323e
00000350: d67c 18be 4745 34be 54ed b13d 1bb0 183e
00000360: 2dc0 efbc 039b 10be 5a43 b03d 6d2a 00be
00000370: 9b2c 9abd 3387 1abe a0cb 03bc f1e8 e13d
00000380: 6076 803e c7f7 42be 2b78 583e 90f0 bd3d
00000390: b064 8c3d 8c63 39be ed39 923c e08b 1fbe
000003a0: bf3b e6bd 5e45 2d3e 541d 0c3e fa85 b33d
000003b0: 2a77 443e 64e7 f1bd 2179 4a3d 50e7 ea3d
000003c0: 27b2 38be 42bc fa3c e7b8 43be ec58 6abe
000003d0: 5559 63be 2ec0 24be a42a 6d3c af5b 46be
000003e0: bb9c 6ebe f905 1bbe 315d 5bbe fc6d 373e
000003f0: 859e 2e3e 7f20 1bbe 898a f93d 52ee 06be

module.LSTM_layer.bias_ih_l0 f4 [64]
-0.22497147 0.1396587 -0.056909718 -0.063153856 0.17947435 -0.1584166 0.002827243 -0.059526034
0.038892087 0.21780586 -0.16588165 -0.021559596 -0.2427494 -0.13424271 0.12607647 -0.009160711
-0.029518936 -0.18827349 -0.021745637 0.06155137 0.21135035 -0.19248028 0.054645263 0.21307556
-0.028074836 -0.047847982 -0.038828336 -0.12599471 0.25089103 0.1809734 -0.1599215 -0.03204474
-0.17404796 0.02877095 -0.04079408 -0.18159448 -0.21847858 0.05061854 -0.0503201 0.10369962
-0.08792321 -0.12064987 -0.060649052 -0.21160156 0.1621262 0.15612623 -0.18542878 -0.09902302
0.12654708 -0.13226604 -0.06067757 -0.1746458 -0.17463471 0.14583819 -0.23171762 0.0576606
-0.12010082 0.2190084 0.12352573 -0.18713108 -0.08016199 0.15997078 0.16695683 -0.08260109
00000000: ec5e 66be b102 0f3e 2a1a 69bd cf56 81bd
00000010: 20c8 373e f637 22be 4449 393b 92d1 73bd
00000020: 4f4d 1f3d 8008 5f3e e1dc 29be c09d b0bc
00000030: 4c93 78be ec76 09be 311a 013e cf16 16bc
00000040: b2d1 f1bc c4ca 40be e823 b2bc 4a1d 7c3d
00000050: 3a6c 583e 8d19 45be b6d3 5f3d 7b30 5a3e
00000060: 33fd e5bc 3ffc 43bd 760a 1fbd c204 01be
00000070: ca74 803e 1751 393e 76c2 23be 5841 03bd
00000080: a139 32be 0eb1 eb3c b117 27bd e7f3 39be
00000090: d9b8 5fbe 6355 4f3d 731c 4ebd 7760 d43d
000000a0: 1511 b4bd 4717 f7bd 246b 78bd 14ae 58be
000000b0: 6904 263e 8edf 1f3e 0be1 3dbe 95cc cabd
000000c0: 8f95 013e c070 07be 0b89 78bd 59d6 32be
000000d0: 71d3 32be 9b56 153e 6247 6dbe 852d 6c3d
000000e0: 6bf7 f5bd bd43 603e 0ffb fc3d 4a9f 3fbe
000000f0: f82b a4bd 61cf 233e bbf6 2a3e c32a a9bd

module.LSTM_layer.bias_hh_l0 f4 [64]
-0.142351 0.22254282 -0.059884615 0.130005 -0.20345937 0.010153187 0.20252399 0.18561265
-0.022619575 -0.13370158 -0.14349835 -0.027026558 -0.1809425 -0.052511718 0.09251344 0.0658229
0.04253497 -0.15541768 0.2278074 -0.12097652 0.19845015 -0.07347863 -0.14010371 0.19376744
-0.14195997 0.23196365 0.0012052386 -0.084311076 0.038400408 0.22851668 -0.21078378 -0.06442854
-0.2445412 0.12865135 -0.04880706 -0.097633004 -0.14124483 0.20506318 0.15165247 -0.0884897
-0.069283836 -0.031296387 -0.121247165 0.18480419 0.19094838 0.23390478 -0.23652183 -0.19036786
0.21515806 -0.12650743 0.19124584 0.0059332224 -0.019830216 0.047601894 0.048348133 0.14681986
0.15974449 -0.10884392 0.064428285 0.045850847 -0.24235868 0.093711264 -0.12882952 0.019480096
00000000: 76c4 11be 44e2 633e 9249 75bd 0820 053e
00000010: a757 50be 8e59 263c 7362 4f3e 3e11 3e3e
00000020: b04c b9bc 11e9 08be 3bf1 12be cd66 ddbc
00000030: fe48 39be 8716 57bd b077 bd3d 28ce 863d
00000040: 2639 2e3d d025 1fbe 5846 693e 8ac2 f7bd
00000050: 8436 4b3e f77b 96bd 5977 0fbe f96a 463e
00000060: f45d 11be e187 6d3e 19f9 9d3a 49ab acbd
00000070: bf49 1d3d 4700 6a3e b4d7 57be 1cf3 83bd
00000080: 0269 7abe 2ebd 033e e9e9 47bd d0f3 c7bd
00000090: 7ca2 10be 15fc 513e c94a 1b3e 163a b5bd
000000a0: afe4 8dbd a430 00bd 6f50 f8bd 4f3d 3d3e
000000b0: f987 433e bc84 6f3e c732 72be cbef 42be
000000c0: 6552 5c3e 2a8b 01be f3d5 433e 7a6b c23b
000000d0: fa72 a2bc 34fa 423d b108 463d f257 163e
000000e0: 0f94 233e 90e9 debd faf2 833d 19ce 3b3d
000000f0: e02c 78be b1eb bf3d e3eb 03be b994 9f3c

module.LSTM_layer.weight_ih_l1 f4 [64, 16]
-0.004128523 0.01623808 -0.04893553 -0.21507482 0.10551961 0.21598035 0.0243701 -0.011975608
0.10247931 0.10417726 -0.24204835 0.25017446 -0.11472905 -0.11751174 0.16005789 0.017817244
0.09463066 -0.23996052 -0.19007558 -0.17043437 0.018159999 0.04578497 -0.023474984 -0.17006648
-0.1740937 0.18868098 0.1731185 0.004598349 0.09070565 0.113651566 -0.015365078 -0.068152584
-0.16646574 -0.20221615 0.22064993 -0.19441444 -0.19719395 -0.1998981 0.11337128 -0.0735353
-0.08487993 -0.2389363 0.14508434 0.11219194 0.21664558 0.054203916 0.20387454 0.21127869
-0.18604359 0.077538416 -0.13737653 -0.09121514 -0.10455374 -0.029951878 0.06276684 0.2227747
0.16330639 0.091792814 0.08670999 -0.009886745 -0.0090589 -0.103121884 0.16976917 -0.23722538
0.1716655 -0.1311028 -0.04347471 0.10148504 -0.23515245 0.07867702 -0.15764517 0.22014917
-0.10419465 -0.14823088 -0.1051154 -0.044898804 -0.012307032 -0.0011878313 -0.2524855 -0.2404593
-0.13664274 0.11165691 0.1842196 -0.096664265 0.0784233 0.18994494 0.19415435 0.05474235
0.10773183 -0.18404822 0.16892888 -0.038730152 -0.18269953 -0.1695856 -0.16631016 0.22356544
0.104514614 -0.037584323 0.21699432 0.17542677 -0.08453651 0.2476991 -0.1663331 0.0586394
0.20279033 0.003970315 -0.14677206 -0.09982668 -0.043053918 0.009319598 -0.17715427 0.06369263
-0.23135534 0.09413771 -0.1199539 0.17658806 -0.25082827 -0.03753535 -0.21314351 0.020581283
-0.1392084 0.20669025 -0.05637189 0.17146446 -0.09318021 -0.11128497 -0.029453376 -0.13534145
0.19221938 -0.06258164 -0.024949227 0.2295322 -0.084089294 -0.18640217 -0.19658312 -0.0905286
0.19853549 -0.11822844 0.17315666 0.16711222 0.04770327 -0.21499586 0.050009463 -0.216894
0.13062468 -0.15516493 0.2392025 -0.07185814 0.049812052 0.1831582 0.11664172 0.18798834
0.112794116 -0.15034992 -0.008768515 -0.0115392525 0.20653343 0.20550735 0.23001976 0.1508007
0.1429609 0.20905137 -0.1756095 -0.19178821 -0.1369314 0.1961927 0.07786752 0.059819646
-0.13686518 -0.053143423 -0.058476813 -0.0317631 0.051061142 0.12771112 0.24775957 0.08799802
-0.0843589 0.071382806 -0.14409223 -0.21443251 0.13992713 0.011776186 0.11642717 0.15543617
-0.23317486 -0.091621526 0.12171793 -0.12675713 -0.11038309 0.09420753 -0.0616245 -0.18385275
0.16379729 -0.15391308 -0.24546628 0.10460348 -0.12656683 -0.22356784 -0.0051087895 -0.13512276
0.14144827 0.015595152 -0.21258569 -0.06369058 0.036515754 -0.070382066 -0.23267865 -0.046643615
-0.11412245 -0.07504378 0.08756309 -0.0073547605 -0.11445648 -0.09152046 -0.18388332 0.17324995
-0.087859966 -0.0044384915 -0.15733913 0.068747394 -0.1856444 0.052206032 -0.11737586 -0.1499697
0.1849572 -0.08223766 -0.02962383 -0.15339093 -0.112890355 0.19013815 0.21075124 -0.15999772
0.077921 -0.08534499 0.19956112 0.17521249 -0.06251965 0.22480674 0.17624086 0.089681454
0.2445101 -0.014972374 -0.13504003 0.18224281 0.15387678 0.123673335 0.18307957 -0.16351971
-0.0900465 0.20825516 0.19915092 0.085266925 -0.22364543 -0.12960392 0.110706694 0.16090402
00000000: 9048 87bb b905 853c 9f70 48bd 933c 5cbe
00000010: aa1a d83d f429 5d3e cea3 c73c 5735 44bc
00000020: ace0 d13d e35a d53d 86db 77be de16 803e
00000030: 10f7 eabd ffa9 f0bd 37e6 233e 78f5 913c
00000040: b8cd c13d 36b8 75be 2ca3 42be 5986 2ebe
00000050: 47c4 943c 0589 3b3d 9c4e c0bc e825 2ebe
00000060: 9e45 32be 9635 413e fa45 313e bfad 963b
00000070: e2c3 b93d 27c2 e83d cfbd 7bbc 9593 8bbd
00000080: ff75 2abe c011 4fbe 0ef2 613e 9414 47be
00000090: 36ed 49be 16b2 4cbe 342f e83d ad99 96bd
000000a0: 87d5 adbd b8ab 74be fd90 143e e3c4 e53d
000000b0: 57d8 5d3e ed04 5e3d 7dc4 503e 7159 583e
000000c0: 3682 3ebe 76cc 9e3d 6fac 0cbe 01cf babd
000000d0: 4520 d6bd a45d f5bc e78b 803d 0d1f 643e
000000e0: ca39 273e dffd bb3d 0295 b13d 04fc 21bc
000000f0: c86b 14bc 9131 d3bd f8d7 2d3e 36eb 72be
00000100: 15c9 2f3e d03f 06be 8a12 32bd 63d7 cf3d
00000110: cecb 70be 6b21 a13d bc6d 21be c96e 613e
00000120: 0164 d5bd d6c9 17be be46 d7bd cfe7 37bd
00000130: 6fa3 49bc 01b1 9bba c845 81be f63a 76be
00000140: 13ec 0bbe 61ac e43d 10a4 3c3e eaf7 c5bd
00000150: 659c a03d ed80 423e 66d0 463e 8439 603d
00000160: 81a2 dc3d 2377 3cbe b1fb 2c3e 82a3 1ebd
00000170: 9615 3bbe d9a7 2dbe 364d 2abe 57ee 643e
00000180: c20b d63d 05f2 19bd c233 5e3e 13a3 333e
00000190: 7a21 adbd d5a4 7d3e 3953 2abe de2f 703d
000001a0: 45a8 4f3e 6b19 823b 6a4b 16be ee71 ccbd
000001b0: 4e59 30bd 3ab1 183c ee67 35be 4871 823d
000001c0: 6ae8 6cbe 46cb c03d 64aa f5bd 80d3 343e
000001d0: 906c 80be abbe 19bd 4b42 5abe 149a a83c
000001e0: a68c 0ebe 9ca6 533e 36e6 66bd 6194 2f3e
000001f0: 44d5 bebd 60e9 e3bd 3548 f1bc f396 0abe
00000200: 28d5 443e ce2a 80bd 5262 ccbc 7d0a 6b3e
00000210: 0237 acbd 36e0 3ebe 164d 49be 0f67 b9bd
00000220: e34c 4b3e c121 f2bd fb4f 313e 771f 2b3e
00000230: 8164 433d e027 5cbe b9d6 4c3d 7619 5ebe
00000240: 7ac2 053e 8ee3 1ebe 80f1 743e 5c2a 93bd
00000250: b907 4c3d d38d 3b3e dbe1 ee3d 0480 403e
00000260: 9a00 e73d 54f5 19be d1a9 0fbc 220f 3dbc
00000270: 807d 533e 8570 523e 4d8a 6b3e 806b 1a3e
00000280: 5864 123e 9011 563e fad2 33be 2164 44be
00000290: bf37 0cbe bde6 483e 0279 9f3d 7205 753d
000002a0: 6326 0cbe ebac 59bd 6285 6fbd 061a 02bd
000002b0: 7d25 513d b4c6 023e afb4 7d3e 4e38 b43d
000002c0: 5cc4 acbd 2631 923d ea8c 13be 3294 5bbe
000002d0: 0f49 0f3e e7f0 403c 5e71 ee3d a92a 1f3e
000002e0: 64c5 6ebe 11a4 bbbd 4047 f93d 9fcc 01be
000002f0: 8810 e2bd e1ef c03d f969 7cbd e543 3cbe
00000300: 7aba 273e 649b 1dbe 835b 7bbe 593a d63d
00000310: bc9a 01be f8ee 64be a267 a7bb 9f5d 0abe
00000320: d1d7 103e cf82 7f3c 10b0 59be 3570 82bd
00000330: 8b91 153d 7924 90bd 5043 6ebe 600d 3fbd
00000340: 08b9 e9bd 8eb0 99bd 4754 b33d 3400 f1bb
00000350: 2968 eabd 146f bbbd e94b 3cbe 6f68 313e
00000360: edef b3bd c470 91bb 821d 21be 6fcb 8c3d
00000370: 9119 3ebe fed5 553d c162 f0bd a891 19be
00000380: 6c65 3d3e 386c a8bd adad f2bc 8312 1dbe
00000390: 0f33 e7bd 93b3 423e 2ccf 573e 71d6 23be
000003a0: 0c95 9f3d 5bc9 aebd c059 4c3e e76a 333e
000003b0: 4d0a 80bd bd33 663e 7c78 343e e9aa b73d
000003c0: db60 7a3e b04e 75bc ef47 0abe dc9d 3a3e
000003d0: e091 1d3e 7248 fd3d 3679 3b3e b671 27be
000003e0: 4d6a b8bd d740 553e 38ee 4b3e 6da0 ae3d
000003f0: 4f03 65be e4b6 04be 31ba e23d 06c4 243e

module.LSTM_layer.weight_hh_l1 f4 [64, 16]
-0.18864499 0.07320532 -0.091122456 -0.13056473 0.19399208 0.06686022 -0.00051278184 0.01961026
-0.022711676 0.0081542935 -0.071718685 0.24481504 0.023929646 -0.05690727 0.23092936 0.21885815
-0.20714675 -0.17257334 -0.23732513 -0.10463942 -0.20790704 -0.21103232 0.16196759 0.03502615
-0.25117543 -0.18502323 0.006130236 0.01922592 -0.15955833 0.24224101 0.15530033 0.0029383437
0.19150756 -0.20410495 -0.085023165 -0.16812277 0.08906612 -0.14225726 -0.036752168 0.24924739
0.07592626 -0.16802858 -0.13180079 -0.10179583 0.11719031 -0.118964925 -0.016779695 -0.20594727
0.089088924 0.22672325 -0.16352904 0.07706864 -0.19315937 -0.18379399 0.188216 -0.02593495
0.2355915 0.23077834 -0.06727095 0.06982707 0.23098649 0.16185403 -0.23271537 -0.10988512
-0.085398965 -0.26200244 0.081546366 0.011825007 0.20854256 0.088623166 0.2133851 -0.0050847693
-0.16454718 0.026838036 -0.014864146 -0.14641121 0.079926215 0.111932606 -0.23350917 0.14042234
0.0034606222 0.039760936 -0.12632 -0.036891587 0.2444509 -0.19330831 -0.011532327 0.23746745
-0.049713135 -0.0125945825 -0.09802413 0.18115324 -0.10340792 -0.17616265 -0.09137087 0.15003908
0.0151012745 0.19500768 0.1755756 -0.033763256 0.05176078 -0.24882355 -0.18961623 0.15261325
-0.10163384 0.11935481 -0.04221941 0.2222015 -0.19251545 -0.03955798 -0.06912066 0.03207797
0.11899744 -0.15322366 -0.0899214 0.23662855 -0.2224974 0.17827258 -0.038717818 0.14083453
-0.19640179 -0.23786697 0.05350936 -0.14651492 -0.019672602 -0.20918123 -0.06680977 -0.03345111
0.023054084 -0.06787221 0.13644356 0.11968545 0.19782275 -0.25553012 -0.06206822 -0.23473917
-0.21155213 0.0606411 0.0952185 -0.087912045 0.1472574 0.00047781438 -0.08270557 0.025683146
0.038846225 0.0026024105 0.012841082 -0.1980017 -0.045981687 -0.032303873 -0.044759486 -0.16958609
-0.156215 -0.21110375 0.25270647 0.21296121 -0.2091005 0.19816692 -0.08359795 0.13353859
0.06266915 0.17193528 0.1946563 -0.24287865 0.22143546 -0.16843407 -0.18266673 -0.22920926
0.15737593 -0.14135318 0.21634385 0.07868254 -0.14432417 0.010553205 -0.013331126 -0.23581713
-0.06652095 -0.15367563 0.1296035 0.016902937 -0.050107945 -0.057845425 0.13219179 -0.19656335
-0.02829748 -0.090299934 -0.2133792 0.15908796 -0.21673596 0.091756724 0.05872588 -0.055538926
-0.069722086 0.03145043 0.22338752 0.10487023 -0.16400222 0.024044141 0.22342294 0.044397034
0.16657476 0.23196398 -0.1066818 0.16145332 0.015608208 -0.22026715 0.13572438 -0.22609434
0.15349437 0.10822895 -0.11255058 -0.14884719 0.1029428 0.14608334 -0.09841602 -0.26060674
-0.22562292 -0.11888572 -0.11165658 -0.115036875 -0.06977581 -0.22703251 -0.035719704 -0.08121069
-0.11766961 0.17180742 -0.15773785 0.027175236 0.19325858 -0.13580777 -0.09195562 -0.060515605
-0.2094389 -0.004143432 0.11072113 0.22145052 -0.086469606 0.18661982 0.11066196 -0.11337073
-0.11235818 -0.06704187 -0.08798378 -0.17004095 -0.24346755 0.03479636 0.014544115 -0.1927343
-0.19848323 -0.23027872 0.08664521 -0.110417806 -0.07137483 0.12288186 -0.23530683 -0.13218828
00000000: 272c 41be acec 953d 699e babd c3b2 05be
00000010: dca5 463e 03ee 883d 356c 06ba b2a5 a03c
00000020: d60d babc 9699 053c 3fe1 92bd cbb0 7a3e
00000030: 1b08 c43c 9917 69bd bf78 6c3e 5a1c 603e
00000040: 471e 54be 11b7 30be 5c05 73be 314d d6bd
00000050: 95e5 54be db18 58be d5da 253e 9577 0f3d
00000060: 119a 80be bb76 3dbe 26e0 c83b ad7f 9d3c
00000070: 4263 23be 070e 783e 0d07 1f3e 3a91 403b
00000080: 8f1a 443e e300 51be a020 aebd 6028 2cbe
00000090: 4c68 b63d e3ab 11be 7189 16bd b53a 7f3e
000000a0: 3a7f 9b3d af0f 2cbe c9f6 06be 557a d0bd
000000b0: 7901 f03d e2a3 f3bd 9275 89bc d7e3 52be
000000c0: 4174 b63d 242a 683e 2874 27be 2ad6 9d3d
000000d0: 92cb 45be 7e34 3cbe b2bb 403e 8875 d4bc
000000e0: e63e 713e 2851 6c3e 5ac5 89bd 7f01 8f3d
000000f0: b987 6c3e 10bd 253e f04c 6ebe 730b e1bd
00000100: a7e5 aebd 2f25 86be c801 a73d adbd 413c
00000110: 2e8c 553e 1080 b53d a081 5a3e 239e a6bb
00000120: 0e7f 28be 71db db3c bf88 73bc d2ec 15be
00000130: 5bb0 a33d ec3c e53d 071d 6fbe e0ca 0f3e
00000140: 9bcb 623b 5ddc 223d 085a 01be a21b 17bd
00000150: 5651 7a3e 9df2 45be 16f2 3cbc ab2a 733e
00000160: 00a0 4bbd 8259 4ebc e0c0 c8bd 3c80 393e
00000170: 88c7 d3bd fb63 34be a720 bbbd d8a3 193e
00000180: 566b 773c 18b0 473e 17ca 333e 574b 0abd
00000190: 1d03 543d 9acb 7ebe c22a 42be a646 1c3e
000001a0: 6725 d0bd 4b70 f43d 43ee 2cbd ca88 633e
000001b0: c522 45be 8c07 22bd 228f 8dbd 3164 033d
000001c0: eeb4 f33d aae6 1cbe b628 b8bd c14e 723e
000001d0: 5cd6 63be 168d 363e 9396 1ebd ed36 103e
000001e0: 8d1d 49be 6693 73be a12c 5b3d 0208 16be
000001f0: 7028 a1bc 9b33 56be 90d3 88bd 0804 09bd
00000200: ebdb bc3c 9600 8bbd dcb7 0b3e a51d f53d
00000210: 0c92 4a3e d8d4 82be 3f3b 7ebd 775f 70be
00000220: 1fa1 58be cd62 783d eb01 c33d 3b0b b4bd
00000230: a5ca 163e 2983 fa39 8a61 a9bd 7665 d23c
00000240: 381d 1f3d 348d 2a3b 6763 523c f5c0 4abe
00000250: 4b57 3cbd 1151 04bd b955 37bd faa7 2dbe
00000260: d3f6 1fbe 952b 58be be62 813e 8112 5a3e
00000270: 711e 56be 45ec 4a3e 6735 abbd 57be 083e
00000280: af58 803d cd0f 303e fb53 473e 2eb5 78be
00000290: fabf 623e fb79 2cbe fd0c 3bbe d5b5 6abe
000002a0: 2827 213e e3be 10be 3e89 5d3e 5024 a13d
000002b0: b7c9 13be 5ae7 2c3c cc6a 5abc 0c7a 71be
000002c0: 233c 88bd 255d 1dbe c8b6 043e 0778 8a3c
000002d0: fd3d 4dbd 53ef 6cbd 495d 073e e747 49be
000002e0: 1ed0 e7bc 2cef b8bd 1480 5abe f4e7 223e
000002f0: 08f0 5dbe f3ea bb3d 8c8a 703d c97c 63bd
00000300: 74ca 8ebd 2bd2 003d b3bf 643e 34c6 d63d
00000310: 33f0 27be 38f8 c43c fcc8 643e aad9 353d
00000320: 9392 2a3e f787 6d3e fd7b dabd 0554 253e
00000330: 92b9 7f3c b68d 61be 55fb 0a3e 4685 67be
00000340: a12d 1d3e 24a7 dd3d eb80 e6bd 666b 18be
00000350: add3 d23d df96 153e 578e c9bd 3f6e 85be
00000360: b209 67be 5b7a f3bd 34ac e4bd 7498 ebbd
00000370: 9fe6 8ebd 367b 68be d34e 12bd ca51 a6bd
00000380: c4fc f0bd 49ee 2f3e 0886 21be 9a9e de3c
00000390: 94e5 453e 3111 0bbe 3a53 bcbd 36df 77bd
000003a0: 2777 56be a0c5 87bb c3c1 e23d edc3 623e
000003b0: fa16 b1bd 4419 3f3e bda2 e23d ea2e e8bd
000003c0: 0c1c e6bd 3f4d 89bd d730 b4bd 371f 2ebe
000003d0: 8f4f 79be a186 0e3d 714a 6e3c 245c 45be
000003e0: 303f 4bbe 2fce 6bbe 0b73 b13d bb22 e2bd
000003f0: f82c 92bd 7ca9 fb3d 46f4 70be 5d5c 07be

module.LSTM_layer.bias_ih_l1 f4 [64]
0.11844586 -0.019747812 0.17611316 -0.1632551 0.22595668 0.22429529 -0.1948377 -0.22061521
-0.042072542 -0.03688369 0.21715444 0.1183623 0.186244 -0.15892266 0.15306088 0.20978726
0.24090256 0.08708244 0.22887832 0.20995176 0.059018716 -0.15742104 -0.2212398 -0.13927835
0.20175815 -0.13046801 0.22998388 -0.039084747 0.10083083 -0.18735017 0.044791255 -0.1988878
-0.03891855 -0.16797517 0.17611198 -0.061827093 -0.024349049 -0.011900625 0.06254633 -0.15368426
-0.031451985 0.15557505 0.17649755 0.18596101 0.047205303 0.16699208 -0.20252042 -0.0037846854
0.15217847 -0.022304894 0.060949262 0.12527812 0.08754022 -0.09881821 0.18086083 -0.25309217
-0.24117227 0.020493876 0.08550504 -0.04479241 0.14569138 -0.16686852 0.13025488 -0.10952538
00000000: be93 f23d 2ac6 a1bc 0257 343e 582c 27be
00000010: 3061 673e aaad 653e 8983 47be f4e8 61be
00000020: 4254 2cbd 5a13 17bd bc5d 5e3e ef67 f23d
00000030: bfb6 3e3e 9fbc 22be febb 1c3e 79d2 563e
00000040: 29af 763e 4758 b23d 145f 6a3e 98fd 563e
00000050: 9cbd 713d fb32 21be b08c 62be fc9e 0ebe
00000060: b099 4e3e 6899 05be e580 6b3e 5417 20bd
00000070: 6580 ce3d b9d8 3fbe 0977 373d 3ea9 4bbe
00000080: 0f69 1fbd af01 2cbe b356 343e 683e 7dbd
00000090: a877 c7bc d7fa 42bc 4a18 803d 685f 1dbe
000000a0: ccd3 00bd 114f 1f3e c6bb 343e 906c 3e3e
000000b0: 595a 413d f9ff 2a3e 8361 4fbe 7c08 78bb
000000c0: acd4 1b3e c1b8 b6bc efa5 793d e848 003e
000000d0: 4948 b33d 3461 cabd 9533 393e 4c95 81be
000000e0: ddf5 76be c6e2 a73c 441d af3d 3f78 37bd
000000f0: 1f30 153e 95df 2abe 8961 053e d84e e0bd

module.LSTM_layer.bias_hh_l1 f4 [64]
0.21579239 0.15292189 -0.15005931 0.18595643 -0.21409795 -0.1074993 -0.17247929 0.19735208
-0.03494879 0.25560316 0.01939183 -0.014916884 0.18071945 -0.029606711 0.040148683 -0.21106425
0.13779882 -0.20879939 -0.22279087 0.23372225 0.21158126 0.17620447 0.16335204 0.22122619
-0.11640255 -0.1169666 0.0005769845 0.17158972 -0.16749065 -0.012873634 -0.11858582 -0.18084115
-0.23199493 -0.18001042 0.1942508 0.11986726 -0.031273276 -0.0064885453 -0.010800036 0.031205112
0.009594421 -0.040795084 -0.012617683 -0.0791169 -0.23310462 0.17241476 0.21253094 0.117670976
-0.12785935 0.016695565 -0.20234466 -0.020645842 0.1263843 0.23413081 0.2306627 -0.23203155
0.1110543 -0.15619223 0.11441579 0.18161109 0.18486159 0.0833705 0.13660093 0.20456907
00000000: aef8 5c3e 8e97 1c3e 26a9 19be 5d6b 3e3e
00000010: 7e3c 5bbe 9828 dcbd 699e 30be aa16 4a3e
00000020: 7626 0fbd 6bde 823e 9ddb 9e3c f265 74bc
00000030: 850e 393e c689 f2bc f272 243d 3a21 58be
00000040: 221b 0d3e 82cf 55be 4a23 64be e354 6f3e
00000050: c2a8 583e f26e 343e c245 273e 1e89 623e
00000060: 7664 eebd 2f8c efbd c640 173a 37b5 2f3e
00000070: ab82 2bbe efeb 52bc 1fdd f2bd 6c2e 39be
00000080: 1490 6dbe a754 38be afe9 463e f77c f53d
00000090: 6818 00bd dd9d d4bb a2f2 30bc dda1 ff3c
000000a0: eb31 1d3c bf18 27bd 66ba 4ebc 0b08 a2bd
000000b0: fab2 6ebe 7f8d 303e b6a1 593e 7bfd f03d
000000c0: 90ed 02be 23c5 883c 7033 4fbe 7821 a9bc
000000d0: e36a 013e fdbf 6f3e d832 6c3e ae99 6dbe
000000e0: 7070 e33d dbf0 1fbe d352 ea3d 42f8 393e
000000f0: 5b4c 3d3e 27be aa3d 1de1 0b3e 8e7a 513e

module.BN_layer.weight f4 [160]
0.9905749 1.0064926 0.99175864 1.0027758 0.9885746 1.0017736 0.99802715 0.9915777
1.0002229 1.0024436 1.0058252 1.0072707 1.0084802 0.9905127 1.0012606 0.99010545
0.99098915 0.99781656 0.99460405 1.0099882 1.0114751 0.9933724 1.000449 0.9981368
0.99902415 1.0044612 0.98886895 0.9995354 0.9889411 1.005487 0.98632884 1.0008454
0.9877683 0.9993631 1.0033219 1.0106959 0.9906291 0.98644567 1.0048734 1.0016028
0.9951704 0.9904051 0.9966336 1.0045522 1.0038772 0.9946034 0.989867 1.0039054
0.98911184 0.9963711 0.9946215 1.0073267 0.98935944 0.990536 1.0009015 1.0048692
0.9951083 0.99723905 0.9979967 1.0104146 1.0001489 0.995095 1.0189937 1.0026715
1.0097497 0.9984244 1.0058535 1.0053192 1.0104532 1.0077865 0.9911164 1.0004677
1.007753 0.9958282 0.99722946 1.0065477 0.99860114 0.99729776 1.010257 0.99468607
0.9965639 1.0027273 1.0011439 1.0132699 1.0124599 1.0085013 1.0115571 1.0079772
0.99386543 1.0032533 0.9969836 1.0048585 0.99271125 1.0024546 0.99030805 1.0056893
0.9959041 0.9925317 0.98885465 1.0221257 1.012648 1.005371 0.98620707 0.99110055
1.0001047 0.99227524 0.9955609 1.0009018 1.009828 0.99249154 0.990669 0.993808
0.99791086 0.9951179 0.99373734 0.9936426 1.0074829 1.0025398 1.0082352 1.0058508
1.0065796 0.9991878 0.9955391 0.9997234 0.9910325 1.0018822 0.99721456 0.9987514
1.000489 1.0068283 1.0129236 1.0177065 1.0165024 0.995488 0.9886736 1.0072069
0.9895369 1.001668 0.99154234 0.9994013 1.0074128 1.0041735 1.0047488 1.0056367
0.99682903 1.0052167 1.0090915 0.99281484 0.9846926 0.9929342 1.0086312 1.0148842
0.98666763 1.0001912 0.99170077 0.99720544 1.0181259 1.0077864 1.0016565 0.988073
00000000: 5196 7d3f c0d4 803f e5e3 7d3f f55a 803f
00000010: 3a13 7d3f 1e3a 803f b57e 7f3f 09d8 7d3f
00000020: 4e07 803f 1250 803f e1be 803f 3fee 803f
00000030: e115 813f 3e92 7d3f 4f29 803f 8d77 7d3f
00000040: 77b1 7d3f e870 7f3f 5f9e 7e3f 4b47 813f
00000050: 0478 813f a74d 7e3f b60e 803f e585 7f3f
00000060: 0cc0 7f3f 2f92 803f 8426 7d3f 8de1 7f3f
00000070: 3e2b 7d3f ccb3 803f 0c80 7c3f b41b 803f
00000080: 62de 7c3f 43d6 7f3f da6c 803f 7c5e 813f
00000090: de99 7d3f b487 7c3f b19f 803f 8534 803f
000000a0: 7dc3 7e3f 308b 7d3f 6123 7f3f 2b95 803f
000000b0: 0c7f 803f 549e 7e3f ec67 7d3f f97f 803f
000000c0: 6f36 7d3f 2d12 7f3f 849f 7e3f 15f0 803f
000000d0: a946 7d3f c493 7d3f 8a1d 803f 8e9f 803f
000000e0: 6bbf 7e3f 0f4b 7f3f b67c 7f3f 4455 813f
000000f0: e104 803f 8cbe 7e3f 636e 823f 8a57 803f
00000100: 7a3f 813f be98 7f3f cfbf 803f 4dae 803f
00000110: 8856 813f 26ff 803f ceb9 7d3f 530f 803f
00000120: 0dfe 803f 99ee 7e3f 6e4a 7f3f 8ed6 803f
00000130: 53a4 7f3f e84e 7f3f 1a50 813f bfa3 7e3f
00000140: d01e 7f3f 5e59 803f 7c25 803f d4b2 813f
00000150: 4998 813f 9216 813f b47a 813f 6605 813f
00000160: f76d 7e3f 9b6a 803f 513a 7f3f 349f 803f
00000170: 5322 7e3f 6f50 803f d484 7d3f 6dba 803f
00000180: 92f3 7e3f 8f16 7e3f 9425 7d3f 04d5 823f
00000190: 739e 813f ffaf 803f 1178 7c3f c4b8 7d3f
000001a0: 6e03 803f c005 7e3f 14dd 7e3f 8d1d 803f
000001b0: 0b42 813f ed13 7e3f 7c9c 7d3f 336a 7e3f
000001c0: 1677 7f3f 0cc0 7e3f 9265 7e3f 5d5f 7e3f
000001d0: 33f5 803f 3953 803f da0d 813f b8bf 803f
000001e0: 9ad7 803f c6ca 7f3f a7db 7e3f dfed 7f3f
000001f0: 4eb4 7d3f ad3d 803f 7449 7f3f 2cae 7f3f
00000200: 0610 803f c0df 803f 7ba7 813f 3544 823f
00000210: c01c 823f 4dd8 7e3f b719 7d3f 28ec 803f
00000220: 4a52 7d3f a836 803f b8d5 7d3f c3d8 7f3f
00000230: e7f2 803f c288 803f 9c9b 803f b4b8 803f
00000240: 3030 7f3f f1aa 803f e929 813f 1d29 7e3f
00000250: d014 7c3f f030 7e3f d41a 813f bae7 813f
00000260: 4096 7c3f 4406 803f 1ae0 7d3f db48 7f3f
00000270: f351 823f 25ff 803f 4836 803f 5af2 7c3f

module.BN_layer.bias f4 [160]
-0.0025019553 0.0024567873 0.0033409875 0.005163628 -0.009418398 0.0037578037 -0.0049909432 -0.005331666
0.010110447 -0.0005453778 0.0037877173 -0.0020690283 4.3691358e-05 0.002652968 0.004122826 -0.007922463
-0.0036774073 -0.0010211391 0.0010388088 0.005604218 0.009165148 -0.0049934187 0.0047507947 -0.0005238534
0.006142113 0.0011355202 -0.0052037924 0.008218568 -0.007909999 -0.004554574 -0.010018296 0.0008547707
-0.0055674296 0.000105945976 0.0090620555 0.00556876 -0.009658721 -0.008417262 0.0074783256 0.0024500184
-0.009597931 -0.0065121567 -0.00084196875 -0.0019248516 0.0055733863 0.0018882558 -0.007902849 0.0043544765
-0.0051807147 -0.0009077719 -0.007284012 0.0030743568 -0.010706277 -0.0068430062 0.0036178678 0.0075766486
-0.007585844 0.0013664507 -0.0013574519 -0.004185472 0.00323062 0.0014018012 0.011766428 0.005779324
0.0024900117 -0.0014708681 0.003567041 0.0014772115 0.009595466 0.0044441083 -0.007724672 0.004937916
0.010766375 -0.005412162 -0.0018079444 -0.00028195253 0.0025861312 0.0017094045 0.007398282 -0.0042914012
-0.0018298948 0.00053365785 -0.0016578245 0.004441459 0.011507292 0.0056992164 0.012358605 0.009121877
-0.00827533 0.0024012746 -0.0029378468 -0.0053120353 -0.005710081 0.0074562957 -0.007839535 0.0051228255
0.0010507304 -0.0037589709 -0.011926893 0.008095583 0.013556832 0.004670595 -0.011659885 -0.0061802287
-0.000627181 -0.0046505653 -0.003320059 -0.006662563 0.00856139 -0.011004391 -0.0082113445 -0.004066601
-0.005335598 -0.0035155853 -0.0068957577 -0.00033064597 0.011129341 0.0055617667 0.009026221 0.008054715
0.008840551 -0.0028171614 -0.0026458052 -0.008918332 -0.007199661 0.008836801 -0.002692396 0.00078029104
-0.0045309765 0.0053697685 0.009885531 0.009414864 0.016718425 -0.004152502 -0.009566904 0.008545477
-0.010421927 0.004827725 -0.004773735 -0.009259847 0.00756574 0.010071679 0.0046105403 0.004799058
0.0021033257 0.0059229443 0.012797723 -0.0009824721 -0.014042241 -0.0070026955 0.010636804 0.012781003
-0.014318436 0.0036343401 -0.006006136 0.0066076657 0.019351482 0.01097804 0.0045621395 -0.007138148
00000000: d8f7 23bb 0d02 213b 78f4 5a3b a733 a93b
00000010: a04f 1abc 7c45 763b 118b a3bb 42b5 aebb
00000020: 4aa6 253c aff7 0eba 5a3b 783b 8998 07bb
00000030: 3d41 3738 6bdd 2d3b c518 873b 38cd 01bc
00000040: a800 71bb bed7 85ba a428 883a 97a3 b73b
00000050: 6b29 163c d59f a3bb 8eac 9b3b 3553 09ba
00000060: c743 c93b bcd5 943a 9384 aabb 2ca7 063c
00000070: f198 01bc 893e 95bb c723 24bc b112 603a
00000080: fc6e b6bb 502f de38 0479 143c 257a b63b
00000090: 9d3f 1ebc 8ee8 09bc be0c f53b 7d90 203b
000000a0: a440 1dbc ee63 d5bb 91b7 5cba 4d4b fcba
000000b0: f4a0 b63b 5a7f f73a f47a 01bc ffaf 8e3b
000000c0: fcc2 a9bb 8af7 6dba b9ae eebb 267b 493b
000000d0: 6169 2fbc 4c3b e0bb c019 6d3b 8945 f83b
000000e0: ac92 f8bb 7a1a b33a 87ec b1ba 4926 89bb
000000f0: cfb8 533b a5bc b73a fac7 403c 7c60 bd3b
00000100: 772f 233b 25ca c0ba 04c5 693b fe9e c13a
00000110: 4d36 1d3c e29f 913b 3f1f fdbb 3ece a13b
00000120: 7365 303c 8158 b1bb 8cf8 ecba 07d3 93b9
00000130: 157c 293b 190e e03a 4a6d f23b e29e 8cbb
00000140: 15d9 efba 2ce5 0b3a 5c4b d9ba a989 913b
00000150: 1589 3c3c 7ec0 ba3b bf7b 4a3c ed73 153c
00000160: 4095 07bc b45e 1d3b e488 40bb 9510 aebb
00000170: a21b bbbb f153 f43b 6571 00bc 60dd a73b
00000180: a9b8 893a 1159 76bb 0469 43bc 56a3 043c
00000190: 7a1d 5e3c ca0b 993b 1a09 3fbc 8483 cabb
000001a0: 6869 24ba c563 98bb 5995 59bb a151 dabb
000001b0: 1345 0c3c c34b 34bc e088 06bc 1f41 85bb
000001c0: 3dd6 aebb bc65 66bb cff5 e1bb 8d5a adb9
000001d0: d757 363c 7b3f b63b b7e2 133c ecf7 033c
000001e0: f5d7 103c 20a0 38bb 3f65 2dbb 321e 12bc
000001f0: 22eb ebbb 3bc8 103c e972 30bb 728c 4c3a
00000200: 9678 94bb e2f4 af3b ecf6 213c cd40 1a3c
00000210: 14f5 883c b611 88bb 81be 1cbc 5402 0c3c
00000220: bbc0 2abc e431 9e3b fe6c 9cbb 9db6 17bc
00000230: 07ea f73b af03 253c 0414 973b 6b41 9d3b
00000240: f3d7 093b 4215 c23b 8aad 513c 4bc6 80ba
00000250: 6d11 66bc de76 e5bb fd45 2e3c 6967 513c
00000260: e097 6abc 1c2e 6e3b 1fcf c4bb 1e85 d83b
00000270: 0087 9e3c 3ddd 333c 007e 953b 20e7 e9bb

module.BN_layer.running_mean f4 [160]
-0.097138815 -0.06954685 0.07087937 0.04070227 -0.011823526 0.02817685 -0.008647418 -0.024186034
-0.0015054411 0.050369684 0.10977289 -0.014822925 -0.035958953 0.047005612 0.036271777 0.011409504
-0.14683115 -0.10057871 0.106267035 0.07970233 -0.036843136 0.050554346 -0.019452479 -0.040154975
-0.0039937655 0.08734597 0.17032081 -0.04343254 -0.025335269 0.06087429 0.060077675 0.007462848
-0.16700134 -0.11416138 0.12586921 0.096596256 -0.059995666 0.06252756 -0.023462703 -0.052774098
-0.0027801846 0.10688044 0.20298314 -0.061351024 -0.0039559356 0.068038516 0.07895912 0.0039316565
-0.17544119 -0.11736268 0.14246128 0.1149273 -0.071407504 0.072651766 -0.025586572 -0.058490377
0.0028693355 0.12135948 0.22636604 -0.07661088 0.008376058 0.07123358 0.09367292 0.0038931652
-0.18197395 -0.112318866 0.14799628 0.12772818 -0.082265384 0.07564524 -0.028473934 -0.061881267
0.0040951767 0.12534116 0.2371918 -0.08242827 0.023407755 0.073951244 0.10331861 0.0002878341
-0.18285356 -0.112320535 0.14584672 0.12756044 -0.09396091 0.07925341 -0.033347838 -0.06853433
0.0022639662 0.12477892 0.23984633 -0.08452524 0.036459897 0.075322405 0.11153975 0.0012392313
-0.17730999 -0.11312036 0.14955601 0.12971793 -0.0973193 0.073922545 -0.033828825 -0.07093297
0.0067798 0.124091074 0.2410971 -0.08098588 0.042577457 0.0788838 0.10893257 0.00050030247
-0.18144158 -0.10938335 0.1568432 0.1338254 -0.10048267 0.0739692 -0.029189343 -0.07168267
0.009656307 0.12606937 0.24606137 -0.08147273 0.044613324 0.07937635 0.1127307 0.002114406
-0.18411423 -0.11082127 0.15341741 0.14188616 -0.113544665 0.07181711 -0.027305875 -0.06756877
0.0056713684 0.1274931 0.24841572 -0.08746849 0.059166152 0.07581204 0.10932285 -0.0040908814
-0.18554752 -0.108516715 0.15384708 0.13755096 -0.10945274 0.07717574 -0.035541207 -0.070003204
0.008049194 0.12791681 0.25097772 -0.08731903 0.06679623 0.07776257 0.113093436 -0.0005793342
00000000: b7f0 c6bd 946e 8ebd 3429 913d 6cb7 263d
00000010: 76b7 41bc 23d3 e63c e6ad 0dbc ca21 c6bc
00000020: 3952 c5ba 7150 4e3d 9cd0 e03d dbdb 72bc
00000030: b249 13bd f588 403d b791 143d eeee 3a3c
00000040: e85a 16be 36fc cdbd 88a2 d93d fa3a a33d
00000050: d4e8 16bd 1312 4f3d ce5a 9fbc 8b79 24bd
00000060: 22de 82bb 72e2 b23d 9468 2e3e 52e6 31bd
00000070: e98b cfbc 5257 793d 0214 763d e88a f43b
00000080: 6602 2bbe 71cd e9bd dce3 003e 42d4 c53d
00000090: 04be 75bd 730e 803d db34 c0bc a729 58bd
000000a0: c233 36bb 22e4 da3d d0da 4f3e 364b 7bbd
000000b0: cba0 81bb c757 8b3d 52b5 a13d 20d5 803b
000000c0: dba6 33be d85b f0bd 5fe1 113e 015f eb3d
000000d0: 193e 92bd 73ca 943d ee9a d1bc 9b93 6fbd
000000e0: 760b 3c3b 528b f83d 80cc 673e 2ae6 9cbd
000000f0: bc3b 093c e9e2 913d 96d7 bf3d 7924 7f3b
00000100: 6157 3abe 6f07 e6bd 568c 173e 2dcb 023e
00000110: c17a a8bd e4eb 9a3d 2b42 e9bc 3677 7dbd
00000120: d530 863b 6f59 003e 68e2 723e 27d0 a8bd
00000130: 9fc1 bf3c c073 973d b598 d33d 70e8 9639
00000140: f73d 3bbe 4f08 e6bd d858 153e 349f 023e
00000150: 946e c0bd 9d4f a23d be97 08bd ba5b 8cbd
00000160: 0d5f 143b 178c ff3d 479a 753e 921b adbd
00000170: f956 153d a242 9a3d f46e e43d b46d a23a
00000180: c090 35be a6ab e7bd 3625 193e c7d4 043e
00000190: 574f c7bd b464 973d 1890 0abd 4e45 91bd
000001a0: 1629 de3b 7623 fe3d 28e2 763e eddb a5bd
000001b0: b365 2e3d d48d a13d 0a18 df3d bb26 033a
000001c0: d2cb 39be 6104 e0bd 819b 203e 8709 093e
000001d0: dcc9 cdbd 2a7d 973d 7d1e efbc 5dce 92bd
000001e0: 7d35 1e3c 5418 013e 83f7 7b3e 2ddb a6bd
000001f0: 76bc 363d 1190 a23d 5adf e63d d991 0a3b
00000200: 7188 3cbe 43f6 e2bd 7419 1d3e 9b4a 113e
00000210: 1b8a e8bd d914 933d 92b0 dfbc 7f61 8abd
00000220: e3d6 b93b 8d8d 023e b160 7e3e ae22 b3bd
00000230: 3558 723d 5843 9b3d a9e4 df3d cd0c 86bb
00000240: 2b00 3ebe 033e debd 178a 1d3e 29da 0c3e
00000250: c228 e0bd 500e 9e3d a893 11bd d75d 8fbd
00000260: c4e0 033c a0fc 023e 2780 803e 52d4 b2bd
00000270: 76cc 883d fb41 9f3d 889d e73d 76de 17ba

module.BN_layer.running_var f4 [160]
0.001534426 0.0013619276 0.0018638707 0.004574277 0.0052328096 0.0026228954 0.002378568 0.0016720064
0.0016502488 0.0010016972 0.0028518627 0.00352203 0.006329096 0.0010006669 0.0033180802 0.0013055961
0.0024583498 0.0027458726 0.003318129 0.0114898505 0.012470633 0.004979399 0.0046445075 0.0050176485
0.0038041107 0.002379986 0.0052844523 0.0076653454 0.017637989 0.0022416057 0.0073316507 0.002330632
0.0035944015 0.0033134911 0.0048551634 0.017444981 0.0222242 0.007114191 0.0060710832 0.009590381
0.0052498733 0.003679991 0.0059994687 0.010077092 0.031032428 0.003714455 0.009791878 0.003347533
0.0048682033 0.0039758026 0.006603391 0.021069232 0.03099206 0.007902722 0.0077638356 0.013230293
0.0073183933 0.004168288 0.006128045 0.01055519 0.04020872 0.004499868 0.011811301 0.0041458746
0.004973846 0.004593404 0.006726008 0.023084456 0.03542316 0.0095422715 0.008346895 0.014647031
0.0066218134 0.005532368 0.00665259 0.011972951 0.04723847 0.0052655754 0.012836686 0.004883109
0.0055445586 0.0047107306 0.006647942 0.024481 0.03476023 0.0089117475 0.008277111 0.0148075605
0.0065738303 0.0066788434 0.0068184575 0.014315507 0.04960453 0.00509555 0.012714078 0.0036430992
0.0056129037 0.0046476712 0.0071765184 0.028146952 0.037746094 0.010174493 0.008741217 0.015774257
0.0067493264 0.0071558547 0.007592797 0.017511494 0.050968807 0.005854883 0.01364462 0.0052787256
0.0063402955 0.005225007 0.007407967 0.02812356 0.03982816 0.0094979275 0.0089067025 0.015867312
0.0068237334 0.007197305 0.0071228566 0.016701596 0.051601034 0.005955082 0.012481991 0.004363162
0.0061841286 0.0048843925 0.007015405 0.029796595 0.039920468 0.010186802 0.008790758 0.016653841
0.0066571827 0.007904458 0.008017789 0.016568914 0.052201144 0.0059104115 0.013921281 0.0052560796
0.0072362386 0.0052971095 0.0080657685 0.028737543 0.04200754 0.009845124 0.0095009385 0.017532613
0.0077438904 0.0075213043 0.007974545 0.016942214 0.053997815 0.0065206066 0.013247942 0.004308356
00000000: cb1e c93a b582 b23a 1f4d f43a d1e3 953b
00000010: fd77 ab3b e2e4 2b3b c0e1 1b3b 3a27 db3a
00000020: 294d d83a 614b 833a 51e6 3a3b dcd1 663b
00000030: 4e64 cf3b cf28 833a 2674 593b 8920 ab3a
00000040: 441c 213b 19f4 333b f874 593b ed3f 3c3c
00000050: a051 4c3c 3a2a a33b f430 983b 166b a43b
00000060: 634e 793b 8af9 1b3b 3329 ad3b 942d fb3b
00000070: 8b7d 903c e7e7 123b 583e f03b 84bd 183b
00000080: 0d90 6b3b 2827 593b 1018 9f3b c7e8 8e3c
00000090: 870f b63c 291e e93b f0ef c63b f920 1d3c
000000a0: 2107 ac3b 012c 713b 3197 c43b 631a 253c
000000b0: b837 fe3c 376e 733b 1d6e 203c 4962 5b3b
000000c0: 7385 9f3b 7347 823b 4261 d83b 6299 ac3c
000000d0: 10e3 fd3c 6b7a 013c c667 fe3b dfc3 583c
000000e0: 22cf ef3b 2296 883b c4cd c83b adef 2c3c
000000f0: e6b1 243d a173 933b 3084 413c 1eda 873b
00000100: a5fb a23b 4484 963b d865 dc3b 9d1b bd3c
00000110: e017 113d 3057 1c3c 6ac1 083c 1afa 6f3c
00000120: ccfb d83b de48 b53b f8fd d93b 322a 443c
00000130: 207d 413d d98a ac3b f750 523c 7d02 a03b
00000140: 21af b53b 795c 9a3b fbd6 d93b 618c c83c
00000150: be60 0e3d 9402 123c b89c 073c 699b 723c
00000160: 4969 d73b 33da da3b 5e6d df3b 978b 6a3c
00000170: 1f2e 4b3d 92f8 a63b b54e 503c 10c1 6e3b
00000180: 73ec b73b 7e4b 983b 0029 eb3b 7094 e63c
00000190: a69b 1a3d ebb2 263c 5237 0f3c 0439 813c
000001a0: 7429 dd3b a97b ea3b ffcc f83b 4474 8f3c
000001b0: abc4 503d 52da bf3b af8d 5f3c 29f9 ac3b
000001c0: 41c2 cf3b 8936 ab3b 88be f23b 6163 e63c
000001d0: da22 233d 329d 1b3c 6bed 113c 2afc 813c
000001e0: a099 df3b 5fd7 eb3b da66 e93b c9d1 883c
000001f0: 9b5b 533d d922 c33b 4481 4c3c dbf8 8e3b
00000200: 3ba4 ca3b 410d a03b 7ce1 e53b fd17 f43c
00000210: a583 233d 8be6 263c 1d07 103c a36d 883c
00000220: 7f24 da3b b381 013c 0b5d 033c 88bb 873c
00000230: ded0 553d 20ac c13b 1616 643c 313b ac3b
00000240: f81d ed3b 6093 ad3b 4926 043c ff6a eb3c
00000250: 1910 2c3d 714d 213c d3a9 1b3c 8ea0 8f3c
00000260: 76c0 fd3b 4675 f63b aaa7 023c 66ca 8a3c
00000270: d02c 5d3d d0aa d53b e50d 593c 1c2d 8d3b
