Stage2_pickedmodel/Stage2_LSTMAgegen_BDOthers/model_epoch_2.pth (torch, 86647 bytes, 14 tensors)

module.LSTM_layer.weight_ih_l0 f4 [64, 256]
000000 43 aa a6 bc 2a 2d b6 bd 03 af 55 be 41 15 1d be
       -0.020344859 -0.08895333 -0.20867543 -0.15340139
000010 c3 04 78 3e 0c 25 12 be 77 86 45 3e d8 e9 20 be
       0.24220566 -0.14271945 0.19289576 -0.15714204
000020 32 0e de bc 79 66 47 bd d0 f7 37 be 63 dd 65 3e
       -0.027106378 -0.04868171 -0.17965627 0.22447734
000030 a4 73 e1 bd cf 04 70 3c 7e 0f cb bd 5e c0 52 3e
       -0.11008385 0.014649584 -0.09915064 0.20581195
000040 8b e6 48 3d 55 58 1b be 64 7b 43 3e 85 d7 f6 bd
       0.049047988 -0.15170415 0.19090039 -0.12052826
000050 a3 00 07 be 5b ed d5 bd 6b 87 41 be f5 20 10 3e
       -0.13183837 -0.104456626 -0.18899314 0.14075072
000060 c6 75 7c bd 57 46 12 3e 4d f6 de bd 42 a9 c8 bd
       -0.061635755 0.14284645 -0.10886822 -0.09797908
000070 a5 e6 5b be b2 e1 ad 3d 26 3f 30 be 9d a7 0e 3e
       -0.21474703 0.084903136 -0.17211589 0.13931127
000080 30 c0 33 be da ba 7e 3e 80 4b 4b be c0 a2 18 be
       -0.17553782 0.24875966 -0.1985302 -0.14905834
000090 8c ac ee 3d 7b b8 4d be 8f d0 2d be 37 1a e5 bd
       0.116540045 -0.20089905 -0.1697409 -0.11186641
0000a0 b5 0e b2 3c c8 94 06 be 2c 40 71 3a 77 4d 7d be
       0.021735528 -0.13142693 0.0009202983 -0.24736582
0000b0 ef 15 85 3d b3 c6 63 be 16 64 32 3e 25 10 4a bd
       0.06498324 -0.22243766 0.17420992 -0.049331803
0000c0 07 64 ee bd 5e dd 2f bd 2e 2f 86 3d 03 93 a4 bd
       -0.116401725 -0.04293572 0.065519676 -0.08035853
0000d0 d5 24 38 be 8d ba 93 bd 78 2b 71 be 8f 04 08 be
       -0.179828 -0.07213316 -0.23551738 -0.13282989
0000e0 1d 75 44 bd 1e 70 c8 3d 2c 7a 62 be 89 42 4f 3e
       -0.04796325 0.0978701 -0.22116917 0.20240225
0000f0 cd d6 dd 3d 72 0a e0 3d 3f c5 3b 3e 88 89 4a 3e
       0.108319856 0.10939492 0.18336962 0.19779027
000100 f6 ee 0a be 19 8d 70 3d 05 ae 56 be 51 4a 5c 3e
       -0.13567719 0.05872831 -0.2096482 0.21512724
000110 a0 ac 31 be ae ea 42 be c2 df 78 bd a2 ec 73 be
       -0.17351007 -0.19034836 -0.060760267 -0.23820737
000120 bb b2 33 bd 21 0c b3 bc 5c 58 d9 3d 21 a7 e2 3d
       -0.043871623 -0.02185637 0.10612556 0.110670336
000130 1c 14 9a bd ef 8e 45 3e 0b a7 67 3e 85 45 a1 3d
       -0.07523367 0.19292806 0.22622316 0.07874588
000140 be ff 75 3b 8a 22 6e be cb a2 49 be b6 78 de 3d
       0.0037536467 -0.23255363 -0.19691007 0.108628675
000150 f0 e3 01 3e 1a 4f 93 bd 86 98 34 3e 08 63 69 be
       0.12684608 -0.07192822 0.17636308 -0.22791684
000160 17 ba 72 3e 79 c8 56 be 4f 5c 59 be 0c a9 96 bd
       0.237038 -0.20974912 -0.21226619 -0.07356462
000170 d2 21 59 3e d7 09 e2 3b 04 68 60 be ab 1b 36 bd
       0.21204308 0.0068981457 -0.21914679 -0.04445998
000180 c0 55 a4 bd b6 14 23 3d 77 d3 80 3c 11 d7 db bd
       -0.08024168 0.039814673 0.015725834 -0.1073438
000190 7c 47 7c be 68 fb 05 be f3 4d 34 3d 71 4a 47 bd
       -0.24636644 -0.13084185 0.04401965 -0.048654977
0001a0 7d 37 28 be dc 1b 10 be d4 33 09 be 23 72 19 3e
       -0.16427417 -0.14073128 -0.13398677 0.14984946
0001b0 18 73 3f bd d7 8b da 3b 0e 96 7f 3c c8 95 e1 bd
       -0.04674062 0.0066695022 0.015599741 -0.11014897
0001c0 df 3e 27 be ec a3 4f be f8 16 10 3d 17 bd 48 3e
       -0.16332577 -0.20277375 0.035178155 0.19603382
0001d0 a3 ee 15 3d 70 77 16 3e a1 6c af 3c 36 8d 68 bd
       0.036604535 0.14694 0.021414103 -0.056775294
0001e0 98 3c 05 be 15 0e 12 3d 27 65 d6 bd 68 09 5c 3e
       -0.13011396 0.03565796 -0.10468512 0.21487963
0001f0 d4 04 26 3e 7d e9 75 be 98 ab 51 be 0d 9f 71 be
       0.1621278 -0.2401485 -0.20475614 -0.2359583
000200 03 94 f2 3c a5 37 bb 3d 0d 12 2d 3e 79 c4 1a bd
       0.029611593 0.09141473 0.16901417 -0.037785027
000210 2b af 56 be cf 4b 17 be 88 99 9d 3d ed 32 fe 3d
       -0.20965259 -0.14775012 0.076952994 0.12412057
000220 98 83 7a bd 4d d5 a2 3d fe a5 ed bd 44 04 96 bc
       -0.061160654 0.0795084 -0.11603926 -0.01831258
000230 2e 8e 44 be 76 fb c1 bd 7f 9d 88 3d 9b 89 56 be
       -0.19194862 -0.094717905 0.06670665 -0.2095093
000240 b2 56 2a be 57 ff 6e 3e 15 44 78 be fb b9 8c 3d
       -0.16634634 0.23339592 -0.24244721 0.068714105
000250 72 32 32 be 13 fd 90 3d 9f c7 f5 3c 94 58 cd b8
       -0.17402056 0.0707952 0.030002413 -9.791661e-05
000260 ab b6 4a bd b6 50 aa bd bd 08 90 3d 95 2d 1a 3e
       -0.049490612 -0.08316176 0.07032917 0.1505645
000270 05 5f b4 3c cc 9a 13 be bd 76 84 3e b5 0f 0f be
       0.022017965 -0.14414519 0.2587184 -0.13970836
000280 c7 3f 3c 3d 3f f9 e9 bd de d7 69 3e 18 ff ea 3b
       0.04595926 -0.11424493 0.22836253 0.007171523
000290 af ee 59 be 6c 64 ad bd 6f ca e2 3d 79 74 d7 bd
       -0.21282457 -0.084664196 0.110737674 -0.10520262
0002a0 7a 74 a2 3d f9 d2 c6 bd 67 6d 6b 3e f8 e7 f0 bd
       0.079323724 -0.097082086 0.22990952 -0.117629945
0002b0 09 ac bb bd a9 a1 f0 bc cb 2d a1 3b da 68 dd bc
       -0.091636725 -0.02937396 0.004918789 -0.027027536
0002c0 51 93 f5 3d c5 f9 8f bd f7 c9 30 be 9d 4e a3 bd
       0.11990989 -0.07030062 -0.17264543 -0.07973979
0002d0 5e b6 13 be 94 3e 5f 3e 82 0c 62 bd ef 4f 25 be
       -0.14425036 0.21801215 -0.05518771 -0.16143773
0002e0 fa 07 a1 3d 24 91 47 be 29 a1 6c 3e 6a 99 a0 3d
       0.078628495 -0.1948896 0.23108353 0.078417614
0002f0 30 6d 51 3e 50 85 04 be 60 b8 1f be f7 97 8f 3d
       0.20451808 -0.1294148 -0.15597677 0.07011407
000300 60 50 60 be 50 f0 5a 3e 3f 92 ce 3d a5 98 30 be
       -0.2190566 0.21380734 0.10086488 -0.1724573
000310 df f5 08 3e e7 ad 5a 3e 40 e2 19 be 0e 8b 74 bd
       0.13375042 0.21355401 -0.15027714 -0.059702925
000320 84 85 61 be 8b bb 36 3d 92 1f 1d 3e 9a c7 b6 bd
       -0.22023588 0.04461245 0.15344074 -0.0892479
000330 ce 34 24 3d 3c d9 84 bd 0d 1b d3 bd aa e2 85 bd
       0.04008942 -0.06486747 -0.10307894 -0.06537373
000340 3e f2 1a 3e ca 68 c2 bc 08 b5 4e 3e 67 8a 5d 3e
       0.1513147 -0.023731608 0.20186245 0.21634828
000350 e6 ca 9f bd 64 58 5e 3e ff a4 5f bc df d6 96 bc
       -0.07802372 0.21713406 -0.013650178 -0.018413005
000360 a6 ff ff bd 74 e7 f2 3d 45 a9 fe 3d a6 27 c3 3d
       -0.12499933 0.118605524 0.12434629 0.09529047
000370 e3 06 d6 3c 3d 6e 1b be 78 df 4a ba b1 74 48 be
       0.02612633 -0.15178771 -0.0007738988 -0.19575764
000380 d3 c8 c7 3c b7 fe 65 be d1 7b f8 bd 8e 64 11 be
       0.024387753 -0.22460447 -0.12132991 -0.14198515
000390 95 db 3c be b2 1d 7e bd da cf 30 be 22 eb b3 bd
       -0.18443139 -0.06204004 -0.17266789 -0.087850824
0003a0 06 c5 cd 3c f0 a7 3e be 0d 12 67 be fd aa d0 bc
       0.025118362 -0.1861875 -0.2256548 -0.025472159
0003b0 a6 fa c2 3c 3a 92 2e 3e 7c 97 09 bd c4 48 39 3e
       0.02380116 0.17047969 -0.033591732 0.18094164
0003c0 90 c9 16 be a7 f7 dc bd f0 0c b5 bb a9 86 45 be
       -0.14725327 -0.107894234 -0.005525224 -0.1928965
0003d0 43 99 06 3e bb 67 69 3e a9 a1 6e 3e 5e 6c 25 3e
       0.13144402 0.22793476 0.23303856 0.1615462
0003e0 f7 78 5f b8 b5 db 07 3d 72 13 77 be 4b b2 6c 3e
       -5.328e-05 0.033168513 -0.24128512 0.23114888
0003f0 4b d9 8b bd ca eb bb bd 3b 45 61 be 89 ce 1a 3e
       -0.06828555 -0.091758326 -0.21999066 0.1511785

module.LSTM_layer.weight_hh_l0 f4 [64, 16]
000000 97 f0 61 be 4b d2 43 be 20 83 06 3e fd 6d 80 bd
       -0.22064434 -0.19123189 0.13135958 -0.062709786
000010 9c 3c df bd f1 7e 65 be 74 a3 2f 3d 0b de 2a be
       -0.10900232 -0.22411706 0.04288049 -0.16686265
000020 cb cc 12 3e 6a 0f 12 3e 85 ca 23 3e c2 fa 45 be
       0.14335935 0.14263692 0.15995224 -0.19333938
000030 08 41 4e be e0 2b 34 3d 26 7e 0f 3e fb 30 62 3d
       -0.20141995 0.043987155 0.14012966 0.055222493
000040 6f a4 74 be 6a 96 d6 bd 5b b9 cc bd 3f a3 e6 bd
       -0.23890851 -0.10477908 -0.09996291 -0.112616055
000050 28 d7 ea bd 5d e0 bc bd 65 0d 32 be 6b bd 7a 3d
       -0.11466819 -0.092224814 -0.17387922 0.0612158
000060 bb 9f 93 3d a0 98 19 be 91 e4 cf bd 4e 9a c0 bc
       0.072082005 -0.14999628 -0.101510175 -0.023511078
000070 16 ac d6 3d 1c 41 33 3e 91 c2 77 bd 02 94 4e 3e
       0.104820415 0.17505306 -0.060488287 0.20173648
000080 a7 a5 4a 3d 5c 3f 35 3e 03 d8 ea bd 9a 45 18 bd
       0.049474385 0.17699951 -0.11466982 -0.037175752
000090 fc 42 25 be f7 b9 39 bd d8 9e 6f be 26 dc 3a be
       -0.16138834 -0.045343366 -0.23400438 -0.18248042
0000a0 53 c5 49 3e 00 2c db bd 92 19 5d be ff 22 82 3e
       0.1970418 -0.10701752 -0.21591786 0.25417325
0000b0 66 03 ab 3d 47 19 36 bd e7 b3 4c bd ce 3b 62 3e
       0.083502576 -0.0444577 -0.049976256 0.22093126
0000c0 dc e7 4d 3e 40 63 15 3d 56 05 4d bc 25 60 ee 3d
       0.20107979 0.036471605 -0.012513479 0.11639432
0000d0 49 f0 4f be f5 7d bc 3d dc 57 6e be bf e5 c8 3c
       -0.20306505 0.09203712 -0.23275703 0.024523614
0000e0 9c 61 85 3e 80 99 ff 3d 7c 2b 65 3e 97 23 68 be
       0.26051033 0.1248045 0.22379869 -0.22669826
0000f0 b8 fe 20 3b d8 79 77 3e d7 aa 82 3d 79 e8 22 3c
       0.0024565887 0.24167573 0.06380241 0.009943121
000100 61 cc e9 3d ed 9a 27 bd e3 d0 87 bc 93 71 37 bd
       0.11415935 -0.040919233 -0.016579097 -0.044786047
000110 0d 7e 08 3e b4 6a 24 be 3e 00 1f be a8 19 07 3e
       0.13329335 -0.16056329 -0.15527436 0.13193381
000120 69 a6 ea bc ff 63 74 3e 86 a9 2a bd ab c5 46 be
       -0.028643804 0.2386627 -0.041665576 -0.19411342
000130 ee 1b bc bb 53 5b 25 3e b5 07 0a be 08 66 11 3e
       -0.005740634 0.16148119 -0.13479502 0.14199078
000140 f0 36 01 be 40 5a 82 bd 95 9b 23 3e 2d df 6b 3e
       -0.12618613 -0.0636487 0.15977319 0.23034354
000150 20 5f 0f 3e 87 96 ef bd 52 53 1d be 36 6f ba 3d
       0.14001131 -0.11698633 -0.15363815 0.09103243
000160 4f fa 22 be af 69 64 be 27 35 27 3c 7c ea 77 be
       -0.15915798 -0.2230594 0.010205544 -0.24210542
000170 16 8b d8 3c ad 02 ed 3d 43 23 35 be 78 2c 71 3e
       0.026433509 0.11572776 -0.17689233 0.2355212
000180 73 a7 75 be 18 10 31 3e 8a 97 76 be 31 d2 50 be
       -0.23989658 0.17291296 -0.24081245 -0.20392682
000190 a0 41 5a 3e bd 43 72 3e 6e 2f 9b bd 0f cd c6 bd
       0.21314096 0.23658653 -0.07577406 -0.097070806
0001a0 70 89 19 be 83 3e 4f 3c aa 16 cc 3d 53 e4 01 bd
       -0.14993834 0.012649181 0.0996526 -0.031711888
0001b0 4b b9 2b be cc ee 4f 3d 0f 4a 64 3e 97 56 da 3d
       -0.16769902 0.050764844 0.22293876 0.10661047
0001c0 86 da 6a 3e 52 a5 16 be 7d 62 3e 3d 7d 61 32 bd
       0.22934923 -0.14711502 0.046480644 -0.043550003
0001d0 15 59 a8 3d f3 a3 47 3e ae cc 1e be ef 8c 46 be
       0.08220116 0.19496135 -0.15507767 -0.193897
0001e0 11 8e c0 bd 22 63 fb bd 4f e5 14 3e 32 37 6b be
       -0.09402097 -0.122747675 0.145406 -0.22970274
0001f0 ee 9f d8 3d 35 b1 1c be 28 8a 43 bd 18 a5 53 3d
       0.10577379 -0.15301974 -0.047739178 0.051671118
000200 81 98 d8 bd b2 f8 0a be 5c c4 cf 3d 63 aa ed bd
       -0.10575963 -0.13571432 0.101448745 -0.11604764
000210 2b ce 5d 3c 71 2d 15 3e 07 92 c9 ba 4f e7 d6 3d
       0.013537924 0.14568116 -0.0015378603 0.10493337
000220 a6 b8 32 be 38 f2 60 be a8 f9 ee 3c 15 2e 10 bd
       -0.1745325 -0.21967399 0.02917178 -0.035200197
000230 d6 e4 c4 3d e6 d1 eb bc 45 9c 34 3d 7f 4d d9 3d
       0.096139595 -0.02878661 0.044094343 0.10610484
000240 e7 86 94 bd f6 5f 82 3e 9f e8 ce bc 51 4f 39 be
       -0.07252293 0.25463837 -0.025257407 -0.18096663
000250 29 fe 71 be cd 8f 5d 3d 77 07 f6 bc ef 04 1c 3d
       -0.2363211 0.054092217 -0.030032856 0.038090643
000260 ef 14 65 be a9 93 6b bd e3 84 4f be f8 63 ef 3d
       -0.22371267 -0.057513867 -0.20265536 0.116889894
000270 98 41 74 3e f1 78 ff bd 19 af 6d 3e f0 82 96 3c
       0.23853147 -0.124742396 0.23211326 0.018372983
000280 f2 2d 7c be e7 51 8e bd d9 ba 60 be cf 68 68 3c
       -0.24626902 -0.069492154 -0.21946277 0.014185145
000290 5b e5 61 3e c5 df 1a 3e c1 e8 96 3d 7f 0b c7 bd
       0.22060148 0.15124424 0.07368613 -0.097189896
0002a0 bb c8 0e 3e 68 00 62 be cf 4c 67 be eb 41 c8 bd
       0.1394376 -0.22070467 -0.22587894 -0.09778198
0002b0 63 db 2f be 8c 6a 79 be f0 7f d2 3d f5 60 2f be
       -0.17173533 -0.2435705 0.102783084 -0.1712683
0002c0 c1 45 18 be a1 a4 b1 bd db 5d 05 be 28 f4 92 3d
       -0.14870359 -0.086739786 -0.13024084 0.07175475
0002d0 7d 6a b1 3c 15 be 50 3d 5e 7f 6c 3e ae 82 ea 3d
       0.021657223 0.050962526 0.23095462 0.114507064
0002e0 45 a6 aa bd a2 15 89 3d bc 96 1f be b5 90 5a 3e
       -0.08332495 0.06693579 -0.15584844 0.21344264
0002f0 29 5c db bd 2c 3e 55 bc 58 21 42 3d cd e3 6b 3e
       -0.107109375 -0.013015311 0.04739508 0.23036118
000300 5f a2 e8 3d 5b d9 c6 3b 40 3d 34 3e 2b a3 7c 3e
       0.11359095 0.0060683913 0.1760149 0.24671619
000310 15 d1 4a be 52 52 50 3e 80 2e 66 3e 32 43 16 3e
       -0.19806321 0.20343903 0.22478676 0.1467407
000320 cf 7b e5 3d 01 07 c3 bd 8d d7 53 3e b2 ca 9a bc
       0.11205255 -0.0952282 0.20687695 -0.01889548
000330 f8 a9 dc 3c 09 f5 a7 3c 59 a0 1c 3e 61 2b af 3d
       0.026936516 0.020502584 0.15295543 0.08553196
000340 04 5b 1f be 8d c3 e2 3c 64 38 45 be e3 28 33 3e
       -0.15562063 0.027681137 -0.19259793 0.17496066
000350 e8 47 18 be 3e ee 34 be c5 a1 b1 3d 2e 31 18 3e
       -0.1487118 -0.17669007 0.08673433 0.1486251
000360 9d 91 f5 bc a0 14 11 be a8 19 b1 3d 9c 6b ff bd
       -0.02997666 -0.14168024 0.08647472 -0.12471697
000370 bb 27 9b bd ee fa 1a be 59 a8 04 bc eb b1 e2 3d
       -0.07575937 -0.15134785 -0.008096778 0.110690914
000380 91 46 80 3e e5 64 43 be e2 1c 59 3e de e2 bd 3d
       0.25053838 -0.19081457 0.21202424 0.09271787
000390 64 03 8d 3d 14 5f 39 be 37 2c 90 3c cb 0c 20 be
       0.06885412 -0.18102676 0.017599208 -0.1562988
0003a0 cc a0 e6 bd 5f 1d 2d 3e 35 5d 0c 3e 1c 2c b4 3d
       -0.11261138 0.16905735 0.1370743 0.08797476
0003b0 f1 61 44 3e 98 ad f2 bd 02 19 49 3d 63 8c eb 3d
       0.19177987 -0.11849517 0.049096115 0.11501386
0003c0 38 35 38 be 37 31 fd 3c 57 31 44 be 66 7e 6a be
       -0.17989051 0.030907257 -0.19159447 -0.2289978
0003d0 f8 96 63 be d8 be 24 be 15 99 75 3c 4d 18 46 be
       -0.22225559 -0.16088426 0.014990111 -0.19345208
0003e0 57 e2 6e be d4 59 1b be 57 ee 5a be d5 2b 37 3e
       -0.2332853 -0.15170985 -0.21379982 0.17887814
0003f0 64 80 2e 3e 73 f4 1a be 7c 4c fa 3d de d3 06 be
       0.17041165 -0.15132312 0.122216195 -0.13166758

module.LSTM_layer.bias_ih_l0 f4 [64]
000000 8d 53 66 be 76 f2 0e 3e c8 8b 68 bd 53 85 81 bd
       -0.2249281 0.13959679 -0.05677393 -0.06324258
000010 14 53 37 3e 2e 39 22 be d8 5d 55 3b 20 7a 74 bd
       0.17902786 -0.15842125 0.0032557156 -0.05968678
000020 74 e0 21 3d 23 9e 5f 3e 5e a0 29 be db 1a ad bc
       0.039520696 0.21837668 -0.16565081 -0.02113097
000030 f0 c6 78 be dc ec 09 be f9 ac 00 3e a8 ee 0f bc
       -0.24294639 -0.13469261 0.12565984 -0.008784927
000040 c0 8b f1 bc 88 d1 40 be 4b 05 b2 bc a7 fc 7b 3d
       -0.029485583 -0.1882993 -0.02173104 0.061520245
000050 a2 24 58 3e b5 0a 45 be 51 21 61 3d 8e 74 5a 3e
       0.21107724 -0.19242366 0.054963414 0.21333525
000060 0a bb e3 bc 2d 6b 45 bd a3 eb 1e bd 63 7d 00 be
       -0.027799148 -0.048197914 -0.03879894 -0.12547831
000070 9e 6f 80 3e 78 e1 38 3e 73 18 24 be fc 3d 01 bd
       0.25085157 0.1805476 -0.16024952 -0.031553254
000080 85 67 32 be 5b c6 ec 3c 98 15 27 bd c1 f2 39 be
       -0.17422302 0.028903177 -0.040792078 -0.1815901
000090 cb 9c 5f be c1 73 4f 3d f0 98 4b bd dd dc d3 3d
       -0.21837156 0.0506475 -0.0497064 0.10344861
0000a0 f4 2a b3 bd d9 e7 f5 bd 4a b0 77 bd 3c 2b 59 be
       -0.08748427 -0.12007112 -0.060470857 -0.21207899
0000b0 97 91 26 3e 86 fd 1f 3e 28 7e 3e be 55 84 cb bd
       0.16266476 0.15624055 -0.18602812 -0.0993735
0000c0 58 7d 01 3e e6 52 07 be f4 d6 77 bd 3c d3 32 be
       0.12645471 -0.13215217 -0.06050773 -0.17463392
0000d0 40 2e 33 be 85 31 15 3e 33 ee 6c be 56 52 6c 3d
       -0.17498112 0.14569671 -0.23137741 0.05769571
0000e0 01 9d f5 bd 72 bb 60 3e fd 88 fd 3d 9d 09 3f be
       -0.11992837 0.21946505 0.12379644 -0.18656011
0000f0 0a 4d a3 bd 9b 5d 23 3e b1 77 2a 3e c1 d2 a8 bd
       -0.079736784 0.15953676 0.16647221 -0.08243323

module.LSTM_layer.bias_hh_l0 f4 [64]
000000 18 b9 11 be 09 d2 63 3e 30 bb 74 bd c5 08 05 3e
       -0.14230764 0.22248091 -0.05974883 0.12991627
000010 b2 cc 50 be 03 46 26 3c c1 d2 4f 3e 1a e7 3d 3e
       -0.20390585 0.010148528 0.2029524 0.1854519
000020 65 26 b4 bc 6d 53 08 be b8 b4 12 be e8 e3 d9 bc
       -0.021990964 -0.13313074 -0.14326751 -0.026597932
000030 a2 7c 39 be 46 ee 58 bd 43 9d bc 3d 2c 93 87 3d
       -0.1811395 -0.05296161 0.09209683 0.06619868
000040 15 5c 2e 3d 94 2c 1f be 2c 4a 69 3e d9 d2 f7 bd
       0.042568285 -0.15544349 0.227822 -0.12100763
000050 ec ee 4a 3e 49 5e 96 bd eb 23 0f be 0c af 46 3e
       0.19817704 -0.07342202 -0.13978545 0.19402713
000060 b1 15 11 be 25 2c 6d 3e 41 d3 a1 3a 8b 9c ab bd
       -0.14168431 0.23161371 0.0012346284 -0.083794676
000070 67 20 1d 3d 9e 90 69 3e b1 2d 58 be 6e f1 82 bd
       0.03836098 0.22809073 -0.2111118 -0.06393705
000080 e6 96 7a be d8 df 03 3e d0 e7 47 bd 83 f1 c7 bd
       -0.24471626 0.12878358 -0.048805058 -0.097628616
000090 6e 86 10 be ac 03 52 3e a7 eb 1b 3e af bd b5 bd
       -0.14113781 0.20509213 0.15226613 -0.0887407
0000a0 8e fe 8c bd 96 a3 fb bc 03 f3 f7 bd 25 c0 3c 3e
       -0.0688449 -0.030717652 -0.12106898 0.18432672
0000b0 27 15 44 3e af a2 6f 3e e4 cf 72 be aa 4b 43 be
       0.19148694 0.23401903 -0.23712116 -0.19071832
0000c0 2c 3a 5c 3e 50 6d 01 be 7a 02 44 3e db ce c2 3b
       0.21506566 -0.12639356 0.1914157 0.0059450692
0000d0 6f 49 a5 bc e3 65 42 3d 68 6d 47 3d 25 61 16 3e
       -0.020176617 0.047460448 0.048688322 0.14685495
0000e0 44 c1 23 3e 23 fa dd bd ea 80 84 3d d0 24 3e 3d
       0.15991694 -0.108387254 0.06469901 0.046421826
0000f0 67 bd 77 be 27 08 bf 3d ed 6a 04 be bf f4 a0 3c
       -0.24193345 0.09327727 -0.12931414 0.019647954

module.LSTM_layer.weight_ih_l1 f4 [64, 16]
000000 d3 37 8c bb a2 08 85 3c 2e 3e 4a bd 17 bd 5b be
       -0.0042791157 0.016239468 -0.049375705 -0.21458851
000010 00 ce d8 3d 2b a0 5d 3e 15 73 c5 3c 0d 82 39 bc
       0.105861664 0.2164313 0.024102727 -0.01132251
000020 28 68 d2 3d f8 6d d6 3d a3 3d 78 be a0 3c 80 3e
       0.102737725 0.104701936 -0.24242263 0.25046253
000030 fa e2 ea bd 3f b2 f0 bd 02 b3 23 3e 4d 42 93 3c
       -0.114690736 -0.11752748 0.15986255 0.01797595
000040 4d 12 c2 3d 7b 49 75 be 88 ae 42 be 0f b6 2e be
       0.09476147 -0.23953812 -0.19011891 -0.17061637
000050 48 9f 97 3c 46 e9 3b 3d 72 8f c1 bc e7 8c 2e be
       0.018508568 0.045876764 -0.02362797 -0.17045937
000060 e5 6b 32 be 49 63 41 3e 9c e3 31 3e 3c 38 8d 3b
       -0.17423971 0.1888553 0.17371982 0.004309682
000070 94 e7 b9 3d a6 cf e8 3d c9 ab 7e bc a2 c8 8c bd
       0.09077373 0.11367731 -0.015543886 -0.06874205
000080 8f a6 2a be d3 79 4f be c4 6b 61 3e 6f 70 46 be
       -0.166651 -0.20261316 0.22013766 -0.19378828
000090 0b f5 49 be d1 d6 4c be 79 eb e8 3d fb 0c 97 bd
       -0.19722383 -0.20003821 0.11373038 -0.07375523
0000a0 37 17 ad bd 10 8b 74 be fb d2 13 3e 0d 49 e6 3d
       -0.084516935 -0.23881173 0.14435951 0.11244402
0000b0 1f 4f 5d 3e ed ee 5c 3d d1 4e 51 3e 4a be 58 3e
       0.21612214 0.053938795 0.20440222 0.2116634
0000c0 85 3c 3e be 4b d8 a0 3d f6 26 0c be 00 61 bb bd
       -0.18577774 0.078537546 -0.13686737 -0.09149361
0000d0 94 fd d5 bd db c5 f0 bc a6 0e 7f 3d 6e 60 64 3e
       -0.10448757 -0.02939122 0.06226983 0.2230241
0000e0 57 92 27 3e 1f 49 bc 3d 7f 2b b1 3d 2b d7 2f bc
       0.16364418 0.09193634 0.08650874 -0.010732452
0000f0 d3 b3 09 bc d4 84 d1 bd 76 42 2e 3e 68 c9 73 be
       -0.00840469 -0.10230413 0.1701754 -0.23807299
000100 98 41 30 3e 93 d3 05 be bf b5 2f bd 4e 71 cf 3d
       0.17212522 -0.1306899 -0.042897936 0.10129033
000110 78 07 71 be 53 34 a1 3d 9c 03 22 be b2 e4 61 3e
       -0.23538005 0.07871308 -0.1582169 0.22059897
000120 28 2b d5 bd a4 81 17 be d3 74 d8 bd d7 4c 38 bd
       -0.10408622 -0.14795548 -0.105691575 -0.044995155
000130 dd 27 50 bc dd e7 75 ba ba 3d 81 be 9d ae 75 be
       -0.012704817 -0.00093805586 -0.25242406 -0.23992391
000140 6e 40 0c be 1a 7e e4 3d f2 40 3c 3e 83 25 c5 bd
       -0.13696453 0.111568645 0.1838415 -0.096262954
000150 80 24 a0 3d e6 10 42 3e ba 7f 46 3e e7 bc 61 3d
       0.07819462 0.18951759 0.19384661 0.055111792
000160 4d 04 db 3d 61 5b 3c be c9 45 2c 3e 7e 6a 1e bd
       0.1069418 -0.18394233 0.16823496 -0.038675778
000170 84 12 3b be 17 d7 2d be d3 27 2a be 39 58 65 3e
       -0.18268782 -0.16976582 -0.16616754 0.22396936
000180 b5 ca d5 3d 6f 97 18 bd 40 ee 5d 3e 7e 9b 33 3e
       0.10439054 -0.037253793 0.21672916 0.17539784
000190 86 7a ad bd 0b bc 7d 3e 54 5a 2a be c2 73 6f 3d
       -0.08470635 0.24778764 -0.1663602 0.058460005
0001a0 99 a2 4f 3e 92 0a 82 3b 2a 6b 16 be fb b3 cc bd
       0.2027687 0.0039685452 -0.14689317 -0.09995266
0001b0 57 49 30 bd 8d 32 12 3c 92 28 35 be c2 c6 82 3d
       -0.043038692 0.008923185 -0.17691258 0.06385566
0001c0 a3 7a 6c be fd 4c c1 3d 01 7f f3 bd c2 2b 34 3e
       -0.23093657 0.094385125 -0.118894584 0.17594817
0001d0 85 7d 80 be 21 02 16 bd 11 23 5a be 24 bd aa 3c
       -0.25095764 -0.036623124 -0.2130244 0.020842142
0001e0 d9 64 0f be 42 84 53 3e 2c 05 64 bd 97 79 2f 3e
       -0.14003314 0.20655921 -0.055668995 0.17136227
0001f0 d9 66 bd bd a7 88 e3 bd f9 95 f1 bc 80 2b 0b be
       -0.09248132 -0.11110049 -0.029490458 -0.13590813
000200 b5 94 44 3e a7 25 80 bd e7 c7 cf bc d4 68 6b 3e
       0.19197352 -0.062571816 -0.025363876 0.22989208
000210 3c 5b ad bd 95 55 3f be 2c 68 49 be 9c 39 ba bd
       -0.08464667 -0.1868499 -0.19668645 -0.09093019
000220 ca 74 4b 3e a0 a2 f2 bd c6 eb 30 3e 84 80 2b 3e
       0.1986877 -0.118474245 0.1727744 0.16748244
000230 0d 68 43 3d 52 88 5c be 08 af 4d 3d a4 d9 5d be
       0.047706652 -0.21536377 0.05021575 -0.21665055
000240 89 2f 06 3e 8c 7b 1e be 35 29 75 3e d6 d0 93 bd
       0.1310407 -0.15476817 0.239415 -0.07217567
000250 b1 3a 4c 3d 95 c1 3b 3e 56 17 ee 3d 27 91 40 3e
       0.04986066 0.18335564 0.11625545 0.18805371
000260 11 8e e6 3d be e5 19 be f3 50 0d bc 53 10 39 bc
       0.11257566 -0.15029046 -0.008625257 -0.011295396
000270 50 b2 53 3e bf c5 52 3e 6c a8 6b 3e 1c 39 1a 3e
       0.2067349 0.20583247 0.23013467 0.15060848
000280 df 32 12 3e eb fd 55 3e 2c 0b 34 be 5d 43 44 be
       0.14277218 0.20897643 -0.17582387 -0.19166322
000290 43 d0 0c be 24 d8 48 3e 48 2b 9f 3d 71 62 71 3d
       -0.1375132 0.19613701 0.07771927 0.05893177
0002a0 1d 6d 0c be 3a 74 5c bd f0 c2 6c bd e4 c0 00 bd
       -0.13713498 -0.05382178 -0.057803094 -0.031433955
0002b0 e7 00 50 3d aa 3b 02 3e e1 ff 7d 3e 77 42 b5 3d
       0.05078211 0.12718073 0.24804641 0.08850568
0002c0 43 78 ac bd be fd 90 3d 00 e9 13 be 8d f1 5a be
       -0.084213756 0.070796475 -0.14444351 -0.21381207
0002d0 02 ab 0f 3e bb eb 35 3c a1 b8 ed 3d fe 9e 1f 3e
       0.14030078 0.011103566 0.11607481 0.15587994
0002e0 2c a2 6e be 8e 6d bb bd 78 f8 f8 3d c1 fa 01 be
       -0.23304051 -0.09151755 0.12156767 -0.12693311
0002f0 88 84 e2 bd 72 f9 c0 3d 38 29 7d bd 34 ed 3b be
       -0.110604346 0.09422578 -0.061806887 -0.18352205
000300 35 83 28 3e 14 cf 1c be 5c 70 7a be 4c ae d4 3d
       0.16456302 -0.15313369 -0.24456924 0.10384807
000310 49 c8 01 be 8e d6 63 be 3a b7 9f bb a6 b3 09 be
       -0.12674059 -0.22249815 -0.004874137 -0.13447437
000320 b7 56 10 3e 50 97 7b 3c e9 1e 59 be 72 9a 84 bd
       0.14095579 0.0153559 -0.21203198 -0.064747706
000330 67 51 1a 3d 21 4d 8e bd 5f 83 6e be 13 88 43 bd
       0.037675288 -0.06948305 -0.23292302 -0.047737192
000340 a8 1d ea bd c6 dd 99 bd c5 7f b4 3d a4 67 00 bc
       -0.11431438 -0.07513003 0.088134326 -0.00783721
000350 c1 73 ea bd 46 62 bb bd 91 4c 3c be af e2 30 3e
       -0.114478596 -0.091496035 -0.18388583 0.17273973
000360 d7 9b b4 bd ee a2 8f bb bb fa 20 be 52 79 8b 3d
       -0.088187866 -0.0043834364 -0.15720646 0.068102494
000370 58 72 3e be bf e3 54 3d a7 0f f1 bd 37 62 19 be
       -0.18598306 0.051975008 -0.117705636 -0.14978872
000380 6d 57 3d 3e e3 07 a8 bd 02 ad ef bc 52 54 1c be
       0.18490382 -0.08204629 -0.029257301 -0.1526654
000390 d4 2d e6 bd b2 5d 42 3e 12 eb 57 3e c7 30 24 be
       -0.1123921 0.18981054 0.21085766 -0.16034232
0003a0 8c b3 9f 3d 3c f1 ae bd 01 af 4c 3e 6d bf 33 3e
       0.07797918 -0.085421056 0.19988634 0.17553492
0003b0 4f 9b 80 bd fb c2 65 3e a3 a4 34 3e 2c 73 b7 3d
       -0.06279623 0.2243766 0.17640929 0.08957514
0003c0 c4 5a 7a 3e d8 91 7b bc 42 f0 09 be 72 c8 3a 3e
       0.24448687 -0.015354596 -0.13470557 0.18240526
0003d0 18 66 1d 3e e1 42 fc 3d 8f eb 3b 3e e1 96 27 be
       0.15370977 0.12317444 0.18351577 -0.1636615
0003e0 93 cd b7 bd 38 72 55 3e 70 06 4c 3e 2d d5 ad 3d
       -0.08974757 0.20844352 0.1992433 0.08487926
0003f0 38 d7 64 be 4d ad 04 be ed ab e1 3d df 11 25 3e
       -0.22347724 -0.12956734 0.1101912 0.16120099

module.LSTM_layer.weight_hh_l1 f4 [64, 16]
000000 91 dc 40 be cf 53 96 3d 79 4f ba bd 80 8a 05 be
       -0.1883414 0.07340204 -0.090971895 -0.13041115
000010 25 d2 46 3e dc 0d 89 3d 20 e0 3e 39 84 31 a3 3c
       0.19416101 0.066920966 0.00018203305 0.019921072
000020 b1 79 b6 bc 6c 4c 0c 3c eb 66 92 bd 06 2e 7a 3e
       -0.022274824 0.008563142 -0.07148536 0.24431619
000030 ba 96 c6 3c 6a 61 6a bd 47 5a 6c 3e 75 32 60 3e
       0.024241794 -0.057221808 0.23081313 0.21894248
000040 7d cf 53 be ad ca 30 be 71 0a 73 be 10 6f d6 bd
       -0.20684619 -0.17264815 -0.23734452 -0.10470402
000050 9d 15 55 be d8 3b 58 be ac f7 25 3e c7 0a 10 3d
       -0.20809026 -0.21116579 0.1620776 0.035166528
000060 1c a9 80 be 08 0f 3d be 0c 6f c7 3b 24 ae 9b 3c
       -0.2512902 -0.18462765 0.006086236 0.019003935
000070 62 7e 23 be c2 1d 78 3e 2c db 1e 3e 7e 96 31 3b
       -0.1596618 0.24230102 0.15513295 0.0027097757
000080 32 cd 43 3e ea 6f 51 be a7 17 ad bd ff ca 2b be
       0.19121245 -0.20452848 -0.08451777 -0.16776656
000090 79 72 b6 3d b2 ef 11 be 27 23 15 bd c1 75 7f 3e
       0.08908553 -0.14251593 -0.036410477 0.24947263
0000a0 2f ac 9c 3d 6d 06 2c be 66 bc 06 be e5 81 d0 bd
       0.07650029 -0.16799326 -0.13157806 -0.101810254
0000b0 8d af f0 3d d4 60 f3 bd db bb 8c bc ce 00 53 be
       0.11752234 -0.11883703 -0.01717942 -0.20605776
0000c0 f5 6b b6 3d 95 0e 68 3e 5d 1f 28 be 3e 32 9c 3d
       0.0890731 0.22661813 -0.16418214 0.076267704
0000d0 a0 35 46 be dc b9 3b be 4b 4b 40 3e 18 e4 d5 bc
       -0.19356394 -0.18332618 0.18778722 -0.02610974
0000e0 5f 7f 70 3e 3e 66 6c 3e 4a 85 89 bd 78 81 8d 3d
       0.23486088 0.23085877 -0.06714876 0.0690946
0000f0 91 c1 6c 3e 80 3f 25 3e 8b 1f 6e be 44 4b e0 bd
       0.23120715 0.16137505 -0.2325422 -0.10951856
000100 d0 bf af bd 86 72 86 be 23 7e a8 3d e7 82 46 3c
       -0.08581507 -0.2625925 0.08227184 0.0121161705
000110 1e 53 55 3e 3b f4 b4 3d 52 d9 5a 3e b6 e4 a9 bb
       0.20832488 0.08835646 0.21371964 -0.005184735
000120 95 4f 28 be 06 05 dd 3c 13 34 6b bc 34 37 16 be
       -0.16436608 0.026979934 -0.014355677 -0.14669496
000130 bf 86 a4 3d ab 64 e5 3d bc 65 6f be 1c 26 10 3e
       0.08033513 0.112008415 -0.23378652 0.14077038
000140 16 d7 4e 3b 84 a8 1f 3d c0 b9 00 be 5e 9f 15 bd
       0.0031561307 0.03897907 -0.12570858 -0.036528938
000150 4c 1a 7a 3e 45 0f 46 be fc 66 34 bc b7 4d 73 3e
       0.24424094 -0.19341762 -0.0110108815 0.23760115
000160 a0 7a 4b bd 48 b4 4f bc cf 5f c8 bd b5 fd 39 3e
       -0.04967749 -0.01267726 -0.09783899 0.18163188
000170 e2 17 d5 bd 07 d9 33 be 2c 30 ba bd e1 e9 18 3e
       -0.10404946 -0.17563258 -0.09091219 0.14932968
000180 50 f9 72 3c 03 8e 47 3e 20 0d 34 3e cf 26 0a bd
       0.014829949 0.19487767 0.17583132 -0.033728417
000190 8d 9d 53 3d 34 c5 7e be 0a 1c 42 be 30 4f 1c 3e
       0.051663924 -0.24879915 -0.18956009 0.15264583
0001a0 d3 f6 cf bd 49 90 f4 3d 61 5a 2c bd af 94 63 3e
       -0.101545 0.11941583 -0.04207838 0.22224687
0001b0 fc f7 44 be e4 47 21 bd 65 83 8d bd e3 45 04 3d
       -0.19235224 -0.0393752 -0.06909827 0.03229321
0001c0 3d 50 f4 3d 1b 17 1d be 51 bd b8 bd d0 5b 71 3e
       0.11929367 -0.15340845 -0.09020484 0.2357018
0001d0 f1 31 63 be 12 2c 37 3e 46 bf 1f bd 47 7f 0f 3e
       -0.2218702 0.17887905 -0.039000772 0.14013396
0001e0 11 e8 49 be d0 38 73 be cc 72 5b 3d f0 b5 16 be
       -0.19717433 -0.23752141 0.053576276 -0.14717841
0001f0 5d 00 a7 bc 9a ac 55 be 82 04 88 bd 9f ac 05 bd
       -0.020385915 -0.20866624 -0.06641485 -0.032635327
000200 b9 2c bd 3c d9 70 8b bd 29 d2 0b 3e 42 fd f4 3d
       0.023092614 -0.06808633 0.13654388 0.119623676
000210 4c 6a 4a 3e 87 d7 82 be 1f 34 7d bd c9 25 70 be
       0.19767112 -0.2555506 -0.061817285 -0.23451914
000220 fe 69 58 be 0e b4 77 3d b9 a8 c2 3d 87 0f b3 bd
       -0.21134183 0.060474448 0.095048375 -0.08743196
000230 83 af 16 3e ad 2a 27 3a 44 54 a9 bd 5e ff d2 3c
       0.1471539 0.00063769036 -0.082680255 0.025756534
000240 b7 26 1e 3d c8 15 0f 3b df da 58 3c 3b 33 4a be
       0.03861114 0.002183305 0.013235777 -0.19746105
000250 cb 38 3e bd 27 ee 05 bd 2a b1 36 bd e1 36 2d be
       -0.04644088 -0.032697823 -0.04460255 -0.16915466
000260 c2 2e 20 be fd fe 57 be 04 83 81 3e a9 ea 59 3e
       -0.15642837 -0.21093364 0.2529527 0.21280922
000270 68 b3 55 be 6e e7 4a 3e 3f f8 ab bd 4d 70 08 3e
       -0.2086922 0.19814846 -0.083969586 0.1332409
000280 cb 07 82 3d c4 16 30 3e 5a 71 47 3e d4 0f 79 be
       0.06349143 0.17196184 0.19476834 -0.24322444
000290 e7 83 63 3e 0b ca 2c be 3b a5 3a be 61 2b 6b be
       0.22218286 -0.16873948 -0.18227093 -0.22965766
0002a0 bd ce 21 3e 74 62 11 be 82 d9 5c 3e 8a 36 a2 3d
       0.1580152 -0.14197713 0.21567348 0.07920559
0002b0 3e 21 14 be 4b db 34 3c 79 44 61 bc a2 e8 70 be
       -0.14465806 0.011038612 -0.013749235 -0.23526242
0002c0 43 10 89 bd 7a 1e 1d be a5 f5 04 3e fb 2d 8e 3c
       -0.06692555 -0.15343657 0.12984331 0.01735591
0002d0 aa c5 4e bd e1 6d 6e bd 94 4c 07 3e 3f e2 48 be
       -0.050481476 -0.058210257 0.13212806 -0.19617556
0002e0 a8 6b ea bc 36 5a b9 bd 5f 78 5a be bb 09 23 3e
       -0.028615788 -0.090504095 -0.2133498 0.1592168
0002f0 7e c6 5d be c7 4b bb 3d 87 98 6e 3d b0 de 65 bd
       -0.2165775 0.09145313 0.05825093 -0.056120574
000300 e4 f3 90 bd 70 8b fa 3c c1 e3 64 3e ba 8f d5 3d
       -0.070777684 0.030584067 0.22352506 0.10427804
000310 f3 8e 28 be f1 69 cc 3c 88 e4 63 3e c5 5b 33 3d
       -0.16460781 0.02495286 0.22255147 0.04378869
000320 86 60 29 3e 63 85 6e 3e 70 92 d8 bd f0 1a 24 3e
       0.16540727 0.2329307 -0.10574806 0.16025901
000330 5d 5f 7e 3c b7 2a 61 be b5 af 0b 3e a0 ff 66 be
       0.015525666 -0.2198895 0.13641246 -0.2255845
000340 09 0a 1d 3e 31 1e dd 3d d2 3a e6 bd f0 70 18 be
       0.1533586 0.10796774 -0.11241688 -0.14886832
000350 d5 50 d2 3d 02 37 15 3e 9a 32 c9 bd a1 77 85 be
       0.10269324 0.14571765 -0.098241046 -0.26067832
000360 34 5e 67 be 81 7a f4 bd 66 c1 e5 bd 2d c7 ea bd
       -0.2259453 -0.11937428 -0.112185284 -0.11463771
000370 4e fb 8e bd 08 64 68 be 89 70 13 bd 5d 68 a6 bd
       -0.06981526 -0.22694409 -0.035995994 -0.081253745
000380 01 0e f1 bd 2f cf 2f 3e c5 0f 21 be 27 ae e2 3c
       -0.11770249 0.17168878 -0.15728672 0.027670933
000390 32 ae 45 3e cd 90 0b be f9 b5 bb bd e4 5c 77 bd
       0.19304731 -0.13629456 -0.09165568 -0.06039132
0003a0 c4 32 56 be 55 ff 87 bb 86 3f e3 3d 4f d4 62 3e
       -0.20917803 -0.004150311 0.110961005 0.22151302
0003b0 ed 0c b1 bd db 41 3f 3e 43 3f e2 3d da be e8 bd
       -0.086450435 0.18677466 0.110472225 -0.11364527
0003c0 36 93 e5 bd 06 9c 88 bd 33 29 b4 bd 0a 1d 2e be
       -0.11209719 -0.06670384 -0.087969206 -0.17003265
0003d0 02 4a 79 be bb 43 0d 3d 6b 88 6b 3c 0e 5a 45 be
       -0.24344638 0.03448842 0.014375786 -0.19272634
0003e0 a6 08 4b be 2f 57 6c be ef 70 b0 3d 1e ba e0 bd
       -0.19827518 -0.23080133 0.086152904 -0.10972999
0003f0 2d 7b 92 bd 4d ed fb 3d 98 42 71 be df 74 07 be
       -0.071524 0.12301121 -0.2356056 -0.13228177

module.LSTM_layer.bias_ih_l1 f4 [64]
000000 91 b0 f1 3d c4 b0 a1 bc eb 71 34 3e 5c 50 27 be
       0.118012555 -0.019737609 0.17621581 -0.16339248
000010 35 c7 67 3e 6b c3 65 3e ad 5a 47 be 29 eb 61 be
       0.22634585 0.22437827 -0.19468184 -0.22062363
000020 9d 22 2c bd aa bd 15 bd 24 79 5d 3e 35 65 f2 3d
       -0.042025197 -0.03655783 0.21628243 0.1183571
000030 d2 bb 3f 3e 4b 07 23 be b5 ab 1c 3e f0 e3 56 3e
       0.18723992 -0.15920751 0.15299876 0.20985389
000040 ec cf 76 3e 4c f2 b2 3d 5a c8 6a 3e 96 70 57 3e
       0.24102753 0.08737621 0.2292799 0.21039042
000050 ae 89 70 3d 85 4b 21 be 9f a6 62 be 5b 5b 0e be
       0.05872505 -0.15751465 -0.22133873 -0.13902037
000060 e8 75 4e 3e e7 52 05 be 8f 74 6b 3e 05 f5 1f bd
       0.20162165 -0.13019906 0.22993682 -0.03905203
000070 9e ea cf 3d 5d e2 3f be 2e be 38 3d 21 2e 4b be
       0.101521716 -0.18738694 0.045103244 -0.19841816
000080 fd 18 21 bd ac 6e 2c be 12 f2 33 3e c2 d2 78 bd
       -0.03933047 -0.16839093 0.17572811 -0.06074787
000090 04 75 c4 bc 39 6a 46 bc ea 36 80 3d 6e 05 1d be
       -0.023981579 -0.012110286 0.06260474 -0.15334103
0000a0 ae 45 00 bd 81 41 1f 3e ae 14 35 3e 23 da 3d 3e
       -0.03131645 0.15552332 0.1768367 0.18540244
0000b0 d3 f1 42 3d 5c 23 2b 3e 4a 03 4f be cc 39 89 bb
       0.047593903 0.16712707 -0.20216098 -0.004187798
0000c0 13 74 1b 3e 1b 4a b7 bc ee 5d 7b 3d 5f 47 ff 3d
       0.15180998 -0.022374203 0.061368875 0.12464785
0000d0 ac ed b3 3d 71 63 ca bd ea 6e 39 3e 32 a3 81 be
       0.08785567 -0.09882248 0.18108717 -0.2531982
0000e0 fb ef 76 be 2b 8b a8 3c 11 b2 ae 3d d0 7d 38 bd
       -0.24114983 0.020574173 0.08530057 -0.04504186
0000f0 31 f9 15 3e f9 f2 2a be 51 fc 04 3e b2 15 e0 bd
       0.1464584 -0.16694249 0.12986876 -0.10941638

module.LSTM_layer.bias_hh_l1 f4 [64]
000000 18 87 5c 3e 3a 9a 1c 3e 3d 8e 19 be 58 47 3e 3e
       0.21535909 0.15293208 -0.14995666 0.18581903
000010 77 d6 5a be 12 fd db bd 8d 75 30 be 73 14 4a 3e
       -0.21370874 -0.10741629 -0.17232342 0.19734363
000020 d1 f4 0e bd 20 09 83 3e e5 b6 97 3c bf 7b 74 bc
       -0.034901444 0.255929 0.018519828 -0.0149220815
000030 98 13 3a 3e 2a df f4 bc cb 31 24 3d c2 0f 58 be
       0.18171537 -0.02989157 0.04008655 -0.21099761
000040 e6 3b 0d 3e 81 82 55 be 02 ba 63 be e1 c7 6f 3e
       0.1379238 -0.20850565 -0.22238925 0.23416092
000050 c6 5b 58 3e 67 56 34 3e d2 2b 27 3e bd cc 62 3e
       0.21128759 0.17611085 0.1632531 0.22148414
000060 05 ac ee bd 30 ff ee bd 4c ec 0a 3a c9 bd 2f 3e
       -0.11653904 -0.11669767 0.0005299493 0.17162241
000070 8e cd 2a be 24 86 53 bc 87 39 f2 bd 4f b3 38 be
       -0.16679975 -0.0129104 -0.11827379 -0.18037151
000080 0d fc 6d be a4 c1 38 be 0e 85 46 3e c9 b2 f7 3d
       -0.23240681 -0.18042618 0.19386694 0.120946474
000090 2c 2e fd bc a0 7c db bb ac fd 2f bc d3 38 01 3d
       -0.030905806 -0.006698206 -0.010741632 0.031548332
0000a0 60 6a 1f 3c fd 4e 27 bd e0 2b 49 bc e2 2c a3 bd
       0.009729952 -0.040846813 -0.012278527 -0.07967545
0000b0 19 4d 6e be e2 b0 30 3e ef ff 59 3e 21 2a f0 3d
       -0.23271598 0.17254975 0.21289037 0.117267855
0000c0 28 4e 03 be c7 33 88 3c 70 c5 4e be 36 4b ae bc
       -0.12822783 0.016626252 -0.20192504 -0.021276098
0000d0 94 bd 01 3e dc be 6f 3e 2c 6e 6c 3e 79 b5 6d be
       0.12669975 0.23412651 0.23088902 -0.23213758
0000e0 32 7c e3 3d ce db 1f be a0 e7 e9 3d dd b6 39 3e
       0.11107673 -0.15611193 0.11421132 0.18136163
0000f0 6c 15 3e 3e 5d 97 aa 3d e5 7b 0b 3e 1f 97 51 3e
       0.1856286 0.083296515 0.13621481 0.20467804

module.BN_layer.weight f4 [160]
000000 54 a1 7d 3f dd e1 80 3f cd bb 7d 3f 23 79 80 3f
       0.9907429 1.0068928 0.99114686 1.0036968
000010 d5 1b 7d 3f a7 30 80 3f 53 bc 7f 3f 22 90 7d 3f
       0.98870593 1.0014848 0.99896735 0.99048054
000020 e6 f9 7f 3f f0 64 80 3f ad cf 80 3f 90 e8 80 3f
       0.9999069 1.0030804 1.0063378 1.0070972
000030 87 27 81 3f fc 8e 7d 3f 24 20 80 3f 68 80 7d 3f
       1.0090188 0.990463 1.0009809 0.9902406
000040 bc 9d 7d 3f 53 59 7f 3f 05 85 7e 3f 36 62 81 3f
       0.9906881 0.9974567 0.9942172 1.0108097
000050 f9 71 81 3f 3d 4c 7e 3f 1b ee 7f 3f 8b 48 7f 3f
       1.0112907 0.9933508 0.99972695 0.99720067
000060 aa a3 7f 3f d5 aa 80 3f 2d 03 7d 3f f7 e0 7f 3f
       0.99859107 1.0052134 0.9883297 0.99952644
000070 84 e5 7c 3f 9e b8 80 3f 53 78 7c 3f ff 1b 80 3f
       0.98787713 1.0056341 0.986211 1.0008544
000080 e7 c9 7c 3f 96 ae 7f 3f 64 6f 80 3f c3 80 81 3f
       0.9874558 0.9987577 1.0033994 1.011742
000090 fe b0 7d 3f 5d 98 7c 3f e8 92 80 3f 93 58 80 3f
       0.99098194 0.9866999 1.0044832 1.0027031
0000a0 7b e3 7e 3f 8c 9c 7d 3f 17 10 7f 3f 76 8a 80 3f
       0.9956586 0.99066997 0.99633926 1.0042255
0000b0 e9 a4 80 3f 39 9e 7e 3f a4 5f 7d 3f 16 74 80 3f
       1.0050327 0.9946018 0.9897406 1.0035427
0000c0 3b 24 7d 3f 21 44 7f 3f 22 91 7e 3f 2f 11 81 3f
       0.9888341 0.9971333 0.99440205 1.0083369
0000d0 ce 5a 7d 3f ea a4 7d 3f 6c 0e 80 3f 7f c4 80 3f
       0.9896668 0.99079764 1.0004401 1.0059966
0000e0 cb cb 7e 3f 41 34 7f 3f 26 7b 7f 3f 67 48 81 3f
       0.99529713 0.9968911 0.99797285 1.010022
0000f0 ee 29 80 3f ba c6 7e 3f 7d 74 82 3f 5b 4b 80 3f
       1.0012796 0.9952198 1.0191799 1.0022997
000100 64 47 81 3f d7 be 7f 3f 93 d0 80 3f f5 cc 80 3f
       1.0099912 0.99900573 1.0063652 1.0062548
000110 a2 54 81 3f 15 f8 80 3f af c4 7d 3f 72 33 80 3f
       1.0103953 1.0075709 0.9912824 1.00157
000120 2d 02 81 3f 00 de 7e 3f 14 48 7f 3f 6f d2 80 3f
       1.0078789 0.99557495 0.9971936 1.0064219
000130 bd ef 7f 3f 30 62 7f 3f f4 4e 81 3f a9 a8 7e 3f
       0.99975187 0.997592 1.010222 0.99476105
000140 ba 2f 7f 3f 89 71 80 3f 3d 37 80 3f 62 d3 81 3f
       0.996822 1.0034648 1.0016857 1.0142634
000150 7f 9b 81 3f 34 14 81 3f ed 70 81 3f ac 2b 81 3f
       1.0125579 1.008429 1.0112587 1.0091453
000160 50 5b 7e 3f 50 67 80 3f 3d 3b 7f 3f 3a 9e 80 3f
       0.9935808 1.0031528 0.99699765 1.0048287
000170 fe d4 7d 3f 4e 54 80 3f db 72 7d 3f 4c b4 80 3f
       0.99153125 1.0025728 0.9900338 1.0055022
000180 7a d8 7e 3f 3b db 7d 3f 6a fb 7c 3f 20 f5 82 3f
       0.9954907 0.99162644 0.9882113 1.0231056
000190 16 a4 81 3f 7f a9 80 3f 29 5c 7c 3f f3 70 7d 3f
       1.01282 1.0051726 0.98578125 0.9900047
0001a0 cf 13 80 3f 8b 05 7e 3f a4 d7 7e 3f d0 19 80 3f
       1.0006045 0.9922721 0.9954779 1.0007877
0001b0 97 68 81 3f df 00 7e 3f b0 a4 7d 3f 0d 73 7e 3f
       1.0110043 0.9922008 0.9907942 0.99394304
0001c0 fb 66 7f 3f dd a0 7e 3f 24 32 7e 3f 57 ac 7e 3f
       0.9976651 0.9946421 0.9929526 0.9948172
0001d0 38 ff 80 3f 0e 4c 80 3f be 1a 81 3f 2e e5 80 3f
       1.0077887 1.002321 1.0086286 1.006994
0001e0 05 e7 80 3f b0 cc 7f 3f b2 e1 7e 3f ae e4 7f 3f
       1.0070502 0.99921703 0.99563134 0.9995831
0001f0 73 6a 7d 3f e7 4a 80 3f 0a 43 7f 3f 4d aa 7f 3f
       0.98990554 1.0022858 0.9971167 0.99869233
000200 d6 0d 80 3f f9 f2 80 3f e6 ba 81 3f 2f 65 82 3f
       1.0004222 1.0074149 1.0135162 1.0187129
000210 fa 29 82 3f c0 e6 7e 3f 5b 04 7d 3f e2 11 81 3f
       1.016906 0.99570847 0.9883477 1.0083582
000220 24 2e 7d 3f da 33 80 3f 74 d9 7d 3f 3e d2 7f 3f
       0.9889853 1.0015824 0.9915993 0.9993018
000230 19 19 81 3f 5a 98 80 3f a4 96 80 3f cb b1 80 3f
       1.0085784 1.0046494 1.0045972 1.0054258
000240 8e 48 7f 3f 29 cd 80 3f 8f 40 81 3f ac 74 7e 3f
       0.99720085 1.006261 1.0097827 0.9939678
000250 d5 e7 7b 3f 20 37 7e 3f 4c 1f 81 3f e4 0d 82 3f
       0.9840062 0.99302864 1.0087676 1.0160489
000260 a3 64 7c 3f 04 04 80 3f 05 d8 7d 3f 86 41 7f 3f
       0.9859106 1.0001225 0.99157745 0.99709356
000270 38 7c 82 3f 7d 0e 81 3f 4e 2e 80 3f a3 d5 7c 3f
       1.0194159 1.0082546 1.0014131 0.98763484

module.BN_layer.bias f4 [160]
000000 36 21 04 bb 5b 45 23 3b 2a a1 3c 3b 6a 8e be 3b
       -0.0020161397 0.0024913165 0.0028782585 0.005815317
000010 2d c3 16 bc 65 67 60 3b 20 50 8d bb 07 7e c6 bb
       -0.009201807 0.0034241315 -0.00431253 -0.006057504
000020 74 d5 1f 3c 1c 2c 4c 39 40 37 8f 3b 8f 1f 11 bb
       0.009755481 0.00019471388 0.0043706 -0.0022144055
000030 3a ca be 39 a7 2e 1e 3b 50 d3 75 3b c5 bb 01 bc
       0.00036390295 0.0024136694 0.0037509985 -0.007918303
000040 cc c4 7a bb 19 f5 83 ba fd b4 32 3a 5a 91 cf 3b
       -0.0038264273 -0.0010067552 0.00068171305 0.006334466
000050 b8 fd 16 3c 28 a7 a3 bb 7f fd 85 3b 78 5b 96 ba
       0.009215765 -0.004994292 0.004089057 -0.0011471352
000060 1b c2 bc 3b d6 98 e4 3a 34 30 bf bb 7f 11 0a 3c
       0.005760444 0.0017440568 -0.0058346037 0.008427023
000070 e2 2b 11 bc fe 8d 8f bb cd 32 20 bc fc ca 2f 3a
       -0.00886056 -0.0043809405 -0.009777737 0.0006705967
000080 23 3e b9 bb a0 4d 81 b9 99 1a 12 3c 1b b6 cc 3b
       -0.005653159 -0.00024662632 0.008917474 0.0062472946
000090 40 9e 20 bc e5 47 03 bc f2 5e f2 3b 86 85 60 3b
       -0.009803355 -0.008012746 0.0073965723 0.0034259274
0000a0 22 ec 19 bc 01 11 c5 bb d3 e3 c7 ba 8e 80 05 bb
       -0.009394677 -0.00601399 -0.0015250392 -0.0020370814
0000b0 45 fa d4 3b 3f c5 06 3b 25 3e fe bb 62 a6 86 3b
       0.006499561 0.0020564345 -0.007758873 0.00410919
0000c0 e2 8e ad bb c0 b2 9b b9 fd 99 e3 bb dd 54 7e 3b
       -0.005296574 -0.00029697083 -0.006945847 0.0038807907
0000d0 ec 56 33 bc f5 24 d7 bb c3 2d 5b 3b b1 51 0c 3c
       -0.010946017 -0.006565685 0.0033444024 0.008564399
0000e0 3d 87 eb bb 97 8f 68 3a 78 34 db ba 8a f4 90 bb
       -0.0071877525 0.0008871494 -0.0016724011 -0.0044236826
0000f0 63 e3 8b 3b 71 3e ab 3a c7 eb 3d 3c b5 94 ab 3b
       0.00426905 0.0013064874 0.011591858 0.005236233
000100 52 88 2e 3b d1 67 47 ba 30 4b 67 3b 70 31 21 3b
       0.0026631546 -0.00076067174 0.0035292618 0.0024596117
000110 10 cb 1f 3c 02 21 8c 3b eb 70 f9 bb 63 98 c0 3b
       0.009753004 0.004276396 -0.007612338 0.005877541
000120 6b 92 2a 3c c0 82 b6 bb be 41 ea ba b5 27 8c 38
       0.010410885 -0.005569786 -0.0017872376 6.683116e-05
000130 cc 83 6b 3b 0d fa 02 3b bb ec eb 3b 6d 00 82 bb
       0.0035936711 0.0019985468 0.0071998513 -0.003967336
000140 61 b5 cd ba 79 a8 71 3a 11 d6 d0 ba 87 51 a7 3b
       -0.0015694314 0.0009218525 -0.0015932937 0.0051061544
000150 3f 70 3f 3c 37 df ba 3b 91 ce 4b 3c f2 63 26 3c
       0.011684476 0.005702879 0.012439386 0.010155665
000160 e3 83 04 bc f4 a7 08 3b d9 ed 33 bb 4d 74 b2 bb
       -0.008088085 0.002085206 -0.0027455 -0.005445993
000170 fa b3 e0 bb 46 e6 ff 3b b4 a1 01 bc 32 bf 9a 3b
       -0.0068573924 0.007809433 -0.007912088 0.0047224993
000180 2e 78 4f 3a 22 09 96 bb bd ab 4a bc 3b 47 10 3c
       0.00079143315 -0.0045787254 -0.012370047 0.008806045
000190 eb de 62 3c 73 67 94 3b d7 20 48 bc 12 2f ef bb
       0.013847093 0.0045289337 -0.012214861 -0.0072993124
0001a0 59 eb 24 ba 5f 04 92 bb f8 1b 40 bb 90 26 d4 bb
       -0.0006291173 -0.0044560875 -0.0029313546 -0.0064743236
0001b0 a9 5f 1f 3c d5 bd 37 bc 8a c3 04 bc 51 14 81 bb
       0.009727397 -0.011214693 -0.008103261 -0.0039391895
0001c0 48 e9 aa bb 61 5f 81 bb 83 52 f4 bb 1f b5 0c 3a
       -0.0052157976 -0.0039481376 -0.007456125 0.00053675653
0001d0 64 c6 3a 3c 49 f3 af 3b b8 3e 16 3c 87 c1 16 3c
       0.011399839 0.005369578 0.009170227 0.009201414
0001e0 39 cb 14 3c a1 e1 28 bb 95 43 32 bb 52 77 11 bc
       0.009081655 -0.002576925 -0.0027200927 -0.008878546
0001f0 ab 6b 06 bc 17 32 14 3c 0f 12 40 bb ee 48 ee 39
       -0.008204381 0.0090451455 -0.0029307639 0.00045449234
000200 9f 85 9b bb 04 39 c1 3b f3 5c 25 3c a2 a9 28 3c
       -0.0047461535 0.0058966894 0.010092962 0.01029435
000210 f2 19 8b 3c 0f 4b 82 bb 35 84 1e bc e7 d8 1b 3c
       0.016980145 -0.003976233 -0.009675075 0.009512163
000220 5f 1b 30 bc b9 19 97 3b 2a 3f a3 bb 8d 9c 1a bc
       -0.010748713 0.0046112207 -0.004981895 -0.009436739
000230 53 51 0c 3c 4c ed 2b 3c 8b 4a 91 3b 94 e4 8a 3b
       0.008564311 0.010493588 0.004433935 0.0042386744
000240 c7 0e 17 3b 6a 89 de 3b 53 1a 56 3c 97 ed 0a 38
       0.002304958 0.0067912834 0.0130678 3.3123037e-05
000250 f7 f1 6b bc d7 19 e3 bb 66 32 33 3c 68 4e 63 3c
       -0.014400951 -0.0069305706 0.010937309 0.013873674
000260 a3 4a 73 bc 58 f0 6f 3b 31 63 ce bb 1f a4 d8 3b
       -0.014849338 0.0036611762 -0.0062984456 0.0066113616
000270 38 5d a8 3c 64 f3 37 3c cf 56 8f 3b 51 25 ef bb
       0.020552263 0.011227462 0.004374362 -0.0072981496

module.BN_layer.running_mean f4 [160]
000000 21 81 cb bd 54 f6 8d bd f0 cc 92 3d a4 c4 4e 3d
       -0.09936739 -0.06931749 0.07167995 0.0504805
000010 ea 7d 91 bc 7b d9 d3 3c 36 45 85 bb b8 ec 8d bc
       -0.017760236 0.025860539 -0.0040670885 -0.01732479
000020 c3 9e 3d bb 80 21 52 3d cb be e0 3d 58 fc 80 bc
       -0.002893374 0.05130148 0.10973891 -0.015745327
000030 22 84 fd bc 22 74 34 3d bd e6 0f 3d 32 91 e5 3b
       -0.030946795 0.044056065 0.03513216 0.007005834
000040 88 2d 1a be 61 b4 cd bd 68 f8 d7 3d f5 21 ba 3d
       -0.15056431 -0.1004417 0.105454266 0.09088508
000050 f8 7c 40 bd b2 45 34 3d 0c 26 83 bc 52 7c 0b bd
       -0.04699418 0.04401178 -0.016009353 -0.034054108
000060 4f 19 2c bc 6c 16 a4 3d 20 bc 26 3e 52 88 14 bd
       -0.010504081 0.08012089 0.16282701 -0.036262818
000070 68 ad 8e bc 3b a8 59 3d ef a9 75 3d e6 70 cb 39
       -0.01741667 0.053138953 0.059976514 0.00038803293
000080 7c 76 2f be 99 92 e8 bd d7 41 07 3e eb 9a e6 3d
       -0.17135042 -0.11356086 0.1320871 0.11260017
000090 7f 11 9d bd a0 f9 59 3d 2d 82 50 bc 01 b9 2f bd
       -0.07669353 0.053216577 -0.012726349 -0.042901043
0000a0 b9 40 88 bb d3 c9 ce 3d 3f 9c 49 3e bb 4c 46 bd
       -0.004158106 0.10097089 0.1968851 -0.04841302
0000b0 af df 29 bb df 28 81 3d 1f ea a7 3d 85 75 ea bb
       -0.002592068 0.06306624 0.08198952 -0.0071551227
0000c0 73 03 3d be ed 85 e5 bd 85 dd 12 3e aa 5b 0a 3e
       -0.18458347 -0.11207185 0.14342315 0.1351153
0000d0 9c 5b c8 bd 2e e2 76 3d bb ad 8e bc 8f 3d 4f bd
       -0.09783098 0.060274296 -0.017416826 -0.050595816
0000e0 97 e5 e7 bb c8 89 e4 3d 9f 0e 61 3e c8 ac 6e bd
       -0.00707693 0.11159092 0.21978234 -0.058270246
0000f0 c6 a9 96 3c f1 7e 7f 3d c6 7c c2 3d 95 07 48 bc
       0.018391501 0.06237692 0.09496455 -0.012208839
000100 f4 25 43 be b8 18 db bd c1 10 16 3e 46 71 1d 3e
       -0.19057447 -0.10698074 0.14654829 0.15375242
000110 ff 8b ee bd c3 ba 7f 3d d4 19 bf bc 07 8d 5c bd
       -0.11647796 0.06243397 -0.023327745 -0.05384543
000120 4c bc c7 bb 2d 67 e9 3d c1 cb 6b 3e a7 82 75 bd
       -0.006095445 0.11396632 0.23026945 -0.059939053
000130 93 1b 20 3d 25 c3 78 3d b2 cc d9 3d ca 49 9e bc
       0.039088797 0.06073298 0.10634746 -0.019322295
000140 ea 85 46 be 6a 5c d8 bd 63 23 18 3e 16 c2 21 3e
       -0.19387022 -0.105645016 0.14857249 0.15796694
000150 4a 12 01 be 1b 52 89 3d 98 6e e2 bc 92 b0 71 bd
       -0.12604633 0.067051135 -0.027640626 -0.05900628
000160 26 a4 da bb 6f 87 e6 3d c8 ad 6e 3e 1c 14 6a bd
       -0.0066724 0.11256301 0.2330848 -0.057148084
000170 52 0d 50 3d e5 75 82 3d 2c fb e9 3d 01 dc 9a bc
       0.050793953 0.06370143 0.1142486 -0.018903734
000180 85 84 47 be 2e 63 da bd 03 6b 1e 3e 02 f7 21 3e
       -0.19484146 -0.10663448 0.15470509 0.15816882
000190 07 f3 09 be 4c 5e 82 3d ac d9 c6 bc 0b b3 7a bd
       -0.13471614 0.06365642 -0.024273716 -0.061205905
0001a0 73 da 99 3a b5 cf e8 3d 32 36 75 3e e4 b2 78 bd
       0.0011738077 0.11367742 0.23946455 -0.06071748
0001b0 cf 28 58 3d 98 7d 85 3d 26 00 ed 3d 74 59 95 bc
       0.052773293 0.06518096 0.11572294 -0.018231131
0001c0 25 e0 45 be fc 5c e2 bd 83 47 1f 3e 7c dc 22 3e
       -0.19323786 -0.110528916 0.15554623 0.1590442
0001d0 79 93 05 be ab 66 84 3d ec b5 bf bc c7 e4 83 bd
       -0.13044538 0.06464895 -0.023402177 -0.0644012
0001e0 3f b1 6a 3b 8c cb df 3d 1a 2f 72 3e 2f 14 68 bd
       0.0035811213 0.10927495 0.2365078 -0.056659874
0001f0 15 e0 4d 3d dd 4c 8c 3d 46 f1 f1 3d 76 d2 6f bc
       0.05026253 0.06850598 0.118135974 -0.01463758
000200 62 a9 48 be 6f 72 de bd 05 a2 1e 3e c3 a4 29 3e
       -0.19595864 -0.1086167 0.15491493 0.16566758
000210 67 1f 12 be 2d aa 6e 3d e3 43 a4 bc e7 af 71 bd
       -0.14269792 0.05826776 -0.020051902 -0.059005644
000220 fb b1 9a 3a 6b 11 df 3d 24 85 6d 3e 46 89 5b bd
       0.001180231 0.10891994 0.2319532 -0.05359771
000230 f7 70 78 3d dd 3f 86 3d 51 de e3 3d a6 44 a4 bc
       0.060654607 0.0655515 0.11126388 -0.020052265
000240 4f b4 4b be 67 5f d1 bd 40 ae 22 3e 71 cb 26 3e
       -0.19893001 -0.10223275 0.15886784 0.16288544
000250 90 5f 14 be 99 6a 7f 3d 3b 5a c9 bc bc a3 71 bd
       -0.14489579 0.06235752 -0.024579158 -0.05899404
000260 9f 3d b2 3b 40 cf ed 3d a8 57 77 3e 27 0f 67 bd
       0.0054394747 0.116117954 0.24154532 -0.056410935
000270 c4 93 91 3d 79 35 87 3d c2 a2 f2 3d fa 76 a6 bc
       0.07108262 0.06601996 0.1184745 -0.020320404
