Stage2_pickedmodel/Stage2_LSTMAgegen_MDDOthers/model_epoch_31.pth (torch, 86647 bytes, 14 tensors)

module.LSTM_layer.weight_ih_l0 f4 [64, 256]
0.17339823 0.100968175 0.22851172 -0.10376553 0.0041602226 -0.0110662235 0.10944809 -0.20483467
0.05034356 0.08464999 -0.20573047 0.12143253 -0.123515986 -0.13928042 0.015231016 0.06015639
0.072707795 -0.16438611 -0.22074561 0.24446517 0.038121536 -0.20358874 -0.12824483 -0.051773947
0.018251827 0.08096542 0.04717276 -0.035957467 0.15083049 0.022420788 0.024338076 -0.12567885
0.091103286 0.23811497 0.03727883 -0.051561672 -0.06854978 0.22994958 -0.22012936 0.03265163
0.19092545 0.21478184 0.11913786 0.2155857 0.19425991 -0.07235898 0.11202216 0.23239219
-0.19638236 0.07934324 0.06230402 0.14135647 -0.049506895 0.008429676 0.1324071 -0.14501505
0.19838814 -0.05021285 0.09093031 0.17582974 0.18148772 0.048086364 -0.18534806 0.028609749
0.2045876 0.035035256 -0.118389174 0.14534368 -0.11984295 0.20937602 0.24747655 0.10570022
-0.101728916 -0.06690288 -0.19281706 0.2137094 -0.15190443 0.0030254442 0.18796393 0.21067694
-0.06340047 -0.19284783 -0.2004984 -0.07913998 -0.085964985 -0.22622336 0.04538802 0.24979126
-0.21844788 -0.107841544 0.17878501 -0.10780287 -0.20682819 -0.2430851 -0.0071922694 0.22389026
0.25432566 -0.20559628 0.1541386 -0.22609808 0.16695905 -0.08306052 0.033664957 0.24914543
-0.054249436 -0.14381294 0.21504866 -0.0015670634 0.04301778 -0.16888183 0.21657042 -0.22411238
0.00021548805 0.18555571 0.12101321 0.17554711 -0.23784904 0.16519867 0.024998933 0.18544702
0.13433799 -0.029882977 0.043595787 -0.240232 -0.055384766 0.070553385 -0.20879225 0.23928499
-0.16329283 -0.091464795 0.18937267 -0.10305384 0.08751007 0.21706024 -0.1990579 0.13140208
-0.040187933 -0.013949118 -0.1411255 0.105566785 0.16211966 -0.19011246 -0.15553978 -0.20756115
-0.17613918 0.20434071 -0.17397335 -0.06711076 0.15222393 -0.22475848 0.19921468 -0.09425214
-0.19495036 0.23251936 -0.19468805 -0.022264782 0.10329356 0.14046568 -0.19409195 -0.21823408
-0.056523256 -0.013105486 -0.104878485 -0.053070366 0.13523841 -0.12876333 0.07032293 0.16736498
0.20098396 -0.11056786 0.11803939 -0.22199059 -0.04123391 -0.21085131 -0.084616184 -0.049171682
0.1059996 0.12760358 0.098711096 0.20235223 -0.11318329 0.018019978 0.07886608 -0.21574394
0.24461864 0.1473575 0.15736687 -0.15909007 0.19017772 0.0742344 0.15150002 -0.19059823
-0.024671972 -0.032461967 -0.031019837 0.10053581 0.13852412 0.050016478 0.20643008 -0.18056287
0.19164804 -0.057985436 -0.20254323 0.2025616 0.23445967 -0.015703771 0.09835448 0.19197698
0.027806493 -0.06716899 0.1530026 -0.18246834 -0.21990928 -0.22190343 0.1459135 -0.090959154
0.20703168 0.0913013 -0.1932288 -0.11100788 -0.06393387 -0.041073225 0.19554962 -0.097369224
-0.07053622 0.06999045 -0.21307454 0.123044275 -0.12616292 -0.08602831 -0.10016515 -0.10362048
-0.11872181 -0.1320743 -0.073501885 0.05667541 -0.1357119 -0.08082925 0.15409382 0.25408852
0.020994915 -0.10948944 0.054327447 -0.1350822 0.13756885 -0.077868536 -0.122880414 0.20075771
-0.19802633 0.07365596 0.21760471 -0.061433516 0.1558577 0.024469402 -0.2230749 -0.22835468
00000000: 4e8f 313e 67c8 ce3d fafe 693e 0683 d4bd
00000010: 7a52 883b 1b4f 35bc 5226 e03d 2ec0 51be
00000020: 0c35 4e3d f95c ad3d 02ab 52be 9eb1 f83d
00000030: f3f5 fcbd 879f 0ebe 838b 793c 8c66 763d
00000040: d3e7 943d d554 28be 230b 62be 1455 7a3e
00000050: 5425 1c3d 9179 50be 9d52 03be eb10 54bd
00000060: db84 953c 33d1 a53d 3938 413d 2348 13bd
00000070: 4f73 1a3e cdab b73c a560 c73c f5b1 00be
00000080: 5c94 ba3d 69d4 733e b0b1 183d 5532 53bd
00000090: d463 8cbd e777 6b3e 9769 61be b7bd 053d
000000a0: f681 433e c5ef 5b3e 8dfe f33d 7fc2 5c3e
000000b0: 12ec 463e f230 94bd e06b e53d 38f8 6d3e
000000c0: 7518 49be b57e a23d 8032 7f3d c0bf 103e
000000d0: bec7 4abd a01c 0a3c ba95 073e d37e 14be
000000e0: 4326 4b3e fdab 4dbd ac39 ba3d b60c 343e
000000f0: ebd7 393e 35f6 443d e2cb 3dbe fe5e ea3c
00000100: 697f 513e 2181 0f3d 0676 f2bd f9d4 143e
00000110: 3870 f5bd ab66 563e 7e6a 7d3e 5b79 d83d
00000120: 4057 d0bd 6104 89bd d671 45be a3d6 5a3e
00000130: d68c 1bbe 8846 463b 9e79 403e b2bb 573e
00000140: 1bd8 81bd e779 45be 744f 4dbe 2414 a2bd
00000150: 690e b0bd 19a7 67be cae8 393d 48c9 7f3e
00000160: cdb0 5fbe 07dc dcbd 6b13 373e c0c7 dcbd
00000170: c5ca 53be 4deb 78be 21ad ebbb 7d43 653e
00000180: f936 823e d587 52be 82d6 1d3e 4186 67be
00000190: 50f7 2a3e a21b aabd 44e4 093d fb1f 7f3e
000001a0: a834 5ebd b343 13be b735 5c3e ec65 cdba
000001b0: 6933 303d 5cef 2cbe a3c4 5d3e b77d 65be
000001c0: a2f4 6139 5102 3e3e c6d5 f73d 9fc2 333e
000001d0: b38e 73be d729 293e 90ca cc3c d3e5 3d3e
000001e0: e68f 093e 25cd f4bc 7f91 323d 61ff 75be
000001f0: 23db 62bd 4b7e 903d a3cd 55be 2007 753e
00000200: 3c36 27be e551 bbbd e9ea 413e e40d d3bd
00000210: 7b38 b33d 0a45 5e3e d6d5 4bbe 448e 063e
00000220: 1a9c 24bd d78a 64bc 3483 10be 6633 d83d
00000230: b202 263e d7ac 42be d245 1fbe e98a 54be
00000240: d45d 34be b13e 513e 1226 32be 5e71 89bd
00000250: 97e0 1b3e 1627 66be effe 4b3e 4407 c1bd
00000260: 11a1 47be 8e19 6e3e 4e5c 47be a264 b6bc
00000270: 938b d33d 3cd6 0f3e 0ac0 46be c178 5fbe
00000280: ee84 67bd 64b8 56bc 88ca d6bd 5060 59bd
00000290: f07b 0a3e 89da 03be 7805 903d ba61 2b3e
000002a0: bdce 4d3e 6771 e2bd a3be f13d 8051 63be
000002b0: e3e4 28bd 68e9 57be 404b adbd 3f68 49bd
000002c0: 5116 d93d 83aa 023e 0b29 ca3d 6c35 4f3e
000002d0: a4cc e7bd a29e 933c 8a84 a13d fbeb 5cbe
000002e0: 4f7d 7a3e e2e4 163e c824 213e 82e8 22be
000002f0: f3bd 423e 3508 983d d222 1b3e 2f2c 43be
00000300: e01c cabc d7f6 04bd 501d febc b8e5 cd3d
00000310: 44d9 0d3e 14de 4c3d 6862 533e 79e5 38be
00000320: 623f 443e 2382 6dbd 7e67 4fbe 4f6c 4f3e
00000330: 3216 703e 32a5 80bc 136e c93d 9d95 443e
00000340: 71ca e33c e58f 89bd b7ac 1c3e fbd8 3abe
00000350: e62f 61be a73a 63be 596a 153e cb48 babd
00000360: 1d00 543e 2dfc ba3d c5dd 45be 1958 e3bd
00000370: c3ef 82bd 663c 28bd 293e 483e 8469 c7bd
00000380: 4b75 90bd 2757 8f3d 3630 5abe a3fe fb3d
00000390: da30 01be 9c2f b0bd 6323 cdbd f936 d4bd
000003a0: 6c24 f3bd 7c3e 07be 2888 96bd 7a24 683d
000003b0: 0ff8 0abe ce89 a5bd c5ca 1d3e e417 823e
000003c0: 87fd ab3c 003c e0bd 7586 5e3d fd52 0abe
000003d0: d9de 0c3e 8a79 9fbd baa8 fbbd 6e93 4d3e
000003e0: 6ac7 4abe f0d8 963d c5d3 5e3e b6a1 7bbd
000003f0: 2999 1f3e 0e74 c83c bf6d 64be cfd5 69be

module.LSTM_layer.weight_hh_l0 f4 [64, 16]
-0.1799907 0.03743312 0.11942605 -0.19139715 0.17173159 -0.007388005 -0.22114405 0.2329134
0.04776693 0.19072756 0.2129209 0.12874442 0.076647125 -0.22225584 0.2337961 0.1607083
-0.09634264 -0.08589969 0.012557757 0.21220562 -0.08371791 0.11572953 0.014928154 -0.20391162
-0.111261226 0.14666535 0.22880758 0.21195324 0.077374786 0.10579725 0.057540823 -0.18696737
0.08040881 0.2115942 0.20497349 0.068202086 0.26228216 -0.115759216 -0.0164387 -0.17760406
-0.09933626 0.030683795 -0.19854826 0.2108163 -0.16398627 0.20398158 0.21311274 -0.23051125
0.23621413 0.020799316 -0.0299057 -0.12086963 0.051178806 7.107147e-05 0.13949291 0.2089301
0.06877124 0.049951795 -0.22947998 -0.06183911 -0.12796952 -0.11238561 0.1536508 -0.113229424
0.19500718 0.2316433 -0.07463673 -0.029438877 -0.19371769 0.07002865 -0.18612687 0.20680325
-0.107573465 -0.192683 -0.056868933 -0.14097771 -0.13441266 0.18456064 -0.02631172 -0.193354
0.23905523 -0.23112585 -0.20154852 0.08235255 -0.113878414 0.2473695 -0.13523798 -0.11151588
-0.04842207 0.16874969 0.16464901 0.027209805 0.15693748 0.1614177 0.08158102 -0.06388945
0.2185361 0.20866771 0.1022459 0.21259306 -0.097162105 -0.0045797974 0.24506375 0.09089346
0.008938601 0.03882353 0.08267279 -0.20182072 -0.23937577 -0.16367328 -0.22368039 -0.112714194
0.23390643 -0.10938408 -0.03892362 0.10069454 -0.12400365 -0.08391426 -0.25195473 0.020432824
-0.11508802 0.07643047 0.0022676557 -0.0310532 -0.0122791305 0.1723252 -0.08862451 0.27134228
-0.094670445 0.0036349692 0.12921399 -0.1508575 0.03912202 0.22058639 0.07927767 -0.10898268
-0.038099844 0.009782012 0.075610526 0.2849434 -0.15239248 0.21462832 0.105247594 0.21871729
0.12788182 0.123126835 0.08626553 0.07618389 0.038674764 0.17772396 0.08012467 0.09095754
-0.12436737 -0.057131037 -0.16590768 -0.28074247 -0.17421642 -0.15338048 0.13592371 -0.049090207
-0.11137677 0.033689424 -0.08604175 0.010135741 -0.2754527 0.1825702 -0.12796491 -0.19494024
0.15157253 -0.17370121 -0.15917277 0.14035495 0.05843728 0.17812333 0.12586996 0.116054855
-0.18253976 0.032047972 0.10215327 -0.22337109 -0.09761413 -0.03364444 0.18390293 0.061708897
-0.12045736 -0.05929548 0.20844114 -0.27511016 -0.18971375 -0.06418211 0.0054017217 0.100098856
-0.004081082 -0.13937974 -0.062359884 -0.038431875 0.20853111 0.2410978 -0.20523845 -0.009853552
0.16303316 0.18143317 -0.17159925 0.11385123 -0.2068474 0.23849556 -0.0038383128 0.17539836
-0.103998564 -0.23183295 -0.2151254 0.02266856 0.085768186 -0.15498902 -0.16141948 -0.07181623
-0.10127627 -0.09813956 -0.04834407 -0.26153934 -0.0339387 -0.14307348 -0.006011299 -0.1989315
0.24825923 0.11718041 0.1532101 0.10679615 -0.0012441343 -0.20124532 0.1133595 -0.22345005
0.12690434 -0.04247737 -0.005175447 -0.072958246 -0.1339763 0.116628595 -0.19010021 0.19411497
-0.103175774 0.04336061 0.2118127 -0.19547841 -0.24153365 -0.012351345 0.010175367 0.06613267
-0.13215616 -0.008015157 -0.007321925 0.10185219 0.035381448 -0.21077822 0.048483055 0.10864611
00000000: 7b4f 38be 7953 193d a595 f43d 9dfd 43be
00000010: 68da 2f3e 1417 f2bb 9673 62be da80 6e3e
00000020: 42a7 433d 164e 433e f007 5a3e 94d5 033e
00000030: 2bf9 9c3d 0997 63be 3f68 6f3e b790 243e
00000040: 4a4f c5bd 2dec afbd 0dbf 4d3c 6e4c 593e
00000050: 4c74 abbd 9b03 ed3d 3795 743c 35ce 50be
00000060: eddc e3bd 712f 163e 894c 6a3e 450a 593e
00000070: ac76 9e3d 3bac d83d edaf 6b3d 6074 3fbe
00000080: 60ad a43d 26ac 583e 92e4 513e 89ad 8b3d
00000090: d949 863e 2b13 edbd 74aa 86bc d7dd 35be
000000a0: cf70 cbbd 955c fb3c 3c50 4bbe 3ae0 573e
000000b0: 04ec 27be 8ce0 503e 3a3a 5a3e 240b 6cbe
000000c0: 1ee2 713e 5463 aa3c ccfc f4bc 7f8a f7bd
000000d0: dea0 513d 340c 9538 3bd7 0e3e c6f1 553e
000000e0: f0d7 8c3d 419a 4c3d cdfc 6abe 024b 7dbd
000000f0: 710a 03be 6d2a e6bd a356 1d3e d4e4 e7bd
00000100: f6af 473e e733 6d3e 24db 98bd cd29 f1bc
00000110: ee5d 46be 2e6b 8f3d 0b98 3ebe 3bc4 533e
00000120: 7a4f dcbd b14e 45be 66ef 68bd 765c 10be
00000130: 79a3 09be 77fd 3c3e ad8b d7bc 97fe 45be
00000140: e5ca 743e 41ac 6cbe bc62 4ebe 74a8 a83d
00000150: 1639 e9bd 6e4e 7d3e d37b 0abe 7062 e4bd
00000160: 3856 46bd b8cc 2c3e c099 283e 19e7 de3c
00000170: 38b4 203e ae4a 253e f313 a73d 79d8 82bd
00000180: edc7 5f3e fdac 553e 4c66 d13d ffb1 593e
00000190: edfc c6bd 2012 96bb fef1 7a3e 5a26 ba3d
000001a0: 3673 123c 6c05 1f3d 5a50 a93d 17aa 4ebe
000001b0: ec1e 75be f899 27be 790c 65be b3d6 e6bd
000001c0: 2b85 6f3e c304 e0bd 606e 1fbd f038 ce3d
000001d0: a0f5 fdbd 3ddb abbd 3600 81be bd62 a73c
000001e0: 45b3 ebbd 9487 9c3d f39c 143b 4863 febc
000001f0: 682e 49bc 0476 303e c480 b5bd 60ed 8a3e
00000200: 94e2 c1bd aa38 6e3b ac50 043e 637a 1abe
00000210: 693e 203d 66e1 613e 555c a23d 5032 dfbd
00000220: 950e 1cbd bb44 203c b1d9 9a3d 1ae4 913e
00000230: c60c 1cbe 87c7 5b3e 0d8c d73d 6df7 5f3e
00000240: 74f3 023e ec29 fc3d fbab b03d 4d06 9c3d
00000250: 6e69 1e3d 45fd 353e 6718 a43d f247 ba3d
00000260: 52b4 febd 3c02 6abd b4e3 29be 7abd 8fbe
00000270: ca65 32be c60f 1dbe 962f 0b3e d012 49bd
00000280: 8119 e4bd ecfd 093d a836 b0bd 6110 263c
00000290: 2308 8dbe aff3 3a3e 3c09 03be 6a9e 47be
000002a0: d435 1b3e bbde 31be 30fe 22be 35b9 0f3e
000002b0: ee5b 6f3d f665 363e 0ee4 003e 2bae ed3d
000002c0: b4eb 3abe bc44 033d bc35 d13d 64bb 64be
000002d0: ebe9 c7bd c1ce 09bd 0d51 3c3e 78c2 7c3d
000002e0: 59b2 f6bd d1df 72bd 9871 553e 3ddb 8cbe
000002f0: 5244 42be e971 83bd ed00 b13b a100 cd3d
00000300: 99ba 85bb 90b9 0ebe 146d 7fbd be6a 1dbd
00000310: 2e89 553e 57e2 763e 072a 52be cb70 21bc
00000320: 2af2 263e 9ec9 393e b7b7 2fbe d52a e93d
00000330: cecf 53be 2e38 743e 348c 7bbb a19b 333e
00000340: 33fd d4bd 9e65 6dbe d549 5cbe 6ab3 b93c
00000350: 3ba7 af3d 71b5 1ebe 264b 25be 6314 93bd
00000360: ef69 cfbd 65fd c8bd 6e04 46bd 7ce8 85be
00000370: 4e03 0bbd db81 12be 6efa c4bb b3b4 4bbe
00000380: ab37 7e3e 48fc ef3d 1ce3 1c3e f1b7 da3d
00000390: 3812 a3ba 4113 4ebe 0729 e83d 17d0 64be
000003a0: 36f3 013e c0fc 2dbd cc96 a9bb 226b 95bd
000003b0: 1531 09be f9da ee3d a1a9 42be 13c6 463e
000003c0: d24d d3bd e59a 313d 6ee5 583e 7e2b 48be
000003d0: 9954 77be 4c5d 4abc 95b6 263c 9170 873d
000003e0: f253 07be 0152 03bc c2ec efbb e297 d03d
000003f0: 23ec 103d 3fd6 57be 2b96 463d da81 de3d

module.LSTM_layer.bias_ih_l0 f4 [64]
-0.062833704 -0.10510503 -0.21246694 0.03187123 -0.025253111 -0.14593019 0.22952577 -0.15245382
0.08485932 0.13745795 -0.0028228199 -0.22845809 -0.22357246 -0.25286108 0.10996125 -0.04279918
-0.18570086 -0.012944917 0.11090119 0.14854604 0.23435669 -0.252581 -0.050706036 0.06466149
0.19488767 -0.08534557 0.10225267 -0.008721099 0.09322163 -0.11971629 0.086640924 -0.13442494
0.09103888 -0.014275757 -0.22205046 0.10337818 -0.23010537 -0.23447494 0.22368884 0.008373709
-0.14566447 0.120071314 0.23504221 -0.09535435 0.09117796 -0.101902805 0.04519643 -0.13465843
0.20996544 0.07369161 -0.17064273 0.00788029 0.22999838 0.14480542 0.13537583 0.057727214
-0.22687612 -0.009711065 -0.03402884 0.09491436 -0.12132154 0.22244501 -0.054844562 -0.19222264
00000000: f5ae 80bd 4e41 d7bd ef90 59be 688b 023d
00000010: 9ddf cebc b96e 15be ce08 6b3e db1c 1cbe
00000020: b9ca ad3d c7c1 0c3e 0fff 38bb ebf0 69be
00000030: 2ef0 64be 0277 81be 5d33 e13d 314e 2fbd
00000040: 5e28 3ebe eb16 54bc 2a20 e33d 741c 183e
00000050: 33fb 6f3e 4c52 81be 22b1 4fbd 3e6d 843d
00000060: a290 473e a9c9 aebd d969 d13d f1e2 0ebc
00000070: fbea be3d d02d f5bd cc70 b13d b1a6 09be
00000080: 9872 ba3d dde4 69bc 3261 63be f0b7 d33d
00000090: bea0 6bbe 331a 70be b00e 653e e231 093c
000000a0: 1129 15be f3e7 f53d e8ae 703e 2449 c3bd
000000b0: 83bb ba3d 6bb2 d0bd e41f 393d e6e3 09be
000000c0: 2e01 573e a0eb 963d f8bc 2ebe 551c 013c
000000d0: b284 6b3e df47 143e f69f 0a3e 5f73 6c3d
000000e0: 3752 68be 291b 1fbc d361 0bbd 7662 c23d
000000f0: 6d77 f8bd a0c8 633e b1a4 60bd 03d6 44be

module.LSTM_layer.bias_hh_l0 f4 [64]
-0.08697313 -0.058010235 0.079001516 -0.15254095 -0.06684019 0.13003597 0.22605057 5.44601e-05
0.15674284 -0.22290966 -0.023917388 0.12730187 -0.19735855 -0.22907491 0.25731197 -0.0051045273
0.1838448 -0.17913163 0.20768104 0.072414085 0.20392397 -0.018910838 -0.1431187 0.021710455
-0.097148485 -0.035271768 -0.0122971935 -0.19316389 0.06608486 0.22376068 -0.122867614 0.087317884
-0.14589986 -0.15564609 -0.06658972 -0.23378627 -0.023448015 0.12880452 0.088492006 0.0076437285
0.035352398 -0.20129777 -0.2183668 -0.14534819 -0.21109574 -0.17394014 0.13416034 -0.17381413
0.21723455 -0.19569218 0.11351082 -0.16211677 -0.06752573 0.064134985 0.1592901 0.22080505
-0.23013727 -0.17669258 0.19080982 -0.01672296 -0.114177495 0.0010612834 0.010357796 0.1274045
00000000: f81e b2bd 249c 6dbd 8ccb a13d b233 1cbe
00000010: 82e3 88bd 2628 053e cd79 673e 166c 6438
00000020: 3281 203e 6e42 64be 66ee c3bc 6c5b 023e
00000030: 5c18 4abe 9d92 6abe 65be 833e e143 a7bb
00000040: d041 3c3e 486e 37be 57aa 543e d64d 943d
00000050: 72d1 503e e7ea 9abc b58d 12be 20da b13c
00000060: c9f5 c6bd 2179 10bd 2b7a 49bc c1cc 45be
00000070: 8057 873d 8521 653e 04a2 fbbd b8d3 b23d
00000080: c666 15be b061 1fbe 3160 88bd ab65 6fbe
00000090: 0d16 c0bc 55e5 033e 4c3b b53d 3e78 fa3b
000000a0: adcd 103d 0121 4ebe 8c9b 5fbe 28d6 14be
000000b0: 7b29 58be 5d1d 32be 5461 093e 55fc 31be
000000c0: bc72 5e3e 8863 48be 5c78 e83d f001 26be
000000d0: ee4a 8abd 3459 833d f21c 233e b81a 623e
000000e0: 1ba9 6bbe e6ee 34be a663 433e 97fe 88bc
000000f0: e4d5 e9bd c31a 8b3a bfb3 293c 5376 023e

module.LSTM_layer.weight_ih_l1 f4 [64, 16]
-0.12693852 -0.25471762 0.17079417 -0.24780448 -0.24834022 -0.17542107 -0.2453149 0.14599082
-0.16055174 -0.050931286 0.08100526 0.033532575 0.21504158 -0.019744731 0.104586594 -0.06837591
0.1419713 0.116487324 -0.16475941 -0.12819082 0.1480596 0.1803351 0.24671297 -0.23942539
0.20201617 0.15236665 0.017669365 0.1497291 -0.23454098 -0.07755209 0.09594385 -0.13512722
-0.26273075 0.19374032 -0.035978734 -0.06781695 -0.17712358 -0.12931652 -0.1638457 0.23348881
-0.15242913 -0.07407436 0.04094354 0.2576692 0.06768209 -0.019192418 -0.21911691 0.04961354
-0.13121413 -0.20952715 -0.08920361 0.16115779 -0.073552996 -0.2234787 -0.12511021 -0.06873469
-0.14357033 -0.21344489 -0.14893064 -0.07268426 0.19085152 -0.18341114 -0.2440881 0.08846767
-0.12171306 -0.10003171 0.15939446 0.12927362 -0.025862942 -0.10959614 0.05123078 0.24813062
-0.12188356 0.24042721 -0.020759555 -0.081582025 -0.048976086 -0.04853248 -0.09465933 0.024470521
-0.06290007 -0.11760564 -0.036296654 0.19362676 0.03201611 0.18504576 -0.17863375 -0.15336464
0.20697542 0.20153071 -0.17712371 0.06317153 0.042023152 0.15116633 -0.22491057 0.17046002
0.097806975 -0.19397889 -0.17470588 -0.024886115 -0.097764224 -0.08902657 0.16630603 0.019154804
-0.16091882 -0.1646903 0.021263754 -0.09498124 -0.0974153 -0.015543463 0.23116179 -0.03689067
0.2218271 0.0042916015 0.06441235 0.21255666 0.18521811 -0.1869269 0.056306373 -0.10999457
0.016576106 0.21078902 0.15200897 -0.051749084 -0.041138526 -0.052258383 0.06408626 0.06745593
-0.028608453 -0.055109706 -0.10431234 0.22025767 -0.1191489 -0.093452044 -0.13253292 0.07277062
0.04366314 -0.17956662 0.086753346 -0.075961314 -0.012436582 0.13710624 0.20383243 -0.15035295
0.1551077 0.21876127 -0.15349539 -0.0762611 0.036700003 -0.04648456 -0.16832441 -0.21964513
-0.02238482 0.10745691 -0.049481984 0.17562531 0.08457622 0.1645166 0.2257658 0.18437183
-0.14506637 -0.019038979 -0.1936907 0.056083564 -0.060428858 0.008255578 0.040812463 0.07750039
-0.18997039 0.10056001 0.03301464 -0.13749443 -0.07965265 0.04594534 -0.017968109 0.11603954
-0.09093151 -0.09301807 0.07249584 -0.07710758 0.16398288 0.056028444 -0.15603386 -0.12534347
0.1329718 -0.20258124 -0.2248312 0.10792242 -0.13716638 0.22528125 -0.005288855 0.2253132
0.2160519 0.14440055 -0.061657656 0.08940828 0.21577477 0.06384375 0.053477764 -0.14701363
-0.2070797 0.23761371 0.035759214 -0.077538595 0.11743783 -0.10694692 -0.052322876 0.0489338
0.03629546 -0.18265954 -0.17918877 -0.16019003 0.21632767 -0.11716883 -0.18298711 0.06851056
-0.2052034 -0.021164775 0.20122981 -0.19569692 -0.15849276 -0.1276061 -0.21307725 -0.08519016
-0.13881907 0.17966694 -0.1305903 0.11522008 -0.08347621 0.096602604 -0.0779171 -0.044634987
0.07223125 -0.024486557 0.25506335 -0.08283971 0.16549258 0.20862703 -0.03328269 0.25519413
0.15189177 -0.09723648 0.012230808 0.17628302 0.11714043 -0.003168851 -0.17648476 -0.16205202
0.0050324323 -0.13182805 -0.047874738 0.15093715 -0.13041209 -0.22550973 -0.23491667 -0.020899696
00000000: 2cfc 01be 596a 82be abe4 2e3e 75c0 7dbe
00000010: e64c 7ebe 95a1 33be d433 7bbe 9e7e 153e
00000020: ad67 24be 539d 50bd 16e6 a53d 7459 093d
00000030: dc33 5c3e b4bf a1bc 7f31 d63d ab08 8cbd
00000040: ed60 113e e890 ee3d b1b6 28be 7444 03be
00000050: f09c 173e c4a9 383e 53a2 7c3e ee2b 75be
00000060: 54dd 4e3e 0106 1c3e 58bf 903c 9652 193e
00000070: 832b 70be a1d3 9ebd 367e c43d ca5e 0abe
00000080: a584 86be dd63 463e 705e 13bd 9de3 8abd
00000090: e25f 35be 8d6b 04be 2bc7 27be b117 6f3e
000000a0: 6216 1cbe 4cb4 97bd 6ab4 273d 38ed 833e
000000b0: e89c 8a3d 6b39 9dbc 2f60 60be 9137 4b3d
000000c0: ff5c 06be 498e 56be 62b0 b6bd 8c06 253e
000000d0: f4a2 96bd 9ad7 64be e41c 00be c6c4 8cbd
000000e0: 1a04 13be 4c91 5abe 4681 18be 7cdb 94bd
000000f0: 956e 433e 21d0 3bbe 3bf2 79be 8a2e b53d
00000100: b244 f9bd 6ddd ccbd 4d38 233e 4e60 043e
00000110: 85de d3bc f173 e0bd 5ed7 513d f415 7e3e
00000120: 179e f9bd 8d32 763e f10f aabc 7a14 a7bd
00000130: 269b 48bd fec9 46bd c0dc c1bd 6776 c83c
00000140: c0d1 80bd 3adb f0bd cdab 14bd 1846 463e
00000150: 5323 033d a37c 3d3e c4eb 36be 9f0b 1dbe
00000160: 5df1 533e 115e 4e3e eb5f 35be 1360 813d
00000170: 7820 2c3d 59cb 1a3e f54e 66be 128d 2e3e
00000180: 064f c83d 67a2 46be 19e6 32be f7dd cbbc
00000190: 9c38 c8bd 9053 b6bd 214c 2a3e 89ea 9c3c
000001a0: e7c7 24be 93a4 28be 5331 ae3c 8685 c2bd
000001b0: ac81 c7bd 02aa 7ebc adb5 6c3e ac1a 17bd
000001c0: a526 633e 90a0 8c3b 9fea 833d 74a8 593e
000001d0: d1a9 3d3e c469 3fbe 83a1 663d d544 e1bd
000001e0: 9dca 873c 14d9 573e 3da8 1b3e d9f6 53bd
000001f0: df80 28bd e30c 56bd a83f 833d 5626 8a3d
00000200: 465c eabc b7ba 61bd b5a1 d5bd 3a8b 613e
00000210: 5704 f4bd c963 bfbd b6b6 07be c308 953d
00000220: 1fd8 323d 50e0 37be bdab b13d 9b91 9bbd
00000230: cec2 4bbc 9465 0c3e 73b9 503e 20f6 19be
00000240: 8ed4 1e3e f402 603e e52d 1dbe c82e 9cbd
00000250: be52 163d 9866 3ebd 3c5d 2cbe a7ea 60be
00000260: 5f60 b7bc 5e12 dc3d 9fad 4abd 1fd7 333e
00000270: 4c36 ad3d 0a77 283e 262f 673e f8cb 3c3e
00000280: 478c 14be a2f7 9bbc db56 46be e1b7 653d
00000290: 4084 77bd 6742 073c f82a 273d 86b8 9e3d
000002a0: 9987 42be 68f2 cd3d 5c3a 073d 57cb 0cbe
000002b0: ee20 a3bd 2e31 3c3d db31 93bc 23a6 ed3d
000002c0: 4d3a babd 4280 bebd b378 943d 94ea 9dbd
000002d0: 21eb 273e 157e 653d 57c7 1fbe 0a5a 00be
000002e0: c229 083e 7571 4fbe 263a 66be 6e06 dd3d
000002f0: 5875 0cbe 21b0 663e 224e adbb 81b8 663e
00000300: b63c 5d3e bddd 133e bd8c 7cbd b01b b73d
00000310: 10f4 5c3e 83c0 823d 800b 5b3d be8a 16be
00000320: b30c 54be 0251 733e 4178 123d 8ecc 9ebd
00000330: 3f83 f03d fd06 dbbd 8350 56bd cf6e 483d
00000340: 8caa 143d 1a0b 3bbe 437d 37be db08 24be
00000350: 0085 5d3e 36f6 efbd f960 3bbe 444f 8c3d
00000360: d720 52be c061 adbc 300f 4e3e c664 48be
00000370: ed4b 22be 2cab 02be ec30 5abe 2e78 aebd
00000380: 9626 0ebe 9cfa 373e 77b9 05be 81f8 eb3d
00000390: 93f5 aabd 96d7 c53d 0093 9fbd 2dd3 36bd
000003a0: faed 933d 0898 c8bc aa97 823e dea7 a9bd
000003b0: e376 293e 53a2 553e 6e53 08bd cea8 823e
000003c0: 8489 1b3e eb23 c7bd ba63 483c 8983 343e
000003d0: 52e7 ef3d 7fac 4fbb 6cb8 34be f7f0 25be
000003e0: 1ae7 a43b effd 06be 4d18 44bd 458f 1a3e
000003f0: bf8a 05be 06ec 66be ff8d 70be d735 abbc

module.LSTM_layer.weight_hh_l1 f4 [64, 16]
-0.18471463 0.16838668 0.25916255 0.07642333 0.120388955 -0.16118148 -0.24758543 0.22374637
-0.19175994 -0.11502927 -0.21379209 0.0034417477 0.20584184 0.12025317 -0.093256 0.07847885
0.17161359 -0.09511893 0.22634818 0.0980238 0.041453153 0.20269887 -0.07908609 -0.20177636
0.014619227 -0.10388767 0.21619622 -0.20763154 0.04738379 -0.018836642 0.100555316 -0.015954511
-0.2556192 0.08958933 0.2331627 -0.21665339 -0.03659552 -0.0019418087 -0.19135228 -0.15386288
-0.08020106 -0.15012601 0.19190443 -0.11777086 -0.20953412 -0.21180478 -0.0068433136 0.23232165
-0.13150124 -0.01828896 -0.04167912 -0.024298782 -0.011304632 -0.04737337 -0.088410266 0.1869317
-0.2631408 -0.21140724 -0.05083876 0.06415905 0.17944208 0.1641003 0.04843562 -0.015136315
-0.053987578 0.033455156 -0.17358449 -0.06736257 0.17052132 0.09848615 0.02476363 -0.21833102
-0.06834335 0.21252288 0.09805578 -0.009875752 0.12319085 -0.16620006 -0.13194251 -0.14844914
-0.15479064 -0.0964613 -0.009098173 -0.023660738 0.19771233 -0.19392703 0.170743 -0.18294394
-0.23750204 -0.16678283 0.14261644 -0.24189128 -0.23563832 0.07913107 -0.058437064 -0.12889196
-0.113851815 0.112802096 0.09980744 0.12632297 -0.07214702 0.06997051 -0.09832394 -0.041370247
0.20728736 0.18292154 -0.13647911 -0.23037933 -0.15391904 -0.15613365 0.14947204 0.23791207
-0.12402716 0.06419257 0.23845172 -0.09173997 0.113914475 0.07090748 0.08256503 0.2370995
0.10450607 -0.23738204 0.0058323895 -0.21961132 -0.10216166 -0.20777293 -0.093694314 0.25506178
-0.14353664 -0.15974683 0.16378327 0.028273419 0.02285987 0.12749185 -0.1412597 -0.046123136
0.074764274 -0.12600267 0.09508026 -0.18694207 0.13023646 0.017722256 -0.22227022 0.22880769
0.13312052 -0.21544679 -0.039383598 0.16604678 -0.14404508 0.03359609 -0.19817282 0.097439565
0.12360423 -0.07828067 -0.07066519 0.08091834 0.16779466 -0.16124202 -0.18773426 -0.15252012
-0.05474016 -0.15376866 0.08937714 0.15261166 0.21057193 0.013052614 -0.16484918 -0.06779819
-0.09893175 -0.13700435 0.17047945 0.19344342 0.21603332 0.0012097544 -0.00044373545 -0.1846396
0.020998403 -0.057836674 0.1371474 0.027384238 0.15900229 -0.26048392 0.01801293 -0.20729223
-0.07499887 0.09799101 0.21714306 0.090443954 0.14803681 0.102778755 -0.16334833 0.18860184
0.028960472 0.08236529 -0.16756049 0.044546664 0.011129209 -0.15789601 -0.09485454 -0.24227282
0.12990381 0.066671796 0.15059985 -0.19841377 0.01556892 0.094624296 -0.23003364 0.1774327
-0.17468323 0.1672647 -0.09223027 -0.11875347 0.05105337 0.24645935 0.11156822 0.063112125
-0.061447356 0.07442165 -0.23660493 0.16095236 0.22507651 0.17968132 -0.112112515 -0.2005834
-0.0067446926 -0.0050181667 -0.15799858 0.08751078 0.11649469 0.19732787 0.06609551 0.20783891
0.20442712 -0.013429913 0.14806733 0.0071172756 -0.18302771 -0.045880504 -0.20655958 0.086152405
0.25394356 -0.024814788 -0.2219308 -0.124208234 -0.1961474 0.010041835 -0.17891948 0.26347098
0.09930513 0.0374771 0.25794682 -0.025814723 -0.09454932 0.037725013 -0.037176646 0.17168061
00000000: d525 3dbe 8f6d 2c3e f4b0 843e d683 9c3d
00000010: 7c8e f63d c20c 25be 0987 7dbe c51d 653e
00000020: b85c 44be 7794 ebbd 50ec 5abe f28e 613b
00000030: 34c8 523e 4b47 f63d 00fd bebd 85b9 a03d
00000040: 79bb 2f3e b7cd c2bd d1c7 673e b4c0 c83d
00000050: c8ca 293d 4b90 4f3e e3f7 a1bd 769e 4ebe
00000060: 7b85 6f3c 0fc3 d4bd 8b62 5d3e 5d9d 54be
00000070: 8115 423d 4d4f 9abc f2ef cd3d 09b3 82bc
00000080: 85e0 82be 9c7a b73d 34c2 6e3e 63da 5dbe
00000090: 2fe5 15bd 4a84 feba daf1 43be 3b8e 1dbe
000000a0: 7440 a4bd a2ba 19be 9882 443e d931 f1bd
000000b0: 1d90 56be 5ae3 58be e03d e0bb bae5 6d3e
000000c0: 43a8 06be bbd2 95bc bab7 2abd 3d0e c7bc
000000d0: 1037 39bc 940a 42bd 7110 b5bd 066b 3f3e
000000e0: 64ba 86be 247b 58be 4e3c 50bd d265 833d
000000f0: aabf 373e e909 283e 6e64 463d 4efe 77bc
00000100: 1422 5dbd 4608 093d 22c0 31be 63f5 89bd
00000110: 249d 2e3e 1bb3 c93d 19dd ca3c 2b92 5fbe
00000120: 99f7 8bbd 999f 593e 78d1 c83d e8cd 21bc
00000130: 7c4b fc3d 5930 2abe f01b 07be 0d03 18be
00000140: 7081 1ebe 818d c5bd 8110 15bc 2ad4 c1bc
00000150: 1a75 4a3e cf94 46be 41d7 2e3e a855 3bbe
00000160: bc33 73be 1ec9 2abe 0b0a 123e 59b2 77be
00000170: 2c4b 71be 780f a23d b45b 6fbd 41fc 03be
00000180: 242b e9bd c904 e73d d867 cc3d cf5a 013e
00000190: d1c1 93bd b34c 8f3d 105e c9bd d973 29bd
000001a0: 2343 543e c94f 3b3e 2ec1 0bbe 8fe8 6bbe
000001b0: f49c 1dbe 80e1 1fbe 330f 193e 399f 733e
000001c0: f401 febd 6577 833d b02c 743e 2ae2 bbbd
000001d0: fe4b e93d f137 913d db17 a93d 36ca 723e
000001e0: 4707 d63d 4714 73be a11d bf3b cae1 60be
000001f0: 223a d1bd 6dc2 54be cee2 bfbd 7597 823e
00000200: 45fb 12be ac94 23be cdb6 273e a89d e73c
00000210: 9f44 bb3c 398d 023e 62a6 10be 9deb 3cbd
00000220: 031e 993d d806 01be 70b9 c23d be6d 3fbe
00000230: b55c 053e 442e 913c ce9a 63be 904c 6a3e
00000240: bf50 083e 159e 5cbe b250 21bd 2b08 2a3e
00000250: 8e80 13be 0e9c 093d d1ed 4abe 658e c73d
00000260: 3724 fd3d 9e51 a0bd e9b8 90bd 84b8 a53d
00000270: 5dd2 2b3e a11c 25be 693d 40be 3c2e 1cbe
00000280: 3837 60bd 8875 1dbe 5d0b b73d 3b46 1c3e
00000290: 2ba0 573e a2da 553c 39ce 28be c7d9 8abd
000002a0: bb9c cabd de4a 0cbe 2a92 2e3e 0816 463e
000002b0: d737 5d3e 9f90 9e3a 2aa5 e8b9 2a12 3dbe
000002c0: d804 ac3c 26e6 6cbd 5e70 0c3e e954 e03c
000002d0: 7fd1 223e 265e 85be da8f 933c 6a44 54be
000002e0: 0299 99bd 83af c83d c05a 5e3e ae3a b93d
000002f0: f696 173e ab7d d23d c944 27be d720 413e
00000300: 833e ed3c 22af a83d fa94 2bbe 9076 363d
00000310: 4957 363c 7eaf 21be 1943 c2bd 5e16 78be
00000320: 8105 053e 398b 883d d936 1a3e fb2c 4bbe
00000330: c914 7f3c 62ca c13d f08d 6bbe ebb0 353e
00000340: 29e0 32be 7047 2b3e 39e3 bcbd 0535 f3bd
00000350: 571d 513d d75f 7c3e e17d e43d ee40 813d
00000360: 39b0 7bbd 616a 983d 9048 72be b2d0 243e
00000370: 757a 663e 61fe 373e 3f9b e5bd bc65 4dbe
00000380: 9502 ddbb 6f6f a4bb 61ca 21be da38 b33d
00000390: c594 ee3d 5110 4a3e 155d 873d b9d3 543e
000003a0: 5855 513e 2309 5cbc f69e 173e 0938 e93b
000003b0: 9e6b 3bbe 32ed 3bbd 5b84 53be ac70 b03d
000003c0: e404 823e 6248 cbbc d441 63be e360 febd
000003d0: ddda 48be 8286 243c ab36 37be abe5 863e
000003e0: 7d60 cb3d 9681 193d 9b11 843e 6679 d3bc
000003f0: 13a3 c1bd 8b85 1a3d 8a46 18bd 0bcd 2f3e

module.LSTM_layer.bias_ih_l1 f4 [64]
0.06208 -0.050421424 -0.058160067 -0.12675513 -0.15834138 -0.07352796 -0.01129221 -0.11617592
-0.03491924 0.013381687 0.16518459 0.013472136 -0.055736355 0.18842435 0.16627456 0.13587883
0.24101645 -0.09765283 0.02872973 -0.17415349 -0.15380383 0.057143588 0.10639783 0.0966409
-0.1467172 0.09589869 -0.0125161875 -0.18450391 -0.03399002 -0.18893611 -0.05347313 -0.22165337
0.1802021 -0.2007457 -0.21917905 -0.22756347 0.112158015 -0.1684999 -0.0036817982 -0.050242748
0.0776876 -0.24046417 -0.13516258 -0.008387422 0.21187052 -0.06238368 -0.094574645 0.015495859
0.12980397 -0.022990732 -0.14737137 0.081847474 0.0496671 -0.07959627 -0.060867228 -0.0420271
0.026783573 0.13063744 0.11933141 0.011215495 -0.17998286 0.21645445 0.26104638 -0.18213335
00000000: 9947 7e3d b286 4ebd 4039 6ebd 19cc 01be
00000010: 3e24 22be d495 96bd f602 39bc a4ed edbd
00000020: 7a07 0fbd dd3e 5b3c 2626 293e 3cba 5c3c
00000030: ce4b 64bd 50f2 403e e143 2a3e d223 0b3e
00000040: 04cd 763e 35fe c7bd 9c5a eb3c 4b55 32be
00000050: c07e 1dbe 650f 6a3d 1be7 d93d aaeb c53d
00000060: 093d 16be 8866 c43d b210 4dbc 98ee 3cbe
00000070: 1f39 0bbd 7878 41be a406 5bbd 1af9 62be
00000080: e686 383e 4890 4dbe 7970 60be 6606 69be
00000090: 1ab3 e53d 3d8b 2cbe 534a 71bb 57cb 4dbd
000000a0: ad1a 9f3d 3d3c 76be 0f68 0abe 666b 09bc
000000b0: 96f4 583e 0886 7fbd 5ab0 c1bd 58e2 7d3c
000000c0: 55eb 043e 0f57 bcbc 85e8 16be a69f a73d
000000d0: bb6f 4b3d 5f03 a3bd ea4f 79bd 9c24 2cbd
000000e0: 3969 db3c d2c5 053e 0764 f43d 32c1 373c
000000f0: 6d4d 38be 3ca6 5d3e dfa7 853e 2a81 3abe

module.LSTM_layer.bias_hh_l1 f4 [64]
-0.009298774 0.11936291 0.08043691 -0.24568619 0.1581419 -0.12159084 0.1867015 0.15115513
-0.21561176 0.16585548 0.09201978 -0.16752316 -0.17799369 0.17652142 0.029932326 0.09315023
0.23353873 -0.07142753 0.22796878 -0.06739407 0.22647634 -0.15478492 0.22266237 0.19849099
-0.05546761 0.08407621 -0.029306969 -0.0315548 0.16443881 0.17087771 0.028020926 0.067885585
-0.24258241 0.006782651 -0.13475631 0.23532575 -0.04472542 0.044967677 -0.013935305 -0.14287664
0.14663927 -0.16776851 0.026907174 0.16391218 -0.16643348 0.18084498 0.10833428 0.055859517
0.24393468 0.14243552 0.04968091 0.12421434 0.13406721 -0.17671868 -0.14874233 -0.07738814
-0.12236674 -0.13780266 0.14465024 -0.12274315 0.013528783 0.16356242 0.030771414 0.050124552
00000000: e359 18bc 8b74 f43d 1bbc a43d 2995 7bbe
00000010: f3ef 213e 9e04 f9bd ae2e 3f3e 69c8 1a3e
00000020: 54c9 5cbe 05d6 293e de74 bc3d 318b 2bbe
00000030: fa43 36be 08c2 343e a334 f53c 8cc5 be3d
00000040: c724 6f3e 9948 92bd a670 693e e705 8abd
00000050: 6ae9 673e f07f 1ebe 9b01 643e 3941 4b3e
00000060: 0132 63bd 2630 ac3d 2b15 f0bc 9b3f 01bd
00000070: a662 283e 91fa 2e3e 248c e53c 9907 8b3d
00000080: 8667 78be 0041 de3b 8ffd 09be 3cf9 703e
00000090: 0132 37bd 0730 383d e850 64bc 414e 12be
000000a0: 9b28 163e 82cb 2bbe 6f6c dc3c 98d8 273e
000000b0: 8a6d 2abe 6d2f 393e 5dde dd3d f3cc 643d
000000c0: 03ca 793e 9eda 113e 367e 4b3d 1664 fe3d
000000d0: ea48 093e bef5 34be e94f 18be ac7d 9ebd
000000e0: 6a9b fabd 241c 0dbe 311f 143e c360 fbbd
000000f0: d4a7 5d3c e87c 273e 5514 fc3c 674f 4d3d

module.BN_layer.weight f4 [160]
0.99675924 0.9980114 0.99190456 0.99370474 0.9932656 0.9944146 1.0035175 0.99572116
0.993525 1.0011035 0.99882543 0.9936938 0.9934536 0.9967161 0.9875568 1.0021244
0.9989547 0.9936271 0.9933172 0.9968856 0.99728525 0.9993535 1.0096244 0.9995949
1.0069871 0.9919103 0.9922457 0.99822664 0.98794436 0.9892404 0.9964131 0.99318725
0.9945847 1.006074 1.0078069 0.9996511 0.99366635 1.0148137 1.0035269 0.98748606
0.99560505 1.0090566 0.993399 0.99753 0.99999136 0.9991842 0.9943401 0.98558205
1.0071555 1.004624 0.9999648 0.9909861 0.9955143 1.0096763 1.0008577 1.0145581
1.0025415 1.0100496 0.9947346 0.99512345 1.0083597 1.0051354 0.9968039 0.991972
1.0137092 0.9921117 0.9907345 0.99094695 0.9870852 1.0234376 1.0111077 0.97921497
0.9953796 0.9824531 0.98917216 1.0019066 0.997118 1.002446 1.0031736 1.0107242
1.0015011 1.0086392 1.0224758 0.9898946 1.0076106 0.9781487 1.0074633 1.0360274
0.9997931 1.0057563 0.9865544 1.0022188 1.003032 0.99455696 0.9913211 0.98798496
1.0330341 0.9923661 0.98577124 1.0083153 0.9935216 1.0236049 0.9976703 1.0348476
1.001353 1.0062213 1.0115607 0.9954193 1.0210779 1.0103607 1.0115201 0.9837916
1.0228624 1.0061221 1.0153499 1.0006578 1.0102422 0.9865797 0.9924716 1.0348756
0.9971462 0.99163496 0.9943568 0.9991872 0.9754751 0.9818007 1.0152209 1.0110706
0.9817819 1.0066628 1.0126246 1.0046769 1.0216247 1.0181816 1.0135831 1.0304817
0.9981308 1.004293 1.002143 1.0126296 1.0372167 1.0248302 1.0018772 1.0012343
1.0332731 0.9976613 1.020732 0.995653 0.99144346 1.0262728 0.9872226 1.0557034
1.0047024 0.9915722 1.0178827 1.0023211 0.9972148 0.99341726 1.0083817 0.98875886
00000000: 9d2b 7f3f ad7d 7f3f 75ed 7d3f 6f63 7e3f
00000010: a846 7e3f f591 7e3f 4373 803f 95e7 7e3f
00000020: a857 7e3f 2924 803f 06b3 7f3f b862 7e3f
00000030: fa52 7e3f c928 7f3f 86d0 7c3f 9d45 803f
00000040: 7fbb 7f3f 585e 7e3f 094a 7e3f e533 7f3f
00000050: 164e 7f3f a2d5 7f3f 5f3b 813f 74e5 7f3f
00000060: f4e4 803f d5ed 7d3f d003 7e3f c88b 7f3f
00000070: ece9 7c3f dc3e 7d3f ee14 7f3f 8541 7e3f
00000080: 1a9d 7e3f 08c7 803f d1ff 803f 22e9 7f3f
00000090: eb60 7e3f 6ae5 813f 9273 803f e3cb 7c3f
000000a0: f9df 7e3f c428 813f 664f 7e3f 205e 7f3f
000000b0: 6fff 7f3f 89ca 7f3f 138d 7e3f 1b4f 7c3f
000000c0: 79ea 803f 8597 803f b1fd 7f3f 44b1 7d3f
000000d0: 06da 7e3f 133d 813f 1b1c 803f 0add 813f
000000e0: 4853 803f 4e49 813f eda6 7e3f 69c0 7e3f
000000f0: ee11 813f 47a8 803f 8a2e 7f3f e1f1 7d3f
00000100: 39c1 813f 08fb 7d3f c7a0 7d3f b3ae 7d3f
00000110: 9eb1 7c3f 0100 833f fa6b 813f d5ad 7a3f
00000120: 33d1 7e3f 0c82 7b3f 633a 7d3f 7a3e 803f
00000130: 2043 7f3f 2750 803f fe67 803f 695f 813f
00000140: 3031 803f 171b 813f 7de0 823f bc69 7d3f
00000150: 62f9 803f f467 7a3f 8ff4 803f 8c9c 843f
00000160: 71f2 7f3f 9fbc 803f d48e 7c3f b548 803f
00000170: 5a63 803f 499b 7e3f 38c7 7d3f 95ec 7c3f
00000180: 763a 843f b40b 7e3f 815b 7c3f 7a10 813f
00000190: 6e57 7e3f 7c05 833f 5267 7f3f e375 843f
000001a0: 562c 803f dccb 803f d27a 813f cdd3 7e3f
000001b0: aeb2 823f 8053 813f 7e79 813f c4d9 7b3f
000001c0: 28ed 823f 9cc8 803f fcf6 813f 8e15 803f
000001d0: 9e4f 813f 7d90 7c3f 9e12 7e3f ce76 843f
000001e0: f944 7f3f cadb 7d3f 2b8e 7e3f bbca 7f3f
000001f0: bcb8 793f 4a57 7b3f c2f2 813f c36a 813f
00000200: 0f56 7b3f 54da 803f af9d 813f 4199 803f
00000210: 99c4 823f c653 823f 17bd 813f d3e6 833f
00000220: 8085 7f3f ac8c 803f 3946 803f d99d 813f
00000230: 84c3 843f a32d 833f 833d 803f 7228 803f
00000240: 4b42 843f bb66 7f3f 59a7 823f 1de3 7e3f
00000250: 3dcf 7d3f e85c 833f 9fba 7c3f 4a21 873f
00000260: 179a 803f add7 7d3f fb49 823f 0f4c 803f
00000270: 7849 7f3f 9850 7e3f a712 813f 4d1f 7d3f

module.BN_layer.bias f4 [160]
0.0013352943 -0.007365217 -0.0062370575 -0.006825581 0.0005202128 -0.011483469 0.0019489744 0.0022800332
-0.0058677844 0.0022428874 -0.003864831 -0.0018929577 -0.005469736 -0.0008658837 -0.009435765 0.0030931802
-0.0026425242 -0.009041243 9.8454286e-05 0.0016081561 -0.0028270655 0.0014526899 0.0069230064 -0.0010228564
0.00478969 -0.0057906886 -0.003187556 0.0007481243 -0.007166459 -0.00078733213 -0.0029871895 -0.008223101
0.0005696282 0.005899542 0.004570046 -0.0018474846 -0.0047503705 0.008395627 0.0064054388 -0.009719752
0.0005013032 0.010701377 -0.0026081055 -0.0018284331 0.0015922852 0.0037261248 -0.006637524 -0.011301898
-0.00012498019 0.0045894184 -0.00093841355 -0.0078008 -2.542693e-05 0.005245737 0.006881008 0.011263201
-0.004002998 0.009133972 -0.007931874 -0.00424538 0.005049258 0.005646863 -5.4680244e-05 -0.0050617713
0.003358006 -0.0037974783 -0.009722615 -0.0030309833 -0.00805583 0.019558944 0.011708299 -0.014974409
0.004255629 -0.013511697 -0.005747958 -0.0023077764 0.0029036205 -0.0006465227 0.00868364 0.009715056
-0.004728744 0.0018685501 0.014786614 -0.002996783 0.0040522264 -0.020035861 0.008929968 0.019905662
-0.005898752 0.0042497 -0.009137567 -0.0040922575 0.00027607038 9.21487e-05 -0.009689998 -0.010329402
0.017652052 -0.0019111485 -0.010939994 0.005081394 -0.006505974 0.022238115 0.00075604295 0.023095807
0.010125886 0.0057893693 0.0070320913 0.006296947 0.007626611 0.0074159377 0.015782498 -0.01246346
0.014813702 -0.0036560607 0.012729055 0.0033875247 0.011919537 -0.012449388 -0.0017673847 0.022120923
-0.010505999 -0.0055335704 -0.00066536764 0.006700254 -0.0108731445 -0.012295716 0.018229699 0.011704423
-0.015553556 -0.0029262402 0.009056557 0.0017075642 0.020686941 0.015905019 0.008258813 0.021672817
0.012087424 -0.004247623 -0.0007041316 0.01695322 0.018268917 0.009950539 0.01055001 0.004422136
0.022467792 0.008642562 0.018308915 -0.0039815963 -0.010240264 0.027557861 -0.009952702 0.029051159
0.016577177 -0.0038822335 0.008714898 0.00661341 0.000913155 -0.006760879 0.019156285 -0.007787343
00000000: 0b05 af3a eb57 f1bb 3b60 ccbb 20a9 dfbb
00000010: e45e 083a 2925 3cbc bb74 ff3a 9c6c 153b
00000020: 8b46 c0bb 68fd 123b 1b49 7dbb 1f1d f8ba
00000030: 793b b3bb 79fc 62ba 7898 1abc f4b6 4a3b
00000040: 332e 2dbb b921 14bc 3e79 ce38 c4c8 d23a
00000050: 4a46 39bb 2f68 be3a 63da e23b 5e11 86ba
00000060: d5f2 9c3b d1bf bdbb 51e6 50bb c61d 443a
00000070: 9ed4 eabb f764 4eba b9c4 43bb 2fba 06bc
00000080: 1a53 153a f250 c13b 53c0 953b 4c27 f2ba
00000090: ffa8 9bbb d08d 093c b7e4 d13b 983f 1fbc
000000a0: e369 033a d454 2f3c c0ec 2abb 09a8 efba
000000b0: 3ab4 d03a 0032 743b 967f d9bb 992b 39bc
000000c0: 1d0d 03b9 d562 963b deff 75ba da9d ffbb
000000d0: eb4b d5b7 6ee4 ab3b 147a e13b 4a89 383c
000000e0: 952b 83bb a8a6 153c b1f4 01bc d41c 8bbb
000000f0: 3f74 a53b 5209 b93b 7758 65b8 37dd a5bb
00000100: fe11 5c3b 1ddf 78bb 9a4b 1fbc 76a3 46bb
00000110: 9afc 03bc 143a a03c 2ad4 3f3c 3957 75bc
00000120: ce72 8b3b 2a60 5dbc 5e59 bcbb 103e 17bb
00000130: ab4a 3e3b 677b 29ba d345 0e3c e62b 1f3c
00000140: 94f3 9abb 23ea f43a 8e43 723c ad65 44bb
00000150: 8ac8 843b 3f22 a4bc 004f 123c 3311 a33c
00000160: 514a c1bb 1141 8b3b bcb5 15bc 5818 86bb
00000170: 8abd 9039 f53f c138 ccc2 1ebc a73c 29bc
00000180: 099b 903c 817f faba a93d 33bc d381 a63b
00000190: 1130 d5bb b52c b63c 2f31 463a 6b33 bd3c
000001a0: 0be7 253c c0b4 bd3b 756d e63b 9f56 ce3b
000001b0: a6e8 f93b 6501 f33b 4c4a 813c 8a33 4cbc
000001c0: 2bb5 723c 859a 6fbb 878d 503c 3c01 5e3b
000001d0: 294a 433c 85f8 4bbc 97a7 e7ba f036 b53c
000001e0: 5b21 2cbc f452 b5bb 116c 2eba ce8d db3b
000001f0: 4625 32bc f973 49bc 7356 953c e9c3 3f3c
00000200: 58d4 7ebc 2ac6 3fbb f461 143c 59d0 df3a
00000210: a977 a93c 3e4b 823c f94f 073c 318b b13c
00000220: 550a 463c a52f 8bbb 7995 38ba 7be1 8a3c
00000230: b2a8 953c 9607 233c f3d9 2c3c 91e7 903b
00000240: 600e b83c 8899 0d3c 94fc 953c 0d78 82bb
00000250: c8c6 27bc 06c1 e13c a810 23bc b2fc ed3c
00000260: dccc 873c 126d 7ebb eec8 0e3c 4eb5 d83b
00000270: cb60 6f3a 5d8a ddbb a4ed 9c3c f82c ffbb

module.BN_layer.running_mean f4 [160]
0.005654504 -0.070915155 -0.07392945 0.011029273 0.0078863725 -0.007386202 0.0010188166 -0.038192067
0.0329557 -0.11549942 -0.0063516363 0.043667544 0.015185303 0.049371116 -0.042588867 0.026508901
0.02747437 -0.12427457 -0.11810981 0.022756504 0.0041392334 -0.0024023699 0.006415157 -0.056707405
0.04247269 -0.1761762 -0.0076605557 0.07170094 0.015431142 0.051766 -0.089260414 0.045872435
0.04558807 -0.15834972 -0.14543465 0.033389643 -0.0020647724 0.00374675 0.012807671 -0.06572184
0.04230544 -0.20957986 -0.0060341596 0.08487431 0.012551435 0.047131594 -0.11673159 0.05446757
0.056700714 -0.17958978 -0.15992633 0.03382237 -0.0028067438 0.012463776 0.01951968 -0.07058857
0.041321557 -0.23127903 -0.0077866823 0.09669482 0.006134486 0.032147482 -0.1329809 0.060288664
0.06262823 -0.19451281 -0.17323063 0.04123441 -0.015673745 0.01756862 0.015967986 -0.08155194
0.04312568 -0.24226794 0.0020111061 0.09824129 -0.002479342 0.018330853 -0.13683996 0.05918941
0.06326498 -0.20183645 -0.17615151 0.042891596 -0.018868603 0.021042287 0.017106446 -0.08410756
0.03938707 -0.24474734 0.0028311603 0.10249288 -0.003454997 0.016743848 -0.14075744 0.06083281
0.06816069 -0.20950048 -0.1781789 0.037349887 -0.012777094 0.025241302 0.016607491 -0.08761355
0.034645725 -0.25266555 0.0023620913 0.10439832 -0.0067851194 0.009161806 -0.14686397 0.06576012
0.063133106 -0.21167335 -0.1816708 0.044267714 -0.02120556 0.025119798 0.01630999 -0.10016936
0.036389414 -0.24842012 0.0069826203 0.10439094 -0.0101646995 -0.0022175568 -0.14118077 0.057126988
0.058907226 -0.21099952 -0.1833994 0.04447157 -0.029149009 0.026714483 0.015721554 -0.10303058
0.037029743 -0.2522436 0.0070170606 0.10265153 -0.016215285 -0.008671113 -0.14288396 0.053972337
0.054584734 -0.20789447 -0.18255533 0.03845826 -0.03240671 0.026284002 0.013508719 -0.10131312
0.04134789 -0.25169408 0.0073310174 0.10204993 -0.019394828 -0.015132871 -0.13589968 0.051392343
00000000: 6b49 b93b f73b 91bd 5368 97bd 20b4 343c
00000010: d835 013c f407 f2bb d089 853a 496f 1cbd
00000020: 8efc 063d f68a ecbd 6321 d0bb bddc 323d
00000030: c7cb 783c 5e39 4a3d aa71 2ebd 3229 d93c
00000040: ee11 e13c aa83 febd 8ee3 f1bd d96b ba3c
00000050: 68a2 873b 1471 1dbb 3d36 d23b 0646 68bd
00000060: d8f7 2d3d 8967 34be 6605 fbbb f1d7 923d
00000070: e7d2 7c3c 9608 543d 2ace b6bd bce4 3b3d
00000080: 8eba 3a3d 6e26 22be d2ec 14be 94c3 083d
00000090: 2251 07bb 098c 753b 44d7 513c 2c99 86bd
000000a0: 7848 2d3d 1a9c 56be 33ba c5bb 95d2 ad3d
000000b0: 89a4 4d3c 0f0d 413d f910 efbd 6319 5f3d
000000c0: 023f 683d 62e6 37be bac3 23be 5389 0a3d
000000d0: 59f1 37bb de34 4c3c bce7 9f3c bd90 90bd
000000e0: cb40 293d 69d4 6cbe 6d27 ffbb ef07 c63d
000000f0: cc03 c93b 14ad 033d 252c 08be 3ff1 763d
00000100: 3b43 803d 5e2e 47be 5f63 31be 6ae5 283d
00000110: 3a66 80bc 11ec 8f3c 4bcf 823c b404 a7bd
00000120: 8ea4 303d 1615 78be c3cc 033b bb32 c93d
00000130: 757c 22bb 962a 963c c61f 0cbe 9870 723d
00000140: 1291 813d 37ae 4ebe 1061 34be 19af 2f3d
00000150: 5492 9abc e060 ac3c d122 8c3c 9640 acbd
00000160: 5654 213d 0c9f 7abe fd8a 393b c9e7 d13d
00000170: 3b6d 62bb 652a 893c b822 10be d32b 793d
00000180: d597 8b3d 4b87 56be 8874 36be 32fc 183d
00000190: 0457 51bc d9c6 ce3c 6f0c 883c bc6e b3bd
000001a0: ade8 0d3d 615d 81be 51cd 1a3b c9ce d53d
000001b0: b555 debb 661b 163c 8263 16be 3ead 863d
000001c0: ee4b 813d e6c0 58be e907 3abe 1052 353d
000001d0: 48b7 adbc 09c8 cd3c 879c 853c 9825 cdbd
000001e0: 110d 153d d861 7ebe 77ce e43b ebca d53d
000001f0: d789 26bc 6e54 11bb b191 10be fdfd 693d
00000200: b448 713d 4210 58be 0dcd 3bbe d227 363d
00000210: e7c9 eebc 55d8 da3c 7dca 803c b201 d3bd
00000220: 80ac 173d 1326 81be 5fef e53b f73a d23d
00000230: ebd5 84bc 4911 0ebc 2c50 12be 1912 5d3d
00000240: 3e94 5f3d 4ae2 54be c9ef 3abe 6986 1d3d
00000250: e6bc 04bd 8c51 d73c ad53 5d3c 417d cfbd
00000260: 685c 293d 0cde 80be 0839 f03b 8eff d03d
00000270: e7e1 9ebc ddef 77bc 4929 0bbe c780 523d

module.BN_layer.running_var f4 [160]
0.001028603 0.00074762356 0.00037392994 0.00084182865 0.0025991232 0.0015315375 0.0012253388 0.002493524
0.0016663196 0.0008412622 0.0014304811 0.000706575 0.0011274208 0.004711183 0.0045176037 0.0019829886
0.003243819 0.0015925417 0.0012528716 0.0020329382 0.0068256524 0.004723457 0.0024047599 0.00933532
0.004664568 0.0017698441 0.003339962 0.0014577606 0.0025987523 0.012025803 0.012300855 0.005874353
0.0068193013 0.0026975079 0.002335147 0.0027983321 0.011160944 0.008807922 0.003417767 0.017888002
0.008438423 0.0026525906 0.004971537 0.0023377382 0.0038987969 0.018868089 0.021364002 0.009914896
0.010296603 0.003633557 0.0036947527 0.0034203643 0.013326424 0.014413332 0.00347825 0.02345569
0.012501752 0.0035219493 0.007546727 0.0028202708 0.0040403805 0.021171719 0.027867474 0.011916459
0.011913055 0.004098197 0.0044879923 0.0040924554 0.015025416 0.018731881 0.0043078735 0.029043976
0.013548566 0.0035443343 0.010084422 0.0031774351 0.003958732 0.024300704 0.031165972 0.01466016
0.013074518 0.005132451 0.0050275545 0.004037085 0.016160183 0.022399655 0.004612826 0.029458594
0.015684823 0.00417093 0.011850844 0.0040391767 0.0045795413 0.025686432 0.032468513 0.013741981
0.014919135 0.00601888 0.0059776716 0.004840134 0.016342185 0.025911426 0.004551138 0.032148104
0.018994536 0.004528639 0.012606236 0.0036130624 0.0044102636 0.027379716 0.035180446 0.015726592
0.014348774 0.0065010153 0.006082216 0.004504614 0.01734928 0.024977582 0.0049458905 0.030653736
0.019259324 0.004512065 0.013231005 0.003927008 0.0050877137 0.02588022 0.03508173 0.016746037
0.014970717 0.0067116674 0.0064288313 0.0045308233 0.01847122 0.027593354 0.0045909802 0.03194064
0.019105026 0.0047187298 0.013612959 0.0033545056 0.0042251484 0.02649803 0.03706461 0.017514914
0.013943743 0.007197648 0.0066504474 0.004726188 0.017820826 0.028388722 0.0049876743 0.032354277
0.019379513 0.004363287 0.014255138 0.0036889224 0.0047800834 0.027787793 0.037315864 0.017503709
00000000: 30d2 863a 2bfc 433a 070c c439 2aae 5c3a
00000010: 0d56 2a3b dfbd c83a 8c9b a03a 646a 233b
00000020: 6868 da3a 2788 5c3a fb7e bb3a 7239 393a
00000030: f7c5 933a 4460 9a3b 6808 943b 07f5 013b
00000040: 4196 543b d5bc d03a 6537 a43a 0b3b 053b
00000050: b9a9 df3b 3bc7 9a3b 2d99 1d3b 2cf3 183c
00000060: 3cd9 983b 1dfa e73a 44e3 5a3b 5412 bf3a
00000070: d44f 2a3b e007 453c 8689 493c a57d c03b
00000080: 7274 df3b acc8 303b 4409 193b 3964 373b
00000090: 64dc 363c 1a4f 103c 9dfc 5f3b dc89 923c
000000a0: 5041 0a3c 16d7 2d3b 46e8 a23b bd34 193b
000000b0: f582 7f3b 4091 9a3c 8f03 af3c 1772 223c
000000c0: 15b3 283c f820 6e3b aa23 723b 3128 603b
000000d0: 1357 5a3c e525 6c3c 5af3 633b 2626 c03c
000000e0: 26d4 4c3c 81d0 663b 894a f73b 4bd4 383b
000000f0: 2b65 843b 5070 ad3c 544a e43c 403d 433c
00000100: f92e 433c 2b4a 863b 0210 933b 011a 863b
00000110: 2a2d 763c 9a73 993c 1029 8d3b a2ed ed3c
00000120: cefa 5d3c 1048 683b 2239 253c 843c 503b
00000130: 40b8 813b 4512 c73c c84f ff3c 2b31 703c
00000140: 8136 563c 1f2e a83b 2fbe a43b 8649 843b
00000150: 5c62 843c 7b7f b73c 3027 973b 2653 f13c
00000160: 757d 803c 4cac 883b 0b2a 423c 125b 843b
00000170: fa0f 963b 5a6c d23c b4fd 043d 0c26 613c
00000180: 636f 743c 063a c53b 58e0 c33b fd99 9e3b
00000190: 0ce0 853c 3344 d43c b621 953b bbad 033d
000001a0: 6e9a 9b3c fa64 943b 638a 4e3c 21c9 6c3b
000001b0: f983 903b 6d4b e03c 5f19 103d 0ed5 803c
000001c0: 1f17 6b3c 7806 d53b 534d c73b 719b 933b
000001d0: 1420 8e3c c99d cc3c 2311 a23b 8b1d fb3c
000001e0: bbc5 9d3c f2d9 933b dbc6 583c 21ae 803b
000001f0: d6b6 a63b c102 d43c dcb1 0f3d fc2e 893c
00000200: bd47 753c 8ced db3b f2a8 d23b 4d77 943b
00000210: f550 973c 750b e23c ef6f 963b 30d4 023d
00000220: 2582 9c3c 939f 9a3b e308 5f3c 44d7 5b3b
00000230: 1d73 8a3b 6612 d93c 0fd1 173d 707b 8f3c
00000240: 4c74 643c 3fda eb3b ffeb d93b 23de 9a3b
00000250: fbfc 913c 778f e83c a56f a33b eb85 043d
00000260: c9c1 9e3c e7f9 8e3b 628e 693c d9c1 713b
00000270: 3fa2 9c3b 3aa3 e33c 85d8 183d f063 8f3c
