Stage2_pickedmodel/Stage2_LSTMAgegen_BDHC/model_epoch_103.pth (torch, 86647 bytes, 14 tensors)

module.LSTM_layer.weight_ih_l0 f4 [64, 256]
0.119082965 -0.23926835 0.19988386 -0.11073051 0.2265136 0.08559716 -0.1245184 -0.21751042
-0.22885662 -0.20290083 0.09618421 -0.16699396 0.15022069 0.13100584 0.019913198 0.17722876
0.18495575 -0.013230954 0.05237033 0.13868472 -0.1980679 0.17160332 0.15551615 -0.10403977
0.19261757 0.14259993 -0.21301377 0.21411175 -0.029640721 -0.068448514 -0.047435075 0.21941249
-0.017127898 -0.007170141 -0.09392193 -0.052492358 -0.1901581 -0.24470755 -0.119898915 -0.0106314095
0.19961895 -0.2603074 -0.061497748 -0.09304776 -0.1277349 0.0947577 0.029619658 0.22292183
0.006327501 0.1333096 -0.13249116 0.05843846 -0.2587107 0.027708758 -0.23493952 0.17379382
0.09669032 -0.042431124 -0.2506208 -0.047959257 -0.21700169 0.14556701 0.09948 0.18702486
0.21689107 -0.0367143 0.16424482 0.18264009 -0.21423143 -0.15152632 0.07998575 0.10682987
-0.22293198 0.13781422 -0.19132462 0.14154984 0.16839218 0.13511145 -0.08342769 0.12704657
-0.044030916 -0.015385225 -0.251916 -0.017849542 0.17610218 -0.18359698 -0.055959255 -0.13800468
-0.18190368 0.16287073 0.04145174 0.21012667 0.0641399 -0.1736497 -0.15678121 0.19212769
0.13237523 -0.06921931 -0.08353435 0.020835238 0.03346058 0.08759907 0.075207114 0.18832046
0.04911725 0.10846637 -0.10799944 -0.16251394 0.17509478 0.030501608 0.13328142 -0.08075184
-0.024279933 0.19461079 0.18656543 0.06351173 0.070353374 -0.014411444 -0.009514019 -0.19683322
0.23010825 -0.22032699 0.23578243 -0.01036153 0.17740993 -0.08874182 0.10738707 -0.18154377
-0.24626258 -0.037822224 0.21122888 0.14050958 -0.041840713 0.046777688 0.049766853 0.0063391975
0.18509424 0.06634064 0.11997672 0.12920816 -0.17718597 0.14275184 0.20356499 0.12789427
-0.25851086 -0.053372215 -0.13197684 0.17594789 0.044167634 -0.05634409 0.03717765 0.03701526
-0.036095064 -0.17066035 -0.041788466 -0.2313027 -0.023714963 -0.011584053 -0.20587702 0.003921537
-0.09548122 0.18246067 -0.12331139 -0.1657531 -0.23559542 0.0333505 0.04249766 -0.021534845
0.20566824 -0.09762065 -0.14610755 0.1064986 -0.25916034 0.14122744 -0.14724974 -0.2176113
-0.0833181 0.16840816 0.10356589 0.08087826 -0.088212416 -0.010731891 -0.023810863 -0.059646185
-0.058218785 0.24000189 0.23484696 0.041617196 -0.22677606 0.056750774 -0.23678668 -0.12626928
0.023773089 -0.23690961 0.13868357 0.05420967 0.01596955 -0.056135226 0.100941755 -0.15276289
-0.17264952 -0.2397512 -0.23951833 -0.16417788 0.22365254 -0.2562879 -0.15401503 -0.19341743
0.030343931 -0.017905697 -0.11107569 -0.11039496 0.161632 -0.08868321 -0.14985192 -0.15538238
0.15534917 -0.007584781 -0.24484079 0.24501295 0.2105342 0.011519675 -0.01493058 0.1713097
-0.24892837 -0.124702126 0.027859727 0.04826123 -0.15406105 -0.021456966 -0.19502054 0.2156696
0.13112813 0.0675005 0.19168825 -0.08813835 0.07585115 0.09277298 0.14536044 -0.017896324
0.19662099 0.08064509 0.043770358 -0.12284447 0.0003918364 0.009534738 -0.0034595155 -0.1550983
-0.13132578 -0.17915338 0.17275408 -0.2613902 0.14899871 -0.093595915 0.018139336 0.24152152
00000000: c5e1 f33d c302 75be 5bae 4c3e adc6 e2bd
00000010: 2ef3 673e 904d af3d 8103 ffbd 0dbb 5ebe
00000020: 6459 6abe 3cc5 4fbe 3afc c43d 7700 2bbe
00000030: 74d3 193e 6526 063e 0121 a33c 757b 353e
00000040: 0a65 3d3e a5c6 58bc 4582 563d 5e03 0e3e
00000050: 50d2 4abe c8b8 2f3e a03f 1f3e ce12 d5bd
00000060: 8a3d 453e b705 123e 4820 5abe 1c40 5b3e
00000070: 19d1 f2bc bc2e 8cbd 484b 42bd abad 603e
00000080: ce4f 8cbc 81f3 eabb 245a c0bd 3a02 57bd
00000090: ceb8 42be 9e94 7abe 908d f5bd 5d2f 2ebc
000000a0: e968 4c3e 0347 85be 10e5 7bbd d38f bebd
000000b0: f0cc 02be 5310 c23d eda4 f23c 9f45 643e
000000c0: ed56 cf3b 5082 083e c3ab 07be 2b5d 6f3d
000000d0: bb75 84be 7afd e23c fc93 70be 02f7 313e
000000e0: 9305 c63d 42cc 2dbd 5f51 80be ed70 44bd
000000f0: b135 5ebe 850f 153e 2cbc cb3d 7283 3f3e
00000100: b118 5e3e bc61 16bd cb2f 283e 0106 3b3e
00000110: 7c5f 5bbe b729 1bbe 92cf a33d 9ec9 da3d
00000120: 4848 64be 2c1f 0d3e 9aea 43be 71f2 103e
00000130: 006f 2c3e a85a 0a3e 23dc aabd 7f18 023e
00000140: c359 34bd 5012 7cbc 22fb 80be 3439 92bc
00000150: 2154 343e d900 3cbe 8835 65bd 1951 0dbe
00000160: f544 3abe 96c7 263e 4dc9 293d 722b 573e
00000170: c85b 833d 3ad1 31be 418b 20be 1fbd 443e
00000180: 5f8d 073e dbc2 8dbd 0f14 abbd a9ae aa3c
00000190: f60d 093d 2467 b33d 3006 9a3d 14d7 403e
000001a0: 2b2f 493d 9e23 de3d cf2e ddbd 0e6a 26be
000001b0: 0c4c 333e 82de f93c ed7a 083e 3861 a5bd
000001c0: b6e6 c6bc 0d48 473e 020b 3f3e 7012 823d
000001d0: 6e15 903d fa1d 6cbc b0e0 1bbc a68e 49be
000001e0: 7fa1 6b3e 669d 61be f370 713e 68c3 29bc
000001f0: f3aa 353e 45be b5bd c1ed db3d 9ce6 39be
00000200: 422c 7cbe 7aeb 1abd 624c 583e bee1 0f3e
00000210: 2b61 2bbd f699 3f3d 54d8 4b3d 0bb9 cf3b
00000220: 5889 3d3e 9add 873d 5bb6 f53d 254f 043e
00000230: 3d70 35be 8a2d 123e 5773 503e b7f6 023e
00000240: 895b 84be d39c 5abd f024 07be af2b 343e
00000250: 1fe9 343d 0fc9 66bd 9747 183d 509d 173d
00000260: 6bd8 13bd 96c1 2ebe 622a 2bbd 9dda 6cbe
00000270: e245 c2bc 0acb 3dbc 6dd1 52be 3d80 803b
00000280: a88b c3bd f8d6 3a3e af8a fcbd 2ebb 29be
00000290: ed3f 71be 899a 083d 0712 2e3d d869 b0bc
000002a0: b29a 523e 56ed c7bd 389d 15be f01b da3d
000002b0: aab0 84be ed9d 103e a3c8 16be 7fd5 5ebe
000002c0: aea2 aabd 3073 2c3e 5a1a d43d 80a3 a53d
000002d0: b6a8 b4bd d0d4 2fbc 000f c3bc 8f4f 74bd
000002e0: d276 6ebd 0ec3 753e b97b 703e cb76 2a3d
000002f0: fc37 68be 8073 683d 3578 72be bc4c 01be
00000300: c8bf c23c 6f98 72be 1103 0e3e f50a 5e3d
00000310: 93d2 823c 0dee 65bd 8dba ce3d e06d 1cbe
00000320: 09cb 30be 5781 75be 4b44 75be 3f1e 28be
00000330: 2c05 653e 2b38 83be 1eb6 1dbe 380f 46be
00000340: d693 f83c f8ae 92bc a77b e3bd c116 e2bd
00000350: dc82 253e 8b9f b5bd c872 19be 8f1c 1fbe
00000360: da13 1f3e c189 f8bb 8bb7 7abe ade4 7a3e
00000370: 4796 573e 05bd 3c3c 649f 74bc cf6b 2f3e
00000380: 14e7 7ebe d463 ffbd 153a e43c 91ad 453d
00000390: 2ec2 1dbe 85c6 afbc 77b3 47be 7ed8 5c3e
000003a0: 7446 063e b43d 8a3d ed49 443e e181 b4bd
000003b0: d957 9b3d c3ff bd3d 5ed9 143e 509b 92bc
000003c0: 0357 493e 4129 a53d 8c48 333d e295 fbbd
000003d0: 646f cd39 9737 1c3c 0ab9 62bb 17d2 1ebe
000003e0: 447a 06be fc73 37be 72e6 303e f0d4 85be
000003f0: 1e93 183e 37af bfbd f298 943c 6b51 773e

module.LSTM_layer.weight_hh_l0 f4 [64, 16]
0.12341828 0.07016313 0.026101816 0.0927691 0.023431247 -0.10694635 -0.21911845 -0.22501624
0.08866504 0.239105 0.01617591 0.010113417 0.027435265 -0.11461409 -0.14387743 0.12571153
0.25192913 0.021582719 -0.14897612 -0.08561683 0.20862919 0.21239243 0.014719563 0.20247646
0.000574586 -0.15353757 -0.11947651 -0.109744675 0.20503415 0.18984589 0.1470487 -0.021494627
-0.08173577 0.124232136 0.058953438 -0.2197677 0.13898769 0.002090444 0.15610206 -0.15324228
-0.20496637 -0.14343241 -0.19838993 -0.18829189 -0.03681092 -0.05365228 0.027660236 -0.11738191
0.22217348 0.022414846 0.011277747 -0.22418877 0.20769508 -0.013682065 -0.21703662 0.07085996
0.19743684 -0.07339394 -0.05703778 0.15793744 -0.118526414 -0.06255539 -0.028857406 -0.04179595
-0.05373475 0.20161411 0.24851266 0.17931063 -0.082772516 -0.1432893 -0.065853134 0.16002846
0.05296107 0.2074314 -0.12889715 0.016971827 -0.17786041 0.12163672 0.26107743 0.04815312
0.18052867 -0.22991706 0.07117474 0.112257585 -0.036513142 -0.07432411 0.13535559 0.21900871
0.0014764403 0.04222729 0.062525176 -0.23641422 0.07349789 -0.03082724 0.1372077 0.15101424
0.03862116 0.25143704 0.08307501 -0.08115996 0.0005363115 0.18955669 0.013247571 -0.1126603
-0.22804345 0.045311935 0.013254178 0.22724201 0.2521712 -0.13901725 0.025902847 0.21972464
-0.17095745 0.26272175 0.030798918 -0.23196034 0.1449496 -0.11083029 0.03567446 0.09705566
0.016716087 0.19492473 0.18519421 0.12762006 -0.105601296 -0.0130288415 -0.15169118 0.017355362
0.0750899 0.19567618 -0.17730795 0.24682282 0.11247224 0.09402919 -0.23978508 0.052326284
-0.18083848 0.2615935 -0.05526473 -0.1803515 0.05462953 -0.23822895 0.102205 0.054699942
-0.09260906 -0.19125101 0.05723256 -0.052508608 -0.11909915 -0.14754291 0.2107642 0.04238251
0.033836152 -0.06677223 -0.04534083 0.18779665 0.01289277 0.24844934 0.04218439 0.024469566
-0.040757865 -0.09795083 0.12836948 0.2218172 -0.09435531 -0.020826021 -0.052754596 -0.081244245
0.22223954 -0.024913704 -0.14247432 0.12367288 -0.22019914 -0.025581576 0.011675349 0.21040244
0.060714144 -0.055674404 0.18639208 0.16086654 -0.21264598 -0.014443314 -0.20759538 -0.07632926
0.027042106 0.13802809 0.18418974 -0.24771483 0.015784394 0.21811818 0.11624566 -0.14615165
-0.03794433 -0.26686355 -0.14259073 0.0136841275 -0.058766354 -0.23720564 0.25263947 -0.11904395
-0.14529082 -0.16994782 0.017786726 0.14449225 0.086367905 -0.049732108 0.16780378 0.05931529
-0.20278737 0.112965375 0.100541964 0.14338487 0.2508658 -0.12376425 0.04637715 -0.03336446
0.15942685 0.07209759 -0.14173496 -0.042905815 -0.017387338 0.16642462 -0.06374838 -0.1669986
0.15419076 -0.22183709 0.043592826 -0.10380175 -0.1911657 -0.15886466 -0.08025785 -0.18676665
0.17413275 0.15966325 0.052260224 -0.06401112 -0.039622117 -0.12036794 -0.2473468 0.009945972
0.23922683 -0.12152134 0.08164509 0.062774464 0.13321246 -0.18798406 0.0770413 0.029605746
-0.14325887 -0.1682782 -0.1583198 -0.04460159 0.16714418 0.115295 -0.11313473 0.05373764
00000000: b9c2 fc3d b0b1 8f3d 7ad3 d53c bafd bd3d
00000010: e3f2 bf3c b006 dbbd 9660 60be a86a 66be
00000020: 0496 b53d f1d7 743e 5883 843c bfb2 253c
00000030: ecbf e03c cbba eabd 9b54 13be 86ba 003e
00000040: dbfc 803e 3ece b03c 328d 18be e057 afbd
00000050: e4a2 553e 677d 593e 522a 713c fd55 4f3e
00000060: d09f 163a f438 1dbe 1ab0 f4bd d1c1 e0bd
00000070: 79f4 513e f666 423e ef93 163e 8015 b0bc
00000080: 1565 a7bd 6b6d fe3d 2979 713d c90a 61be
00000090: ca52 0e3e d5ff 083b 38d9 1f3e 8beb 1cbe
000000a0: b4e2 51be f2df 12be bb26 4bbe 97cf 40be
000000b0: 0cc7 16bd 7ec2 5bbd b897 e23c ed65 f0bd
000000c0: 7281 633e 579f b73c 4dc6 383c be91 65be
000000d0: 05ae 543e bd2a 60bc d93e 5ebe 071f 913d
000000e0: e22c 4a3e 904f 96bd 72a0 69bd 5aba 213e
000000f0: fabd f2bd 0a1d 80bd 5e66 ecbc 3b32 2bbd
00000100: f818 5cbd ee73 4e3e 1a7a 7e3e 359d 373e
00000110: a384 a9bd 6eba 12be 02de 86bd 80de 233e
00000120: b5ed 583d e668 543e 9dfd 03be 8008 8b3c
00000130: 0a21 36be ac1c f93d f1ab 853e 353c 453d
00000140: 82dc 383e 616f 6bbe 10c4 913d 4ee7 e53d
00000150: ce8e 15bd 3d37 98bd a89a 0a3e d243 603e
00000160: 1e85 c13a 86f6 2c3d 330d 803d 9216 72be
00000170: 1086 963d 6889 fcbc 2d80 0c3e 7aa3 1a3e
00000180: 3931 1e3d 5bbc 803e 3b23 aa3d 3137 a6bd
00000190: 4197 0c3a 261b 423e 570c 593c 72ba e6bd
000001a0: 3984 69be 0299 393d 0d28 593c 21b2 683e
000001b0: 951c 813e 8a5a 0ebe 3532 d43c 7fff 603e
000001c0: 780f 2fbe 7783 863e 034e fc3c 0387 6dbe
000001d0: ab6d 143e fefa e2bd 621f 123d 1ec5 c63d
000001e0: 2df0 883c 599a 473e 8da3 3d3e d5ae 023e
000001f0: 7e45 d8bd ec76 55bc ef54 1bbe d52c 8e3c
00000200: bcc8 993d 565f 483e 3790 35be 1fbf 7c3e
00000210: d957 e63d 6092 c03d 388a 75be 1654 563d
00000220: b92d 39be 95ef 853e 455d 62bd 10ae 38be
00000230: 37c3 5f3d 4af2 73be db50 d13d 0c0d 603d
00000240: d2a9 bdbd 4ed7 43be b06c 6a3d 4413 57bd
00000250: 41ea f3bd 7d15 17be 92d2 573e 4899 2d3d
00000260: c797 0a3d e1bf 88bd 4eb7 39bd c44d 403e
00000270: 323c 533c 8169 7e3e 8ac9 2c3d 6674 c83c
00000280: b8f1 26bd 729a c8bd 4a73 033e 0c24 633e
00000290: 5b3d c1bd 559b aabc 3415 58bd 6263 a6bd
000002a0: c392 633e d317 ccbc cae4 11be 3548 fd3d
000002b0: e27b 61be 7490 d1bc f749 3f3c bd73 573e
000002c0: 65af 783d d80a 64bd 91dd 3e3e 33ba 243e
000002d0: debf 59be a6a3 6cbc e293 54be 8452 9cbd
000002e0: 6887 dd3c 3c57 0d3e 3c9c 3c3e f5a8 7dbe
000002f0: 464e 813c 5f5a 5f3e 3412 ee3d c7a8 15be
00000300: 846b 1bbd 57a2 88be 4e03 12be 6433 603c
00000310: fdb4 70bd 09e6 72be f659 813e 51cd f3bd
00000320: 1ec7 14be cd06 2ebe 78b5 913c c7f5 133e
00000330: a8e1 b03d e5b3 4bbd c1d4 2b3e 97f4 723d
00000340: 7ea7 4fbe 645a e73d f2e8 cd3d 7cd3 123e
00000350: 7b71 803e 1c78 fdbd f7f5 3d3d 2ca9 08bd
00000360: cb40 233e e7a7 933d f822 11be 02be 2fbd
00000370: e46f 8ebc 376b 2a3e 838e 82bd ae01 2bbe
00000380: 2fe4 1d3e 4329 63be 648e 323d 0396 d4bd
00000390: f1c0 43be 6bad 22be 3a5e a4bd c23f 3fbe
000003a0: db4f 323e c37e 233e d10e 563d 4318 83bd
000003b0: cd4a 22bd 7783 f6bd 7b48 7dbe 6ef4 223c
000003c0: e1f7 743e 2ee0 f8bd 8a35 a73d e68f 803d
000003d0: d968 083e e57e 40be d4c7 9d3d c087 f23c
000003e0: 74b2 12be 1f51 2cbe 961e 22be 28b0 36bd
000003f0: d827 2b3e c91f ec3d 2eb3 e7bd 001c 5c3d

module.LSTM_layer.bias_ih_l0 f4 [64]
0.10455185 -0.014201722 -0.016456096 -0.22668742 0.17910725 0.12889606 0.06302776 0.24843639
0.17387211 0.04127799 -0.22497237 -0.08423944 0.20897146 -0.013554512 0.095976606 0.20122501
-0.18792528 -0.1318574 0.06475121 0.03496662 0.033477634 -0.050013658 -0.074582286 0.061943535
0.077986695 0.17207998 0.08765733 0.123359516 -0.18464763 0.14161497 0.14225115 -0.06359654
-0.17349459 -0.1377944 -0.18926083 -0.05748358 -0.15552971 0.23419301 0.099901505 -0.03897501
-0.07644194 -0.021079239 -0.22064582 -0.22784093 -0.043286365 0.12871297 0.23548324 0.1756426
-0.026089812 0.1284163 0.088878945 0.18996999 -0.17727974 -0.17858979 0.06072724 -0.20130877
-0.11014305 -0.052496113 -0.07004413 0.16508226 0.24493955 0.23028664 0.24561836 -0.13917725
00000000: 481f d63d 57ae 68bc efce 86bc bf20 68be
00000010: e467 373e 54fd 033e b314 813d 1c66 7e3e
00000020: 880b 323e 1c13 293d 285f 66be ba85 acbd
00000030: 9dfc 553e be13 5ebc 628f c43d ee0d 4e3e
00000040: 7c6f 40be a005 07be 489c 843d 2939 0f3d
00000050: d81f 093d 1fdb 4cbd 99be 98bd 81b8 7d3d
00000060: 7db7 9f3d bc35 303e b085 b33d eaa3 fc3d
00000070: 4514 3dbe 8403 113e 49aa 113e e73e 82bd
00000080: 91a8 31be fa19 0dbe 97cd 41be e773 6bbd
00000090: 2e43 1fbe 4bd0 6f3e 2999 cc3d 43a4 1fbd
000000a0: 988d 9cbd 5eae acbc faf0 61be 224f 69be
000000b0: 0b4d 31bd 55cd 033e 8522 713e a7db 333e
000000c0: 4dba d5bc 907f 033e 2a06 b63d 7e87 423e
000000d0: d288 35be 3ee0 36be 20bd 783d e323 4ebe
000000e0: ae92 e1bd 2a06 57bd 4c73 8fbd 530b 293e
000000f0: 6fd1 7a3e 43d0 6b3e 6183 7b3e 7b84 0ebe

module.LSTM_layer.bias_hh_l0 f4 [64]
0.040417135 -0.08368491 0.0981142 0.2245087 0.12434841 -0.15080692 -0.049251016 -0.16126278
0.15528181 0.18289785 0.08091334 -0.23128498 -0.02414495 -0.11346203 0.15765738 -0.14945675
0.18762292 -0.22318791 0.076800205 -0.13095847 -0.13438977 0.03563646 -0.12809955 0.22122318
0.020029483 -0.20844354 -0.016768267 0.06471893 0.07006097 -0.15423399 -0.007366352 0.18178748
-0.16620685 0.22904505 -0.05903324 -0.032509282 0.15949106 -0.10961453 -0.19931905 -0.09320431
0.08280166 0.033570677 0.08126568 0.08844684 0.14664306 0.19223458 -0.14847784 -0.110782124
0.09512375 -0.15968224 -0.12725107 0.23217042 -0.02183157 -0.21823834 0.04879792 0.14154246
-0.027073804 -0.04784863 -0.12635042 0.10453098 -0.18503359 -0.037938517 -0.14849798 0.20731135
00000000: 708c 253d fe62 abbd 19f0 c83d 9ce5 653e
00000010: 61aa fe3d 216d 1abe 6fbb 49bd 1222 25be
00000020: 3202 1f3e 9349 3b3e e5b5 a53d f8d5 6cbe
00000030: a1cb c5bc c85e e8bd f070 213e 310b 19be
00000040: 3920 403e 5f8b 64be 6d49 9d3d fa19 06be
00000050: 799d 09be 89f7 113d 872c 03be 5488 623e
00000060: df14 a43c 3972 55be 9b5d 89bc 5c8b 843d
00000070: 207c 8f3d 84ef 1dbe 7061 f1bb 7f26 3a3e
00000080: 2132 2abe c98a 6a3e d7cc 71bd 7428 05bd
00000090: a051 233e 957d e0bd 4b1a 4cbe e7e1 bebd
000000a0: eb93 a93d 6881 093d 9f6e a63d 9e23 b53d
000000b0: 9929 163e 24d9 443e 930a 18be bde1 e2bd
000000c0: 3ed0 c23d be83 23be 1b4e 02be 15be 6d3e
000000d0: 1fd8 b2bc df79 5fbe 54e0 473d 82f0 103e
000000e0: e2c9 ddbc edfc 43bd 0162 01be 5714 d63d
000000f0: 7279 3dbe 6b65 1bbd db0f 18be 6d49 543e

module.LSTM_layer.weight_ih_l1 f4 [64, 16]
-0.09215173 0.12603758 0.19601226 0.21671985 -0.14159076 0.1889133 0.14288914 -0.17859435
-0.21283084 0.20343386 0.087574825 0.1533964 -0.13300958 0.092040725 0.106017634 0.17036462
0.22478926 0.15555286 0.034375817 0.2303642 -0.024656767 -0.14719805 -0.07834446 0.226311
-0.020370893 -0.10240717 0.029781265 0.16296174 -0.08080905 0.021691203 0.017838812 -0.27953467
0.19557446 0.18072188 -0.18445899 0.06925277 0.1494104 0.13977635 -0.06403539 0.08345235
-0.19876242 -0.014219543 -0.021221794 0.122066386 0.15896702 0.08884531 0.22942781 -0.04272341
0.07980205 0.12811504 0.18621802 -0.2492196 0.032078598 0.20720348 -0.06426393 0.009191952
0.22126932 -0.11852228 -0.01390756 -0.2430571 0.16441116 -0.25907293 0.13437958 -0.18684624
0.09696215 0.2266795 0.2552051 -0.21225159 -0.044580836 0.16914167 -0.01889328 0.09221907
-0.011418689 -0.22089092 0.16168292 0.098210335 0.032519154 0.03392788 -0.053802498 0.076167524
0.004803172 0.09377131 0.06000334 -0.23568143 0.01631456 -0.060962137 0.11998394 -0.06697418
-0.15529557 0.24014421 -0.15796375 0.1690087 0.041052777 -0.17805643 0.07666222 -0.22355306
0.03569736 0.05807473 0.1704774 -0.17985252 0.040781576 -0.0817209 -0.008924936 0.21776535
-0.12237827 0.14908034 0.20670924 0.17230955 0.12690578 -0.112538196 0.101151034 -0.18065439
-0.19586901 -0.006457067 0.026270432 0.17446174 -0.20578113 0.038523465 -0.09075661 -0.013233463
0.2060401 0.2502888 -0.19561891 -0.21850736 0.21233998 -0.1471481 -0.2628514 -0.016952176
0.21559352 -0.0019012018 -0.10245051 0.123273425 0.09906618 -0.118134946 -0.1634822 0.085820846
-0.09308015 0.20258252 -0.22756682 0.0027725706 0.037871968 -0.09425277 0.21739678 -0.2595955
0.21172376 0.09148488 0.09809896 0.13504928 -0.21641184 0.11021374 -0.113904245 -0.19014904
0.15755503 -0.01583753 -0.1556346 -0.0070345583 -0.14642045 -0.048845097 -0.11032616 0.068430215
-0.017935144 0.1345121 0.18382119 -0.0030185666 0.079017796 0.10450968 -0.24682604 -0.15856935
0.16933338 -0.026713729 0.21624477 0.074175626 -0.11674803 -0.12808587 0.066393144 -0.11607725
0.07984025 0.14573199 0.05904083 0.21725054 0.25088462 -0.0068892576 0.1790787 -0.22563943
0.14982268 -0.13570751 0.214664 0.15136582 0.11288814 0.11525794 0.11905195 0.09474166
0.19516404 -0.09843555 0.14777969 0.09675867 -0.14911097 -0.03366042 -0.21686977 0.17448013
-0.12979555 -0.129153 -0.089770116 0.03884718 -0.012919677 0.047327235 0.18752049 0.088431
-0.24380462 -0.23281942 -0.16885942 -0.23720245 -0.20756458 -0.0042212415 0.22423674 0.09310827
0.12266341 -0.07289315 -0.023999585 0.042137202 0.19502321 0.20092653 -0.23275939 0.013618056
-0.11208241 0.00818511 -0.19724979 0.2179324 -0.07465201 -0.15955038 0.22478542 0.22648427
0.17138553 0.13789429 0.22433855 0.056879118 0.22894476 -0.20180845 0.12547256 0.13329403
0.1287282 -0.094438896 -0.21929784 -0.04979384 0.23622625 -0.24282971 -0.17161475 0.19404164
-0.0066771135 -0.053033497 -0.18863897 0.19569908 -0.1477817 0.09067508 0.14866047 0.17776516
00000000: 0cba bcbd ff0f 013e 70b7 483e cfeb 5d3e
00000010: 2bfd 10be 7d72 413e 8851 123e 70e1 36be
00000020: 54f0 59be f750 503e 6e5a b33d f213 1d3e
00000030: aa33 08be d97f bc3d c61f d93d 1074 2e3e
00000040: 282f 663e 4049 1f3e a8cd 0c3d 98e4 6b3e
00000050: fdfc c9bc 16bb 16be 0f73 a0bd 12be 673e
00000060: dce0 a6bc daba d1bd d7f7 f33c 71df 263e
00000070: 377f a5bd c0b1 b13c b322 923c 2b1f 8fbe
00000080: ac44 483e 280f 393e d1e2 3cbe 65d4 8d3d
00000090: 0aff 183e 8821 0f3e fd24 83bd 11e9 aa3d
000000a0: 6088 4bbe 16f9 68bc 54d9 adbc f1fd f93d
000000b0: 40c8 223e 88f4 b53d 20ef 6a3e befe 2ebd
000000c0: 426f a33d 9730 033e f0af 3e3e 6c33 7fbe
000000d0: d964 033d 262d 543e cf9c 83bd d799 163c
000000e0: 6d94 623e cfbb f2bd 89dc 63bc f6e3 78be
000000f0: 665b 283e 35a5 84be cd9a 093e 9f54 3fbe
00000100: 1794 c63d ac1e 683e 3eaa 823e 7b58 59be
00000110: 659a 36bd 7933 2d3e 14c6 9abc 5add bc3d
00000120: 7415 3bbc 3b31 62be 3590 253e 8022 c93d
00000130: ce32 053d f6f7 0a3d 0260 5cbd b8fd 9b3d
00000140: ed63 9d3b 2c0b c03d 10c6 753d 7956 71be
00000150: 1da6 853c 6fb3 79bd 24ba f53d c229 89bd
00000160: cd05 1fbe 5de8 753e 40c1 21be 9e10 2d3e
00000170: f526 283d 6d54 36be 1501 9d3d 18eb 64be
00000180: 6537 123d c5df 6d3d a191 2e3e 422b 38be
00000190: 950a 273d 4a5d a7bd e539 12bc e1fd 5e3e
000001a0: 75a1 fabd 84a8 183e 96ab 533e ea71 303e
000001b0: 97f3 013e 6d7a e6bd 4628 cf3d 77fd 38be
000001c0: e391 48be ce95 d3bb 1735 d73c 19a6 323e
000001d0: 4ab8 52be c8ca 1d3d 9ade b9bd 2bd1 58bc
000001e0: 2dfc 523e db25 803e 5350 48be 65c0 5fbe
000001f0: a76f 593e fead 16be 7594 86be 4adf 8abc
00000200: 8cc4 5c3e bf31 f9ba 93d1 d1bd c776 fc3d
00000210: 36e3 ca3d bcf0 f1bd e167 27be d7c2 af3d
00000220: cea0 bebd cb71 4f3e 4707 69be 04b4 353b
00000230: a31f 1b3d 9907 c1bd 439d 5e3e b4e9 84be
00000240: 1dce 583e 6d5c bb3d 1ce8 c83d 5c4a 0a3e
00000250: 119b 5dbe beb7 e13d a146 e9bd 6eb6 42be
00000260: 1b56 213e b5bd 81bc ad5e 1fbe 2782 e6bb
00000270: 3eef 15be cc11 48bd aff2 e1bd 2425 8c3d
00000280: b9ec 92bc 8abd 093e 9f3b 3c3e 25d3 45bb
00000290: 15d4 a13d 2c09 d63d f7bf 7cbe 0160 22be
000002a0: bb65 2d3e c0d6 dabc 456f 5d3e 64e9 973d
000002b0: 9719 efbd f128 03be 21f9 873d e9b9 edbd
000002c0: 4983 a33d c43a 153e ccd4 713d ed76 5e3e
000002d0: f373 803e 48bf e1bb 6860 373e 060e 67be
000002e0: 1e6b 193e e9f6 0abe e1d0 5b3e a4ff 1a3e
000002f0: e631 e73d 5b0c ec3d 82d1 f33d ea07 c23d
00000300: 15d9 473e 9498 c9bd 8f53 173e 6929 c63d
00000310: 8cb0 18be 82df 09bd 1c13 5ebe ebaa 323e
00000320: 20e9 04be af40 04be 65d9 b7bd 381e 1f3d
00000330: 0ead 53bc 34da 413d 5f05 403e 501b b53d
00000340: eba7 79be 3768 6ebe 7ce9 2cbe 33e5 72be
00000350: cf8b 54be 5752 8abb 519e 653e 8caf be3d
00000360: f436 fb3d 0149 95bd c79a c4bc 0f98 2c3d
00000370: 2ab4 473e afbf 4d3e 7a58 6ebe 441e 5f3c
00000380: 768b e5bd d71a 063c d9fb 49be ac29 5f3e
00000390: 27e3 98bd 2d61 23be 262e 663e 7eeb 673e
000003a0: b07f 2f3e 2934 0d3e 01b9 653e 14fa 683d
000003b0: 7f70 6a3e e0a6 4ebe e17b 003e 3b7e 083e
000003c0: 53d1 033e 2e69 c1bd 9d8f 60be a0f4 4bbd
000003d0: 4be5 713e 5aa8 78be c7bb 2fbe dab2 463e
000003e0: b0cb dabb a739 59bd 932a 41be 5765 483e
000003f0: 1654 17be dbb3 b93d 733a 183e 1208 363e

module.LSTM_layer.weight_hh_l1 f4 [64, 16]
0.0312501 -0.03709584 0.15740432 0.17404865 0.005798149 0.018281465 -0.08719739 0.23165517
-0.11795714 -0.009574986 -0.07560347 -0.13901307 0.00763973 -0.18726447 -0.011921857 -0.031163946
-0.26784295 -0.15740475 0.13763899 -0.20074977 0.122912385 -0.23098162 0.18351178 -0.025929336
0.103835076 0.02594396 0.10931525 0.010245545 0.18620256 -0.11786819 0.074330166 -0.054982986
0.119291104 0.022529913 -0.10808489 0.19780003 -0.116971456 0.12864655 -0.017908582 -0.08865155
0.1441586 -0.17312844 0.1967639 0.09326521 0.24554592 0.097581066 0.1431886 -0.06582879
0.08734194 -0.124649346 0.23665433 -0.055555332 -0.21651925 -0.22437443 -0.069245346 0.027008768
-0.18404116 -0.21903087 -0.07735353 0.061614614 0.018382333 -0.21093614 0.24937636 -0.10162461
0.13468967 0.017530575 0.1404858 0.2359394 -0.23377565 0.015531619 0.11791845 -0.0034918278
0.2319383 0.08028008 0.08162707 -0.13553648 -0.18099195 0.2298047 0.0056913486 -0.15903437
0.051225886 -0.0890137 -0.20208623 0.15809989 0.009740249 0.1117082 0.07392212 -0.09761216
0.08414402 0.19503918 -0.04111537 -0.19960721 0.15234168 -0.17020816 -0.11515578 -0.14197317
0.15593651 -0.0647714 -0.21533898 -0.1377173 -0.057915132 0.027357507 -0.2170052 0.030060584
0.20955303 -0.13765731 -0.093091935 0.15895388 -0.09500125 -0.048342563 0.24497132 -0.21237853
0.19355018 -0.08578953 -0.08989758 0.030649144 0.04278911 -0.10062135 -0.1353226 -0.0807645
0.21470109 -0.2509135 -0.045987032 -0.17507558 -0.100784495 -0.16556951 -0.11104447 -0.14644018
-0.10957885 0.09192811 -0.18292184 0.13987964 -0.2578026 -0.23818327 -0.052393503 -0.07539561
0.032512624 -0.16197069 -0.21691486 0.041346416 -0.2021171 0.21941082 -0.20821525 -0.05357734
0.012738128 -0.13192694 -0.05226557 0.080883026 0.02218746 -0.14489152 -0.04857587 0.09459949
-0.1277724 0.0051841433 -0.032572243 0.21653992 0.23290712 -0.027988004 0.036256555 0.23134479
-0.21435127 -0.07266787 -0.24341166 -0.23238531 0.18211122 -0.2006354 -0.10701233 0.21362253
0.043629155 -0.14131613 0.17450772 0.23913398 0.20611982 -0.1345073 -0.008450591 0.1582754
0.09698005 -0.2232857 -0.083387695 0.1010596 0.03021087 0.041141875 0.06394901 -0.19351377
-0.18460292 -0.14304425 0.0039055457 -0.17305018 0.07665531 0.20542088 0.046627007 -0.08138973
0.18604748 0.2110339 0.21288024 -0.20266943 0.04742771 -0.124427326 -0.063456155 -0.2667068
0.20078339 0.0049314746 0.04497897 0.08371547 0.20538151 0.0009702275 0.07072223 0.069134325
-0.04463371 -0.15010637 0.2603836 0.20059527 0.25098604 -0.17323443 0.1341246 0.13406362
0.02923069 0.112300314 -0.15538424 -0.12456854 0.17496341 0.20600438 0.16413741 -0.0862438
0.010333488 0.16590868 -0.09924191 -0.18953122 -0.069779254 0.13943346 -0.11519416 0.22617579
0.21813802 0.16086352 -0.042170413 0.22111565 0.07122417 0.12334638 0.06178029 -0.11545467
-0.09865488 0.06490047 -0.04123008 -0.13050833 -0.029701503 0.06480404 0.07818003 0.18377048
-0.09646213 0.032456797 -0.21856625 -0.01583007 0.108478464 0.18940005 -0.1922018 -0.121402994
00000000: 1b00 003d cff1 17bd 992e 213e cf39 323e
00000010: 66fe bd3b 03c3 953c 8c94 b2bd 0337 6d3e
00000020: 8393 f1bd 67e0 1cbc fed5 9abd 7159 0ebe
00000030: b356 fa3b 42c2 3fbe e453 43bc 884b ffbc
00000040: b622 89be b62e 21be 3cf1 0c3e 5991 4dbe
00000050: 7db9 fb3d 7286 6cbe 83ea 3b3e c269 d4bc
00000060: 7ca7 d43d 6d88 d43c ace0 df3d eedc 273c
00000070: e2ab 3e3e e164 f1bd 6a3a 983d d735 61bd
00000080: e54e f43d a790 b83c 9c5b ddbd 178c 4a3e
00000090: bb8e efbd ecbb 033e 05b5 92bc f28e b5bd
000000a0: 509e 133e 9548 31be 7a7c 493e d501 bf3d
000000b0: 6470 7b3e 95d8 c73d 08a0 123e 3fd1 86bd
000000c0: 55e0 b23d 2848 ffbd 8355 723e fd8d 63bd
000000d0: 39b7 5dbe 69c2 65be 81d0 8dbd 7e41 dd3c
000000e0: 4975 3cbe a149 60be 876b 9ebd 9b5f 7c3d
000000f0: 8c96 963c a5ff 57be 845c 7f3e 9020 d0bd
00000100: 17ec 093e 489c 8f3c 82db 0f3e 199a 713e
00000110: e262 6fbe 5578 7e3c 3a7f f13d 26d7 64bb
00000120: 3c81 6d3e e269 a43d 182c a73d 13ca 0abe
00000130: f455 39be ec51 6b3e 7e7e ba3b e8d9 22be
00000140: 3cd2 513d d14c b6bd b1ef 4ebe f0e4 213e
00000150: 9195 1f3c 45c7 e43d 7b64 973d e2e8 c7bd
00000160: b353 ac3d 5ab8 473e 9768 28bd d565 4cbe
00000170: 75ff 1b3e 0c4b 2ebe cbd6 ebbd 6a61 11be
00000180: d2ad 1f3e dea6 84bd d281 5cbe c405 0dbe
00000190: 6b38 6dbd da1c e03c 9c36 5ebe 9d41 f63c
000001a0: 1295 563e 0af6 0cbe fca6 bebd cec4 223e
000001b0: 0490 c2bd da02 46bd c3d9 7a3e c279 59be
000001c0: 0532 463e 6cb2 afbd 391c b8bd ea13 fb3c
000001d0: a243 2f3d 9112 cebd 0292 0abe dc67 a5bd
000001e0: 9ada 5b3e bc77 80be e65c 3cbd 0347 33be
000001f0: 1a68 cebd 0e8b 29be 486b e3bd 6af4 15be
00000200: e06a e0bd ce44 bc3d dd4f 3bbe 9c3c 0f3e
00000210: b4fe 83be 51e6 73be 929a 56bd 0369 9abd
00000220: f52b 053d a5db 25be ee1e 5ebe dc5a 293d
00000230: c9f7 4ebe 3bad 603e 6136 55be ea73 5bbd
00000240: 95b3 503c db17 07be 6c14 56bd 00a6 a53d
00000250: 7ac2 b53c 715e 14be 7ef7 46bd 61bd c13d
00000260: c5d6 02be bfdf a93b 796a 05bd a4bc 5d3e
00000270: 347f 6e3e 1947 e5bc c181 143d a6e5 6c3e
00000280: e67e 5bbe e4d2 94bd e840 79be 6af6 6dbe
00000290: 5d7b 3a3e 5e73 4dbe 4829 dbbd ddbf 5a3e
000002a0: 7cb4 323d 2db5 10be 27b2 323e 8adf 743e
000002b0: 1311 533e 48bc 09be 5974 0abc f212 223e
000002c0: 7a9d c63d 02a5 64be 2bc7 aabd 56f8 ce3d
000002d0: c97c f73c 6284 283d b3f7 823d 7928 46be
000002e0: 8c08 3dbe 317a 12be 2ff4 7f3b 1134 31be
000002f0: 76fd 9c3d da59 523e f6fb 3e3d a9af a6bd
00000300: 3b83 3e3e 4519 583e 47fd 593e 9388 4fbe
00000310: 8f43 423d c1d3 febd 4df5 81bd cb8d 88be
00000320: 299a 4d3e 3598 a13b de3b 383d 0473 ab3d
00000330: 884f 523e de56 7e3a d1d6 903d 4c96 8d3d
00000340: d6d1 36bd 7cb5 19be 0051 853e d968 4d3e
00000350: 3e81 803e 5e64 31be f657 093e f947 093e
00000360: 3375 ef3c b5fd e53d 0c1d 1fbe ca1d ffbd
00000370: 9c29 333e d0f2 523e a313 283e 97a0 b0bd
00000380: ca4d 293c f7e3 293e 583f cbbd 7914 42be
00000390: 6de8 8ebd a5c7 0e3e eaea ebbd a09a 673e
000003a0: 935f 5f3e 68b9 243e e2ba 2cbd 246c 623e
000003b0: fadd 913d 079d fc3d 540d 7d3d 7f73 ecbd
000003c0: 920b cabd 8aea 843d dfe0 28bd faa3 05be
000003d0: 9150 f3bc fbb7 843d da1c a03d 542e 3c3e
000003e0: f08d c5bd 6bf1 043d d5cf 5fbe 10ae 81bc
000003f0: f529 de3d 16f2 413e 8cd0 44be 22a2 f8bd

module.LSTM_layer.bias_ih_l1 f4 [64]
0.017821122 0.023906166 -0.19552276 0.048656143 -0.037004713 0.18006937 -0.098231405 0.14328614
-0.19401814 0.17481203 -0.01549943 -0.15325089 0.07915548 0.075314984 0.21128438 -0.05166997
-0.22753763 0.060718894 -0.0934181 -0.053275723 -0.15868118 0.036940977 -0.058969457 0.12749489
-0.023403099 0.15498401 -0.17154713 -0.025124203 -0.26433414 -0.16651681 0.104618005 0.26669976
-0.017711917 0.20130542 0.1388832 -0.14419787 -0.19396439 0.14953005 -0.1932141 -0.20279677
0.07321806 0.03716567 -0.11247334 0.2320517 0.26493108 0.17554529 0.23776832 -0.20851023
0.10869181 -0.03668151 -0.0155382585 0.187137 0.108242095 -0.09080064 0.011606305 -0.24866162
0.17048725 0.22693396 0.04374803 0.1158806 -0.23176388 0.074177064 0.07350585 -0.21850774
00000000: 9afd 913c ddd6 c33c 1e37 48be aa4b 473d
00000010: 4192 17bd 1b64 383e 8c2d c9bd 9ab9 123e
00000020: b1ac 46be ed01 333e 52f1 7dbc cded 1cbe
00000030: 451c a23d be3e 9a3d ef5a 583e e4a3 53bd
00000040: a0ff 68be 60b4 783d fd51 bfbd a537 5abd
00000050: 527d 22be 6c4f 173d f589 71bd 058e 023e
00000060: dbb7 bfbc 21b4 1e3e 0daa 2fbe 46d1 cdbc
00000070: ce56 87be 6283 2abe f741 d63d df8c 883e
00000080: 9518 91bc 0223 4e3e 6637 0e3e 9ba8 13be
00000090: 9a9e 46be 681e 193e ebd9 45be f5a9 4fbe
000000a0: 5af3 953d 083b 183d 6c58 e6bd f69e 6d3e
000000b0: 0ca5 873e 25c2 333e 8a79 733e b583 55be
000000c0: d099 de3d 5a3f 16bd 2e94 7ebc d7a0 3f3e
000000d0: 08ae dd3d b0f5 b9bd 5f28 3e3c 27a1 7ebe
000000e0: 3694 2e3e 6061 683e 2231 333d cf52 ed3d
000000f0: 8353 6dbe 25ea 973d 3c8a 963d 7ec0 5fbe

module.LSTM_layer.bias_hh_l1 f4 [64]
0.23551787 -0.06827564 -0.01964346 -0.24004309 0.0874826 0.17284234 0.25167674 0.059409935
0.12180981 0.07427709 -0.18370433 -0.0022544337 0.088912986 0.087299705 -0.0067811385 -0.12629172
0.068903446 0.15225936 -0.09530148 0.19620857 0.21792573 0.13528517 -0.08488705 0.0911468
0.09310207 -0.16414197 0.16811825 -0.06495418 0.033974152 -0.07735502 0.0028560394 0.19121273
0.17575105 -0.0043163025 0.1952591 -0.04196255 -0.1320455 -0.12417952 0.044571236 -0.05359909
-0.18737476 -0.098882206 -0.13157338 0.08845287 -0.105763346 0.12488678 0.076241545 0.027683865
0.1951167 -0.20763683 -0.053643826 0.015836742 0.2444063 0.227575 0.08194443 -0.018997869
0.16501564 -0.14602686 0.039373778 0.0140624 0.16758548 0.10514339 -0.17224562 -0.11812335
00000000: 992b 713e 19d4 8bbd 52eb a0bc dbcd 75be
00000010: 142a b33d 95fd 303e c6db 803e d557 733d
00000020: 6c77 f93d 961e 983d fd1c 3cbe 1fbf 13bb
00000030: 0318 b63d 30ca b23d 5034 debb 9e52 01be
00000040: 401d 8d3d e1e9 1b3e 6c2d c3bd e6ea 483e
00000050: ec27 5f3e 3288 0a3e 43d9 adbd 2cab ba3d
00000060: 4cac be3d d514 28be 3127 2c3e b206 85bd
00000070: 7b28 0b3d 4f6c 9ebd 642c 3b3b 45cd 433e
00000080: 15f8 333e c56f 8dbb 00f2 473e ece0 2bbd
00000090: f036 07be d551 febd 5490 363d b88a 5bbd
000000a0: 2bdf 3fbe c182 cabd 2cbb 06be c726 b53d
000000b0: 749a d8bd a4c4 ff3d 8724 9c3d 46c9 e23c
000000c0: accc 473e c09e 54be a1b9 5bbd 0ebc 813c
000000d0: a545 7a3e 6c09 693e 7bd2 a73d 6ba1 9bbc
000000e0: dcf9 283e 1188 15be 6646 213d fb65 663c
000000f0: 879b 2b3e 6b55 d73d 2861 30be a8ea f1bd

module.BN_layer.weight f4 [160]
1.0321854 0.980858 0.9941859 0.98428786 1.0145931 0.98489714 0.9710514 1.0184085
0.993606 1.0127451 0.9956438 0.9953584 0.98874176 0.99335235 0.9983752 1.0061228
0.9931804 0.99035066 1.0156463 1.0071473 1.0098723 0.99205285 1.0121002 0.9918504
1.0095953 0.98468006 1.003381 1.0002664 0.9774766 1.0047656 1.0104558 0.98991185
1.0059072 1.0040848 1.0138583 0.9859854 1.020234 1.0114502 0.9974297 1.0097709
1.0023577 1.0180082 1.0143478 0.9937642 0.98529047 1.015349 1.0084529 0.9788022
1.0071925 0.994786 1.0153972 0.98060596 1.0313846 1.022108 0.9890959 1.0109344
0.98424727 1.0171901 1.0168481 0.99908525 0.9981447 1.0218427 1.0099972 1.0014979
0.9926707 0.998977 0.9717019 0.99676204 1.0175868 0.9847763 0.99973553 1.0043608
0.99352515 0.9787291 1.0285383 1.0148121 0.9939661 0.97835326 1.0074033 1.0121938
1.0029109 1.0150658 1.0138096 1.0019795 1.0174408 0.97989005 1.0129339 0.9963384
0.9961851 1.0128031 1.0301929 0.98608893 0.9977703 1.0147526 0.987293 1.0147648
1.0086782 1.0148355 1.0372926 1.00015 1.021889 1.0016458 0.9930485 0.99879897
0.97988147 0.97795105 1.0340321 0.9813364 1.0021902 0.9872979 0.9757007 0.99305874
0.9866684 0.9747225 1.0388747 1.0177525 1.0112393 0.9913459 0.9971237 1.0038246
1.0089289 1.0102693 1.0350722 1.0373524 1.02207 1.0156008 1.0062438 0.996097
1.0313458 1.0182977 1.0573908 1.0251998 1.0190727 0.9925514 1.006084 1.002268
1.012665 1.0024295 1.0547547 1.0402927 1.0138652 1.010331 1.0215037 0.9948296
1.048466 1.0349652 1.0716742 0.96810454 1.0179454 1.0113745 0.9865355 1.0191876
1.0234536 1.0020913 1.0482565 1.0480622 1.027434 1.0096802 1.0296209 0.997339
00000000: a71e 843f 8319 7b3f f882 7e3f 4afa 7b3f
00000010: 30de 813f 3822 7c3f d396 783f 365b 823f
00000020: f65c 7e3f a2a1 813f 83e2 7e3f cfcf 7e3f
00000030: 2e1e 7d3f 574c 7e3f 8495 7f3f a2c8 803f
00000040: 1241 7e3f 9f87 7d3f b300 823f 34ea 803f
00000050: 7f43 813f 2df7 7d3f 808c 813f e8e9 7d3f
00000060: 6b3a 813f fe13 7c3f ca6e 803f bb08 803f
00000070: e83b 7a3f 299c 803f 9e56 813f dd6a 7d3f
00000080: 91c1 803f da85 803f 1cc6 813f 8a69 7c3f
00000090: 0797 823f 3377 813f 8e57 7f3f 2c40 813f
000000a0: 424d 803f 184e 823f 26d6 813f 5567 7e3f
000000b0: ff3b 7c3f f5f6 813f fc14 813f c892 7a3f
000000c0: afeb 803f 4caa 7e3f 89f8 813f fe08 7b3f
000000d0: 6904 843f 6fd4 823f 6435 7d3f 4c66 813f
000000e0: a1f7 7b3f 4933 823f 1428 823f 0dc4 7f3f
000000f0: 6986 7f3f becb 823f 9747 813f 1531 803f
00000100: ab1f 7e3f f5bc 7f3f 75c1 783f cc2b 7f3f
00000110: 4940 823f 4d1a 7c3f abee 7f3f e58e 803f
00000120: aa57 7e3f fe8d 7a3f 25a7 833f 5de5 813f
00000130: 9074 7e3f 5c75 7a3f 97f2 803f 918f 813f
00000140: 625f 803f aded 813f 83c4 813f dd40 803f
00000150: 803b 823f 13da 7a3f d1a7 813f 0910 7f3f
00000160: fd05 7f3f 88a3 813f 5cdd 833f 5370 7c3f
00000170: e06d 7f3f 6ae3 813f 3cbf 7c3f d0e3 813f
00000180: 5e1c 813f 21e6 813f 01c6 843f ea04 803f
00000190: 42cd 823f ee35 803f 6d38 7e3f 4ab1 7f3f
000001a0: 83d9 7a3f 005b 7a3f 2a5b 843f dd38 7b3f
000001b0: c547 803f 8ebf 7c3f 85c7 793f 1939 7e3f
000001c0: 4d96 7c3f 6a87 793f d9f9 843f b745 823f
000001d0: 4a70 813f d8c8 7d3f 8043 7f3f 537d 803f
000001e0: 9524 813f 8150 813f 3f7d 843f f7c7 843f
000001f0: 31d3 823f 35ff 813f 99cc 803f 3700 7f3f
00000200: 2403 843f 9457 823f 9558 873f bf39 833f
00000210: f970 823f d917 7e3f 5cc7 803f 514a 803f
00000220: 029f 813f 9c4f 803f 3402 873f 5028 853f
00000230: 56c6 813f 8752 813f a2c0 823f 27ad 7e3f
00000240: 2234 863f bd79 843f 9f2c 893f b3d5 773f
00000250: 094c 823f b874 813f 978d 7c3f bd74 823f
00000260: 8700 833f 8744 803f 452d 863f e726 863f
00000270: f582 833f 333d 813f 9eca 833f 9c51 7f3f

module.BN_layer.bias f4 [160]
0.0069042686 -0.019537698 -0.02399256 -0.014644159 0.0031608106 -0.005302489 -0.006336057 0.02851582
-0.011752376 0.0041479236 0.0021840744 0.0014828455 -0.011400989 -0.018195217 -0.0037531692 0.014087193
-0.018404057 -0.0004385397 -0.009532897 0.008236062 -0.00013830818 -0.009700787 0.012848509 -0.011773144
0.013966379 -0.008558977 -0.0065176035 0.0027136316 -0.025254771 -0.007808008 0.0030914897 -0.003583479
-0.017579501 -0.0067644636 -0.00208991 -0.004745453 -0.00027403247 0.0155775845 0.01885599 0.012807413
0.009741469 0.015498572 -0.0018566257 -0.0010097695 -0.020444348 -0.0045505892 0.0048621646 -0.014338882
-0.012463875 -0.014544323 -0.006178389 -0.0067604617 0.012576462 0.019382803 -0.015654145 0.009142458
-0.016454099 0.01699175 -0.010401863 -0.012624856 -0.011591346 -0.0029401018 0.012845906 0.0007184092
-0.00052759895 -0.01008199 -0.008921419 -0.0022827624 0.0026008033 -0.013996755 0.006866408 0.00012957233
-0.014064206 -0.017525671 0.006833979 -0.002470795 -0.02307202 -0.0054482236 0.004087315 0.010082771
0.0009372726 0.009228898 0.0028685057 -0.002758806 0.0061788196 -0.017424274 0.014454893 -0.0033233664
-0.011447906 0.009121389 0.012341283 -0.0112159345 -0.011737052 0.0041719265 -0.003930931 0.0023620126
-9.061809e-05 0.00028792204 0.02338035 0.0066712117 0.024572125 -0.003931927 -0.010271826 0.0044577275
-0.013433406 -0.00808834 0.02334152 -0.019971117 0.00068653404 -0.012073137 -0.014706014 -0.00815613
-0.011768959 -0.009394186 0.02736446 0.01236007 0.015676659 -0.004349948 -0.007074419 -0.0033843769
0.0049828957 0.0054075983 0.028074631 0.03563446 0.020567006 0.0035297568 0.0020658984 0.0015715081
0.024530133 0.009639855 0.04770461 0.018460583 0.02358412 -0.0062918416 0.007553313 -0.0057691503
0.0074636173 -0.002831218 0.045670766 0.031155553 0.016421383 0.0059494385 0.012073158 0.0017094836
0.03201764 0.016674878 0.063385986 -0.021336092 0.023906834 0.007999658 -0.0077226427 0.016380863
0.015473403 0.005371014 0.051563967 0.028389256 0.028900122 0.0015981686 0.023331186 -0.0044685965
00000000: 343d e23b 860d a0bc 0c8c c4bc 0eee 6fbc
00000010: 9a25 4f3b 80c0 adbb b39e cfbb 029a e93c
00000020: 0a8d 40bc 4eeb 873b b022 0f3b 0a5c c23a
00000030: 37cb 3abc 230e 95bc bbf7 75bb f8cd 663c
00000040: 1bc4 96bc cdeb e5b9 de2f 1cbc 8cf0 063c
00000050: d206 11b9 0df0 1ebc 8d82 523c 25e4 40bc
00000060: 3dd3 643c f43a 0cbc 9f91 d5bb 2fd7 313b
00000070: 18e3 cebc 52da ffbb 979a 4a3b cdd8 6abb
00000080: e302 90bc 6fa8 ddbb dff6 08bb bf7f 9bbb
00000090: 04ac 8fb9 2039 7f3c e177 9a3c 2fd6 513c
000000a0: af9a 1f3c b9ed 7d3c 055a f3ba 3e5a 84ba
000000b0: e87a a7bc 1c1d 95bb cb52 9f3b a1ed 6abc
000000c0: 4835 4cbc 504b 6ebc 1574 cabb dd86 ddbb
000000d0: 810d 4e3c afc8 9e3c 1f3d 80bc 40ca 153c
000000e0: bfca 86bc 4832 8b3c 936c 2abc 7cd8 4ebc
000000f0: a1e9 3dbc b9ae 40bb a377 523c a053 3c3a
00000100: 914e 0aba ee2e 25bc 252b 12bc 669a 15bb
00000110: 3d72 2a3b a552 65bc 9bff e03b cfdd 0739
00000120: 8e6d 66bc ff91 8fbc 92ef df3b 10ed 21bb
00000130: 8801 bdbc 0387 b2bb e2ee 853b 3532 253c
00000140: 4db3 753a ce34 173c 8afd 3b3b 16cd 34bb
00000150: b277 ca3b 5abd 8ebc 37d4 6c3c d6cc 59bb
00000160: ff8f 3bbc e171 153c 1833 4a3c 0ac3 37bc
00000170: c44c 40bc a8b4 883b 0acf 80bb ffcb 1a3b
00000180: 370a beb8 3ef4 9639 2688 bf3c 2e9a da3b
00000190: 7b4b c93c 65d7 80bb 294b 28bc 2112 923b
000001a0: ca17 5cbc f584 04bc b736 bf3c 789a a3bc
000001b0: 85f8 333a 68ce 45bc 7ef1 70bc 4aa1 05bc
000001c0: 98d2 40bc 12ea 19bc 6f2b e03c e481 4a3c
000001d0: 566c 803c 028a 8ebb 87d0 e7bb 6ccc 5dbb
000001e0: 8f47 a33b 3932 b13b c5fc e53c 71f5 113d
000001f0: 237c a83c 7e53 673b 0664 073b 10fb cd3a
00000200: 6bf3 c83c 7bf0 1d3c e965 433d a63a 973c
00000210: 7c33 c13c cb2b cebb c881 f73b 240b bdbb
00000220: 5c91 f43b f58b 39bb 4511 3b3d ee39 ff3c
00000230: 2386 863c 82f3 c23b 7fce 453c c010 e03a
00000240: ee24 033d c199 883c 83d0 813d 07c9 aebc
00000250: 44d8 c33c ff10 033c 390e fdbb 2931 863c
00000260: 2884 7d3c 55ff af3b bd34 533d 9690 e83c
00000270: f3bf ec3c a479 d13a 0b21 bf3c 4e6d 92bb

module.BN_layer.running_mean f4 [160]
0.02970861 0.03860024 0.07850637 -0.03784906 -0.10305999 -0.0048641716 -0.047065306 -0.06358028
-0.03830694 -0.032712113 -0.045606647 0.07595593 0.03311937 0.083745494 0.07381616 -0.030982686
0.032958876 0.07142924 0.12307837 -0.051544696 -0.16585247 -0.019723745 -0.07376121 -0.11262942
-0.07542095 -0.036778897 -0.052253608 0.13261265 0.0400242 0.12642689 0.1188342 -0.050000075
0.027638985 0.09348393 0.1486301 -0.05524338 -0.20317708 -0.036172193 -0.09160299 -0.14393283
-0.1021246 -0.031741504 -0.04400995 0.16985048 0.03787441 0.14961083 0.14099878 -0.06273528
0.025092024 0.11569736 0.16567893 -0.05434812 -0.23105419 -0.049116295 -0.103562176 -0.16266881
-0.11875507 -0.03179328 -0.03501395 0.19382837 0.034882344 0.16257493 0.15243703 -0.07158221
0.02312283 0.12442381 0.17890309 -0.053329237 -0.25091118 -0.056335684 -0.11515962 -0.17555732
-0.1283044 -0.024380766 -0.025361387 0.20822386 0.026193555 0.1651954 0.16221389 -0.077937715
0.02718283 0.13001844 0.18240944 -0.052582946 -0.26076722 -0.06183152 -0.120562755 -0.18177553
-0.13383678 -0.016564757 -0.022739742 0.21760848 0.023860576 0.16755949 0.16862838 -0.0848962
0.026496757 0.13736907 0.18953344 -0.04949634 -0.264724 -0.067556545 -0.12591647 -0.1884992
-0.13750254 -0.010108919 -0.019642945 0.22761874 0.02259694 0.16945209 0.17385374 -0.088244386
0.034666386 0.14467624 0.18635318 -0.053251866 -0.27719426 -0.06908978 -0.123131424 -0.18756366
-0.14049932 -0.017262878 -0.021196274 0.22573596 0.018586263 0.17105252 0.17140535 -0.09685321
0.039226364 0.1484678 0.18375805 -0.050523445 -0.28182575 -0.06970734 -0.12234475 -0.19063371
-0.14444396 -0.016935911 -0.024672342 0.22641811 0.017371954 0.16441382 0.16748835 -0.102516145
0.04146573 0.15180746 0.1828026 -0.047922656 -0.28355557 -0.06989394 -0.124646455 -0.19147496
-0.1444555 -0.014995698 -0.024861237 0.2265524 0.017765403 0.16175419 0.16692287 -0.1059196
00000000: 795f f33c 491b 1e3d f3c7 a03d 9e07 1bbd
00000010: 1e11 d3bd a163 9fbb 8dc7 40bd 6136 82bd
00000020: bde7 1cbd 23fd 05bd 09ce 3abd c88e 9b3d
00000030: 2da8 073d c282 ab3d ed2c 973d 67cf fdbc
00000040: e3ff 063d 7e49 923d 8310 fc3d 8820 53bd
00000050: 3bd5 29be b193 a1bc 1e10 97bd 41aa e6bd
00000060: 4d76 9abd 78a5 16bd e107 56bd 9ccb 073e
00000070: 6af0 233d 0d76 013e 585f f33d e1cc 4cbd
00000080: 276b e23c 8174 bf3d 7d32 183e e246 62bd
00000090: a70d 50be 4b29 14bd 599a bbbd 2163 13be
000000a0: b426 d1bd 6103 02bd c743 34bd 49ed 2d3e
000000b0: 3322 1b3d 9533 193e fc61 103e 5b7b 80bd
000000c0: ca8d cd3c bdf2 ec3d bda7 293e 229c 5ebd
000000d0: 7899 6cbe 2b2e 49bd 6818 d4bd a792 26be
000000e0: dc35 f3bd ac39 02bd ca6a 0fbd f27a 463e
000000f0: cae0 0e3d 0b7a 263e 7418 1c3e b299 92bd
00000100: 176c bd3c e9d1 fe3d 5f32 373e c26f 5abd
00000110: 6e77 80be 3fc0 66bd cfd8 ebbd 4cc5 33be
00000120: 3b62 03be 2cba c7bc afc2 cfbc a338 553e
00000130: de93 d63c fc28 293e 661b 263e cf9d 9fbd
00000140: 87ae de3c 8e23 053e 8ac9 3a3e 3761 57bd
00000150: 4883 85be 0c43 7dbd 9be9 f6bd 5d23 3abe
00000160: 820c 09be d0b2 87bc b248 babc c2d4 5e3e
00000170: 4177 c33c b794 2b3e ebac 2c3e 0fde adbd
00000180: ba0f d93c 7aaa 0c3e 0e15 423e adbc 4abd
00000190: e789 87be 165b 8abd 3ff0 00be ef05 41be
000001a0: 77cd 0cbe e19f 25bc 3eea a0bc e314 693e
000001b0: 381d b93c d984 2d3e b706 323e 79b9 b4bd
000001c0: 57fe 0d3d 0226 143e 5ed3 3e3e a11e 5abd
000001d0: 68ec 8dbe f17e 8dbd 542c fcbd b010 40be
000001e0: 0edf 0fbe e16a 8dbc cfa3 adbc 5427 673e
000001f0: 3842 983c 6428 2f3e e284 2f3e fa5a c6bd
00000200: d3ab 203d f107 183e 122b 3c3e acf1 4ebd
00000210: 774b 90be b9c2 8ebd e28f fabd 7c35 43be
00000220: 1ee9 13be 2ebd 8abc a71d cabc 26da 673e
00000230: a14f 8e3c 195c 283e 1182 2b3e fcf3 d1bd
00000240: f8d7 293d 6a73 1b3e 9b30 3b3e 8c4a 44bd
00000250: 322e 91be 8e24 8fbd a446 ffbd 0312 44be
00000260: 25ec 13be 84b0 75bc cba9 cbbc 5afd 673e
00000270: c088 913c e4a2 253e d4ed 2a3e 60ec d8bd

module.BN_layer.running_var f4 [160]
0.0010028174 0.00064903026 0.00096223823 0.0005247107 0.00091637066 0.0003020783 0.0008325903 0.00024401402
0.00019063348 0.00090996036 0.0009131866 0.00028993597 0.0002699773 0.00035046256 0.00081279315 0.0007000382
0.0024635508 0.0012408851 0.0031839926 0.0015013103 0.0025365113 0.00075402996 0.0017056568 0.0005701166
0.00041443048 0.0017974859 0.0021529354 0.00085292873 0.0008131435 0.000592423 0.0020737934 0.0023277102
0.0040627955 0.0016840742 0.005529989 0.002447566 0.0040055285 0.0014789263 0.0029528637 0.0009689245
0.0006192514 0.0024559067 0.0037398834 0.0015215733 0.0015016315 0.001030448 0.003691231 0.003836016
0.0045872005 0.0018914634 0.0068907025 0.0035650225 0.0055937255 0.0017200309 0.0030281832 0.0015998691
0.0008411451 0.0032870898 0.0044857184 0.0021379015 0.0022447826 0.0012950457 0.004731436 0.0052045817
0.0052455296 0.0019524653 0.008205898 0.0038414118 0.0059386203 0.0018744108 0.0032469707 0.0019407407
0.0010856243 0.0033214088 0.0055486728 0.0025387916 0.0023630175 0.0015212512 0.0047904737 0.006162473
0.0054938667 0.0021708293 0.008287173 0.004258633 0.0060740784 0.0017668359 0.003082542 0.0021433462
0.0011520763 0.0031138607 0.005691967 0.0027501693 0.0023480945 0.0014957259 0.004227023 0.00680586
0.0049638078 0.0022657122 0.008913373 0.0045770323 0.006920445 0.0019457847 0.0032417253 0.002484882
0.0011890407 0.0031301056 0.0061590928 0.002528795 0.0028573005 0.0017611216 0.004263681 0.006569566
0.0053530335 0.002189338 0.008656231 0.004979987 0.008168759 0.0020387266 0.003445454 0.0029178166
0.0011532756 0.003886029 0.0059501915 0.0026601497 0.002859489 0.0023134165 0.0045692315 0.0062434734
0.0054654847 0.0020203989 0.009131426 0.0051801037 0.0073278653 0.0019812153 0.0035337175 0.0029091847
0.001196585 0.0039093075 0.0059090676 0.0028684048 0.0027417818 0.0023110595 0.0045871353 0.0064637936
0.0053682853 0.0024991492 0.009416813 0.0053309323 0.007997251 0.0019612322 0.0036705274 0.0030017642
0.0014108774 0.0041858777 0.0059481203 0.0032248104 0.0030599982 0.0023342592 0.004475737 0.007327924
00000000: f870 833a af23 2a3a b73e 7c3a bd8c 093a
00000010: 9838 703a 4360 9e39 3042 5a3a 04de 7f39
00000020: c9e4 4739 688a 6e3a ea62 6f3a 8c02 9839
00000030: bd8b 8d39 4abe b739 a011 553a c582 373a
00000040: 8673 213b 32a5 a23a 88aa 503b 9dc7 c43a
00000050: 993b 263b 18aa 453a 5890 df3a e173 153a
00000060: eb47 d939 9e99 eb3a 4318 0d3b 1497 5f3a
00000070: 2329 553a d64c 1b3a 7be8 073b 7f8c 183b
00000080: 3321 853b 27bc dc3a e934 b53b 5867 203b
00000090: cf40 833b 88d8 c13a d584 413b 6cff 7d3a
000000a0: 4255 223a 47f3 203b d518 753b 876f c73a
000000b0: 64d2 c43a 1910 873a 94e8 713b ab65 7b3b
000000c0: 3a50 963b fbea f73a 67cb e13b 27a3 693b
000000d0: 924b b73b a972 e13a 7c74 463b b3b2 d13a
000000e0: 4b80 5c3a 376c 573b effc 923b 091c 0c3b
000000f0: 341d 133b 86be a93a 290a 9b3b 328b aa3b
00000100: b1e2 ab3b dde9 ff3a 0872 063c 32c0 7b3b
00000110: c298 c23b caae f53a 21cb 543b 7460 fe3a
00000120: 824b 8e3a feab 593b a4d1 b53b db61 263b
00000130: dbdc 1a3b b864 c73a 68f9 9c3b 92ee c93b
00000140: e505 b43b 7944 0e3b ecc6 073c 018c 8b3b
00000150: 1009 c73b 2d95 e73a 7904 4a3b 6277 0c3b
00000160: 4401 973a ea11 4c3b ae83 ba3b 2f3c 343b
00000170: 7de2 193b 3c0c c43a d782 8a3b b103 df3b
00000180: 70a7 a23b 587c 143b 6509 123c eefa 953b
00000190: e6c4 e23b b309 ff3a 2073 543b 67d9 223b
000001a0: 96d9 9b3a 7522 4d3b 37d2 c93b 24ba 253b
000001b0: 8c41 3b3b 6fd5 e63a 59b6 8b3b 8445 d73b
000001c0: 8068 af3b ff7a 0f3b ddd2 0d3c 292f a33b
000001d0: 42d6 053c 289c 053b 20cd 613b d738 3f3b
000001e0: 8229 973a bfac 7e3b d3f9 c23b e855 2e3b
000001f0: 4466 3b3b b09c 173b 7eb9 953b 0d96 cc3b
00000200: cf17 b33b ab68 043b fa9b 153c dcbd a93b
00000210: 971e f03b 47d7 013b f195 673b 05a8 3e3b
00000220: bbd6 9c3a a619 803b daa0 c13b d9fb 3b3b
00000230: 77af 333b 2575 173b ae4f 963b 3bce d33b
00000240: 71e8 af3b c4c8 233b fa48 1a3c 1aaf ae3b
00000250: e706 033c 0488 003b 3b8d 703b 3fb9 443b
00000260: 31ed b83a b029 893b 73e8 c23b 5757 533b
00000270: 408a 483b 5ffa 183b 34a9 923b 151f f03b
