Stage2_pickedmodel/Stage2_LSTMAgegen_MDDSZ/model_epoch_162.pth (torch, 86647 bytes, 14 tensors)

module.LSTM_layer.weight_ih_l0 f4 [64, 256]
00000000: 50ce fa3c d17f 10be 0bb6 b0bd d2ee 2a3e
00000010: de93 19be fb15 26be e084 553e 772b 39be
00000020: 755f 343e 74e7 6a3e a9b7 0f3e 7217 05bd
00000030: 3009 90bd 38a8 2b3e 560d 39bd 18d8 14be
00000040: 8107 2e3e 88d3 b83d 8313 16bd 55f3 72be
00000050: 58e2 57be 40a8 07be 1d4a a03d 68c7 2fbe
00000060: f631 b5bd 7500 a7bc efdf 8e3b 0d24 dbbd
00000070: b191 8c3d 465f b53c b975 953d d061 f83a
00000080: 02f9 68be a988 b4bc 5b57 adbd ff62 28be
00000090: cd19 eb3d d856 72be d27e 79be 5bbf 183e
000000a0: e57a 3b3e cc12 5ebe e544 bd3d 4fa5 11be
000000b0: a756 b9bd 6a24 8d3c cb23 bd3d 007d 0fbe
000000c0: d57f 38be b6ed 143e f73c 713e d41c 4d3e
000000d0: 7d6a 2dbe 8669 e03d a208 053e 9a0b df3a
000000e0: fa93 54be c8c1 e4bd 627d f1bc 0a5c 533d
000000f0: 423c 3f3e 8424 08be 2630 14be 29c6 63be
00000100: 09ed b8bd fa9a 47be dc6c 85bd 5d1a 54bd
00000110: 4933 f1bd 0c3d 6cbe d3f5 9d3c 847a 543e
00000120: f1dd da3d 4b5b cfbd 9e92 413e 3ef5 143e
00000130: 6844 e8bd 2260 12bd fa9c 36be 20f7 643e
00000140: 640b 0b3e b549 b93c 9ea0 9abd 2beb 5dbe
00000150: 37e9 dbbb 3ba1 643e bdd6 35bc eeda 373e
00000160: 4471 0a3e da19 493e a77e 593e 384e e6bd
00000170: 8ec3 94bc be2e 0ebe f4d9 a8bc 43be f1bd
00000180: a30e 573e b375 3cbe e189 123e e7ac 0cbe
00000190: 873c 2a3d ac4a 97bd 9203 543e f023 303d
000001a0: ebb2 00be a310 13be bfd5 e73d b04a 67be
000001b0: ec4d 13bd 7acf 2abe eeeb 4d3d 4fe1 92bd
000001c0: 7f05 06be 867d a23d 7f31 963d 30aa 5d3e
000001d0: 7fa6 72be 80c2 14be 5472 5b3e 258f ab3c
000001e0: 6a96 5e3e 4b18 603d 9df5 823e af3c abba
000001f0: 5eea adbc 410c 35be 609a 393e c38f c9bd
00000200: 99af 383e 8277 8d3d 4449 523e 6da7 1bbe
00000210: 84b6 5ebd 8795 76be 4985 3cbd 76cc ad3d
00000220: c9c5 5a3d b398 5b3d f4f9 1a3e af6b 5e3d
00000230: 9f13 58be 5951 413e 444d 393e f997 393e
00000240: 3d81 6abe c5da ebbd ab5b 4e3e 5af7 80ba
00000250: 5878 dcbd b634 cf3d c7d4 a2ba 6e7e ecbd
00000260: 8fd5 4b3e e050 29be 6454 a1bc bbea 513e
00000270: 7563 4f3c a3d0 1b3d 1aff 8cbd 1204 153e
00000280: e95e 853d 4714 9d3c 0889 55be 4fee d53c
00000290: 2588 ef3c b745 60be 8527 a13d b005 3abe
000002a0: f006 84be b8ac bebd 5fd5 353e 9065 97bd
000002b0: 365d 05be cd5e 06bc 610d 513d 0ba5 fd3d
000002c0: 4613 103e 1016 2abe 24e9 12be 523e 313e
000002d0: b387 0e3d 476e 303c 5530 c1bd e4ab 7fbe
000002e0: e396 7dbd 4af3 aabd 6b40 053d 7f06 89be
000002f0: 4b63 a3bd ef5b b03d f8ea 66bd 847a 7b3e
00000300: 9d6a c5bc fad3 b33d 4582 4fbe 7cc2 123e
00000310: a794 4a3e 1435 033e e64d 5abe 2e59 91bd
00000320: 45f2 5c3d 6a04 2bbe d3a5 7dbd 1bd9 3bbe
00000330: a81d 093e c969 c43d 1d2b a7bd 5fca d8bb
00000340: 88e9 883d c0d7 5f3d a1ea e5bd 4998 1f3e
00000350: 8618 fdbd 2406 f4bc 6252 f43d e1c5 103e
00000360: 7da9 213e 0ad8 3d3e 7052 19be 3556 593e
00000370: ee07 4b3d b662 7d3e ebf5 fb3d c037 313d
00000380: cc88 f0bc 72fd 2ebe 356e 193c 4ef1 083e
00000390: 86ab 723e cb2b 5e3e 8053 d93d c531 27be
000003a0: a889 593d 5e11 6bbd ab86 23be 6414 153e
000003b0: e1b4 293d 990d e1bd 990d 80be 1aa2 28be
000003c0: a001 223d 2ea0 5b3d 5a4e 0bbe fde3 673e
000003d0: 15e4 36be fb11 9a3d 2993 e33d 18e4 db3d
000003e0: 09ba 263e 045c 5fbd f5de b23d d9b1 36be
000003f0: 96d2 2fbe 5b4a 5abe 3464 bebd 106f 88be
0.030615956 -0.14111258 -0.08628472 0.16692665 -0.14997813 -0.16219322 0.20851469 -0.18082987
0.17614539 0.22939855 0.14034905 -0.032493062 -0.070330024 0.16763389 -0.045178734 -0.14535558
0.1699505 0.090247214 -0.0366397 -0.23725636 -0.21082437 -0.13247776 0.07826636 -0.17165911
-0.0884742 -0.02038596 0.004360191 -0.107002355 0.06863726 0.022140156 0.072978444 0.0018950049
-0.22751239 -0.02203782 -0.08463927 -0.16444014 0.114795305 -0.23665941 -0.24364784 0.14916746
0.183086 -0.21686858 0.09241656 -0.14223216 -0.09049731 0.017229278 0.092353426 -0.14012527
-0.18017514 0.14543805 0.23558412 0.20030528 -0.16935153 0.10957627 0.12991574 0.0017017007
-0.20759574 -0.11169773 -0.029478732 0.051601447 0.1867533 -0.1329518 -0.14471492 -0.22243561
-0.09029586 -0.19492713 -0.06514904 -0.051782954 -0.1177736 -0.23070163 0.019282257 0.20749861
0.10686863 -0.101248346 0.18903586 0.14546677 -0.113411725 -0.03573621 -0.1783332 0.22359896
0.13578564 0.022618154 -0.075501665 -0.2167174 -0.006711151 0.2232713 -0.011098561 0.17954609
0.1351977 0.19638768 0.2123972 -0.11245388 -0.018159654 -0.13885018 -0.02061174 -0.11803868
0.21001677 -0.18404274 0.14310409 -0.13737832 0.04156163 -0.073872894 0.20704487 0.043003023
-0.12568252 -0.14361815 0.11320066 -0.22587085 -0.035962984 -0.16680709 0.05027383 -0.071718805
-0.13088034 0.07934098 0.073336594 0.21646953 -0.23696326 -0.14527321 0.21430331 0.02094228
0.21737066 0.054710668 0.25578013 -0.001306435 -0.021229919 -0.17680456 0.18125296 -0.098418735
0.18035735 0.0690756 0.20535761 -0.15200587 -0.05437328 -0.24080478 -0.046025548 0.084862635
0.05341128 0.053612422 0.15134412 0.054301914 -0.21101235 0.18878688 0.18095881 0.18124379
-0.22900863 -0.11516336 0.20152156 -0.0009839342 -0.10765141 0.10117476 -0.0012423032 -0.11547552
0.19905685 -0.16534758 -0.01969356 0.20499699 0.01265799 0.03804077 -0.06884594 0.14552334
0.06512243 0.019174708 -0.20853055 0.026114611 0.029239723 -0.21901594 0.07868866 -0.18166232
-0.25786543 -0.09310287 0.17757176 -0.073924184 -0.13023838 -0.008201313 0.05103815 0.12384995
0.14069852 -0.16609979 -0.14346749 0.1730893 0.03479738 0.01076848 -0.09433047 -0.24967915
-0.061911475 -0.08347185 0.032532137 -0.2676277 -0.07977923 0.08611285 -0.056376427 0.24558455
-0.024098689 0.08780666 -0.20264538 0.14332002 0.19783269 0.12813216 -0.21318778 -0.07097088
0.053941984 -0.16700903 -0.06192572 -0.18344538 0.13390219 0.095904894 -0.0816252 -0.0066159214
0.066851676 0.054649115 -0.112263925 0.15585436 -0.12358193 -0.029788084 0.11929776 0.14137985
0.15787311 0.18539444 -0.14972854 0.21224292 0.04956811 0.24744686 0.123027645 0.043266058
-0.029362105 -0.17088869 0.009364654 0.133733 0.23698243 0.21696393 0.106116295 -0.1632758
0.053109795 -0.05738961 -0.1596934 0.1455856 0.041432265 -0.10988922 -0.25010374 -0.16468087
0.03955233 0.053619556 -0.13604107 0.22645564 -0.17860444 0.07522961 0.11112053 0.10736865
0.16281904 -0.054531112 0.08733932 -0.17841281 -0.17170176 -0.21317427 -0.09296456 -0.26647234

module.LSTM_layer.weight_hh_l0 f4 [64, 16]
00000000: 07a2 4f3e 3d66 353e 3f18 e1bc 4fc6 1cbe
00000010: 6d14 5bbe f09e 693e 2062 913d afdd 61be
00000020: b942 44bd 37ee 6abe 9fe5 6a3d 3157 723e
00000030: ad66 3bbd a66a 45be 812b d5bc 9ab9 773e
00000040: ee65 163e bb28 613d 05ca c6bd 451d 08bd
00000050: ff4d d7bd 2435 59be 5497 8ebd 1c09 7abe
00000060: c997 c8bd 2cfd 643e 13ed 00bd 7c9c d43d
00000070: fd55 203e 8a21 383e d804 343e 44a4 1d3e
00000080: 35c0 633b e683 22be db52 06bd 0f4a 66be
00000090: 2def 153e 6c61 a53d 1f51 8dbc 6d77 38be
000000a0: 0a86 833d cef1 223e 3a6e 78be b0db 3f3e
000000b0: 62ba 06bd 1799 4cbe 9ad5 83be c6d0 1cbe
000000c0: fcdb 80bd 15cf 26be 6fc0 8cbe 3aec 3b3d
000000d0: 926c 553e 86bb 08be 87fc 213e 6c9b 2bbd
000000e0: ce79 713e 945e 833d d191 2b3e 26a9 fdbd
000000f0: f3f4 293e 7d45 5d3e d8d6 e9bd 24c6 82be
00000100: 911a 32be d5a4 353d 30d2 7ebd a1f2 6f3d
00000110: d3c1 20be a1e9 bf3d 7663 313d e037 013d
00000120: 1b7a 44be dff3 24be 5a45 6cbe 6ef6 643e
00000130: 9aba 133e 858d 9abc 7b7a 853e a8c2 0b3e
00000140: 318c 07be dded 8c3c 1ece 3d3c 5f35 42be
00000150: e13d 613e 5ca0 03ba d1b8 a83d df71 283e
00000160: 71bd 693e 0b16 553e 2b74 3b3c aa2a ba3c
00000170: 2221 033e 5995 e8bd 81ee 0b3e 00c5 ce3d
00000180: d8c7 76be 2fd7 66be 3702 ef3b 424e 1f3d
00000190: dfa9 51be 5ded d93d c2b6 75be 1589 8abc
000001a0: 44ec 623e bfbc 503d 077e 7dbe 449a b7bd
000001b0: 54c4 cd3d 1da4 5c3b 6981 4f3e 1aa2 5abe
000001c0: df77 2f3e 4e19 1f3e ee52 3a3e 7aa7 73be
000001d0: 63c1 673d e20c c4bd 661c 1bbe 0a30 853e
000001e0: 6d6e 3fbe dfa3 51be fbfc 473e 0cf2 3f3e
000001f0: 21b2 05be ede0 58be 2724 84be 1c0d 0f3d
00000200: 8b92 c83d 6c3a 92bc 66e7 073e adb6 3a3d
00000210: 4bf7 863d 51de 63bd a651 733e de29 9dbd
00000220: 22e9 8e3e 3ff9 7cbe 8a79 dbbd 6be3 bbbd
00000230: cb4f c43c 53ef bd3d 8abb 133e 7509 4c3d
00000240: 9e84 fcbd 4890 943c d719 18bd cf88 c0bd
00000250: af98 0dbe cd59 ce3d e220 10be 409f 5e3d
00000260: c884 abbd 018d 01be 2d0c 60be c1f9 52be
00000270: 7b30 29be dfb4 8ebd c618 543e edec 313e
00000280: 3c59 11be 150e 213c 8e9f 52bc 5a35 d2bd
00000290: e234 493d 6bbc 52bc 47eb 54be 3fd8 eebc
000002a0: 82f1 f5bd 0bc0 433e 721b 6bbe 6503 51be
000002b0: c428 583e 80e7 9f3c 6616 bf3d d12f 3bbe
000002c0: ee8a 91bd e8cf 46be bddb 84bd dc38 683e
000002d0: fbc5 083c ce01 213e d5d5 8c3e f258 f3bc
000002e0: 83d0 1cbe ba02 ffbc d43f 37be 039f d4bc
000002f0: 2665 d63c 6094 64be 7f79 fe3d f326 df3d
00000300: 8764 70be cd3e 2f3e 081e cdbd b05d b03d
00000310: 22c5 4dbe 5d56 11be 3397 403c 2cdf 1b3e
00000320: f1fc 6a3e c4e4 a93d 9693 48be 1dff 503e
00000330: 1f9a ff3d d3c1 973d 6e8f 24be 20fa 313c
00000340: 39dc 143e d4ee b23d da1b 903e e63f 8cbd
00000350: b088 413e 88d9 0abe 7ad3 203e 73b3 933d
00000360: fe19 413e 21c0 433e c4a6 57be 13ad 043e
00000370: 6dab 433e c1de 7cbe 2e99 07be fa65 543d
00000380: 4c81 563e aaa3 5ebe 027d 073e 0a4c e53d
00000390: 4651 3ebd 8728 6f3e cb07 c7bd 24be 453e
000003a0: ad85 2abe cdb7 7dbe 1597 743c 62fa 7cbe
000003b0: 4c48 d0bd 8b7c 9e3d 5386 913d 4165 77be
000003c0: 06c3 0abe d30e 483e 9bf4 f9bd f8a2 86be
000003d0: 2edc 4f3e d665 083e 8933 6b3d 2f07 7a3e
000003e0: 6886 18be b7df 673e c8d5 f5bc 474f 95bc
000003f0: ea3e 333e b0ee ac3d 625b 503e 7cb6 28be
0.20276652 0.17714782 -0.027477382 -0.15310024 -0.2139451 0.22814536 0.07098794 -0.22057222
-0.047915194 -0.22942434 0.05734789 0.23666073 -0.045752216 -0.19278964 -0.02602172 0.24191895
0.1468732 0.054970484 -0.09706501 -0.03323104 -0.105129234 -0.21211678 -0.06962457 -0.24417537
-0.09794576 0.22362202 -0.03147609 0.103814095 0.15657802 0.17981544 0.17579973 0.15394694
0.0034752015 -0.15870628 -0.03279386 -0.22489189 0.1464202 0.080752224 -0.017250596 -0.18014307
0.0642205 0.15912554 -0.24260798 0.18736148 -0.032892592 -0.19980274 -0.25748903 -0.15314016
-0.06291959 -0.16289933 -0.27490565 0.04587958 0.20842198 -0.13352785 0.15818988 -0.04189627
0.23581621 0.06414524 0.16754843 -0.12385778 0.16597347 0.21608539 -0.11417931 -0.25541794
-0.17392947 0.04434665 -0.06221217 0.058581 -0.15698938 0.09370733 0.043307744 0.031547427
-0.19187205 -0.16108654 -0.2307333 0.2235963 0.14426652 -0.01886631 0.26070008 0.13648474
-0.13237073 0.017203266 0.011584787 -0.18965672 0.21996261 -0.0005021149 0.08238376 0.16449688
0.22826172 0.2080919 0.011441271 0.022725422 0.12805608 -0.11356611 0.13665201 0.100961685
-0.24099672 -0.22543024 0.007293965 0.03889299 -0.20474957 0.106409766 -0.23995498 -0.016911069
0.2216044 0.050961252 -0.24755107 -0.08964971 0.10047212 0.0033667155 0.2026421 -0.213509
0.17135571 0.15536997 0.18195698 -0.23794356 0.056580912 -0.0957277 -0.15147552 0.26013213
-0.18694468 -0.20472668 0.19530098 0.18744677 -0.13056232 -0.21179552 -0.25808832 0.03492461
0.09793576 -0.017850123 0.13271865 0.04558437 0.06590136 -0.05563194 0.23761615 -0.07674001
0.2791224 -0.24704455 -0.10716541 -0.09174236 0.02396383 0.09274163 0.14427009 0.049813706
-0.12329982 0.018135205 -0.037134018 -0.09401094 -0.13827775 0.10075722 -0.14075044 0.05435109
-0.083749354 -0.12651445 -0.21879645 -0.20603086 -0.165224 -0.06968092 0.20712575 0.17375536
-0.14194196 0.009830018 -0.012855424 -0.10264082 0.0491227 -0.012862305 -0.20792876 -0.029155849
-0.120089546 0.19116227 -0.22959688 -0.20411451 0.21109301 0.019519567 0.09330444 -0.1827996
-0.07106577 -0.19415247 -0.06487224 0.2267794 0.0083479835 0.15723345 0.2750689 -0.029705498
-0.15313916 -0.03112923 -0.17895442 -0.025954729 0.026171278 -0.22322226 0.12425517 0.10896101
-0.23475848 0.171138 -0.10015494 0.086116195 -0.20094731 -0.14193101 0.011754799 0.15221852
0.22948052 0.08295587 -0.1958755 0.20409818 0.12480568 0.07410016 -0.16070339 0.010862857
0.14537133 0.08736959 0.2814625 -0.06848125 0.18899798 -0.13559544 0.15705672 0.072119616
0.18857571 0.1911626 -0.2105971 0.12956648 0.19108362 -0.24694349 -0.13242027 0.051855065
0.2094776 -0.2174212 0.1323128 0.11196144 -0.046464227 0.23355304 -0.09718283 0.19310814
-0.16652556 -0.24777146 0.014928599 -0.24704888 -0.101700395 0.077385984 0.071056984 -0.24159719
-0.13550958 0.19536905 -0.12204858 -0.2629621 0.20298836 0.13320097 0.057422195 0.24416803
-0.14895022 0.22643934 -0.030009165 -0.018226279 0.17504469 0.084439635 0.2034736 -0.16475862

module.LSTM_layer.bias_ih_l0 f4 [64]
00000000: 96ea c83d d24c 05be 44fc dd3d f816 fdbd
00000010: 034e 42be 8091 f5bd d876 21be 4332 6dbd
00000020: 50bd 06bd 289b 683e 0060 3f3c 0a0d 7c3c
00000030: d41e 30be 01a3 96bb 2fa7 253e ccbb 69be
00000040: 4029 f6bd 84e5 a9bd 625a 123e e0b4 6f3e
00000050: c08e 863e 82f3 523e 68b5 ebbc 04d6 d7bc
00000060: e694 653d 7421 4cbe fe72 55be 1e03 073e
00000070: fc99 4cbe ac24 7e3d 9c0d 48be a78f 02be
00000080: b781 4cbe 6538 70be 7ee1 253e 087e cf3d
00000090: 8d92 583e e9c8 2abe 7fd6 d83d 8ca5 0c3e
000000a0: c393 743e 91ed 2ebe 2920 6fbe 5a42 f33d
000000b0: 2c86 5e3d 4a35 843d f860 92bd a453 ba3d
000000c0: 4eae 6d3e 3574 833e af0c ffbb bb4e 5fbe
000000d0: 95fe d23d 0311 25be d105 7cbe 2741 b03d
000000e0: 1dd7 453d c3e7 a03d a20c b53d 874a 3e3e
000000f0: 352d 583e f102 2d3e 754e 313d 3e75 793d
0.09810369 -0.13017586 0.108391315 -0.123578966 -0.18975072 -0.119906425 -0.15767992 -0.05790926
-0.032895386 0.22715437 0.011680603 0.015383968 -0.1719926 -0.0045970683 0.16177057 -0.22825545
-0.120195866 -0.0829573 0.14292291 0.23408842 0.26280785 0.20600703 -0.028773025 -0.026347168
0.056050204 -0.19934636 -0.20844647 0.13184783 -0.19980615 0.06204669 -0.19536442 -0.12750112
-0.19971357 -0.23459013 0.161993 0.101314604 0.21149655 -0.16678204 0.10587787 0.13735026
0.23884492 -0.17082812 -0.23352112 0.1187789 0.054327175 0.064554766 -0.071474016 0.090979844
0.23211023 0.25674596 -0.0077834944 -0.21807377 0.10302464 -0.1611977 -0.24611594 0.08606177
0.04830085 0.07856705 0.088403 0.18583117 0.21110995 0.16895653 0.043287713 0.060902826

module.LSTM_layer.bias_hh_l0 f4 [64]
00000000: fdd4 14be 5de1 6f3e fe77 4b3d 44bd 1dbd
00000010: a7b8 64be dd4e 0abe ad6f 93bd 4ddc 1f3d
00000020: ebe1 88bd 1ea4 28be ad49 513e f859 48be
00000030: 3a5e 98bd 0cd5 7abe cc9b 9cbd 5816 b6bd
00000040: 9633 a53c a38d 623e 3b4f ffbd 8673 52bb
00000050: 5d59 713d bdd2 43be b44a 733e d203 3c3e
00000060: 0e83 0fbe d785 3dbd d056 0a3d e28e 3d3e
00000070: 2e08 e2bd d16b a03d 6633 23be 5072 7bbd
00000080: 45d5 943d 4d70 16bd ae2d 47be 68d8 813d
00000090: 59df 383e e651 c2bd 8ae3 0b3d 88f2 123e
000000a0: 5be0 653e ffa7 5abe 6419 523e 5ca4 0f3e
000000b0: c43a 14be 570d 4dbe 8706 443e a40a adbd
000000c0: 8531 1e3e bf51 883e cfd6 b9bd 58df 56be
000000d0: 6c03 05be 85b5 adbd 50c7 8fbd abce 16be
000000e0: cbf8 5a3e e547 463e ec1e 243d 450d 03bd
000000f0: a290 a43d 74ec 013e 074e 613e 61e3 143e
-0.14534374 0.23425813 0.04967498 -0.038510576 -0.22336064 -0.13506646 -0.07199035 0.039028455
-0.066837154 -0.16468856 0.20438261 -0.1956557 -0.07439847 -0.24495333 -0.076469034 -0.088909805
0.0201662 0.22124343 -0.12466284 -0.0032112314 0.058923114 -0.19123359 0.23758966 0.18360832
-0.14014837 -0.046270218 0.033774197 0.18511537 -0.110367164 0.07833064 -0.15937576 -0.061388314
0.072672404 -0.036728192 -0.19451019 0.06340104 0.1805395 -0.09488277 0.034152545 0.14350331
0.22448866 -0.21353148 0.20517498 0.14027542 -0.14475542 -0.2002462 0.19143115 -0.08449295
0.15448578 0.26624867 -0.090741746 -0.20983636 -0.12989587 -0.08481888 -0.07020438 -0.14727275
0.2138397 0.19363363 0.040068552 -0.031995077 0.08035399 0.12687856 0.22002421 0.14539863

module.LSTM_layer.weight_ih_l1 f4 [64, 16]
00000000: b050 44be f924 62be 859a c9bc f1e3 bbbd
00000010: 5590 91bd 972f b03d 9aa2 493e e1c2 bfbd
00000020: 2d85 b73d ddec bdbd 6456 3e3d 3e93 6a3c
00000030: 6f69 88bd 7fc3 463e 5c48 043e d1b4 0dbd
00000040: 71e6 cd3c 9819 39bd 7f17 aabd 2d6e 86bc
00000050: 1152 c8bc b2be 663d 8b8e 1bbe 5113 7b3e
00000060: f169 823d 452f a53d c19f a4bd bad6 bcbd
00000070: 85f9 193e dbfa 673e 7084 0f3e 0f63 303e
00000080: f025 5fbd dbba f73d 6f21 2e3d ed68 dcbd
00000090: 628a d13d 3866 42be d65b 4d3d eef8 70bd
000000a0: e103 92bd ddfa 4e3e e930 653c f7d9 e4bc
000000b0: cc26 473e 6eac 6a3e fe66 923d 5d40 05be
000000c0: d72b 6fbe 99e5 5dbe cb19 3dbe 80a4 adbd
000000d0: 18d5 4bbe a9d6 903d 1e4f 55be ec4b eb3d
000000e0: 5e2c 77be 616b b6bd 1520 1abc aa5b 7b3e
000000f0: 8f37 783e d76d 66be de50 99bd 9361 863d
00000100: cf6f 16be a6c3 7c3d 5480 433e cc6e 323d
00000110: ac02 3f3e f692 8b3d 9ba8 313e 01ca cebd
00000120: 6774 d0bc f83e 463e 42f0 013e d17c 813e
00000130: 2c1e 2c3e 9672 84bd ce10 d83d 5027 51be
00000140: 01de efbd 9654 583d f935 313d 5e47 b0bd
00000150: c3a4 443c a427 413e 6ff6 24be 6abe ee3c
00000160: 5464 793d 18cb e03d 6b56 5d3e b701 723e
00000170: f5e1 97bd 2107 01be 294b 803e 28ba de3d
00000180: 6c07 b63c 841c ca3b de5b 36be 3d0a 68be
00000190: 1aa1 253e f9fe 5d3e 0c4a e43d 7acd 6dbe
000001a0: 3965 5fbc 31e3 03be 39de 3bbe a135 7f3d
000001b0: d747 a1bd e933 273e 3c07 13be 016d dcbd
000001c0: 5d73 cdbc 4500 2dbd 6ba5 f0bd ce77 a13c
000001d0: 3497 e53d 0c7d 203e d887 8dbd 6a6c 07be
000001e0: 91a3 bd3d 55ee 9fbd adf2 483e 1fc6 fb3d
000001f0: a5c2 cbbd ec78 073e a656 023e ad81 e43c
00000200: c388 debd 5a13 51be 5a9e 0abe 10eb c0bd
00000210: c0e0 a23d 38b9 2d3e 4094 21be 3f49 3d3d
00000220: b825 4dbe 1a4d f0bd 2f2a 523e 1665 9abb
00000230: 4541 05be b975 2a3e 6955 1e3e 8513 36be
00000240: de60 f9bd 8270 53bc 6dbe fc3d 4703 fb3d
00000250: ebe2 c03d b520 6b3c 700f a13d d161 a9bd
00000260: 96ac 1a3e 20a9 a13d e6fc 303e 3673 cfbd
00000270: 1f77 92bd 6ee7 983a 6e2b a6bd 2f91 48be
00000280: 45ba 4ebe 103f 2d3e 66cf 29be c3be babb
00000290: b598 5dbe e74f 81be c9ff 44be 2df7 263e
000002a0: 1404 ca3d 9cee aabd 0a95 3cbe 5a61 0dbe
000002b0: ed4f 50be 1372 13be 741b 943d f909 58bd
000002c0: bd95 acbd 04f2 b2bd ba55 47bd dbf6 803d
000002d0: af5c 1bbd 71b0 64bd 5b01 543d 7bfe a83a
000002e0: 6358 16bd c42e 9a3d 3658 7ebe 373a 60bd
000002f0: 9d4e 6abe bf79 d2bd 41be 413d ea5c 40be
00000300: 9dd6 44be 3e17 cdbd 123c ac3d b4cf 1dbc
00000310: 104f 6fbe 3f22 d1bd 3c3b 8abe 57ae 3bbe
00000320: 2a1b 453c a6e5 563b 2b01 04be 3ca2 133e
00000330: b503 543e 4ac4 b43d bce3 10be 27a0 45be
00000340: 8a91 163e b958 1fbe 26a3 e83c f147 70bd
00000350: fdc1 283e 0bfe 383e f446 143e 559d 433e
00000360: 4d01 01be c150 333e 769d babc 5510 f43d
00000370: 3748 103d 12be 3d3e d5f4 dfbd 37ad 98bd
00000380: 23ed 59bd c91a 403e 307c 10be 7436 25be
00000390: 2216 0dbd 41e8 9ebd 5495 423e 2523 44be
000003a0: 43f1 863e 9876 383d 3f98 9b3d 1590 693e
000003b0: f673 11be 98f5 1ebd 2145 1ebd dedd 133e
000003c0: 7467 31be b16a f1bc ec0f 3f3e 29bd 263d
000003d0: be7f 3ebe 4956 6e3d 24c2 09be 8bc5 213d
000003e0: c387 b1bc 8cdc 6fbd f19d 813e 505d ad3c
000003f0: 81a6 173e b030 19be 4a06 0fbd 8ea7 193e
-0.19171405 -0.22084416 -0.024609813 -0.09174336 -0.07107607 0.08602827 0.19690934 -0.09363342
0.08960948 -0.09273694 0.046469107 0.014317332 -0.06660735 0.19410513 0.12918228 -0.034596268
0.025134297 -0.045190424 -0.08305263 -0.016409958 -0.024453195 0.056334205 -0.15191095 0.24519087
0.06367863 0.080656566 -0.08038283 -0.09220643 0.1503659 0.22654288 0.14015365 0.17225288
-0.05447954 0.12096187 0.042512354 -0.107622005 0.102314726 -0.18984306 0.05013641 -0.058831148
-0.07129646 0.20212884 0.013988712 -0.027935965 0.19448394 0.22917339 0.071485505 -0.13012834
-0.23356567 -0.21669616 -0.1846687 -0.084786415 -0.19905508 0.07072193 -0.20830962 0.1148909
-0.24138018 -0.089072 -0.009407063 0.24546686 0.24239944 -0.22502838 -0.07486127 0.065615796
-0.14691089 0.061710022 0.19091922 0.043562695 0.18653363 0.0681514 0.17349474 -0.10097123
-0.02544613 0.19359958 0.12689307 0.2529054 0.16808385 -0.06467168 0.1055008 -0.20425153
-0.11712266 0.052815042 0.043264363 -0.08607362 0.012002173 0.18862778 -0.16109632 0.02914353
0.060886696 0.10976237 0.21614997 0.23633467 -0.07416145 -0.12600376 0.25057343 0.1087535
0.022220336 0.00616795 -0.17808482 -0.22660156 0.16174737 0.21679296 0.11146936 -0.23222914
-0.013634973 -0.12879635 -0.1834649 0.062307004 -0.078750305 0.16328396 -0.14358228 -0.10762978
-0.025079424 -0.042236585 -0.11750301 0.019710448 0.1121048 0.15672702 -0.06910676 -0.1322495
0.092597134 -0.0780913 0.19623823 0.12293648 -0.09949235 0.13229722 0.12728366 0.027893865
-0.10865929 -0.20417538 -0.13536969 -0.094198346 0.07953024 0.16965187 -0.15779209 0.04621243
-0.2003392 -0.11733456 0.20523904 -0.0047117574 -0.1301318 0.1664647 0.15462269 -0.17780884
-0.12176679 -0.012905242 0.12341008 0.122564845 0.09418281 0.01435106 0.078642726 -0.0827061
0.15104899 0.07893586 0.17283973 -0.101293966 -0.07151627 0.0011665651 -0.08113752 -0.19586633
-0.20188244 0.16918588 -0.16583022 -0.00569901 -0.21640284 -0.25256273 -0.192382 0.16305228
0.09864059 -0.083462924 -0.18416229 -0.13806668 -0.2034299 -0.14398985 0.07231799 -0.052743886
-0.08426998 -0.08737567 -0.04866574 0.06297084 -0.037930187 -0.05583233 0.051759105 0.0012893224
-0.036705386 0.07528451 -0.24838337 -0.054743018 -0.22881551 -0.102771275 0.04730058 -0.18785444
-0.19222493 -0.10014199 0.08409895 -0.00963204 -0.23370004 -0.1021161 -0.26998317 -0.18328224
0.012030402 0.003279069 -0.1289107 0.14417356 0.20704539 0.08826502 -0.14149374 -0.19299375
0.14703956 -0.15561189 0.028398108 -0.05866236 0.1648025 0.1806566 0.14480191 0.19102986
-0.12598152 0.17511274 -0.022780161 0.119171776 0.03522512 0.18529537 -0.1093537 -0.07454913
-0.053204667 0.18760218 -0.14109874 -0.16134053 -0.034444936 -0.07759143 0.19002277 -0.19154032
0.26355943 0.045034975 0.07597398 0.22808869 -0.14204392 -0.038808435 -0.038640145 0.14440104
-0.1732462 -0.02946982 0.18658417 0.04070774 -0.18603417 0.058187757 -0.13452965 0.039495032
-0.021671182 -0.05855994 0.25315812 0.021162659 0.1480961 -0.14959979 -0.034918107 0.15005323

module.LSTM_layer.weight_hh_l1 f4 [64, 16]
00000000: 09db 843d facf 1d3e 7f8c ebbd 8b3c bdbd
00000010: 4a73 613e 1c4e 0fbd 0d59 70be c989 1d3e
00000020: 7d03 7d3e 8aed e6bd bd72 9cbd 7bff 7bbe
00000030: ace6 0cbe 9c7c d73d c487 49be 0432 1b3c
00000040: 8abf d63d ce6b 3b3e c466 42bd e514 7dbe
00000050: 6ef2 503e bdb9 0b3e df8e 52be fcbb d6bd
00000060: 054e 183e 7d69 c0bc 7709 f33c 6bc3 d13d
00000070: 3fca 473d 3d91 1abe 7564 153e f73e 5dbc
00000080: 9149 f33c 619f 32be 159c bc3d cce8 453d
00000090: 6cb8 173d a37e 4ebe 56e8 263e 7aba 7abd
000000a0: 9322 29bc 1a80 243e 6c10 43be c936 763e
000000b0: 9b49 72be 5be5 2f3d d5b4 3bbe 924d 8ebd
000000c0: 7636 debd 847f 3e3e 649b 55be 8e12 21be
000000d0: 2948 2b3e 30a2 2a3e 6504 0bbd 043e 0e3e
000000e0: 8f8c 213e 5a63 513c 74ea f43d e437 80bd
000000f0: d25e 17be 74c3 9c3b 5708 5f3e 9da8 a83d
00000100: afe7 42be 667a eb3d 67e0 143e 083f 87bd
00000110: a856 163e c428 82be 7fb1 073e 01ce 56be
00000120: 435d 0fbe 76dd 193e 90b6 bdbc 7478 3abe
00000130: 54b9 073e 6803 463e d099 fe3c 7287 2a3e
00000140: 9b93 f83d 20f5 143e 4431 ea3d 2618 0dbd
00000150: fdc5 1dbe 354e 3bbd 6059 c53d 714a 9abd
00000160: 4c91 a1bd 9fec 72be eb0d d8bd bb3f 52be
00000170: 4731 79bd b234 7b3e a91b 553e 5574 54be
00000180: 31e7 6dbe 453f 36be 9d3c 28be b34c c23d
00000190: 7703 87bd 93b5 d13d 4a6f fa3a b58f 5abe
000001a0: 7101 f03d ac37 643e 3ef1 fcbd a88a 0cbe
000001b0: 277b b8bd fac4 1abe 54b2 4dbd 7ced c63d
000001c0: f088 aebd 4893 64be aedb 0cbc 7681 d0bd
000001d0: 8689 5fbe f107 b63c 954b 3f3e 18eb 5c3e
000001e0: 2cd6 453d a9ea 3c3c 292d 453e 5852 2e3d
000001f0: 4466 233d b660 06be 09ab 5a3d c525 cc3d
00000200: 08ae bb3d 89ea 283e e3c6 4a3e 8d58 babd
00000210: f3f4 183e f25e 5dbd 19fd 9d3d 25ca 07be
00000220: 32be 52be 698d 6e3e 7aa2 9fbc 09e7 763d
00000230: 58ac d3bd 63c1 81bd 7eab 033e 6972 c93d
00000240: 194f 07be e91e 2b3e b91c 873c 1946 1f3e
00000250: 27f7 2e3e 7f4e f5bd 315f fcbd 7af2 febd
00000260: cea8 0dbe 30d1 8bbd 7920 043d eb1f 163c
00000270: 9f29 a43d 647b 353e f286 3e3e 3468 eb3d
00000280: 75a9 2a3e 9030 71bb 87c5 10be 3c55 adbd
00000290: eb0e fc3d 6945 c0bd b002 5cbd ffc0 163e
000002a0: 383c 46be 8bca 23bc d1b3 093e ba00 413d
000002b0: b7f4 5b3d cdc4 243e 6d71 5f3c 4b7f 2bbd
000002c0: 442e 6b3e 2b7c 61bc 8d5b 293e 04f4 d53c
000002d0: 07a7 3b3e d37c 49be e083 5c3c 20e4 acbc
000002e0: 554c 04bd 6bd3 38be 81e8 1a3e 2d7d 4fbe
000002f0: dc72 2d3e 0d26 78be a249 2bbe a775 ec3d
00000300: e273 173e a5ec 21be 4c7a 78be d9ef 533e
00000310: e285 8abd 1e3f 3ebd 21f0 86be 18fe 023e
00000320: 88e4 27bd 8bb0 acbd 0653 1d3e eff0 dfbc
00000330: 206f 0fbe 9739 01bd d269 ac3d 9528 973c
00000340: 3bc1 6b3e c13f edbd 44d6 573e fa1b 82bd
00000350: 90ac 6f3d 8f9e 073e f629 1c3e b9f6 19bd
00000360: 95f5 58be d6ea e3bc 2206 4b3e f5fc 2dbd
00000370: 17d1 5f3e a42f 063e 4e28 04be 421f ddbd
00000380: 7710 04bd 97e8 c43d 470b ea3d df98 583e
00000390: 26c8 cebd 3742 2b3d a51e d3bd ea96 aabd
000003a0: a753 143e 2d04 43be da29 a5bd e66a 27be
000003b0: 8e0e cabd 3bcf 293e d26e c3bd dd56 783e
000003c0: 638b 34be d105 733d 3aed 723e 03a0 3d3d
000003d0: fc14 0c3e 34fd 7cbe 351d de3d 0835 4cbe
000003e0: bccc ac3b f217 033d 2072 123d 8e03 39be
000003f0: 997f 33be 570b c1bd 2ec7 fb3d 52b2 e13d
0.0648709 0.15411368 -0.11501407 -0.09240063 0.22016636 -0.0349866 -0.2347147 0.15384592
0.24708362 -0.11275776 -0.07639072 -0.24609177 -0.1375987 0.10521814 -0.19680697 0.009472374
0.10485752 0.18302843 -0.047461286 -0.24715002 0.2040498 0.13645072 -0.20562313 -0.10485074
0.14873512 -0.0234878 0.0296676 0.10242351 0.04877686 -0.15094467 0.14589103 -0.0135037815
0.029698165 -0.1744361 0.09209458 0.048317716 0.037041113 -0.20165496 0.16299567 -0.061212994
-0.010323185 0.16064492 -0.19049233 0.24044336 -0.23660891 0.04294334 -0.183307 -0.06948389
-0.10850231 0.18603331 -0.20860058 -0.15729734 0.16726746 0.16663432 -0.033939738 0.13890845
0.15776275 0.012780035 0.11958781 -0.0626066 -0.14782265 0.004784042 0.21780525 0.082352854
-0.19033693 0.11497955 0.14538728 -0.06603819 0.14681494 -0.25421727 0.13251303 -0.20977022
-0.1400042 0.15025887 -0.023158342 -0.18210012 0.13254291 0.19337237 0.031079203 0.16653231
0.121375285 0.14546633 0.11435178 -0.034446858 -0.15407558 -0.04572888 0.096361876 -0.0753373
-0.07889041 -0.23723076 -0.1054953 -0.20532124 -0.06083801 0.2453182 0.20811333 -0.20747502
-0.23232724 -0.17797573 -0.16429372 0.094872855 -0.06592458 0.10239711 0.0019106653 -0.21343882
0.11719025 0.22286862 -0.12350701 -0.13724768 -0.090078644 -0.15114203 -0.050218895 0.09713265
-0.085222125 -0.22321808 -0.008597298 -0.10180943 -0.21829805 0.022220584 0.18681176 0.21574056
0.048299953 0.011530557 0.19255508 0.042558998 0.03989245 -0.1312283 0.053385768 0.099681415
0.09164053 0.16495718 0.19802432 -0.09098921 0.1493719 -0.054045625 0.0771429 -0.13260706
-0.20580366 0.23296131 -0.019486655 0.060278926 -0.10335606 -0.06335714 0.12858388 0.09836275
-0.13213767 0.1671101 0.016493188 0.15554084 0.17086469 -0.119778626 -0.12322844 -0.124485925
-0.13833925 -0.06827009 0.03225753 0.009162883 0.08015751 0.17722851 0.18606165 0.114944845
0.16666205 -0.0036802627 -0.1413785 -0.08463523 0.12307533 -0.09388239 -0.0537135 0.1472206
-0.19358909 -0.0099970205 0.13447501 0.047119834 0.053700175 0.16090699 0.013637883 -0.041869443
0.22966868 -0.013762514 0.1653883 0.026117332 0.18325435 -0.19676523 0.013459176 -0.021104872
-0.03229936 -0.180494 0.15127756 -0.20262595 0.16938347 -0.24233265 -0.16727307 0.11545878
0.147903 -0.15812929 -0.24265403 0.20696963 -0.06763817 -0.046446912 -0.2635508 0.12792242
-0.04098943 -0.084321104 0.15363702 -0.027336566 -0.14007235 -0.031549063 0.08418621 0.018451968
0.2302293 -0.11584426 0.2107783 -0.06352992 0.058514178 0.13244079 0.15250382 -0.03758881
-0.21187432 -0.02782194 0.19826558 -0.042477567 0.21857105 0.13104111 -0.12906 -0.107969776
-0.032242265 0.096146755 0.11427932 0.21152066 -0.10096769 0.041811194 -0.10308579 -0.08329566
0.14485036 -0.19044562 -0.08064623 -0.16349372 -0.09866057 0.16582958 -0.09542622 0.24251886
-0.17631297 0.05933172 0.23723307 0.046295177 0.1367988 -0.24705964 0.108454145 -0.19942105
0.0052734297 0.032005258 0.03575337 -0.18067762 -0.17529143 -0.09425991 0.1229385 0.1102034

module.LSTM_layer.bias_ih_l1 f4 [64]
00000000: 6be7 66be 1368 f3bd 8463 51be 56b1 563e
00000010: c76b 2d3d 6a85 6b3e 2b9b ecbd 9ea3 e93d
00000020: 2ef4 ad3d 4308 1c3e 49e8 02be ca89 5abd
00000030: 0c3d 81be 96ab 91bd a134 213e 99f3 683e
00000040: c647 6c3e ca87 bebd d965 3f3d d9aa ffbd
00000050: 5ba8 11bd dc93 e63b 3fe6 0abe dcda 4abe
00000060: 7e2e 26be c929 743e 2113 353e 9aad 8dbc
00000070: ef6c f23c c47e f73c 7f21 483e 18ed 2b3d
00000080: 0fe2 d33c 813d 1e3e 7eb7 3abd 272a 43bd
00000090: 5125 4ebe 58a4 143e b6e1 62be 19c2 6bbd
000000a0: 460f 473e 7214 963c a646 893e cd8e 973d
000000b0: da74 793e a01a 0dbe 90d6 123e 9543 5dbe
000000c0: a803 57be 785c c53c 96c5 80bc 8bb8 1f3d
000000d0: cf7e ae3d 8a34 55be 6659 83be fd34 00ba
000000e0: a4a6 74bc c288 d53d 2f5b bbbc aaba 59be
000000f0: 64b5 75bd 4669 4b3e b567 85be fb6b 073d
-0.22549216 -0.11885085 -0.20448118 0.20966086 0.042339113 0.23000112 -0.115530334 0.114081606
0.08493839 0.15237527 -0.12783922 -0.053354062 -0.25241888 -0.071128055 0.15742733 0.22749175
0.23074254 -0.093032435 0.04672799 -0.124837585 -0.035560947 0.007036669 -0.13564394 -0.1981005
-0.16228673 0.23844065 0.17683078 -0.017294694 0.02959296 0.030211814 0.19544028 0.041974157
0.02586463 0.1545315 -0.045585148 -0.04764762 -0.20131423 0.14515817 -0.22156414 -0.057558153
0.1943942 0.018320296 0.26811713 0.07400284 0.24360982 -0.13779688 0.14339662 -0.21607812
-0.20997488 0.024091944 -0.015719216 0.038994353 0.085202806 -0.20820823 -0.25654143 -0.00048907084
-0.014932308 0.10426475 -0.022870628 -0.21262613 -0.05998744 0.19864377 -0.26055685 0.033061963

module.LSTM_layer.bias_hh_l1 f4 [64]
00000000: f6b0 6cbe 6d0a 4a3d d116 fabd 64e5 73be
00000010: 5c02 363e 1611 c0bd 0348 5ebe 5aca 3abc
00000020: 1f5b 8bbd a9d4 7e3e 3f7d eebc 0972 62be
00000030: 74db 77bd da46 c73d ba65 b8bd 9811 52bd
00000040: 683c fe3c a199 693b a351 0d3c a71d c43d
00000050: 6de4 d8bd 6934 3ebd d8fe 833e 0227 53be
00000060: 6efb 8b3c b86a 13be d302 08be b47d 52be
00000070: b7f0 2cbd d1c9 16be 8feb b0bd a673 2e3e
00000080: f00d 693e 57bf 99bd 1898 c83d f569 32be
00000090: da43 7dbe 765e e9bd bd9e b83d de2e a43c
000000a0: 9ab0 2c3e bc18 58bc c2db e7bd bcc2 9d3d
000000b0: 5d0a 023d abce 20bc 3624 703e 7241 2e3e
000000c0: 7215 023e f842 c93d 9dd6 04be cc04 b5bd
000000d0: ec1b 37be 729e bcbb 8364 56bd 13dd 843d
000000e0: 4206 023d 1e09 1b3e 33d0 ae3d c56e c1bd
000000f0: 37fe 61be 5449 293d 463b 3dbd 2d25 163d
-0.2311438 0.04932635 -0.12211383 -0.23817974 0.17774338 -0.09378259 -0.21707158 -0.011400783
-0.06804489 0.24885811 -0.029112456 -0.22113813 -0.06051202 0.09730311 -0.09003778 -0.05128631
0.031034663 0.0035644548 0.008625421 0.09575968 -0.10590444 -0.0464367 0.25780368 -0.20620349
0.017087664 -0.14396179 -0.13282327 -0.20555764 -0.04222175 -0.14725424 -0.08638679 0.17036304
0.22759223 -0.07507198 0.097946346 -0.17423232 -0.24732915 -0.1139497 0.09014652 0.02004188
0.16864243 -0.013189491 -0.11321212 0.07703158 0.031748164 -0.0098148985 0.23451313 0.17017153
0.12703493 0.098272264 -0.12972493 -0.088388056 -0.17881745 -0.005756193 -0.05234195 0.06487479
0.03174425 0.15140197 0.085358046 -0.09444956 -0.22069632 0.041329697 -0.046199106 0.036656547

module.BN_layer.weight f4 [160]
00000000: e94c 803f 4df9 843f 55c4 823f f17e 803f
00000010: b7cf 7e3f 6a9e 7d3f 54e7 843f 8894 813f
00000020: 609a 803f 253a 7f3f 0916 803f b8ff 823f
00000030: 896d 7d3f e863 803f 281b 7d3f 1f03 7f3f
00000040: 28db 7f3f 996f 7d3f 4b18 7d3f 18e0 7a3f
00000050: 13b2 7e3f 8ab7 7b3f 4023 823f 2cc4 803f
00000060: 5ccd 823f 8438 813f 91bc 823f 2da5 7e3f
00000070: 2d31 803f 2b65 7e3f ae9d 823f 5a81 823f
00000080: 7fe5 7c3f 36d5 783f 0f1a 823f 1a02 813f
00000090: 7fa5 7a3f b286 813f 248a 833f 9479 813f
000000a0: ca8e 7d3f afac 7f3f be9a 7d3f 5337 803f
000000b0: 4b79 803f 8d75 803f 9fec 7f3f 7b6a 803f
000000c0: a51d 7d3f d30b 843f 9d5a 7a3f 910e 7f3f
000000d0: b6b7 7f3f 2341 803f 66c1 833f 6737 7d3f
000000e0: c300 7e3f 0d82 7d3f 7a58 7c3f 307e 833f
000000f0: b622 813f 87b5 823f 712e 813f d775 813f
00000100: 6a58 7f3f 5905 833f 0b33 7c3f 0fb4 803f
00000110: 4724 7f3f 4a9e 803f 62a8 7a3f 1d37 813f
00000120: 706d 803f f9e5 7e3f 28c4 7b3f 535d 7b3f
00000130: c478 823f b700 833f 7b49 833f 8439 7d3f
00000140: 5409 813f df96 813f df41 7d3f 034e 7f3f
00000150: 8667 7b3f c7c4 803f e9bd 823f f22f 823f
00000160: 8ade 803f 1d78 823f 1dd5 7d3f 922e 863f
00000170: c066 803f 1a4b 803f b425 823f 7e70 823f
00000180: bebb 843f 3e25 823f aaa3 7e3f adc9 803f
00000190: eabc 793f 8225 823f 26d3 823f fb46 7a3f
000001a0: 1f55 7d3f 7c09 7e3f 4c3c 7f3f 383d 843f
000001b0: a601 833f 5b19 803f dac5 873f 3c46 823f
000001c0: 6d7a 843f 2545 7b3f 5e47 7f3f f159 7e3f
000001d0: 96f4 7c3f 1476 823f 1b3e 833f 1a09 813f
000001e0: ed6c 7f3f 7d6c 813f 0bbf 813f 15a6 873f
000001f0: d91c 7f3f a2c8 813f c5b2 843f 1ca5 7f3f
00000200: c136 833f b86c 7b3f d120 823f c1a9 7a3f
00000210: cf43 7c3f 17fe 7d3f 4cb8 843f e014 7c3f
00000220: cc7c 843f 99e3 813f 4152 823f 82d3 833f
00000230: 2074 823f 761f 833f 57d4 7a3f 9505 803f
00000240: 4617 843f 911c 843f a37b 833f d351 893f
00000250: 2d97 7c3f 407c 833f 69ee 7b3f 8fc9 833f
00000260: befc 843f 9278 823f 1d3a 7d3f b550 853f
00000270: 0036 813f 313b 813f dc1d 863f fe8c 823f
1.0023471 1.038858 1.0216166 1.003874 0.995357 0.99069846 1.0383096 1.0123453
1.0047112 0.99698097 1.0006725 1.0234289 0.9899526 1.0030489 0.9886956 0.9961414
0.9994378 0.9899841 0.98865193 0.9799819 0.9949047 0.98326933 1.0167007 1.0059867
1.0218921 1.0095372 1.0213796 0.9947079 1.0015007 0.9937312 1.020437 1.0195725
0.98787683 0.97200334 1.0164202 1.0078766 0.97908777 1.0119231 1.0276532 1.0115228
0.99046004 0.9987287 0.9906424 1.0016884 1.0037016 1.0035874 0.9997043 1.0032495
0.9887336 1.0316108 0.97794515 0.996316 0.99889696 1.0019878 1.0293396 0.9891266
0.9921991 0.99026567 0.98572505 1.0272884 1.0088718 1.0211648 1.0092298 1.0114087
0.99744284 1.0236007 0.98515385 1.005495 0.9966473 1.0048306 0.9791318 1.0094944
1.0033398 0.9956966 0.98346186 0.98189276 1.0193105 1.0234593 1.02568 0.98915887
1.0080972 1.0124167 0.98928636 0.9972841 0.9820484 1.0060052 1.0214206 1.0170882
1.0067914 1.0192906 0.9915331 1.0482962 1.0031357 1.0022919 1.0167756 1.019058
1.0369794 1.0167615 0.9946848 1.0061547 0.97553885 1.0167696 1.0220687 0.9776456
0.9895801 0.9923322 0.9970138 1.0331182 1.0234878 1.0007738 1.0607255 1.0177684
1.0349861 0.9815238 0.9971827 0.9935599 0.9881071 1.0192285 1.0253328 1.0080903
0.9977558 1.0111233 1.0136427 1.0597559 0.99653393 1.0139353 1.0367056 0.9986131
1.0251085 0.98212767 1.0166265 0.97915274 0.9854097 0.99215835 1.0368743 0.9846935
1.0350585 1.0147582 1.0181352 1.0298922 1.0191689 1.0243976 0.97980255 1.0001704
1.0319602 1.0321218 1.0272106 1.0728096 0.98668176 1.0272293 0.9841066 1.0295886
1.0389631 1.0193045 0.989168 1.0415255 1.0094604 1.0096189 1.0477862 1.0199277

module.BN_layer.bias f4 [160]
00000000: 95db aa3b e45c 0f3d 628a c33c 7134 053b
00000010: 72bf ab3a dab8 2e3b 0a50 d23c ac43 353c
00000020: 1fbe 5a3c 3c4f 51bc 753f e83b cb45 f93b
00000030: 0da7 03bb 7948 613c 7674 12b9 2f39 423b
00000040: 8d97 18bb 3310 23bc 88e2 46bc 382e 53bc
00000050: c2a8 a5ba da6e 5bbc 176a 273c 6aab 153c
00000060: e5af 9a3c e9a2 fa3a 4907 8b3c d6ac 01bc
00000070: 399e a3bb 6677 1c3c db4d 923c b247 a63c
00000080: fc9e d5bb 3bc8 9dbc d893 853c 5b9a 2fbb
00000090: cb56 84bc d57f b03c 6e4f a73c 49f8 0f3c
000000a0: 4c63 21bc 1168 a6bb 16a4 05bc baba 913b
000000b0: 7446 1bb9 be4d bc3b 4765 383b d6b0 1e3c
000000c0: 7c1d a6bb 9985 a63c fba0 b7bc 7833 0fbb
000000d0: d6c6 2c3a b228 3e3c 092a 863c 5f3b 08bc
000000e0: da21 ffbb 0c9a 15bc d450 2cbc c192 dd3c
000000f0: 6c10 4d3b 5766 943b 8c99 ea3a 3b7b ba39
00000100: d4de 533b a6ef 6d3c af42 70bc cedd 3d3b
00000110: 1e87 32bb 21eb d6bb cf2c 53bc 62ab 8d3c
00000120: 5fb8 b5bb de17 00bb c49d 9dbc 2140 7fbc
00000130: 7277 993b 7292 0bbb 019f 913c dd4a 20bc
00000140: 3cbf ef3b d11d fd3a 5263 42bc 03cc 653a
00000150: 8df4 6ebc 437d d1bb 341d 363c cf10 a13c
00000160: 729d de39 0816 a53c fb9f 40bc 1574 d43c
00000170: fc15 093c 74ef 38bc bf04 883c 4c4e 5f3c
00000180: 9a65 e93c efed 023c 5f1a 1abc a392 203c
00000190: a972 87bc 25fb 4cb9 5dca 243c ce34 9abc
000001a0: 56eb 70bb 500a 27bb 5f3e 30bc e50e c53c
000001b0: 7eeb 373c c7a7 2b3c 1d0f 013d 93ae 603c
000001c0: 8cbf ff3c edd2 50bc 467b bcbb e6b8 beba
000001d0: da27 5abb 99b1 3f3c 0cb1 cd3c 1d31 6f3c
000001e0: 583f f2bb c6a5 9b3c 9086 9ab9 8fdf 1b3d
000001f0: 9017 9c3b 75fb d8bb 240c e93c ad34 8b3b
00000200: 1832 cd3c 0691 33bc f901 f43c 18c2 99bc
00000210: d0e7 49bc d3e2 30bb 954d 0d3d 04b7 6dbc
00000220: 5949 393c 0dce eb3c 2a9a 2f3b d3d6 d33c
00000230: 29a6 103c 5942 153c 227d 31bc 9f88 ba3a
00000240: 559b ce3c 2c31 d13c 5653 0e3d 4722 373d
00000250: fdb6 84bb 834d cf3c 504c 7bbc e7c8 123d
00000260: 7bde 7f3c a6cf 113d 2b07 223b d60e f13c
00000270: 99b3 cd3b ab6f fb3b 4d7a 203d 3450 c23c
0.0052141645 0.035000697 0.023869697 0.0020325447 0.001310332 0.0026660473 0.025672931 0.0110634975
0.013350992 -0.012775239 0.007087643 0.007607197 -0.0020088584 0.013750189 -0.0001396703 0.0029636135
-0.002328369 -0.009952593 -0.01213897 -0.012889437 -0.0012638795 -0.013393128 0.010218165 0.009135107
0.018882701 0.0019122037 0.016971247 -0.007914742 -0.004993227 0.009549951 0.01785939 0.020297859
-0.0065191966 -0.019260516 0.016305849 -0.0026794884 -0.016154667 0.02154533 0.020423617 0.008787223
-0.009850334 -0.0050783237 -0.008156797 0.0044473084 -0.00014808198 0.0057465723 0.0028136538 0.009685716
-0.005069433 0.020327376 -0.022415629 -0.0021850746 0.0006590908 0.011606382 0.016377466 -0.008314936
-0.007786018 -0.009130966 -0.010517318 0.027047517 0.0031290306 0.0045288014 0.0017898544 0.00035568498
0.003232886 0.014522469 -0.014664336 0.0028971317 -0.002724118 -0.0065587913 -0.012889101 0.017293636
-0.0055456604 -0.0019545476 -0.019240268 -0.015579254 0.0046834284 -0.0021297005 0.017776014 -0.009783474
0.007316498 0.0019311254 -0.0118645 0.0008766057 -0.014584673 -0.006393106 0.011115361 0.019661335
0.00042460446 0.020152107 -0.011756892 0.025934258 0.008367058 -0.011287559 0.016603826 0.013629507
0.02849083 0.007991298 -0.009405701 0.009800586 -0.016534166 -0.00019548515 0.010058013 -0.018824007
-0.0036761365 -0.0025488324 -0.010757058 0.024054954 0.011225579 0.010477013 0.031508554 0.013713497
0.031219266 -0.012745601 -0.005752 -0.0014550954 -0.0033287914 0.011700057 0.025108837 0.014599112
-0.007392805 0.018999945 -0.00029473426 0.038055 0.004763551 -0.006621773 0.028448172 0.004248223
0.0250483 -0.010959869 0.029786097 -0.018769309 -0.012323335 -0.0026990667 0.034497816 -0.014508966
0.011308991 0.028784776 0.002679477 0.025859272 0.008828678 0.009110057 -0.010833057 0.001423139
0.025220552 0.025536142 0.034747444 0.044710424 -0.004050134 0.025305515 -0.015338019 0.035836127
0.015617008 0.03559842 0.002472351 0.02942602 0.006277513 0.007673224 0.039179135 0.023719884

module.BN_layer.running_mean f4 [160]
00000000: b915 463d 8191 33bb d5ee 4cbc 1292 99bd
00000010: 0ae2 d9bd 2497 113b 953c bfbc 4c09 693c
00000020: b293 793d e7be 6f3c ba6d 0f3d c21b 213d
00000030: d1d3 9c3d 3375 1bbd ed38 ae3d 869b 3dbc
00000040: cc84 9e3d 1629 57bb a516 e1bc b608 e8bd
00000050: dbee 17be fb24 65ba 8235 18bd 3fb7 fc3c
00000060: ab53 ad3d 3ac2 1b3c 71d6 3e3d 7e01 803d
00000070: f7d0 fc3d 7345 47bd 331b e93d 326a dbbc
00000080: 43e7 bd3d cdc5 483a 1d84 1cbd ee5e 0abe
00000090: d419 2bbe 5aa5 efbb 4a00 35bd d407 303d
000000a0: 258b c33d 5682 b0ba 6f2e 4a3d 7651 983d
000000b0: 4dbd 1a3e 12ef 66bd 15e8 f73d a7f3 17bd
000000c0: 7e95 d13d af5d 1c3b d609 47bd 0b78 19be
000000d0: d8ce 2dbe 7cb0 47bc f776 42bd 107f 463d
000000e0: 9c9a c23d 49bf 10bc 5d37 513d ae19 a23d
000000f0: abaa 2e3e dc48 53bd f764 043e a066 2dbd
00000100: 73b2 dd3d 23fa cbb9 ee82 4abd ff6e 1fbe
00000110: e1f7 2abe c33c 40bc b6ec 52bd d8f3 4b3d
00000120: 09f3 c03d 0fe8 d7bb 8f01 553d 5159 a43d
00000130: 6cc6 343e dcee 39bd 6f75 053e 4eae 53bd
00000140: 8bdd de3d 8383 84bb 0a07 53bd 149a 21be
00000150: 6c24 2bbe 4feb f5bb feca 66bd fe46 683d
00000160: 859c c13d 3acb 45bc 2072 503d d2ed a83d
00000170: 5937 3b3e 0cc0 4fbd c69b 013e a9d3 62bd
00000180: 6f8f ea3d bb6a e3ba 5836 6abd 795c 24be
00000190: b051 2ebe 86f9 51bc 2986 5fbd 3783 5e3d
000001a0: ab6c c73d d8e3 91bc e989 5f3d f7d8 ae3d
000001b0: 59b9 3f3e a0c4 49bd ec22 033e 95ef 64bd
000001c0: 313f ed3d fb64 953b da12 76bd beac 23be
000001d0: 80e9 2ebe 0407 75bc 57f2 62bd a1cf 4a3d
000001e0: 72cc c73d cac9 9dbc a122 603d 5eaf ad3d
000001f0: f034 413e 4d0f 45bd 7826 043e bb1d 5cbd
00000200: 0234 ed3d c08f 483a ee35 6ebd 09e8 26be
00000210: e476 2cbe f56d 53bc 2adc 66bd 821e 623d
00000220: 56fc bf3d a77e 57bc 3555 5b3d 7d42 a73d
00000230: da9f 453e 618e 4ebd 4fc0 073e c816 66bd
00000240: 1de3 ef3d 5cb0 a43b 7df9 73bd 6b9f 23be
00000250: 2394 2fbe 690a 3cbc 9433 65bd 8008 603d
00000260: 66a0 c43d 9cf6 92bc 9022 603d 6e65 a43d
00000270: 9184 423e 5eea 55bd dba3 023e 50b6 60bd
0.04836056 -0.002739996 -0.012508114 -0.07498564 -0.10638817 0.002221533 -0.023344317 0.014223408
0.06093187 0.014632917 0.035016753 0.039333113 0.07657588 -0.037953567 0.085069515 -0.011572724
0.07740173 -0.0032830886 -0.027476618 -0.113297865 -0.1483721 -0.0008741167 -0.037160404 0.030849097
0.08463224 0.009506756 0.046591226 0.062502846 0.123445444 -0.048650216 0.11382141 -0.026784036
0.09272625 0.0007658869 -0.03821193 -0.13512775 -0.16709071 -0.0073134126 -0.04418973 0.042976215
0.09548024 -0.0013466578 0.04936069 0.074374124 0.15111275 -0.05638034 0.12104813 -0.0370976
0.102335915 0.002385955 -0.048593365 -0.14987199 -0.16973436 -0.012188073 -0.047476735 0.04846102
0.09502146 -0.008834668 0.05107819 0.07915054 0.17057292 -0.051583156 0.1292914 -0.0423342
0.10825052 -0.00038905544 -0.04944127 -0.15569685 -0.16696121 -0.011733237 -0.051495276 0.049793094
0.09421355 -0.006588943 0.05200344 0.08024848 0.17653817 -0.04539381 0.13033079 -0.0516799
0.108821 -0.0040439977 -0.051520385 -0.15781432 -0.16713113 -0.0075048576 -0.056345932 0.05670833
0.09453682 -0.012072379 0.050890088 0.082484856 0.18282832 -0.05072026 0.12657079 -0.055377636
0.11453139 -0.0017350534 -0.057180732 -0.160509 -0.17023349 -0.012815839 -0.054571304 0.054324355
0.09737524 -0.01780884 0.05457488 0.085374765 0.18723048 -0.04925978 0.1280629 -0.055892546
0.115843184 0.004559157 -0.060076572 -0.15983865 -0.1708126 -0.014955286 -0.055406895 0.049514417
0.09755792 -0.01926126 0.054720525 0.08480714 0.1886785 -0.048110295 0.129053 -0.05373929
0.11582185 0.0007650815 -0.0581569 -0.16299452 -0.16842228 -0.012904634 -0.05636231 0.055204876
0.09374301 -0.013152755 0.053548057 0.081669785 0.1929926 -0.05042875 0.13256954 -0.05617407
0.1171324 0.0050259065 -0.059564102 -0.15978782 -0.17146353 -0.011477091 -0.05595739 0.054695606
0.09600906 -0.017939858 0.05472046 0.08027159 0.18995883 -0.052225463 0.12757818 -0.054861367

module.BN_layer.running_var f4 [160]
00000000: 9902 163a 8793 b43a 3813 523a 28f7 c03a
00000010: 0275 713a 613e 893a 391b e539 781e 923a
00000020: caa4 063b 3398 153b e8ac 8d3a 6034 203a
00000030: 0162 313a aa81 8e3a c6f2 2e3a 5fb9 253b
00000040: f943 e43a 376c 9c3b bdbe 063b 07b0 503b
00000050: f30b 0a3b c9fb 313b 4dd0 8f3a 407a 073b
00000060: bfcf 7c3b 604d ce3b e839 073b 271d b73a
00000070: de5b a33a e47a 443b 8ef1 b13a 3f7d a93b
00000080: 4b77 6e3b 57d6 083c 99be 723b dd82 a83b
00000090: f566 633b 4b6e 9f3b 374b fa3a de32 213b
000000a0: 9780 9a3b 0ed2 2f3c c5de 613b 63aa 183b
000000b0: 6adf ce3a c738 883b 5141 053b 71fd 103c
000000c0: 2644 b03b ff00 393c 388c 983b 6637 e43b
000000d0: b08a a93b db93 f13b 8cb3 3b3b c269 2e3b
000000e0: 1d1c b53b 014e 763c b58b 8f3b c18d 4b3b
000000f0: ece4 163b 9aa7 a33b def8 473b 264b 383c
00000100: 3cc8 d03b 38c9 643c 9361 ad3b 6785 003c
00000110: 0a7b c13b 25a6 053c f3b1 713b 5ed3 453b
00000120: c4cb c43b 4cd8 923c e7a3 8d3b bc21 643b
00000130: 4b7b 203b 3dd7 bf3b 8288 513b cd3f 463c
00000140: 25f4 e33b cec9 743c 69ea c53b 04a2 023c
00000150: 7244 ca3b a3cf 0d3c 1add 883b 82a4 3a3b
00000160: f768 c63b bff8 9d3c 8924 913b 518a 843b
00000170: da58 333b 425d d03b 5e73 6e3b a5a0 6b3c
00000180: 58d8 003c 8510 7f3c b708 cf3b e8dd 043c
00000190: c757 ef3b 2caf 243c ed9e 893b 8b4a 4b3b
000001a0: d884 ce3b be23 a93c d112 aa3b 1674 9c3b
000001b0: d565 423b 1123 bf3b 0bfc 693b 8f1d 843c
000001c0: 2453 043c 3d48 833c 7195 c93b 4c3b 0f3c
000001d0: 5784 e23b e81f 333c d3d8 913b 6fbc 593b
000001e0: 0410 c03b ef69 a83c f7b5 b63b 4436 963b
000001f0: 61b2 713b db68 e03b ca79 7d3b 28a5 883c
00000200: 5d3c 0a3c 330a 813c 43c3 d33b 7270 123c
00000210: 3a07 f73b 1092 243c bba9 8f3b b7e0 4a3b
00000220: ec48 c63b 7c41 a93c 5526 ad3b 95bd 963b
00000230: 9d60 733b 472d f33b 66f5 873b 7925 8c3c
00000240: 9cf7 093c b347 923c 1b01 e03b 0e7d 073c
00000250: b7ee 023c 583f 343c 6d29 8d3b 38c7 5e3b
00000260: 94fa cb3b 6206 a93c 4781 aa3b 3b4d ab3b
00000270: 3787 773b 6790 e83b b977 993b ac47 843c
0.0005722433 0.0013776877 0.0008013728 0.0014722096 0.0009210856 0.0010470861 0.00043698566 0.0011147996
0.0020545 0.0022826314 0.0010808976 0.000611132 0.0006766618 0.0010872383 0.00066737493 0.0025287492
0.0017415277 0.0047736424 0.0020560466 0.0031843202 0.0021064251 0.0027158132 0.0010972113 0.0020672232
0.0038575975 0.006295845 0.002063388 0.001397048 0.0012463292 0.0029980475 0.0013576017 0.005172401
0.0036387022 0.008351884 0.0037039875 0.0051425532 0.0034698818 0.004865443 0.0019095902 0.002459697
0.004715036 0.010731233 0.0034465056 0.0023294918 0.0015783135 0.004157159 0.002033312 0.008849488
0.0053792177 0.011291741 0.0046553873 0.006964612 0.0051740035 0.007372362 0.0028640954 0.002661333
0.005527033 0.015033246 0.004380668 0.0031059834 0.0023024632 0.004994345 0.0030513327 0.0112483855
0.006371526 0.01396399 0.005291173 0.007844306 0.00590456 0.008157288 0.0036879748 0.00301858
0.006005736 0.017925404 0.004322517 0.0034810146 0.002448755 0.005854516 0.0031972234 0.012100172
0.0069565945 0.014940692 0.0060399068 0.007973198 0.00617271 0.0086554615 0.004176748 0.0028479402
0.0060549933 0.01928365 0.004429404 0.004044809 0.0027366192 0.0063587734 0.0036384682 0.014381562
0.00786408 0.015567903 0.0063181776 0.008109547 0.007304165 0.01005153 0.0041998536 0.0031019773
0.0063024573 0.020646926 0.0051902314 0.0047745807 0.0029662747 0.0058330377 0.0035703208 0.016127376
0.008076463 0.016025657 0.006151848 0.008742165 0.006912749 0.0109329 0.0044508963 0.0033223887
0.005861284 0.020558326 0.005575891 0.0045841057 0.0036880004 0.0068484372 0.0038677328 0.016680315
0.008437243 0.015751934 0.006462486 0.008937942 0.0075387033 0.01004459 0.004384247 0.0030956694
0.0060511734 0.020661108 0.0052841105 0.0046002367 0.0037136443 0.007421169 0.004149127 0.017107712
0.008420851 0.017856454 0.0068360693 0.008269561 0.007991484 0.01100143 0.004307917 0.0033993255
0.0062249396 0.020632926 0.0052033993 0.0052277124 0.0037769803 0.007097292 0.0046834615 0.016147457
